Code/best_pinn_model.pth (torch, 18320 bytes, 17 tensors)

fcs.0.weight f4 [20, 2]
-0.45693412 0.28513354 -0.6164126 0.18891504 -0.105357684 0.18451408 0.15627052 -0.3239313
-0.17768395 1.2940215 0.12663627 0.45236683 -0.34605363 0.9598559 -0.10223168 -0.3651177
0.038878117 -0.2024975 -0.17433295 -0.85025275 -0.06691909 0.08116807 0.14227307 -1.1978219
0.54728955 1.1958419 0.03338723 -0.13762534 -0.5532889 0.4103367 0.6252062 0.46000957
-0.042632706 0.4678628 0.6011596 0.21603133 -0.55438596 -0.92349404 0.40814847 0.23495911
00000000: 45f3 e9be 06fd 913e 37cd 1dbf f272 413e
00000010: c5c5 d7bd 42f1 3c3e 6105 203e 53da a5be
00000020: c8f2 35be 7fa2 a53f f0ac 013e a09c e73e
00000030: f12d b1be 1eb9 753f d85e d1bd b5f0 babe
00000040: a93e 1f3d 815b 4fbe 5684 32be 2aaa 59bf
00000050: e00c 89bd 723b a63d 08b0 113e 3a52 99bf
00000060: 2b1b 0c3f 5911 993f 0cc1 083d a8ed 0cbe
00000070: 57a4 0dbf a717 d23e 830d 203f 6086 eb3e
00000080: a29f 2ebd b78b ef3e 98e5 193f 5137 5d3e
00000090: 3dec 0dbf 1b6a 6cbf d6f8 d03e 1f99 703e

fcs.0.bias f4 [20]
0.21176861 -0.2314913 0.31806165 0.6239342 0.39825925 -0.3292719 0.3521024 0.13649568
0.29892132 -0.34934944 -0.644538 -0.23235978 -0.45405918 0.587478 0.20966408 0.3116016
0.16862781 0.01960629 0.5179768 -0.5159244
00000000: dfd9 583e 0e0c 6dbe fad8 a23e 27ba 1f3f
00000010: a3e8 cb3e 5496 a8be c446 b43e 86c5 0b3e
00000020: 370c 993e eedd b2be 7100 25bf b9ef 6dbe
00000030: 727a e8be f564 163f 2eb2 563e 3f8a 9f3e
00000040: c5ac 2c3e 5f9d a03c 219a 043f 9f13 04bf

fch.0.0.weight f4 [20, 20]
0.026277835 -0.25135338 0.11488613 -0.18725322 -0.15535168 0.37303722 -0.4440158 0.019502953
0.13524482 -0.22516552 0.24298868 -0.03707193 0.2504558 -0.14885502 -0.89302015 -0.030516187
0.17197835 0.095754005 -0.41889593 0.2005243 0.001083411 -0.047057394 -0.3423707 -0.26944122
-0.10777192 0.2640447 0.30442458 -0.20032404 0.073422045 0.25890297 -0.11996181 -0.084835865
0.35879946 0.22441074 -0.039124258 -0.34717703 0.19414054 -0.35175836 0.062193472 0.1261194
0.33441186 -0.310706 -0.06507799 0.14923145 0.48366308 0.1215568 0.5134586 -0.5712688
-0.26325166 -0.25745538 0.0027183637 -0.35211232 0.6165037 -0.21230221 0.15639497 -0.39436808
0.45997325 -0.091631316 -0.6614397 0.115354955 -0.1467577 0.103331126 -0.11038314 0.23343062
-0.27812037 -0.18622857 -0.22313534 0.2859408 0.3010295 0.0880002 0.33591387 0.5403772
-0.3747157 -0.05993903 -0.42686146 0.086573 -0.268266 0.026012218 0.14412183 -0.27351707
-0.16006605 -0.39922327 -0.16384572 0.11577885 0.13051945 0.3519636 -0.25139168 -0.25160006
-0.34015188 -0.07347276 0.108651735 -0.52227503 0.47738993 -0.100140296 0.47842482 0.009213763
0.30569836 0.42244068 -0.24500893 -0.06285417 0.15819366 -0.43454066 0.25608182 -0.1763023
0.37170157 -0.37698802 -0.14869247 0.49989963 -0.09572436 0.30471465 0.22018433 0.36488426
-0.52627885 0.058858596 -0.31315604 0.14662449 -0.28461224 0.23270012 0.1387928 -0.2653455
-0.3983107 0.103422426 -0.108936064 0.2936924 0.13829306 0.2032243 -0.0135331405 -0.3004104
-0.11660979 -0.4083643 0.21727432 -0.35648268 0.34318495 -0.113376364 0.039768983 0.44648668
-0.16538697 0.45810926 -0.111513615 -0.23278114 0.546497 0.39621451 0.37487575 -0.4343458
0.48537463 0.37280554 0.5562108 0.11121853 -0.2685982 0.29078442 0.38027662 -0.36101377
-0.01606812 0.25680158 0.8097191 0.19432276 0.35815588 -0.34417817 -0.09261012 -0.16642697
0.3973449 0.13365695 -0.26990935 -0.04066998 -0.25840622 -0.39272916 0.42801946 -0.1337448
0.17685284 -0.09979743 -0.09160132 -0.07576553 0.22973107 -0.044513755 0.6318961 0.22504896
0.293367 -0.4080183 -0.032194223 -0.40365836 -0.133662 0.042016856 -0.019336255 0.2777361
0.056716412 -0.24352406 -0.36020127 0.32920113 -0.029298516 0.21506964 -0.12351175 0.09431529
0.17689537 -0.33208126 0.2825959 0.0695052 -0.33761442 -0.32225543 -0.12626255 0.1161473
-0.06660266 0.47742346 -0.411636 -0.2692336 -0.26327944 0.10631522 0.039808195 -0.11110012
0.27081463 -0.28227368 0.18419923 -0.18480918 -0.09861823 -0.4221729 -0.14178558 -0.4205358
0.1264424 -0.26112342 0.22117834 -0.20506851 -0.014224998 0.054351207 0.37793756 -0.1386564
0.35563782 0.27015135 0.34031427 -0.1989475 0.12650551 -0.21816432 -0.12545846 -0.07993476
0.5555233 -0.025682693 0.16989796 -0.13060129 0.35418975 0.09447154 -0.52057415 -0.092720926
-0.5169057 0.05288182 -0.25117207 -0.15482287 -0.05104412 -0.0876824 -0.041667677 -0.28836045
0.08397643 0.27631527 -0.20837833 0.2331695 0.12836374 -0.25016105 -0.53992856 0.10456571
00000000: 9d44 d73c 64b1 80be 6b49 eb3d 4fbf 3fbe
00000010: 8314 1fbe bcfe be3e 0a56 e3be a8c4 9f3c
00000020: 9e7d 0a3e ca91 66be 06d2 783e bcd8 17bd
00000030: be3b 803e 736d 18be f89c 64bf 15fd f9bc
00000040: 181b 303e ad1a c43d 8779 d6be 3e56 4d3e
00000050: 3e01 8e3a 41bf 40bd 364b afbe 33f4 89be
00000060: 86b7 dcbd de30 873e 8add 9b3e bf21 4dbe
00000070: 4c5e 963d ee8e 843e 8aae f5bd 6dbe adbd
00000080: 90b4 b73e eecb 653e c240 20bd 30c1 b1be
00000090: c7cc 463e ac19 b4be 95be 7e3d 7225 013e
000000a0: 0838 ab3e db14 9fbe 9c47 85bd 21d0 183e
000000b0: b0a2 f73e c6f2 f83d 0672 033f ac3e 12bf
000000c0: ecc8 86be 31d1 83be 9326 323b 1148 b4be
000000d0: 30d3 1d3f c065 59be 0126 203e 9dea c9be
000000e0: 9d81 eb3e 33a9 bbbd 1d54 29bf 383f ec3d
000000f0: a747 16be 459f d33d 8e10 e2bd 7008 6f3e
00000100: cb65 8ebe b4b2 3ebe 977d 64be d566 923e
00000110: 8a20 9a3e 7339 b43d e7fc ab3e 2956 0a3f
00000120: bcda bfbe a182 75bd 968d dabe 2f4d b13d
00000130: 295a 89be 9317 d53c ac94 133e 6e0a 8cbe
00000140: 5be8 23be fe66 ccbe 2cc7 27be 761d ed3d
00000150: e4a6 053e 9334 b43e 69b6 80be b9d1 80be
00000160: 6328 aebe e378 96bd cd84 de3d d1b3 05bf
00000170: 746c f43e 5b16 cdbd 19f4 f43e 53f5 163c
00000180: 7f84 9c3e 254a d83e 9fe3 7abe b0b9 80bd
00000190: 85fd 213e 1d7c debe 281d 833e 9788 34be
000001a0: ab4f be3e 9304 c1be d742 18be d8f2 ff3e
000001b0: 220b c4bd 8f03 9c3e 0078 613e 1cd2 ba3e
000001c0: 36ba 06bf b615 713d fd55 a0be bb24 163e
000001d0: b2b8 91be f148 6e3e b31f 0e3e 5edb 87be
000001e0: 61ef cbbe 23cf d33d df19 dfbd da5e 963e
000001f0: b29c 0d3e 081a 503e 1bba 5dbc 64cf 99be
00000200: 1dd1 eebd 2015 d1be 297d 5e3e e684 b6be
00000210: f0b5 af3e de31 e8bd cde4 223d e799 e43e
00000220: 345b 29be 4c8d ea3e 4061 e4bd 2e5e 6ebe
00000230: 3ae7 0b3f a1dc ca3e b7ef bf3e 9362 debe
00000240: 0683 f83e 5ee0 be3e d563 0e3f 8ac6 e33d
00000250: b485 89be b2e1 943e 9eb3 c23e ccd6 b8be
00000260: 4aa1 83bc 7f7b 833e c049 4f3f 8cfc 463e
00000270: 3560 b73e 1f38 b0be 60aa bdbd d56b 2abe
00000280: ca70 cb3e 5edd 083e 8f31 8abe 9195 26bd
00000290: d24d 84be cc13 c9be 5e25 db3e 66f4 08be
000002a0: e918 353e 9862 ccbd 7999 bbbd f52a 9bbd
000002b0: 9f3e 6b3e 0e54 36bd f1c3 213f 3c73 663e
000002c0: 3334 963e c6e7 d0be 17de 03bd 4fac cebe
000002d0: b1de 08be de19 2c3d 1167 9ebc 6d33 8e3e
000002e0: 784f 683d 5f5e 79be 4d6c b8be 0d8d a83e
000002f0: 7103 f0bc 373b 5c3e baf3 fcbd 6028 c13d
00000300: 0f24 353e 8e06 aabe 69b0 903e be58 8e3d
00000310: ccdb acbe aafe a4be f84a 01be a3de ed3d
00000320: fa66 88bd d970 f43e f4c1 d2be fdd8 89be
00000330: 90cc 86be cbbb d93d eb0d 233d 7688 e3bd
00000340: 37a8 8a3e 2d86 90be b99e 3c3e 9e3e 3dbe
00000350: 5bf8 c9bd 0c27 d8be 3d30 11be 7850 d7be
00000360: 1e7a 013e f8b1 85be 937c 623e 7bfd 51be
00000370: f70f 69bc 5f9f 5e3d 0881 c13e f1fb 0dbe
00000380: 2916 b63e 4751 8a3e ac3d ae3e e5b8 4bbe
00000390: a98a 013e 7866 5fbe 2f78 00be d6b4 a3bd
000003a0: c636 0e3f 8364 d2bc bbf9 2d3e 58bc 05be
000003b0: 5c58 b53e 4b7a c13d 5944 05bf 78e4 bdbd
000003c0: ef53 04bf 9b9a 583d a099 80be e389 1ebe
000003d0: a413 51bd d592 b3bd baab 2abd fba3 93be
000003e0: d6fb ab3d 3279 8d3e 2161 55be fcc3 6e3e
000003f0: c971 033e 1c15 80be c238 0abf 8c26 d63d

fch.0.0.bias f4 [20]
-0.06266034 0.0027298755 0.09316169 -0.1935858 0.11054204 -0.06579329 -0.16524675 -0.15038575
0.23120923 0.110338196 0.14862491 0.13754606 0.13899466 -0.016741177 -0.0836943 0.098691344
-0.11498798 -0.12506217 -0.08573966 0.009874722
00000000: 1054 80bd b6e7 323b 8ecb be3d 5b3b 46be
00000010: dd63 e23d a2be 86bd 7236 29be b9fe 19be
00000020: 1dc2 6c3e fef8 e13d 2131 183e e0d8 0c3e
00000030: 9e54 0e3e cb24 89bc eb67 abbd b01e ca3d
00000040: d17e ebbd 4c10 00be 4698 afbd 96c9 213c

fch.1.0.weight f4 [20, 20]
-0.016436847 0.09819515 0.10948402 0.50213546 -0.2842942 -0.21257886 -0.019795658 -0.23326463
0.14138176 0.35324195 0.13533181 -0.38989085 0.02392404 0.35580164 0.18631323 -0.418564
0.090343356 -0.33722943 0.072906695 0.453715 0.0651219 0.062375292 0.14046437 -0.00020400967
0.83700526 -0.08142599 0.8238574 0.092109226 -0.20219892 -0.38907453 -0.5395448 0.6754933
0.0075706868 -0.48776457 -0.33971816 0.024894712 -0.31362844 -0.17394894 -0.3576189 -0.8755883
-0.06409868 -0.4626941 0.17192174 -0.26692736 0.06514908 0.25434417 -0.38148436 0.23281
0.30186114 -0.15042071 -0.03386788 0.10946588 0.3036559 0.35086685 -0.35813946 -0.31564927
-0.35048485 -0.2524061 -0.052741226 -0.1630428 0.27885133 -0.6367565 -0.56991017 -0.16448955
-0.006571939 0.50398695 0.32988885 -0.26794294 -0.1716064 -0.42078546 -0.27665797 0.13559884
0.3314217 0.372966 -0.043943908 -0.3139251 -0.37452307 0.3701587 0.00022731574 -0.046556212
-0.14977944 0.29527748 0.1514596 -0.05104385 -0.34875602 0.15964764 -0.28185192 -0.010613857
0.10813096 0.18111782 -0.10419043 -0.2836628 -0.4047751 -0.27274257 0.0435703 -0.19552808
0.04669208 -0.17786945 -0.34552422 0.31154683 0.30375448 0.49615347 1.4471668 -0.6479062
0.10067002 -0.69306713 0.73683345 0.6222381 0.35682446 -0.307395 -0.16145115 0.5804745
-0.3180815 -0.91502506 0.1778408 -0.33175847 -0.11649408 0.2131991 -0.30228388 -0.37128827
-0.29461282 0.5030329 0.309559 -0.21620467 -0.15972751 -0.25475615 -0.3976384 0.3596931
0.120123565 -0.050534096 -0.16263379 -0.21593474 0.17932568 0.041078914 0.011770563 -0.20984311
0.39764538 -0.15704212 -0.4125925 0.59607005 -0.13077796 -0.049813617 -0.21427605 -0.0641154
-0.1224559 0.31111935 0.6917629 -0.46914333 -0.02740794 -0.11489265 -0.33252242 -0.12059147
0.25347304 -0.09626461 0.23231764 0.06737335 -0.09833341 -0.29417655 0.44799462 -0.64046085
0.07072325 0.0023546228 -0.3556638 0.8522702 -0.055741794 0.060027797 -0.75294757 -0.7430804
0.14340572 0.26609084 -0.3565739 -0.031453215 -0.08769845 0.5591511 -0.17010842 0.22779267
0.23669061 0.17582698 1.1905961 0.58755964 0.1898974 -0.16316792 0.12758847 -0.20069057
0.2901709 -0.31551784 0.35336065 0.3867313 0.15974505 0.1882703 -0.018457476 0.29062542
-0.11307156 0.1705697 0.035048347 0.00726361 -0.35531992 0.4545313 -0.3077499 0.19634016
-0.5317446 -0.32023227 -0.03669442 -0.387508 0.019422328 0.0220327 -0.26986077 0.31000325
0.41542995 -0.3406435 -0.3095741 0.25997248 -0.47420734 0.08764758 -0.11975588 0.11248007
-0.14457409 -0.011632414 -0.32895437 -0.084385015 -0.063615635 0.2321826 0.06422456 0.2281032
-0.10903499 0.4469243 0.1618134 -0.15755302 -0.47571418 0.14852561 0.2613489 -0.4932177
-0.18059641 0.19983532 0.54215163 -0.46694568 -0.09349539 0.05612707 -0.045875773 -0.05552936
0.28122213 0.1549265 -0.67856616 0.61022866 -0.45492297 0.3491945 -0.607136 -0.61692315
-0.2397327 0.12383238 0.2570265 -0.380642 0.12331385 0.56779224 -0.04033339 -0.095872074
00000000: 91a6 86bc 8a1a c93d 2839 e03d f38b 003f
00000010: 028f 91be 46ae 59be 812a a2bc ecdc 6ebe
00000020: 61c6 103e 21dc b43e 6c94 0a3e c69f c7be
00000030: 59fc c33c a22b b63e e5c8 3e3e 054e d6be
00000040: f005 b93d 56a9 acbe 1b50 953d 554d e83e
00000050: a15e 853d 3c7d 7f3d e4d5 0f3e 6eeb 55b9
00000060: fa45 563f abc2 a6bd 52e8 523f c3a3 bc3d
00000070: 3c0d 4fbe c734 c7be 9c1f 0abf 21ed 2c3f
00000080: 8613 f83b 47bc f9be 8aef adbe ffef cb3c
00000090: e893 a0be ac1f 32be d319 b7be 8e26 60bf
000000a0: 2b46 83bd 3ee6 ecbe 410c 303e b4aa 88be
000000b0: e16c 853d 6639 823e eb51 c3be bf65 6e3e
000000c0: 8b8d 9a3e e307 1abe 0cb9 0abd a62f e03d
000000d0: c978 9b3e d2a4 b33e 0e5e b7be c89c a1be
000000e0: c072 b3be 5f3b 81be 2f07 58bd b1f4 26be
000000f0: 9ac5 8e3e 7902 23bf a2e5 11bf f36f 28be
00000100: 6c59 d7bb 4a05 013f 31e7 a83e d12f 89be
00000110: 97b9 2fbe 3171 d7be 1da6 8dbe 6cda 0a3e
00000120: 1bb0 a93e 66f5 be3e 87fe 33bd caba a0be
00000130: 7dc1 bfbe 7185 bd3e 9b5b 6e39 bab1 3ebd
00000140: c85f 19be 9c2e 973e 3a18 1b3e 5b13 51bd
00000150: 2690 b2be ac7a 233e e54e 90be bee5 2dbc
00000160: c473 dd3d f376 393e cb61 d5bd 403c 91be
00000170: af3e cfbe eaa4 8bbe c576 323d 8338 48be
00000180: 3240 3f3d 6923 36be 8de8 b0be 1183 9f3e
00000190: b585 9b3e d407 fe3e c33c b93f 2edd 25bf
000001a0: 152c ce3d d96c 31bf 1ea1 3c3f ff4a 1f3f
000001b0: b2b1 b63e e162 9dbe 7353 25be fa99 143f
000001c0: 94db a2be 153f 6abf e61b 363e 3fdc a9be
000001d0: 7394 eebd dd50 5a3e f4c4 9abe 7f19 bebe
000001e0: 7ed7 96be c4c6 003f 847e 9e3e c264 5dbe
000001f0: 9c8f 23be 666f 82be 4397 cbbe b229 b83e
00000200: 5803 f63d d7fc 4ebd 7989 26be ff1d 5dbe
00000210: 27a1 373e 5d42 283d 52d9 403c 1de1 56be
00000220: 2d98 cb3e a6cf 20be 533f d3be 0c98 183f
00000230: a8ea 05be 5d09 4cbd 2e6b 5bbe ef4e 83bd
00000240: 29ca fabd 094b 9f3e 6017 313f 8e33 f0be
00000250: 9e86 e0bc d64c ebbd 6140 aabe a9f8 f6bd
00000260: 38c7 813e 6126 c5bd ade4 6d3e 0afb 893d
00000270: 0763 c9bd 4f9e 96be 8d5f e53e 3ef5 23bf
00000280: 5ad7 903d 0450 1a3b 9119 b6be 612e 5a3f
00000290: 8251 64bd b5df 753d 2cc1 40bf 843a 3ebf
000002a0: f3d8 123e 0f3d 883e db90 b6be 16d5 00bd
000002b0: 3f9b b3bd 8724 0f3f e730 2ebe 7b42 693e
000002c0: 065f 723e fd0b 343e 7465 983f 4f6a 163f
000002d0: 7774 423e 7e15 27be 8da6 023e d481 4dbe
000002e0: 4891 943e 8e8b a1be b0eb b43e a501 c63e
000002f0: 3594 233e eec9 403e 2234 97bc dbcc 943e
00000300: 1092 e7bd d3a9 2e3e db8e 0f3d 9403 ee3b
00000310: 7eec b5be 54b8 e83e 6591 9dbe 650d 493e
00000320: 6a20 08bf 7cf5 a3be e34c 16bd 7367 c6be
00000330: 931b 9f3c ec7d b43c 312b 8abe bfb8 9e3e
00000340: 3cb3 d43e d368 aebe 7f80 9ebe 1d1b 853e
00000350: 4ecb f2be 9380 b33d 9242 f5bd f35b e63d
00000360: 3b0b 14be e195 3ebc b56c a8be 0dd2 acbd
00000370: ea48 82bd 47c1 6d3e 2b88 833d e393 693e
00000380: bd4d dfbd 43d3 e43e 69b2 253e 9455 21be
00000390: cf90 f3be 1917 183e 86cf 853e 0887 fcbe
000003a0: 44ee 38be a1a1 4c3e 73ca 0a3f 8113 efbe
000003b0: 837a bfbd 80e5 653d 3ce8 3bbd c172 63bd
000003c0: 59fc 8f3e 0da5 1e3e 83b6 2dbf f237 1c3f
000003d0: aaeb e8be 9fc9 b23e 446d 1bbf adee 1dbf
000003e0: 7d7c 75be d59b fd3d fa98 833e 82e3 c2be
000003f0: f98b fc3d d55a 113f a034 25bd 9458 c4bd

fch.1.0.bias f4 [20]
0.038806815 0.031053444 0.09311711 0.1703877 0.13890734 0.17841297 0.05762398 -0.018662862
-0.18106756 -0.0006418061 0.019739475 -0.2489481 -0.036967527 -0.008231567 0.23083436 0.08371423
-0.108097374 -0.18555512 -0.0151340095 -0.0995734
00000000: e5f3 1e3d cb63 fe3c 2fb4 be3d 1d7a 2e3e
00000010: ba3d 0e3e e4b1 363e 1f07 6c3d dce2 98bc
00000020: c669 39be e13e 28ba aeb4 a13c 40ec 7ebe
00000030: 436b 17bd b2dd 06bc d85f 6c3e 5e72 ab3d
00000040: 2862 ddbd 2902 3ebe a3f4 77bc 24ed cbbd

fch.2.0.weight f4 [20, 20]
0.18563174 0.14634885 0.31432772 0.059064705 0.009963162 -0.07474476 0.025826667 -0.21685228
0.0012864121 -0.3926483 -0.28646776 -0.28412777 0.35777262 -0.2768494 0.030587934 0.031712916
0.3587684 0.1303063 -0.3497322 0.3207087 -0.43028283 0.10012732 0.39091998 0.3642503
-0.21251324 -0.27942967 0.08988265 0.51056063 -0.15356995 -0.008459819 -0.19456556 0.13410059
0.08703883 0.25126433 -0.2007584 -0.44566137 -0.17374012 -0.5599221 -0.0687406 0.12414605
-0.31542313 0.039106436 -0.31799075 -0.3665852 -0.17520024 -0.09958114 -0.10193154 -0.039721206
0.23071249 0.3323477 0.1350811 -0.060671516 -0.1001465 0.29158375 -0.15722552 0.34194764
-0.3667981 -0.1707151 0.16575323 -0.18247941 0.093928054 0.34338585 0.16037494 0.12253136
0.054977037 -0.15329097 0.084206365 -0.17820595 -0.2682603 0.021181138 0.44067362 -0.1738126
0.19921447 0.19786716 0.5887191 0.13254425 -0.28096625 0.15731826 -0.174535 -0.6255359
0.41336894 0.27328447 -0.38762355 0.27355742 0.09014555 0.0894869 0.34510073 -0.088814706
-0.08544952 0.09607983 -0.23766486 -0.007912865 -0.10635605 0.31513405 0.2530677 0.07191745
0.09647629 0.0918778 -0.33086613 0.18612653 -0.32927635 -0.03313574 -0.06074492 -0.46059263
0.41917193 0.20306975 0.34591448 -0.43748075 -0.06479984 0.31040224 0.20606467 -0.1346825
-0.09431581 -0.22714491 0.15238754 0.31151566 0.089530624 0.4398023 0.40241057 0.3656905
0.07035445 0.11340941 0.118898526 -0.18314792 0.07571632 0.14745264 -0.30781412 -0.13054848
-0.33788216 -0.2146253 0.24934787 0.30405122 -0.07112272 0.124768026 -0.17317377 0.077181056
-0.08949206 -0.17242378 -0.11192263 0.45609382 0.039066706 -0.20234466 0.08141072 -0.41343185
0.061302636 0.36480471 0.11478624 0.052980617 -0.457258 -0.0067406194 0.33263823 -0.31843668
-0.3382726 0.30089185 0.18437313 0.19618417 -0.39299002 0.24550499 0.029418496 -0.03633145
0.34523353 -0.43358704 0.09814028 -0.6979103 0.34451815 0.0685192 0.104141004 -0.26558226
0.15112075 -0.23717919 0.07052494 0.34815007 -0.26704228 -0.21969809 0.115569696 0.21132319
-0.031256035 0.5602599 -0.13867815 0.096789904 0.26310736 -0.03329163 0.2432809 0.42616352
0.3297475 -0.19755654 0.33368424 -0.11230677 0.29154947 -0.04476297 0.2744737 -0.27328908
0.12620866 -0.3955221 0.60771793 0.14442816 -0.30856174 -0.037940033 -0.028551131 -0.110928185
0.21850434 0.6273967 0.095780514 0.28684714 -0.3593084 0.5200707 -0.008437603 0.1835856
-0.13392806 0.14134729 0.29175147 -0.26820403 0.010607145 0.45229542 -0.13218197 0.088234246
-0.39213118 -0.24766423 0.38868466 0.22836983 -0.3843493 0.22321372 0.09106144 0.4581552
-0.1351347 -0.16065837 -0.19447736 -0.153326 -0.023238432 -0.34706813 0.36744565 -0.18263474
0.17615074 -0.11979218 0.22140445 -0.31808993 0.3365098 0.4060042 0.29519716 -0.28426665
0.1719064 -0.34866145 0.27141783 0.033153 -0.36923727 -0.35688677 -0.40261373 0.124384075
-0.11943036 -0.15747938 0.32572493 -0.18965495 0.12776138 -0.059680033 0.15266989 0.10463531
00000000: 3f16 3e3e 79dc 153e 90ef a03e d5ed 713d
00000010: 883c 233c c813 99bd 7292 d33c 860e 5ebe
00000020: d49c a83a 3309 c9be e7ab 92be 3279 91be
00000030: f92d b73e 34bf 8dbe 8c93 fa3c 67e5 013d
00000040: 7eb0 b73e 046f 053e 1910 b3be ee33 a43e
00000050: 084e dcbe 8d0f cd3d aa26 c83e 047f ba3e
00000060: 129d 59be 6811 8fbe 6514 b83d 1ab4 023f
00000070: 7141 1dbe 0d9b 0abc 323c 47be aa51 093e
00000080: 6a41 b23d b8a5 803e 9c93 4dbe ba2d e4be
00000090: eee8 31be 0e57 0fbf dfc7 8cbd 4940 fe3d
000000a0: 247f a1be 122e 203d afcf a2be 0eb1 bbbe
000000b0: b167 33be 32f1 cbbd 7cc1 d0bd b4b2 22bd
000000c0: e53f 6c3e 7a29 aa3e b352 0a3e b282 78bd
000000d0: 9c19 cdbd 774a 953e baff 20be c313 af3e
000000e0: f6cc bbbe f0cf 2ebe 37bb 293e e2db 3abe
000000f0: 5a5d c03d 45d0 af3e 5439 243e b9f1 fa3d
00000100: 9a2f 613d 4ff8 1cbe 6374 ac3d 9f7b 36be
00000110: 6a59 89be 1184 ad3c f99f e13e eefb 31be
00000120: e1fe 4b3e b09d 4a3e 4cb6 163f aeb9 073e
00000130: cfda 8fbe 0a18 213e 4eb9 32be 1f23 20bf
00000140: 18a5 d33e f1eb 8b3e 9876 c6be b80f 8c3e
00000150: 3b9e b83d e844 b73d 0bb1 b03e 7ce4 b5bd
00000160: 2800 afbd 80c5 c43d 6b5e 73be f6a4 01bc
00000170: 33d1 d9bd 4059 a13e 1792 813e 7549 933d
00000180: 5c95 c53d 6e2a bc3d 4967 a9be f497 3e3e
00000190: e996 a8be 57b9 07bd aacf 78bd ccd2 ebbe
000001a0: b49d d63e 84f1 4f3e b41b b13e 7afd dfbe
000001b0: c7b5 84bd 0bed 9e3e 9e02 533e 36ea 09be
000001c0: a628 c1bd ad98 68be 7b0b 1c3e fb7e 9f3e
000001d0: d55b b73d c42d e13e c208 ce3e c93b bb3e
000001e0: fe15 903d 3143 e83d 1281 f33d 218b 3bbe
000001f0: 2811 9b3d d3fd 163e d099 9dbe 80ae 05be
00000200: e4fe acbe bcc6 5bbe 0c55 7f3e 9aac 9b3e
00000210: caa8 91bd 6186 ff3d 7754 31be 1a11 9e3d
00000220: 9d47 b7bd dc8f 30be b137 e5bd 2185 e93e
00000230: 6904 203d 7033 4fbe aaba a63d 57ad d3be
00000240: 7918 7b3d afc7 ba3e 0c15 eb3d 3402 593d
00000250: b81d eabe 6ae0 dcbb 8f4f aa3e 220a a3be
00000260: 1132 adbe 7f0e 9a3e 4fcc 3c3e 81e4 483e
00000270: fd35 c9be a965 7b3e 0fff f03c 49d0 14bd
00000280: 73c2 b03e 1fff ddbe c5fd c83d 40aa 32bf
00000290: af64 b03e cb53 8c3d e147 d53d 66fa 87be
000002a0: 66bf 1a3e 1adf 72be 616f 903d ba40 b23e
000002b0: c4b9 88be 89f8 60be ceaf ec3d 1b65 583e
000002c0: 5406 00bd 316d 0f3f a501 0ebe c939 c63d
000002d0: 02b6 863e ce5c 08bd a11e 793e 1b32 da3e
000002e0: aad4 a83e 434c 4abe a9d8 aa3e 1801 e6bd
000002f0: f945 953e 6059 37bd d187 8c3e 8cec 8bbe
00000300: d83c 013e df81 cabe 6793 1b3f fae4 133e
00000310: cefb 9dbe 0267 1bbd 10e4 e9bc 512e e3bd
00000320: 9abf 5f3e 129d 203f 9328 c43d a1dd 923e
00000330: 45f7 b7be 5a23 053f df3d 0abc ddfd 3b3e
00000340: 7024 09be 58bd 103e 7360 953e 0a52 89be
00000350: 97c9 2d3c 4493 e73e b65a 07be 28b4 b43d
00000360: 6bc5 c8be b19b 7dbe ad01 c73e c8d9 693e
00000370: 6ec9 c4be 2392 643e 6c7e ba3d 5293 ea3e
00000380: c060 0abe a183 24be 1325 47be 7e01 1dbe
00000390: 865e bebc eab2 b1be d621 bc3e 9a04 3bbe
000003a0: dc60 343e 9a55 f5bd d9b7 623e afdc a2be
000003b0: 034b ac3e c8df cf3e 1524 973e 668b 91be
000003c0: 3b08 303e c183 b2be 47f7 8a3e 71cb 073d
000003d0: ab0c bdbe ddb9 b6be 6323 cebe 14bd fe3d
000003e0: e897 f4bd 4642 21be 6bc5 a63e e834 42be
000003f0: e1d3 023e 0d73 74bd 7f55 1c3e 0a4b d63d

fch.2.0.bias f4 [20]
-0.13786796 0.048563242 0.056106895 0.02250664 -0.20121881 0.12733176 0.13627687 -0.11451566
-0.017322728 0.008988852 0.08399896 0.28589743 0.14229888 -0.19611791 0.20169172 -0.08496393
-0.09034182 0.028926684 -0.13626824 0.034272533
00000000: 422d 0dbe 40ea 463d 58d0 653d d85f b83c
00000010: 4e0c 4ebe 4263 023e 2a8c 0b3e 3087 eabd
00000020: 65e8 8dbc fa45 133c a607 ac3d 2661 923e
00000030: ccb6 113e 22d3 48be 4688 4e3e 9201 aebd
00000040: 2205 b9bd a7f7 ec3c e789 0bbe 5b61 0c3d

fch.3.0.weight f4 [20, 20]
-0.18598184 -0.2973156 0.25792268 -0.2519015 0.2756052 -0.43343446 0.030653752 -0.31662586
0.22330944 0.31773853 0.13947588 -0.23650338 -0.34875563 -0.1330831 -0.23749119 0.450668
-0.2649159 0.37233272 0.33138734 0.17953871 -0.3382315 0.034683436 -0.11624058 0.25570053
0.017412316 -0.07248496 0.37804922 0.037319805 0.08858773 -0.13810536 0.28670013 0.05465559
-0.11084393 0.096400425 -0.27275157 0.0592361 0.21687305 -0.5510935 -0.20903265 0.2440174
0.017834794 0.029733924 0.016208462 -0.13880989 0.39417642 -0.06360737 -0.1531384 0.17774299
-0.4092592 0.020457901 0.07272705 -0.121990375 0.21368903 -0.3960116 -0.16466089 -0.15867808
0.4180112 0.058249887 -0.3709407 0.1122297 -0.04375529 0.42244568 0.14702947 -0.17081393
0.41987202 -0.11799169 -0.19378208 0.07351748 0.39483663 0.26814914 -0.25722587 -0.012721193
0.44441798 -0.5020514 -0.12664025 -0.16232678 -0.074353404 -0.26721242 -0.12306886 -0.0051606977
0.5153712 0.25182316 -0.009210082 0.029276134 0.20468767 -0.34747523 0.20300992 -0.4031673
0.31923732 -0.22640303 0.03878401 -0.03021523 0.26670784 0.23771612 -0.32752255 0.078701876
0.11768084 -0.15213627 -0.21347518 -0.2280481 -0.08794014 -0.005271812 0.0021150569 -0.0069391034
-0.0792336 0.18373378 0.053199217 -0.26877406 -0.113788426 -0.25830302 -0.23431045 -0.38784653
0.14016253 -0.32562575 0.087519065 0.119876415 -0.29453173 -0.33873308 -0.42032635 -0.0018748101
0.019115714 -0.19023398 0.23422217 0.316199 -0.3087934 0.045100074 -0.312277 0.012758427
0.17594844 0.07641252 -0.23600647 0.34524798 -0.40012136 -0.21192442 0.16466439 0.34801564
0.508029 -0.033554867 0.11356218 -0.39497536 -0.0354882 -0.08131825 0.08628857 -0.2781706
0.012810109 0.12481238 0.37261742 -0.11868403 0.30254516 -0.42483097 -0.1213595 0.17208873
0.16545382 0.3588228 -0.31822863 0.17025223 -0.46869704 -0.3103209 -0.051585063 -0.27403578
-0.35979396 -0.39026886 0.2965572 0.05028976 -0.08344715 -0.01683196 -0.2652196 -0.37377578
-0.21492532 -0.4052003 0.295872 -0.15462291 -0.14319517 -0.3786999 0.12794256 0.012595012
-0.2866041 0.27379733 0.33700934 -0.26045164 0.17820184 -0.09148509 0.027135428 0.28142545
-0.04134433 0.4226655 0.33517936 -0.15446177 -0.27502838 -0.38255647 0.204095 -0.2877902
-0.38408846 -0.25899458 -0.35068512 -0.2683116 0.4528194 0.043175615 0.4576775 -0.16853033
0.10788988 -0.68261266 -0.4501691 -0.5481935 -0.0625059 -0.10866555 -0.22317976 0.7255136
0.7637272 0.5289727 -1.3117132 -0.45452598 0.28582686 0.20907812 -0.15745118 -0.43513688
-0.79799056 0.2729305 0.4656634 -0.5365096 -0.32186285 0.124445535 0.2654454 -0.18384524
-0.010620008 0.32611296 -0.522673 -0.30759168 0.3828569 0.066934824 0.02626739 -0.10287757
0.119118765 0.27056327 -0.019615224 -0.23422794 -0.435774 0.16409706 0.2007918 -0.42299986
-0.121426076 0.3296056 -0.08718813 -0.10224676 -0.1178327 -0.045697507 -0.013059752 -0.34209007
0.07828131 -0.09144043 -0.0155045055 -0.018993117 0.21023846 -0.2437381 -0.3867945 -0.3060466
00000000: 0672 3ebe c039 98be 710e 843e 3cf9 80be
00000010: 201c 8d3e 1feb ddbe 941d fb3c c91c a2be
00000020: 3bab 643e a0ae a23e c4d2 0e3e f12d 72be
00000030: 1990 b2be f046 08be e430 73be f5bd e63e
00000040: 0fa3 87be 65a2 be3e 9aab a93e ffd8 373e
00000050: ae2c adbe 3810 0e3d 8b0f eebd 2eeb 823e
00000060: 46a4 8e3c ff72 94bd ab8f c13e a7dc 183d
00000070: 7c6d b53d 7e6b 0dbe 5cca 923e 8ade 5f3d
00000080: 2402 e3bd 966d c53d 18a6 8bbe 8ea1 723d
00000090: f813 5e3e 7714 0dbf a80c 56be b3df 793e
000000a0: 461a 923c 8f94 f33c 9cc7 843c 2e24 0ebe
000000b0: 7ed1 c93e 9544 82bd 50d0 1cbe 4202 363e
000000c0: 6c8a d1be 5497 a73c ebf1 943d 17d6 f9bd
000000d0: 4cd1 5a3e 08c2 cabe dd9c 28be 827c 22be
000000e0: 9005 d63e 6f97 6e3d f0eb bdbe afd8 e53d
000000f0: bf38 33bd cd4a d83e e58e 163e d9e9 2ebe
00000100: 77f9 d63e a1a5 f1bd cf6e 46be 5590 963d
00000110: 0728 ca3e d84a 893e 1cb3 83be 8d6c 50bc
00000120: c18a e33e 7186 00bf fbad 01be fe38 26be
00000130: 9946 98bd 11d0 88be 870b fcbd 121b a9bb
00000140: 5eef 033f f7ee 803e e2e5 16bc 81d4 ef3c
00000150: a599 513e 46e8 b1be d5e1 4f3e f26b cebe
00000160: 1373 a33e 32d6 67be fbdb 1e3d ee85 f7bc
00000170: ee8d 883e db6b 733e 09b1 a7be 732e a13d
00000180: a702 f13d 9cc9 1bbe 3d99 5abe 7185 69be
00000190: f619 b4bd 2abf acbb c49c 0a3b 6b61 e3bb
000001a0: 3a45 a2bd b524 3c3e 6ce7 593d c19c 89be
000001b0: e809 e9bd 4b40 84be 14ef 6fbe d293 c6be
000001c0: c486 0f3e 6bb8 a6be 323d b33d c481 f53d
000001d0: ddcc 96be 6c6e adbe 0435 d7be 30bc f5ba
000001e0: 8f98 9c3c b2cc 42be f0d7 6f3e d6e4 a13e
000001f0: 2b1a 9ebe dbba 383d c5e2 9fbe b908 513c
00000200: d42b 343e 2b7e 9c3d aeab 71be 58c4 b03e
00000210: b5dc ccbe b702 59be c89d 283e 1b2f b23e
00000220: 300e 023f d470 09bd 4a93 e83d 363a cabe
00000230: 135c 11bd 2f8a a6bd 10b8 b03d 606c 8ebe
00000240: 7ee1 513c a29d ff3d b6c7 be3e 9d10 f3bd
00000250: 33e7 9a3e 7283 d9be 548b f8bd 0738 303e
00000260: ba6c 293e 9fb7 b73e ddee a2be 9a56 2e3e
00000270: 0ff9 efbe 62e2 9ebe dc4a 53bd 6b4e 8cbe
00000280: ea36 b8be 52d1 c7be 58d6 973e a3fc 4d3d
00000290: 57e6 aabd 2ee3 89bc ddca 87be 8a5f bfbe
000002a0: 6215 5cbe 6a76 cfbe 897c 973e 7855 1ebe
000002b0: c1a1 12be f4e4 c1be 6003 033e 4f5b 4e3c
000002c0: c6bd 92be 2a2f 8c3e 7d8c ac3e eb59 85be
000002d0: 8b7a 363e 895c bbbd 1e4b de3c ff16 903e
000002e0: ac58 29bd 9d67 d83e a19c ab3e 3a2b 1ebe
000002f0: 85d0 8cbe 71de c3be 48fe 503e 3d59 93be
00000300: 3ea7 c4be f09a 84be 008d b3be 2360 89be
00000310: f2d7 e73e ead8 303d b554 ea3e 3793 2cbe
00000320: 5ff5 dc3d b4bf 2ebf 907c e6be 6956 0cbf
00000330: 1803 80bd 0b8c debd 3c89 64be 42bb 393f
00000340: a083 433f c16a 073f 38e6 a7bf a1b7 e8be
00000350: e657 923e 9318 563e e23a 21be 43ca debe
00000360: 1c49 4cbf 8cbd 8b3e 6f6b ee3e b158 09bf
00000370: 35cb a4be 4ddd fe3d 76e8 873e ed41 3cbe
00000380: 8bff 2dbc 47f8 a63e e6cd 05bf a87c 9dbe
00000390: d205 c43e 2015 893d b62e d73c 7ab1 d2bd
000003a0: 8af4 f33d 4587 8a3e 1bb0 a0bc 73d9 6fbe
000003b0: c51d dfbe 0f09 283e 5e9c 4d3e 7093 d8be
000003c0: 3cae f8bd 11c2 a83e b18f b2bd c066 d1bd
000003d0: 4552 f1bd 4f2d 3bbd 92f8 55bc 6e26 afbe
000003e0: f451 a03d 1f45 bbbd 9c06 7ebc 7497 9bbc
000003f0: c048 573e 7b96 79be ee09 c6be 24b2 9cbe

fch.3.0.bias f4 [20]
-0.024470296 0.11492949 -0.21402816 -0.154775 -0.13898759 0.1206963 0.17898412 -0.1359203
0.04695064 -0.12405149 -0.3337107 0.2554378 0.09424105 0.048935577 -0.003995013 0.018459892
-0.046936214 -0.083793454 -0.21110758 0.13595772
00000000: ee75 c8bc 2760 eb3d 332a 5bbe 567d 1ebe
00000010: c352 0ebe 9f2f f73d 9d47 373e b12e 0bbe
00000020: 504f 403d b50e febd 21dc aabe bec8 823e
00000030: 7401 c13d ac70 483d 99e8 82bb 3339 973c
00000040: 3040 40bd e79b abbd 962c 58be 8038 0b3e

fch.4.0.weight f4 [20, 20]
0.031041224 -0.106791325 0.34220213 0.063069895 -0.43128306 0.45275813 0.24055324 -0.2409054
-0.021537846 -0.19668967 0.2296656 0.07612455 0.08030647 -0.23061973 0.047568213 0.33283874
0.56962466 -0.27349252 0.23903775 -0.1332183 -0.04006511 -0.23560043 0.138722 0.07759769
-0.24795665 0.32948968 0.39058438 -0.3513439 0.14498587 -0.23128547 -0.06656251 0.09579961
0.0049499962 -0.08619587 -0.122876294 0.36632925 0.30310574 0.027439356 0.12253661 0.3326485
0.22595698 0.117847115 0.3001576 0.25050315 -0.0961101 0.013022296 0.43732056 -0.13517362
-0.091205224 0.6010738 -0.117758594 -0.5218132 0.064533345 -0.4999212 -0.3725162 0.07651214
0.55098563 -0.15607423 0.5339396 0.45745316 0.21286471 -0.31275183 -0.3119441 0.036550216
0.42651397 -0.03407563 0.01747893 0.23162697 -0.23274721 -0.4424557 0.45963812 0.08121753
0.29544565 -0.18491241 -0.13991179 0.29311517 -0.39424646 0.22234297 -0.3542983 0.33927304
-0.17934251 -0.0048161973 -0.3069172 -0.22257414 -0.28307688 -0.10280773 -0.12925123 -0.14787196
0.42897958 0.04525522 0.38976243 -0.07383563 0.04647738 1.021246 -0.40301847 -0.6635006
-0.772233 -0.054915305 0.04062148 0.18831459 -0.15014176 0.15828092 -0.04575078 0.0062627657
-0.16787653 -0.23856412 -0.110187925 0.06522891 0.27119914 -0.33804563 -0.51004994 -0.5001555
0.15675354 0.27287346 -0.48025468 0.083280936 0.24890414 -0.23720424 0.19785507 0.26882103
0.514382 0.12359178 -0.060304802 -0.22446969 -0.16742772 -0.010475998 -0.058716573 0.3167037
-0.31084102 0.013195068 -0.16989136 0.060597744 0.39929953 0.06482997 -0.05936252 -0.16151579
-0.48771617 -0.32951763 0.14536281 -0.30547088 0.2230657 -0.14095852 0.17066705 0.42701364
0.20436087 0.24403445 0.19327986 -0.027824346 0.24233828 -0.44469032 0.4820476 -0.11373912
0.21715124 0.121710785 0.030553853 0.31396925 -0.26185054 -0.09950797 0.33192226 -0.22161256
-0.02048159 0.54579437 0.3386825 -0.24773613 -0.16754045 -0.21189521 -0.11790232 -0.13791938
-0.18567167 0.3163543 0.12959206 -0.14751916 -0.17951816 0.12506016 -0.08453671 0.348472
0.861061 -0.18672438 -0.30198586 0.43301255 -0.4593499 0.39117658 -0.29190525 0.051289972
0.107475966 -0.17029352 0.33581802 -0.37846506 -0.17868039 -0.013216298 0.27937898 0.15617545
0.2047436 0.09940646 0.35582566 -0.048403982 0.051192418 -0.07501835 0.17567638 -0.075473614
0.16498375 0.07139928 0.04474438 0.34628367 0.022404509 0.33412853 -0.06162639 -0.37759352
0.2856796 0.14886948 0.27167612 0.17339352 -0.0060158456 -0.50123894 -0.2913023 -0.040525556
0.6464487 -0.06847678 -0.094179355 0.1841131 -0.33650002 0.15694508 -0.3213373 -0.36839682
-0.2318211 -0.13083567 0.14951108 0.18176544 -0.27482146 -0.0074503366 0.08787682 -0.11458206
-0.023164164 0.19112916 -0.11269954 0.23410146 0.5173434 0.11700869 -0.08496101 -0.21674165
-0.8487243 -0.486333 -0.27189705 0.33722514 -0.12601066 0.42360812 -0.118303 0.055998124
-0.21785188 -0.4375281 1.0835758 0.7898838 0.026209654 0.3674983 0.28882885 -0.024005268
00000000: 2a4a fe3c 69b5 dabd 1e35 af3e ca2a 813d
00000010: 22d1 dcbe eacf e73e 9753 763e e8af 76be
00000020: 2370 b0bc 0469 49be 762d 6b3e 30e7 9b3d
00000030: b877 a43d 9427 6cbe e3d6 423d d769 aa3e
00000040: ecd2 113f 3607 8cbe 50c6 743e 616a 08be
00000050: 501b 24bd 3d41 71be 240d 0e3e 8aeb 9e3d
00000060: 59e8 7dbe dfb2 a83e adfa c73e 59e3 b3be
00000070: 2d77 143e 19d6 6cbe ed51 88bd 9632 c43d
00000080: 9433 a23b 7687 b0bd 91a6 fbbd 828f bb3e
00000090: ad30 9b3e 80c8 e03c 79f4 fa3d e750 aa3e
000000a0: 4461 673e d459 f13d 42ae 993e f341 803e
000000b0: 5fd5 c4bd 785b 553c 7be8 df3e f46a 0abe
000000c0: cec9 babd f9df 193f 6b2b f1bd 8d95 05bf
000000d0: 0f2a 843d acf5 ffbe 72ba bebe 66b2 9c3d
000000e0: 650d 0d3f ecd1 1fbe 44b0 083f 4d37 ea3e
000000f0: 35f9 593e 0221 a0be 23b7 9fbe aeb5 153d
00000100: 0a60 da3e e392 0bbd f92f 8f3c 9f2f 6d3e
00000110: 4955 6ebe 8e89 e2be b055 eb3e 6055 a63d
00000120: a744 973e ae59 3dbe 0945 0fbe 3113 963e
00000130: acda c9be e0ad 633e 9666 b5be 32b5 ad3e
00000140: 90a5 37be 31d1 9dbb 4024 9dbe 7aea 63be
00000150: 74ef 90be dc8c d2bd 6f5a 04be bf6b 17be
00000160: 36a3 db3e 8a5d 393d f18e c73e 2337 97bd
00000170: 115f 3e3d 30b8 823f 7058 cebe 2ddb 29bf
00000180: 10b1 45bf dfee 60bd b662 263d 8ad5 403e
00000190: c3be 19be 6514 223e 2b65 3bbd e337 cd3b
000001a0: d3e7 2bbe 274a 74be 35aa e1bd bc96 853d
000001b0: 9dda 8a3e 5114 adbe a292 02bf 310a 00bf
000001c0: 0084 203e 12b6 8b3e f1e3 f5be 328f aa3d
000001d0: bae0 7e3e abe5 72be 859a 4a3e e9a2 893e
000001e0: 8aae 033f b01d fd3d 2b02 77bd 62db 65be
000001f0: 2c72 2bbe 85a3 2bbc ca80 70bd fd26 a23e
00000200: 8e26 9fbe 2030 583c 00f8 2dbe 5735 783d
00000210: fd70 cc3e 93c5 843d 1d26 73bd 6564 25be
00000220: efb5 f9be 89b6 a8be fdd9 143e ae66 9cbe
00000230: 566b 643e 6e57 10be 58c3 2e3e 88a1 da3e
00000240: fa43 513e 2be4 793e 28eb 453e e2ef e3bc
00000250: 8727 783e 73ae e3be f1ce f63e 0ef0 e8bd
00000260: e55c 5e3e 8143 f93d 134c fa3c 94c0 a03e
00000270: 4611 86be d6ca cbbd b7f1 a93e 67ee 62be
00000280: 02c9 a7bc 2eb9 0b3f cb67 ad3e 8aae 7dbe
00000290: b98f 2bbe 0ffb 58be c676 f1bd bd3a 0dbe
000002a0: b720 3ebe 31f9 a13e c8b3 043e 430f 17be
000002b0: 9cd3 37be c50f 003e 9521 adbd ec6a b23e
000002c0: 7e6e 5c3f ad34 3fbe e49d 9abe d2b3 dd3e
000002d0: e92f ebbe 4c48 c83e 9b74 95be 6f15 523d
000002e0: 5c1c dc3d 6d61 2ebe 57f0 ab3e 2cc6 c1be
000002f0: fef7 36be 2c89 58bc c30a 8f3e 75ec 1f3e
00000300: 4ea8 513e 9d95 cb3d c82e b63e 4143 46bd
00000310: 24af 513d 38a3 99bd 82e4 333e e991 9abd
00000320: 80f1 283e c939 923d e245 373d 184c b13e
00000330: a989 b73c e512 ab3e f46b 7cbd f053 c1be
00000340: 9944 923e 3e71 183e 2219 8b3e 128e 313e
00000350: 9220 c5bb 3251 00bf 9325 95be 20fe 25bd
00000360: a97d 253f 8e3d 8cbd 1be1 c0bd 2588 3c3e
00000370: bb49 acbe 36b6 203e 5386 a4be 829e bcbe
00000380: 8362 6dbe c9f9 05be 6f19 193e b820 3a3e
00000390: 66b5 8cbe f421 f4bb c3f8 b33d 00aa eabd
000003a0: c6c2 bdbc 5db7 433e 04cf e6bd 4bb8 6f3e
000003b0: 9e70 043f 41a2 ef3d 0a00 aebd 86f1 5dbe
000003c0: ff45 59bf a400 f9be 1736 8bbe c6a8 ac3e
000003d0: f008 01be 2ae3 d83e d848 f2bd 4a5e 653d
000003e0: 9014 5fbe af03 e0be 9db2 8a3f d335 4a3f
000003f0: a1b5 d63c bd28 bc3e 60e1 933e b2a6 c4bc

fch.4.0.bias f4 [20]
0.18346319 -0.1599865 0.011387902 0.19032243 0.11276261 0.21719572 0.02333784 -0.27318424
0.21139608 0.027587548 0.007956626 -0.2035556 0.108618446 -0.10988995 0.18373899 0.22885348
0.13067901 0.107888885 -0.1680723 -0.077779196
00000000: c6dd 3b3e 80d3 23be 5394 3a3c e2e3 423e
00000010: 15f0 e63d 8e68 5e3e ff2e bf3c cede 8bbe
00000020: 3778 583e 48ff e13c 825c 023c e170 50be
00000030: 5973 de3d fb0d e1bd 1326 3c3e 9158 6a3e
00000040: b8d0 053e d9f4 dc3d 251b 2cbe b34a 9fbd

fch.5.0.weight f4 [20, 20]
0.08016938 -0.32328227 0.38086647 -0.0786437 0.13835321 0.13503347 -0.10106356 0.05894727
0.057506844 -0.042850863 -0.34786993 0.21298096 0.110896215 -0.011356658 -0.07766871 0.24243551
0.2653328 0.16070285 -0.058105826 0.03156441 -0.8240174 -0.7135513 -0.7420093 0.47452402
-0.21622835 -0.4018678 0.5785537 -0.75956744 -0.2753883 0.051591337 -0.9847461 0.78686285
0.4672691 -0.64118654 -0.09409253 -0.5193302 0.4162204 0.339807 -0.13558348 -0.23860306
0.034673475 -0.07690066 0.16435382 0.3072477 0.20036736 0.07059044 0.13880128 -0.022811208
0.10789294 -0.0015193734 0.2698725 0.25190413 -0.0066799005 0.06422531 -0.007267213 0.1342244
0.2732482 -0.28618816 0.06713311 -0.057278138 -0.43879887 -0.41748288 -0.08085998 0.2853452
-0.10204329 0.14894934 0.36945665 -0.48618865 0.19208299 0.010028298 -0.47240403 -0.12429797
-0.37470078 0.17326282 0.08000455 0.06728426 0.27571267 0.2195618 0.32448047 0.1340072
-0.25078124 0.38025507 0.1359802 -0.18210874 -0.06261961 0.35928035 0.10246129 0.29211888
-0.020002643 0.39614 -0.23996465 0.1802382 0.077508055 -0.13770966 0.3198898 0.13285802
-0.019362459 0.21341044 -0.041827038 0.026480433 -0.2758457 0.007852401 -0.14873484 0.22632588
0.26758423 -0.34127608 -0.2905817 0.30769154 -0.13777922 0.34967723 0.37723294 -0.13582033
-0.33034664 0.30686665 0.22644116 0.33020702 0.0740397 0.24266866 -0.38023913 0.048148204
0.00020075368 0.13938114 -0.31700104 0.076788686 -0.2792108 -0.36042145 0.18067479 -0.04199683
0.2227875 -0.08396715 0.04443742 0.1427386 0.3223079 -0.39140388 0.21235733 0.15124878
0.3542515 -0.19997965 0.5089203 -0.18296073 0.2508586 0.32741866 0.0571958 0.112269014
-0.47881085 -0.1508651 -0.20005289 -0.45684138 -0.046013642 0.25833297 0.00883127 0.34162644
-0.38563713 0.34453362 0.4170331 0.3958384 -0.18206334 -0.32507038 -0.2008957 0.29404256
0.017609613 0.39428693 -0.2548863 -0.27365178 0.1412233 0.17842403 -0.12281539 0.11621531
-0.13769361 -0.38365838 0.13853386 -0.15013748 -0.21769384 -0.35420445 0.06799964 0.19373816
0.2785776 -0.2357966 -0.22940272 0.34283453 -0.1433104 -0.1020848 -0.028779974 -0.37852204
-0.31695697 0.35943642 0.031697113 0.028979702 0.19914639 0.27897352 0.23258144 0.29194674
0.12387274 0.49677128 0.25730413 -0.020922426 -0.00602451 -0.15459567 -0.32345515 0.33099613
-0.4274927 -0.36761233 -0.4612867 -0.24595769 0.11355435 0.13211304 -0.29969248 0.09429065
-0.32909873 0.07909454 0.21312837 -0.02057477 -0.13212535 0.1599361 -0.27682534 -0.10353836
-0.2721083 0.25661558 0.19408464 -0.11947817 0.29952148 0.44086516 0.22606997 -0.32195252
-0.30202737 0.4188479 0.4418083 -0.2888842 0.25441208 -0.31773114 0.09235589 0.34285298
-0.054635387 -0.4470631 0.13161564 0.23821218 0.16858315 -0.29725066 -0.19172448 -0.035515722
-0.072194405 -0.09339496 -0.19887252 0.14310148 0.3271209 -0.067501515 0.42801568 -0.124584585
0.12777878 0.27865043 -0.343504 0.03312414 0.00029269428 0.03295731 -0.5226715 -0.16177163
00000000: d82f a43d 4185 a5be ee00 c33e f30f a1bd
00000010: 77ac 0d3e 3746 0a3e 69fa cebd b172 713d
00000020: 4c8c 6b3d 6384 2fbd 021c b2be ae17 5a3e
00000030: 8e1d e33d 4711 3abc c610 9fbd 0441 783e
00000040: b3d9 873e 4a8f 243e 6000 6ebd af49 013d
00000050: cef2 52bf 4cab 36bf 52f4 3dbf d0f4 f23e
00000060: f76a 5dbe 9ec1 cdbe 181c 143f 0373 42bf
00000070: b2ff 8cbe 7051 533d 5218 7cbf d86f 493f
00000080: e53d ef3e cd24 24bf 96b3 c0bd d3f2 04bf
00000090: d71a d53e 2ffb ad3e 65d6 0abe 5c54 74be
000000a0: c605 0e3d 187e 9dbd 5e4c 283e 924f 9d3e
000000b0: 1a2d 4d3e b891 903d ec21 0e3e 92de babc
000000c0: f9f6 dc3d b625 c7ba ba2c 8a3e 94f9 803e
000000d0: 11e3 dabb 8f88 833d cd21 eebb 1f72 093e
000000e0: 30e7 8b3e 4187 92be 157d 893d 7b9c 6abd
000000f0: 3faa e0be 51c0 d5be eb99 a5bd c418 923e
00000100: 13fc d0bd 2d86 183e 6c29 bd3e b8ed f8be
00000110: 67b1 443e bb4d 243c f1de f1be ef8f febd
00000120: c8d8 bfbe cf6b 313e 6dd9 a33d 55cc 893d
00000130: 362a 8d3e cfd4 603e 4e22 a63e 2f39 093e
00000140: 6666 80be cbb0 c23e 653e 0b3e b77a 3abe
00000150: b63e 80bd 98f3 b73e 3ad7 d13d 9b90 953e
00000160: 95dc a3bc ddd2 ca3e 4bb9 75be 5d90 383e
00000170: 8bbc 9e3d c303 0dbe 99c8 a33e ef0b 083e
00000180: 059e 9ebc 4488 5a3e d452 2bbd 7eed d83c
00000190: a63b 8dbe 5ba7 003c f24d 18be f9c1 673e
000001a0: cd00 893e bdbb aebe 20c7 94be bf89 9d3e
000001b0: ff15 0dbe e508 b33e ad24 c13e 7c14 0bbe
000001c0: 3223 a9be a01d 9d3e 31e0 673e e510 a93e
000001d0: 20a2 973d 227e 783e b4ae c2be 0d37 453d
000001e0: 6881 5239 eeb9 0e3e f64d a2be 6343 9d3d
000001f0: b8f4 8ebe 2989 b8be d002 393e de04 2cbd
00000200: 6822 643e f8f6 abbd 0304 363d 112a 123e
00000210: 8b05 a53e 1766 c8be 3374 593e f6e0 1a3e
00000220: 7460 b53e 77c7 4cbe 9a48 023f 0f5a 3bbe
00000230: 8a70 803e 6ba3 a73e 2546 6a3d 4ced e53d
00000240: b226 f5be 617c 1abe aada 4cbe 1de7 e9be
00000250: cd78 3cbd 3844 843e 08b1 103c a9e9 ae3e
00000260: 3b72 c5be b666 b03e 5d85 d53e 55ab ca3e
00000270: d06e 3abe a06f a6be 9ab7 4dbe bf8c 963e
00000280: 0942 903c fadf c93e 7580 82be 161c 8cbe
00000290: d79c 103e cab4 363e a386 fbbd 4b02 ee3d
000002a0: 8eff 0cbe df6e c4be d2db 0d3e a4bd 19be
000002b0: 22eb 5ebe 495a b5be 6543 8b3d 4c63 463e
000002c0: b9a1 8e3e aa74 71be 8ce8 6abe 0288 af3e
000002d0: f6bf 12be d611 d1bd fbc3 ebbc a4cd c1be
000002e0: 2f48 a2be 0d08 b83e d5d4 013d d766 ed3c
000002f0: 08ed 4b3e 9ed5 8e3e d429 6e3e 0b7a 953e
00000300: feb0 fd3d ce58 fe3e 5ebd 833e 8265 abbc
00000310: 4169 c5bb 544e 1ebe ea9b a5be 5378 a93e
00000320: 53e0 dabe af37 bcbe c52d ecbe 55dc 7bbe
00000330: 2f8f e83d a448 073e 4b71 99be 751b c13d
00000340: a17f a8be 51fc a13d 533e 5a3e 6c8c a8bc
00000350: de4b 07be 4ac6 233e 0dbc 8dbe eb0b d4bd
00000360: c751 8bbe 1e63 833e 20be 463e f9b0 f4bd
00000370: e15a 993e 14b9 e13e e37e 673e f6d6 a4be
00000380: 55a3 9abe 3b73 d63e b334 e23e a1e8 93be
00000390: 4d42 823e a8ad a2be 1625 bd3d 6d8a af3e
000003a0: 5bc9 5fbd 74e5 e4be 40c6 063e e5ed 733e
000003b0: 10a1 2c3e 3d31 98be 6c53 44be ef78 11bd
000003c0: a9da 93bd db45 bfbd 3da5 4bbe 3289 123e
000003d0: 647c a73e 3c3e 8abd df24 db3e 3426 ffbd
000003e0: 71d8 023e 45ab 8e3e c2df afbe 2ead 073d
000003f0: c374 9939 3ffe 063d cdcd 05bf 76a7 25be

fch.5.0.bias f4 [20]
-0.09690809 0.13002533 0.16307272 0.056709375 -0.1205533 0.053428225 -0.05599266 0.19940645
0.046670217 0.03968174 -0.03489497 0.23333977 0.0018997507 0.15744941 0.13375905 -0.13372824
-0.020146688 -0.16740955 -0.15776345 0.052448228
00000000: c077 c6bd 5c25 053e 89fc 263e 1748 683d
00000010: a6e4 f6bd 8ed7 5a3d 8f58 65bd 3431 4c3e
00000020: 4529 3f3d 5289 223d 07ee 0ebd 9ff0 6e3e
00000030: 0e01 f93a 6b3a 213e 22f8 083e 0ef0 08be
00000040: ab0a a5bc 696d 2bbe be8c 21be f4d3 563d

fch.6.0.weight f4 [20, 20]
-0.1972714 -0.18849051 0.29760957 0.22901243 -0.36781964 -0.25756365 0.10386238 -0.1872919
-0.15936293 -0.40813023 0.29887712 0.21702717 0.14902517 -0.11207538 -0.3806115 -0.026945572
0.13571225 -0.13551044 0.28952092 0.07727498 -0.058751244 0.15424787 0.21514845 -0.34160694
0.0912454 -0.37262625 -0.0067189373 -0.12511648 0.36871913 -0.30249643 0.08352096 -0.33689827
0.19586207 0.09477402 -0.13656539 0.07874648 0.36324707 0.14943084 -0.3297538 -0.1439167
0.30808732 0.15745363 -0.11222765 0.16524446 0.061327282 0.03318875 0.12377783 0.3183397
-0.16629565 0.064589515 -0.06852717 -0.18112585 0.1779413 0.09155101 -0.049367554 -0.19303164
-0.014373375 0.17970543 0.3267849 0.27534154 -0.2438958 -0.36731535 -0.1309635 -0.045680728
0.32864946 0.061995585 0.07208192 -0.13724644 0.008083809 -0.22829863 -0.14410843 0.06434373
0.28057554 0.28948596 0.1241789 -0.24940841 0.35327712 0.31462288 -0.111238085 0.06075515
0.31615785 -0.19639571 0.191379 -0.0067594885 0.19291735 0.14602755 0.5318881 0.30333066
-0.16305359 0.21930908 -0.061854955 -0.195565 0.083261505 -0.10001001 -0.26232368 -0.36899292
-0.20954329 -0.022468602 0.28234425 0.21113954 0.07873725 0.3594507 -0.41708246 -0.28013146
0.15178445 -0.37289476 0.50315523 0.00924394 -0.053478763 0.31772882 0.2045299 0.29551902
0.32570243 -0.10420151 0.3209548 0.032387987 0.01549122 0.039406832 -0.27455136 -0.23936926
0.36641705 -0.28991544 0.2766656 0.22993916 -0.31722814 -0.03390769 -0.15142696 0.28498408
-0.13225102 0.37012672 -0.32008633 0.1768325 0.18557812 -0.124285564 -0.0946344 -0.2505961
0.14259966 0.19490804 -0.15963638 0.28614137 -0.1184184 -0.09290096 0.2923643 0.16389585
0.20850143 0.34404233 -0.563777 0.22509329 0.32716435 -0.1238135 0.074485466 0.26093408
-0.037263 -0.08933003 0.1512569 -0.4976604 0.32106248 0.4247563 0.022700522 -0.65022975
-0.115036674 0.36092913 -0.25282246 0.09225443 -0.3947028 0.08728086 0.3050324 0.095890224
0.016978648 0.02129285 0.36947447 0.16436096 -0.04468854 -0.31596035 0.2669186 -0.16550356
0.23662804 -0.11590756 -0.005671892 -0.3210492 -0.11025668 0.029842319 -0.28557652 -0.058938533
0.22536413 0.28303003 0.24236086 -0.07874228 -0.029182319 -0.33075133 0.21293458 0.06856739
0.29981148 -0.02232676 0.3883702 0.20899734 0.34950683 0.018522762 -0.3291601 -0.29014102
-0.31424978 0.18055548 -0.24840209 -0.052164473 0.20582119 0.36091155 -0.12842906 0.2700499
-0.093880825 -0.08932252 -0.036195 -0.22379518 0.08529858 0.042617936 -0.20222405 0.34611028
-0.20843966 -0.25890175 0.12242158 0.077843875 -0.20318553 -0.8233004 -0.1757064 -0.32335258
0.38381115 0.08655667 -0.15071796 0.36400494 0.018837472 0.04699323 -0.0067017362 0.18355235
-0.3921522 -0.09080654 0.460505 -0.24664348 0.50988877 0.36378324 -0.16897433 -0.6975109
0.31360728 0.23457612 0.40129426 -0.2717908 0.04145242 -0.334995 -0.15990897 -0.38396683
-0.4786841 -0.050025836 0.55381435 -0.11919222 0.0011106646 0.5410085 0.0183243 -0.07827988
00000000: 8401 4abe a803 41be 4860 983e 3c82 6a3e
00000010: db52 bcbe 62df 83be cdb5 d43d 73c9 3fbe
00000020: 0930 23be 72f6 d0be 6c06 993e 5f3c 5e3e
00000030: 0e9a 183e c787 e5bd 83df c2be f6bc dcbc
00000040: 27f8 0a3e 40c3 0abe 163c 943e 5842 9e3d
00000050: 25a5 70bd 27f3 1d3e e04f 5c3e 1be7 aebe
00000060: dede ba3d dec8 bebe 882a dcbb 891e 00be
00000070: c1c8 bc3e d0e0 9abe 090d ab3d ee7d acbe
00000080: 1190 483e e218 c23d ccd7 0bbe d645 a13d
00000090: 85fb b93e 6604 193e 7dd5 a8be e65e 13be
000000a0: 9fbd 9d3e 863b 213e 9cd7 e5bd d835 293e
000000b0: 5132 7b3d edf0 073d 3b7f fd3d 6cfd a23e
000000c0: 6849 2abe 8247 843d f957 8cbd 0e79 39be
000000d0: 3f36 363e 197f bb3d a235 4abd 16aa 45be
000000e0: 4e7e 6bbc b304 383e 5a50 a73e 91f9 8c3e
000000f0: d2bf 79be c210 bcbe 4c1b 06be b71b 3bbd
00000100: be44 a83e 15ef 7d3d b09f 933d 558a 0cbe
00000110: f471 043c 1ec7 69be 2991 13be a5c6 833d
00000120: 99a7 8f3e 8137 943e 8251 fe3d eb64 7fbe
00000130: bde0 b43e 4016 a13e cbd0 e3bd 64da 783d
00000140: 71df a13e f51b 49be dbf8 433e b37e ddbb
00000150: 208c 453e 3f88 153e d229 083f 284e 9b3e
00000160: 85f7 26be 8f92 603e 9f5b 7dbd 3142 48be
00000170: 0285 aa3d 0cd2 ccbd 4a4f 86be a4ec bcbe
00000180: 8492 56be 1310 b8bc 6d8f 903e f734 583e
00000190: ff40 a13d ec09 b83e d58b d5be 646d 8fbe
000001a0: 626d 1b3e 10ec bebe c8ce 003f e573 173c
000001b0: 8c0c 5bbd 5aad a23e 4970 513e 454e 973e
000001c0: 78c2 a63e 9a67 d5bd 3054 a43e 44a9 043d
000001d0: e3ce 7d3c 0f69 213d ff91 8cbe 371d 75be
000001e0: 049b bb3e cc6f 94be 1da7 8d3e 2c75 6b3e
000001f0: ba6b a2be cae2 0abd ab0f 1bbe 6fe9 913e
00000200: d06c 07be 4081 bd3e 5be2 a3be 9413 353e
00000210: 3108 3e3e 6e89 febd aecf c1bd 224e 80be
00000220: a505 123e f995 473e b877 23be 1f81 923e
00000230: 5985 f2bd dc42 bebd c6b0 953e 50d4 273e
00000240: 6681 553e 5126 b03e b153 10bf db7e 663e
00000250: 1682 a73e ef91 fdbd d68b 983d 2799 853e
00000260: 16a1 18bd aaf2 b6bd 17e3 1a3e 58cd febe
00000270: 4d62 a43e a879 d93e 72f6 b93c 7575 26bf
00000280: 5998 ebbd b4cb b83e f271 81be e4ef bc3d
00000290: 7c16 cabe 4fc0 b23d 352d 9c3e 1862 c43d
000002a0: ce16 8b3c 586e ae3c c22b bd3e 3d4e 283e
000002b0: 550b 37bd 8ec5 a1be 8ea9 883e c479 29be
000002c0: 9f4e 723e f160 edbd 47db b9bb 9060 a4be
000002d0: 41ce e1bd e177 f43c 1637 92be 8869 71bd
000002e0: dbc5 663e 50e9 903e 722d 783e a243 a1bd
000002f0: c20f efbc 3d58 a9be 860b 5a3e 0f6d 8c3d
00000300: e480 993e 9ce6 b6bc 75d8 c63e 6603 563e
00000310: 8ff2 b23e 0cbd 973c ac87 a8be 5d8d 94be
00000320: 59e5 a0be 89e3 383e 1e5d 7ebe 6aaa 55bd
00000330: cac2 523e 66c9 b83e e882 03be fb43 8a3e
00000340: 9744 c0bd baee b6bd 3541 14bd 902a 65be
00000350: 06b1 ae3d 2590 2e3d d213 4fbe 5e35 b13e
00000360: 3571 55be c58e 84be 2ab8 fa3d 9c6c 9f3d
00000370: de0f 50be d1c3 52bf 61ec 33be 788e a5be
00000380: e582 c43e a044 b13d cf55 1abe db5e ba3e
00000390: 0b51 9a3c f97b 403d 3d9a dbbb 26f5 3b3e
000003a0: 2cc8 c8be c7f8 b9bd 50c7 eb3e 1c90 7cbe
000003b0: 1288 023f cc41 ba3e 9b07 2dbe 1390 32bf
000003c0: 2291 a03e b934 703e 7176 cd3e 2a28 8bbe
000003d0: 03ca 293d 7784 abbe 2dbf 23be 4d97 c4be
000003e0: 1516 f5be e4e7 4cbd c7c6 0d3f 0d1b f4bd
000003f0: b893 913a 887f 0a3f d81c 963c 3451 a0bd

fch.6.0.bias f4 [20]
0.1330207 0.082148544 0.024563491 0.10901639 -0.15447548 0.08223019 0.14651726 -0.12537098
-0.014531708 -0.14997971 -0.21510407 0.10450405 0.0058566984 -0.048930112 0.07315158 -0.1503015
-0.14522518 0.16961889 -0.21668153 0.05318808
00000000: 9436 083e 7f3d a83d 6039 c93c fc43 df3d
00000010: d22e 1ebe 4d68 a83d 9f08 163e 4061 00be
00000020: 6716 6ebc 4894 19be 3e44 5cbe 3806 d63d
00000030: 8ce9 bf3b f16a 48bd 7fd0 953d a3e8 19be
00000040: e9b5 14be 93b0 2d3e c3e1 5dbe bfdb 593d

fce.weight f4 [1, 20]
-0.25201008 -0.30458298 -3.676626e-05 -0.42913947 -0.39700478 -0.16828308 0.54880965 0.13335106
-0.17494349 0.30405167 0.3774614 0.43079463 0.084986955 -0.00916971 0.37203008 0.30893388
0.39183825 0.40360227 -0.15384023 0.49495184
00000000: 7707 81be 4df2 9bbe 7935 1ab8 2bb8 dbbe
00000010: 3644 cbbe 6652 2cbe ca7e 0c3f 2e8d 083e
00000020: 6324 33be a9ac 9b3e 9f42 c13e 1d91 dc3e
00000030: a40d ae3d 8d3c 16bc ba7a be3e 952c 9e3e
00000040: 069f c83e f5a4 ce3e 4b88 1dbe 546a fd3e
