Code/Trained models/all_5000_norm_8001_P2INN_30_2_30_2_50_3.pth (torch, 43366 bytes, 15 tensors)

param_encoder.0.weight f4 [30, 5]
0.043718975 -0.002344517 0.018705662 0.04600615 -0.115534745 0.07515449 -0.015918147 -0.09278927
0.019999273 0.08429545 0.17927973 -0.3086805 0.048523 0.096443854 0.15814334 -0.031719
-0.0063190395 0.2224615 0.0027717627 -0.03344507 -0.16407366 -0.025987107 0.059997197 0.023409512
0.015327292 -0.08154044 0.22546902 0.019901473 0.0016831668 -0.15784875 -0.033841737 0.070902556
-0.080023594 -0.003394787 -0.035836175 -0.041462645 0.019920932 0.027287874 0.08002766 -0.076675534
-0.27732354 -0.0037363505 0.31107128 0.023909505 -0.00941499 -0.03254722 -0.029610228 0.02677674
0.042156033 0.09826986 -0.25809222 0.14587864 0.2599462 0.087199144 -0.19587328 0.018516991
0.04472375 -0.012904792 -0.0564895 -0.35620108 -0.06905143 0.004329288 -0.012329362 0.15537345
-0.069981106 0.0355468 0.02356348 0.04557263 -0.0119875595 -0.20267645 0.036339954 -0.20222554
-0.045134753 -0.31679767 0.26777425 0.0050812294 -0.0025023774 0.06947729 -0.03799006 0.17424387
0.04008598 0.0030383894 -0.07101118 0.035478115 -0.038523845 -0.023395792 -0.0330497 0.053053375
-0.21342003 -0.1256984 -0.037366077 -0.024313446 0.041425236 -0.03450392 -0.07709356 0.33195236
0.011373903 -0.24789333 -0.052599736 0.026220974 -0.22156009 0.09806256 0.011940253 -0.08481733
0.027933188 -0.15020877 0.14844668 0.19702584 0.07618709 -0.1435006 0.18196046 0.0733073
-0.26595655 -0.032199983 -0.02273428 0.12598509 -0.047424786 -0.050873376 -0.009129003 -0.12473896
-0.018685127 0.123248614 -0.14137992 -0.006522134 0.13536608 0.12747079 -0.16064091 0.01721632
-0.042299572 0.16759019 -0.06148788 0.0014995907 0.02041346 -0.08318009 0.1566262 0.05698542
-0.040017728 -0.09688367 -0.009186328 -0.0519579 0.027650014 0.025430169 0.16616 -0.016261887
0.14639142 0.010959084 0.09745939 -0.021822223 0.18761954 0.058342915
00000000: ab12 333d 78a6 19bb 9e3c 993c f270 3c3d
00000010: 7b9d ecbd 99ea 993d c666 82bc 4d08 bebd
00000020: 84d5 a33c 18a3 ac3d 1b95 373e 5f0b 9ebe
00000030: 0ec0 463d 5b84 c53d 54f0 213e c8eb 01bd
00000040: f20f cfbb f3cc 633e 76a6 353b b3fd 08bd
00000050: ed02 28be eae2 d4bc 9fbf 753d 4ec5 bf3c
00000060: 521f 7b3c adfe a6bd 5ae1 663e 6a08 a33c
00000070: b59d dc3a 1aa3 21be a29d 0abd 5c35 913d
00000080: 69e3 a3bd 137b 5ebb f4c8 12bd bcd4 29bd
00000090: 3931 a33c d28a df3c 8be5 a33d 1008 9dbd
000000a0: 5afd 8dbe 8fdd 74bb bc44 9f3e dedd c33c
000000b0: 5541 1abc 3c50 05bd 2691 f2bc e55a db3c
000000c0: ceab 2c3d b541 c93d aa24 84be 3661 153e
000000d0: ab17 853e 7795 b23d 0193 48be f2b0 973c
000000e0: 4030 373d 9f6e 53bc 8961 67bd fd5f b6be
000000f0: d66a 8dbd b3dc 8d3b 1801 4abc 381a 1f3e
00000100: 4152 8fbd 8599 113d 3308 c13c 5eaa 3a3d
00000110: 7867 44bc 6a8a 4fbe 34d9 143d 3614 4fbe
00000120: 38df 38bd 4e33 a2be b519 893e 7180 a63b
00000130: edfe 23bb 1c4a 8e3d 779b 1bbd fc6c 323e
00000140: 3231 243d b71f 473b 4f6e 91bd 8051 113d
00000150: 2ecb 1dbd 88a8 bfbc 1f5f 07bd 7f4e 593d
00000160: c88a 5abe 15b7 00be 2c0d 19bd fe2c c7bc
00000170: 82ad 293d fb53 0dbd 3ae3 9dbd a9f5 a93e
00000180: 9b59 3a3c c0d7 7dbe d272 57bd 5ecd d63c
00000190: a6e0 62be 06d5 c83d 0da1 433c b5b4 adbd
000001a0: 24d4 e43c 54d0 19be 6802 183e 24c1 493e
000001b0: fa07 9c3d d2f1 12be d853 3a3e 2322 963d
000001c0: 752b 88be 21e4 03bd 3e3d babc 3c02 013e
000001d0: 7e40 42bd 9a60 50bd d091 15bc 2477 ffbd
000001e0: 8d11 99bc c569 fc3d e6c5 10be a0b7 d5bb
000001f0: 689d 0a3e b487 023e 0d7f 24be 3d09 8d3c
00000200: 5142 2dbd c39c 2b3e b7da 7bbd ea8d c43a
00000210: 213a a73c 535a aabd 9e62 203e 8b69 693d
00000220: a1e9 23bd f26a c6bd 4182 16bc cfd1 54bd
00000230: 4882 e23c ee52 d03c d925 2a3e a637 85bc
00000240: a2e7 153e bb8d 333c ca98 c73d 85c4 b2bc
00000250: 561f 403e fbf8 6e3d

param_encoder.0.bias f4 [30]
-0.63329995 -0.9078739 -0.25479457 1.0930598 -0.48458588 -0.24368271 -0.19255246 0.19286494
-0.2598054 0.022788048 -0.1515329 -0.040465213 -0.5440164 -0.5462393 -0.10329666 0.61544263
0.6812087 -0.93198156 -0.00825781 0.68336487 -0.2638807 -0.10698167 0.24469006 0.41031945
-0.6183799 0.5296386 -0.16634153 -0.51952887 -0.45594847 -0.079052344
00000000: f21f 22bf 6d6a 68bf 6f74 82be 62e9 8b3f
00000010: a41b f8be f687 79be 792c 45be 637e 453e
00000020: 3705 85be 00ae ba3c 712b 1bbe dabe 25bd
00000030: a944 0bbf 57d6 0bbf 338d d3bd a68d 1d3f
00000040: b263 2e3f 5896 6ebf c44b 07bc 00f1 2e3f
00000050: 5f1b 87be 3519 dbbd 0890 7a3e 6415 d23e
00000060: 254e 1ebf 6596 073f 6f55 2abe d8ff 04bf
00000070: 1472 e9be 32e6 a1bd

param_encoder.2.weight f4 [30, 30]
-0.19400997 0.1145757 -0.14593978 0.014669952 0.005798031 0.011001421 -0.14706463 -0.32003337
-0.17781301 0.11148842 -0.059197977 -0.06640475 0.15004717 -0.13532583 0.058291882 0.26322013
0.16959281 0.09020091 -0.030165493 -0.110580705 0.046995047 0.056043662 -0.09435967 0.19972143
-0.16402356 -0.12205772 -0.20170185 0.12653366 0.036582083 0.09083647 -0.09913606 0.13774477
0.098076664 -0.13063756 -0.10823323 0.057390355 0.18107873 -0.08047527 0.006123124 -0.12651373
-0.08209043 -0.112188786 -0.017444694 0.23857413 0.0075646727 -0.16545162 0.13634548 -0.048158236
-0.262566 0.17871971 -0.2194093 -0.13646968 -0.08671984 0.04930447 0.112546586 -0.17894453
0.048793115 0.23363537 0.05928464 -0.160798 0.11556702 0.068750344 0.03440356 0.1764615
0.20623177 0.07079794 -0.031832155 0.09601019 -0.08144698 0.20395426 0.15141973 0.007113933
0.1619024 0.07522852 -0.009838866 -0.12061918 -0.050673988 -0.0531278 -0.292818 0.06562578
0.11600509 -0.14513111 -0.019721245 0.03722429 0.09824033 0.020711292 0.14885229 0.04454927
-0.022271942 0.15605068 0.31559658 0.6337028 -0.013428417 -0.99400157 -0.19140753 -0.05315168
0.112500526 0.15526414 -0.033128962 -0.06873755 0.20336527 -0.13764247 0.026863523 0.29964864
0.13754806 -0.24654455 0.24336727 0.1350594 0.19437975 -0.041095752 -0.1134376 0.32012776
0.33097368 0.03413012 0.3654965 -0.1759243 0.036444306 0.8834611 -0.08062457 -0.083590925
-0.18759799 -0.033057142 -0.014833616 -0.017552445 -0.20256332 0.010098882 0.18026847 -0.31884965
0.01318503 0.07448837 -0.09316573 -0.047082055 0.007957564 0.027259579 0.019187864 0.21244217
-0.031876516 -0.010124746 -0.34533894 0.028956514 0.038403235 0.16487469 0.04091875 0.16651177
0.097446084 0.18916126 -0.05676119 0.047291357 -0.18780841 -0.06452679 -0.1874663 -0.08518509
0.10735505 0.19514365 0.073711686 0.0571664 0.12954785 -0.22648637 0.018250473 0.10917378
-0.15183626 0.064701 0.060597196 -0.05365886 0.050375078 0.0108017 -0.22154294 -0.07058646
-0.036012843 -0.05940555 -0.040857073 -0.15517205 0.0027630655 0.0038506594 -0.22847132 -0.15714827
0.16757466 -0.34944803 0.1663571 0.013190052 0.20137289 -0.14095578 0.064283006 0.051970188
-0.0879046 0.0027598792 -0.16789798 0.16353631 0.04084875 0.1247656 0.015289723 -0.06328724
0.10475555 -0.09809545 0.14044605 -0.056745157 0.097191796 -0.048878033 -0.022479143 -0.077775486
-0.10060546 0.018893523 0.12573214 0.1989795 -0.11641927 0.04798681 -0.023675429 -0.078450166
0.12083847 -0.081942804 -0.37243235 -0.23541136 -0.06781395 0.21362792 -0.07706336 -0.11450513
-0.12188288 -0.11211332 0.17675075 0.20809431 -0.05209168 0.0025886893 -0.057288248 -0.2876442
-0.06823881 0.31569865 0.16674684 -0.1605439 -0.2079977 0.06758853 0.06579099 -0.082391724
0.04003047 0.10093384 -0.18441677 0.027466297 -0.14402916 -0.31372246 -0.07247112 0.07817804
0.055130996 -0.12701802 0.06328977 0.2002844 0.19415887 -0.040419273 0.13003992 0.28287506
0.0920205 -0.045204815 0.014911595 -0.02326168 0.059199195 -0.06403892 0.026740644 -0.019292332
00000000: 8daa 46be aaa6 ea3d 3d71 15be 3d5a 703c
00000010: 69fd bd3b 4e3f 343c 1c98 16be 6adb a3be
00000020: 9d14 36be 0a54 e43d 9479 72bd 37ff 87bd
00000030: f7a5 193e db92 0abe 78c3 6e3d cac4 863e
00000040: bda9 2d3e 41bb b83d a01d f7bc 2378 e2bd
00000050: e17d 403d 0a8e 653d a53f c1bd c683 4c3e
00000060: cbf5 27be 66f9 f9bd ee8a 4ebe 0a92 013e
00000070: 18d7 153d 7908 ba3d d907 cbbd f70c 0d3e
00000080: 6bdc c83d dac5 05be 62a9 ddbd 2612 6b3d
00000090: b46c 393e 38d0 a4bd 7da4 c83b d18c 01be
000000a0: 071f a8bd 3cc3 e5bd 2de8 8ebc c74c 743e
000000b0: 13e1 f73b 266c 29be 269e 0b3e 9241 45bd
000000c0: 0d6f 86be 4d02 373e d5ac 60be b5be 0bbe
000000d0: 2c9a b1bd 7cf3 493d d37e e63d 3c3d 37be
000000e0: 4adb 473d 1c3e 6f3e 73d4 723d 3ba8 24be
000000f0: 67ae ec3d fbcc 8c3d bfea 0c3d 53b2 343e
00000100: 6c2e 533e 83fe 903d 6f62 02bd fea0 c43d
00000110: adcd a6bd 63d9 503e c60d 1b3e ff1b e93b
00000120: bec9 253e 6911 9a3d 3233 21bc 3007 f7bd
00000130: 878f 4fbd 899c 59bd 3eec 95be cf66 863d
00000140: 1494 ed3d 409d 14be 738e a1bc 7f78 183d
00000150: 3a32 c93d baaa a93c bc6c 183e 4c79 363d
00000160: a673 b6bc c0cb 1f3e e095 a13e 593a 223f
00000170: dd02 5cbc e376 7ebf 5600 44be 93b5 59bd
00000180: ad66 e63d 90fd 1e3e 3cb2 07bd 46c6 8cbd
00000190: fc3e 503e 26f2 0cbe e410 dc3c 8c6b 993e
000001a0: 66d9 0c3e 2d76 7cbe 4535 793e 034d 0a3e
000001b0: 7c0b 473e 0554 28bd f951 e8bd c9e7 a33e
000001c0: 6275 a93e 06cc 0b3d 5b22 bb3e 8025 34be
000001d0: a046 153d 822a 623f 7f1e a5bd b831 abbd
000001e0: b019 40be ed66 07bd b208 73bc 25ca 8fbc
000001f0: c26c 4fbe c875 253c 4c98 383e 4340 a3be
00000200: 0606 583c 5c8d 983d adcd bebd 1dd9 40bd
00000210: 7160 023c 7b4f df3c de2f 9d3c 718a 593e
00000220: f390 02bd 43e2 25bc 44d0 b0be 3636 ed3c
00000230: b64c 1d3d e9d4 283e 6b9a 273d 1082 2a3e
00000240: d091 c73d 7db3 413e 6c7e 68bd 95b4 413d
00000250: d950 40be 9f26 84bd 2af7 3fbe 8575 aebd
00000260: f7dc db3d bdd3 473e 27f6 963d 5127 6a3d
00000270: 31a8 043e 0bec 67be 0482 953c 8196 df3d
00000280: f77a 1bbe f581 843d c434 783d 65c9 5bbd
00000290: 1956 4e3d 9df9 303c 27dc 62be a28f 90bd
000002a0: 3482 13bd 3c53 73bd bf59 27bd 6ce5 1ebe
000002b0: 8c14 353b 585b 7c3b 63f4 69be 7aeb 20be
000002c0: b198 2b3e daea b2be 8459 2a3e 161b 583c
000002d0: b234 4e3e b656 10be cfa6 833d b1de 543d
000002e0: 5407 b4bd 17df 343b 73ed 2bbe 1076 273e
000002f0: 0551 273d 1b85 ff3d bf81 7a3c be9c 81bd
00000300: 148a d63d 44e6 c8bd 17d1 0f3e 9c6d 68bd
00000310: 7e0c c73d 5534 48bd 2e26 b8bc c148 9fbd
00000320: 3c0a cebd 97c6 9a3c edbf 003e 48c1 4b3e
00000330: 3a6d eebd d18d 443d f9f2 c1bc 7baa a0bd
00000340: 297a f73d a1d1 a7bd 74af bebe ad0f 71be
00000350: 0ae2 8abd 47c1 5a3e 65d3 9dbd aa81 eabd
00000360: bb9d f9bd ab9b e5bd 26fe 343e ad16 553e
00000370: 165e 55bd 00a7 293b 15a7 6abd 1a46 93be
00000380: cac0 8bbd 41a3 a13e afbf 2a3e 9f65 24be
00000390: 59fd 54be db6b 8a3d 6dbd 863d febc a8bd
000003a0: fdf6 233d 67b6 ce3d c0d7 3cbe 0001 e13c
000003b0: 617c 13be 3ba0 a0be bd6b 94bd cf1b a03d
000003c0: 0ad1 613d 0311 02be 119e 813d 5b17 4d3e
000003d0: 95d1 463e ae8e 25bd 2f29 053e 00d5 903e
000003e0: 3e75 bc3d af28 39bd c34f 743c 478f bebc
000003f0: db7a 723d d626 83bd 320f db3c f40a 9ebc

param_encoder.2.bias f4 [30]
0.15540622 -0.05704003 0.061071225 0.08330567 0.07926119 -0.1227971 0.009331617 0.042375058
-0.04739425 -0.30345014 0.25830284 0.12026007 -0.11279006 0.16715088 -0.23681238 -0.29137188
-0.09507429 -0.25355795 -0.044220503 -0.015055539 -0.102734014 0.24029385 -0.05309482 0.10839001
-0.03749763 -0.14547977 -0.058245465 0.123293705 0.17734204 -0.14100969
00000000: cf22 1f3e cea2 69bd d225 7a3d 2a9c aa3d
00000010: b153 a23d 0c7d fbbd a3e3 183c 7891 2d3d
00000020: 7920 42bd d15d 9bbe 4540 843e e94a f63d
00000030: 7afe e6bd 9a29 2b3e f27e 72be b22e 95be
00000040: 4fb6 c2bd 59d2 81be 8f20 35bd 82ab 76bc
00000050: 3666 d2bd 970f 763e f479 59bd 95fb dd3d
00000060: 1d97 19bd a6f8 14be cc92 6ebd 6981 fc3d
00000070: 2799 353e d864 10be

coord_encoder.0.weight f4 [20, 1]
0.20256029 0.5629767 -0.3906099 0.35081762 -0.59271944 0.12108224 -0.7719174 -0.434197
-0.6255937 0.557513 0.51094294 -0.9154969 -0.9959346 -0.37346774 0.41896838 -1.0671723
0.16359115 -0.81556726 -1.0599799 1.0613116
00000000: f76b 4f3e 3e1f 103f 05fe c7be 5e9e b33e
00000010: 76bc 17bf f7f9 f73d 619c 45bf 124f debe
00000020: e926 20bf 2cb9 0e3f 28cd 023f 015e 6abf
00000030: 92f5 7ebf 2a37 bfbe 0683 d63e 1a99 88bf
00000040: 7084 273e 04c9 50bf 6cad 87bf 0fd9 873f

coord_encoder.0.bias f4 [20]
-0.6738704 -0.5078893 1.0380043 -0.655355 -0.34323707 -0.6573535 -0.42753187 0.24593376
0.6497301 0.21344553 -0.43693596 0.45553705 -0.5666525 0.85611856 -0.7419689 0.5172084
-0.59786457 -0.3226259 -0.7401728 0.17904
00000000: c582 2cbf 0805 02bf 53dd 843f 58c5 27bf
00000010: c5bc afbe 5248 28bf 75e5 dabe 0fd6 7b3e
00000020: b654 263f 7791 5a3e 12b6 dfbe 273c e93e
00000030: 2310 11bf 962a 5b3f adf1 3dbf c567 043f
00000040: a70d 19bf 392f a5be f77b 3dbf 4356 373e

coord_encoder.2.weight f4 [20, 20]
0.29971844 0.13565645 -0.09377855 0.15144192 0.056040075 0.030566635 -0.13690807 -0.45135692
-0.19846635 -0.1705745 0.19456993 -0.5003718 0.03065595 -0.35597506 0.09152167 -0.40739843
0.017272599 -0.14721316 0.011586452 0.008312492 -0.041533656 -0.38574886 0.40205997 -0.23420148
0.11434436 -0.13180642 -0.019479476 0.63898826 0.2485166 -0.12524545 -0.3835672 0.3185187
-0.12426148 0.37270045 -0.45866954 0.47378635 -0.14034577 -0.0018654434 0.12422826 -0.16153896
-0.22152144 -0.08013643 0.19766365 -0.1223559 0.04470546 -0.066471525 0.16625574 -0.18393104
0.110862404 0.22975737 0.10049621 -0.27667847 0.0958137 -0.09571193 -0.13556683 -0.16383997
-0.05192384 0.060931336 0.033610098 -0.007494995 0.017232029 -0.21185341 -0.040547308 0.09826247
0.34714073 -0.14642291 0.094081834 -0.08317301 -0.08497598 -0.30004883 0.17984688 -0.08732622
0.036899656 -0.06521714 0.10136046 0.23555654 0.09608946 0.40858346 0.23122674 -0.45102984
0.12768033 0.10989749 -0.11982707 0.14097804 -0.053933755 0.27034438 -0.06778604 0.1560763
0.087636046 0.08575084 0.015543246 -0.26330465 0.2447886 -0.2519214 -0.10850879 -0.100419395
-0.105496235 0.12752576 0.26709154 -0.14272603 -0.021216974 -0.021350931 0.050826855 0.083672225
0.028550401 -0.17428987 -0.08729452 -0.2938829 0.03484025 0.12145782 0.32577422 -0.23028542
-0.3610711 -0.06331686 0.26561895 -0.25120828 0.06408469 -0.26495725 -0.2100003 0.33514595
-0.21399346 -0.36966556 0.33369768 -0.33146757 0.018791309 0.08232702 0.026444485 0.37839726
0.3898873 -0.09175105 -0.29192957 0.19515233 0.116486266 0.11997632 0.04723457 0.20940308
-0.29946616 0.2568906 0.056391083 -0.045118093 -0.006464384 0.12474905 -0.1624588 -0.056199122
-0.25690976 -0.043957822 -0.314336 0.17690454 -0.1466255 0.032865386 -0.13644923 0.052942183
-0.102480374 0.014128938 0.11214331 0.20106246 0.2099512 -0.18585911 -0.20482144 0.3294399
0.0059088077 -0.10292756 -0.03641636 -0.26563612 0.24259286 -0.054696437 0.32180962 0.17553967
0.298209 -0.114623055 -0.13528332 0.21426108 0.28362963 0.22203197 0.09819846 0.19625202
0.030718463 0.19341475 0.23339857 -0.124147475 -0.05610894 0.10478408 0.0351368 -0.11700267
-0.16034946 -0.031307716 0.14862256 0.1412883 0.08194296 0.1794171 -0.051533647 -0.04362632
0.22365503 0.17105252 -0.15283489 -0.23600732 0.16797987 -0.013841679 -0.17198169 0.05792294
0.15860358 0.14508305 0.047873944 -0.07403474 -0.081435755 0.022619778 -0.12507585 -0.26002556
0.049210962 0.07220747 -0.0047353776 -0.36829656 -0.18381058 0.08990899 0.17435755 -0.34262574
0.10220997 -0.028100995 -0.09339503 0.17371103 -0.035197005 0.21666346 -0.28461808 0.04224768
-0.048963785 0.17154345 -0.2668409 -0.31261986 -0.045181178 0.33470714 0.20105799 -0.16620016
-0.060744654 -0.25099137 0.14799613 -0.37895447 0.08140213 -0.2943885 -0.16114028 0.095241114
-0.07417613 -0.14393303 -0.0077950684 -0.27833813 -0.24068634 -0.2595018 -0.1931069 -0.06215701
0.11151377 0.08390541 -0.16847996 0.12701061 -0.1663494 -0.02984388 0.033159375 -0.1519335
00000000: b274 993e 86e9 0a3e f80e c0bd 9713 1b3e
00000010: 478a 653d e166 fa3c a131 0cbe 4118 e7be
00000020: c33a 4bbe 15ab 2ebe 573d 473e 5e18 00bf
00000030: 3022 fb3c 5d42 b6be b76f bb3d 8796 d0be
00000040: 447f 8d3c 0cbf 16be 1ad5 3d3c 1e31 083c
00000050: 321f 2abd e080 c5be ceda cd3e 83d2 6fbe
00000060: 602d ea3d 43f8 06be 6c93 9fbc bc94 233f
00000070: 237b 7e3e 5840 00be ec62 c4be e214 a33e
00000080: ce7c febd 98d2 be3e bcd6 eabe 2094 f23e
00000090: cdb6 0fbe e581 f4ba 636b fe3d 786a 25be
000000a0: 84d6 62be 921e a4bd 5768 4a3e bb95 fabd
000000b0: 131d 373d 3922 88bd f23e 2a3e 6b58 3cbe
000000c0: d40b e33d 8445 6b3e f5d0 cd3d cda8 8dbe
000000d0: f939 c43d 9e04 c4bd 08d2 0abe aac5 27be
000000e0: 18ae 54bd 2393 793d beaa 093d 9398 f5bb
000000f0: 2f2a 8d3c 1af0 58be ef14 26bd d53d c93d
00000100: 6ebc b13e e3ef 15be faad c03d 9c56 aabd
00000110: e307 aebd 00a0 99be c829 383e 17d8 b2bd
00000120: 1824 173d 9090 85bd 1396 cf3d bc35 713e
00000130: 8dca c43d da31 d13e b4c6 6c3e 62ed e6be
00000140: a2be 023e ef11 e13d e567 f5bd 8c5c 103e
00000150: a4e9 5cbd 946a 8a3e 68d3 8abd 77d2 1f3e
00000160: 877a b33d 239e af3d 19a9 7e3c decf 86be
00000170: dda9 7a3e d7fb 80be db39 debd afa8 cdbd
00000180: 690e d8bd 1d96 023e 39c0 883e c626 12be
00000190: 38cf adbc 26e8 aebc d22f 503d 585c ab3d
000001a0: 88e2 e93c 0b79 32be 78c7 b2bd d277 96be
000001b0: a6b4 0e3d e1be f83d e1cb a63e f1cf 6bbe
000001c0: 50de b8be 45ac 81bd 35ff 873e 5f9e 80be
000001d0: d53e 833d 7aa8 87be 520a 57be 4098 ab3e
000001e0: 1a21 5bbe ce44 bdbe 6cda aa3e 1eb6 a9be
000001f0: 3bf0 993c 129b a83d 1ba2 d83c 49bd c13e
00000200: 4f9f c73e f9e7 bbbd cb77 95be 03d6 473e
00000210: 5a90 ee3d 25b6 f53d 0979 413d c36d 563e
00000220: a153 99be 2a87 833e 56fa 663d c0cd 38bd
00000230: 2fd3 d3bb 6e7c ff3d 9a5b 26be 0d31 66bd
00000240: ad89 83be 1e0d 34bd a6f0 a0be 7726 353e
00000250: ff24 16be db9d 063d 59b9 0bbe e7d9 583d
00000260: 3be1 d1bd 107d 673c 64ab e53d 51e3 4d3e
00000270: 73fd 563e da51 3ebe b6bc 51be 59ac a83e
00000280: ac9e c13b afcb d2bd 5229 15bd 7501 88be
00000290: 436a 783e 5f09 60bd 3bc4 a43e acc0 333e
000002a0: daae 983e 7ebf eabd b687 0abe 4267 5b3e
000002b0: e737 913e 595c 633e 461c c93d 4af6 483e
000002c0: 49a5 fb3c 840e 463e 0900 6f3e 0841 febd
000002d0: 7dd2 65bd 0999 d63d 9beb 0f3d 199f efbd
000002e0: a632 24be 853c 00bd 8330 183e e1ad 103e
000002f0: b6d1 a73d 1eb9 373e f214 53bd 83b1 32bd
00000300: d305 653e 6428 2f3e c080 1cbe e7ab 71be
00000310: ea02 2c3e 36c8 62bc f81b 30be 9b40 6d3d
00000320: fa68 223e a790 143e 7817 443d 879f 97bd
00000330: cac7 a6bd 1d4d b93c e213 00be 1222 85be
00000340: 6f91 493d 83e1 933d 3a2b 9bbb 5e91 bcbe
00000350: d738 3cbe 3422 b83d c98a 323e a46c afbe
00000360: 7653 d13d 0f34 e6bc e545 bfbd 4ee1 313e
00000370: bc2a 10bd 07dd 5d3e 76b9 91be e70b 2d3d
00000380: 408e 48bd 16a9 2f3e 5f9f 88be b60f a0be
00000390: e60f 39bd bc5e ab3e 25e2 4d3e 6030 2abe
000003a0: 63cf 78bd f181 80be 4c8c 173e 5206 c2be
000003b0: 29b6 a63d 17ba 96be f501 25be c60d c33d
000003c0: a8e9 97bd 2e63 13be c66d ffbb 5682 8ebe
000003d0: 7b76 76be 6cdd 84be d1bd 45be 5998 7ebd
000003e0: 5561 e43d 99d6 ab3d 0386 2cbe 120f 023e
000003f0: 7f57 2abe 277b f4bc 20d2 073d 7594 1bbe

coord_encoder.2.bias f4 [20]
-0.0008759095 0.13096562 -0.024571273 0.014653638 -0.18975165 0.039931126 0.05362583 -0.05570166
-0.100004226 0.22966696 -0.25965524 -0.12676223 0.16002537 -0.0010907213 0.013581594 0.21009916
0.08802314 0.18812124 -0.19422612 0.02424349
00000000: 4b9d 65ba da1b 063e b249 c9bc d015 703c
00000010: 424e 42be d28e 233d c2a6 5b3d 6d27 64bd
00000020: 04cf ccbd d12d 6b3e 88f1 84be f5cd 01be
00000030: b1dd 233e 89f6 8eba 5685 5e3c 3c24 573e
00000040: 7a45 b43d dba2 403e 36e3 46be 499a c63c

decoder.0.weight f4 [50, 50]
-0.0047805887 0.17055209 -0.103551656 0.15790603 0.054165773 0.037994023 -0.07738465 0.1287385
0.23305729 -0.10404803 0.038575463 0.19393915 -0.40044412 0.033661302 0.29602188 -0.21885996
-0.10065438 -0.03623973 0.26553512 0.07938822 0.021647524 0.020187626 0.15377532 -0.06147193
-0.147953 -0.0663006 0.092473805 0.25407043 -0.073551424 -0.26007396 0.011533941 0.07491181
0.13722695 -0.11006434 -0.002769762 -0.05291336 0.10214051 -0.11085611 0.028390445 -0.08798296
0.05912018 -0.1592451 0.1571453 0.066195115 0.09675317 -0.021678777 -0.07986425 -0.01383853
-0.023835212 -0.0018619758 0.04571008 -0.07405768 -0.08088959 0.121632494 0.019001689 0.027147371
-0.09488802 0.13308482 -0.075431295 0.09628149 0.06158357 0.012916807 0.042752683 -0.11519793
-0.13730131 -0.106308766 0.07508901 -0.107236974 -0.11453399 -0.16715723 -0.11837317 -0.008786157
-0.010455646 0.15790544 0.060799096 -0.07887813 0.06456017 0.09278004 0.2251983 0.014922284
0.02013669 -0.17698033 -0.028592804 0.010619286 0.11871869 -0.04374943 -0.042706706 -0.03404129
-0.17763823 0.11988477 0.11036734 0.047706787 0.14970505 -0.15679108 0.017764606 0.05121007
-0.19769916 0.1617049 -0.093008734 0.007234995 0.19002584 0.22289468 0.005107241 0.07222714
-0.17157371 -0.0816335 -0.1223912 0.1046605 -0.2136984 0.27117145 0.013504538 -0.19681029
-0.08227768 0.26236486 0.038046498 -0.23232333 0.04953491 -0.03416083 -0.22972777 -0.049667012
-0.021609267 0.11798867 -0.10610893 0.038799856 0.5467956 0.07973544 0.03432772 0.08450653
-0.0054175197 0.15362097 -0.21726184 0.1345757 0.039733 -0.2186285 -0.15028855 0.07535887
0.10317994 0.07457291 0.01377999 0.06357718 0.08594241 -0.11407319 0.081502125 0.14208834
-0.06562618 -0.26044703 -0.042695664 0.10576035 0.109251864 -0.13786532 -0.010014949 0.07424399
-0.18800393 0.04708445 -0.20203102 -0.08021805 0.035956357 -0.26794016 0.006393675 -0.021772727
-0.008245188 -0.16075175 -0.06021313 0.031226568 -0.09928354 0.120602466 -0.03227822 -0.09870805
0.1489291 0.101927474 -0.10230039 0.119974636 0.03205465 0.08282622 -0.19498745 -0.039597694
0.17694455 0.13326082 0.10726216 0.082348436 -0.06862 0.11521368 0.040307485 0.04880731
-0.019907497 -0.24872077 -0.04076329 -0.25739348 0.19150867 -0.05336167 -0.009080198 -0.19582704
-0.0154353045 0.003635332 0.10948769 0.31844068 0.106931075 0.012574383 -0.023712268 -0.12003006
0.17504527 0.0165359 0.051708434 0.01956771 0.055952486 -0.09665143 0.015649874 -0.059033986
0.036396395 -0.10146515 0.03181201 0.18268266 -0.11842913 -0.09643188 0.013848329 -0.13494968
-0.08908755 -0.15009317 -0.2707638 -0.13763869 -0.046229564 -0.098629184 -0.15179996 0.04902122
-0.14616197 -0.040822778 -0.022666821 0.20733117 0.0967012 0.070410065 0.12978896 -0.0056500738
0.17379116 -0.124610946 0.08895832 -0.0141270645 0.034978148 0.074702404 -0.06317769 0.1971722
0.17752898 0.07553804 0.013984929 0.0814534 -0.06430903 -0.026763294 -0.13260649 0.022169115
-0.046478823 0.15020517 0.101082265 0.15823352 -0.059329007 0.037549093 0.048583552 -0.1578477
00000000: 7ca6 9cbb 35a5 2e3e e412 d4bd 1eb2 213e
00000010: eedc 5d3d 9f9f 1b3d d87b 9ebd 06d4 033e
00000020: 92a6 6e3e 2217 d5bd 4e01 1e3d fc97 463e
00000030: 0307 cdbe 6fe0 093d 2e90 973e d31c 60be
00000040: e223 cebd 1c70 14bd 38f4 873e 4b96 a23d
00000050: 2656 b13c 8560 a53c 4777 1d3e fec9 7bbd
00000060: fe80 17be 9cc8 87bd e862 bd3d 8515 823e
00000070: 21a2 96bd 6a28 85be dbf8 3c3c 5d6b 993d
00000080: 3985 0c3e 6a69 e1bd e584 35bb aebb 58bd
00000090: 0b2f d13d 8708 e3bd 1493 e83c 6930 b4bd
000000a0: 0028 723d 2611 23be b3ea 203e 4e91 873d
000000b0: 8726 c63d b197 b1bc de8f a3bd 00bb 62bc
000000c0: 1042 c3bc 8a0d f4ba 7e3a 3b3d 8eab 97bd
000000d0: 71a9 a5bd 751a f93d 6ea9 9b3c 2a64 de3c
000000e0: a654 c2bd 6347 083e b97b 9abd 3b2f c53d
000000f0: 0e3f 7c3d 04a1 533c 701d 2f3d e4ec ebbd
00000100: b798 0cbe 69b8 d9bd 44c8 993d 0f9f dbbd
00000110: cc90 eabd 442b 2bbe a26d f2bd d0f3 0fbc
00000120: 284e 2bbc f7b1 213e 7908 793d db8a a1bd
00000130: 1f38 843d 7603 be3d 629a 663e 987c 743c
00000140: b3f5 a43c 553a 35be 753b eabc 84fc 2d3c
00000150: c922 f33d 9a32 33bd 3aed 2ebd e16e 0bbd
00000160: cce6 35be 2586 f53d 4608 e23d 3168 433d
00000170: 484c 193e d78d 20be 1487 913c a6c1 513d
00000180: a671 4abe f895 253e 5d7b bebd 8913 ed3b
00000190: 2296 423e 813e 643e a55a a73b d3eb 933d
000001a0: 05b1 2fbe 772f a7bd 3da8 fabd 3f58 d63d
000001b0: c1d3 5abe fcd6 8a3e 2342 5d3c a388 49be
000001c0: 3381 a8bd b054 863e a5d6 1b3d 2be6 6dbe
000001d0: 1ee5 4a3d 3aec 0bbd c23d 6bbe a36f 4bbd
000001e0: eb05 b1bc 0ba4 f13d a44f d9bd 99ec 1e3d
000001f0: ccfa 0b3f 564c a33d 399b 0c3d c211 ad3d
00000200: 7385 b1bb d14e 1d3e e379 5ebe 36ce 093e
00000210: 12bf 223d 26e0 5fbe 3ee5 19be c055 9a3d
00000220: 0150 d33d afb9 983d 78c5 613c c134 823d
00000230: 9302 b03d 349f e9bd 96ea a63d 9b7f 113e
00000240: 0567 86bd 5059 85be a6e1 2ebd e298 d83d
00000250: 71bf df3d 912c 0dbe be15 24bc 3c0d 983d
00000260: 1a84 40be a0db 403d 38e1 4ebe 5c49 a4bd
00000270: f946 133d 742f 89be 0982 d13b b85c b2bc
00000280: d316 07bc 1b9c 24be 0ba2 76bd dcce ff3c
00000290: 2b55 cbbd 6dfe f63d 2b36 04bd 7227 cabd
000002a0: df80 183e 5abf d03d de82 d1bd 43b5 f53d
000002b0: bd4b 033d cba0 a93d caaa 47be 3131 22bd
000002c0: f430 353e 8675 083e 43ac db3d 4ca6 a83d
000002d0: a488 8cbd 26f5 eb3d 7619 253d 2dea 473d
000002e0: 0c15 a3bc a8b0 7ebe 68f7 26bd 14c9 83be
000002f0: d91a 443e c491 5abd 1cc5 14bc e286 48be
00000300: 5ce4 7cbc c03e 6e3b 153b e03d a80a a33e
00000310: aefe da3d c904 4e3c 3b40 c2bc 52d2 f5bd
00000320: 113f 333e 4c76 873c 39cc 533d 764c a03c
00000330: 6f2e 653d 2ff1 c5bd 2a34 803c 9fcd 71bd
00000340: 6314 153d f6cc cfbd 4f4d 023d 2a11 3b3e
00000350: f98a f2bd 147e c5bd 1ae4 623c 4030 0abe
00000360: 8973 b6bd 06b2 19be 8ea1 8abe 28f1 0cbe
00000370: 365b 3dbd 19fe c9bd 7371 1bbe 7aca 483d
00000380: 7cab 15be c935 27bd c5af b9bc 9f4e 543e
00000390: 470b c63d 2733 903d 66e7 043e 4124 b9bb
000003a0: 4ff6 313e 0634 ffbd c82f b63d 3475 67bc
000003b0: 3f45 0f3d 93fd 983d 4e63 81bd 82e7 493e
000003c0: 28ca 353e b0b3 9a3d 0b21 653c 0ad1 a63d
000003d0: 74b4 83bd b23e dbbc ffc9 07be 019c b53c
000003e0: 9460 3ebd 62cf 193e 3804 cf3d f807 223e
000003f0: f902 73bd 14cd 193d 8cff 463d d4a2 21be

decoder.0.bias f4 [50]
-0.06428127 0.057083957 -0.068267204 0.0125453975 0.023560839 -0.00618112 -0.1255443 -0.22269712
0.12249449 -0.17196018 -0.16139653 -0.07643404 -0.14814249 -0.120608166 0.09309862 -0.010731337
-0.02927283 -0.06708713 0.06234342 -0.013515031 0.022834435 0.047946807 -0.19360179 0.10312213
0.053037576 0.02026106 0.09652815 -0.017297985 0.04870553 0.03222112 -0.03235094 -0.13237537
0.059630882 -0.074477635 -0.05619759 -0.06599881 0.15781862 0.10929152 0.09383928 0.11646547
-0.094989195 0.023060825 0.035332017 0.080945745 0.022057265 -0.03566742 -0.15289259 0.060226653
-0.05079843 0.0049233055
00000000: e6a5 83bd ded0 693d adcf 8bbd 368b 4d3c
00000010: a902 c13c fe8a cabb af8e 00be b70a 64be
00000020: 64de fa3d 5416 30be 2245 25be 7389 9cbd
00000030: aab2 17be 6a01 f7bd 7daa be3d 7dd2 2fbc
00000040: 93cd efbc fa64 89bd d05b 7f3d 266e 5dbc
00000050: 480f bb3c df63 443d 8c3f 46be b231 d33d
00000060: ee3d 593d 86fa a53c 8db0 c53d 81b4 8dbc
00000070: 737f 473d 4bfa 033d 6b82 04bd 698d 07be
00000080: 833f 743d bb87 98bd 722f 66bd 622a 87bd
00000090: 349b 213e 3cd4 df3d cf2e c03d 7385 ee3d
000000a0: b289 c2bd 0eea bc3c 4eb8 103d e2c6 a53d
000000b0: 70b1 b43c 0018 12bd e08f 1cbe 39b0 763d
000000c0: 0412 50bd ae53 a13b

decoder.2.weight f4 [50, 50]
-0.062419854 -0.18001656 -0.06874622 -0.055066112 -0.14690201 0.14480923 -0.018504381 -0.018167967
-0.10935916 0.15661044 0.15638816 0.2284923 0.13752128 -0.06548297 0.07365243 0.05444382
0.19155215 -0.037327956 -0.048995376 0.16599646 0.02100321 -0.09839734 0.1439222 0.033012904
-0.021288196 0.16569494 -0.05204217 -0.0669932 -0.156051 0.07198914 0.06575703 0.16176425
-0.12720864 0.09694155 0.08891263 -0.0796215 0.13657637 -0.16814007 0.017956696 0.0109393615
-0.21936204 0.0039201668 -0.008848222 -0.027802296 0.08984256 0.06587373 0.16034903 0.111200646
0.16286418 -0.085625954 0.07862459 0.14045838 -0.15643546 0.02340385 0.15737854 0.024113543
-0.003632655 0.09960683 -0.03871471 0.07407454 0.16581586 -0.09731099 0.09109619 -0.08926899
0.014886919 0.065746225 0.053569656 -0.104897335 0.028050816 0.00034445143 -0.105307996 0.03168878
0.121665254 0.22296625 -0.1456845 0.08587257 0.1869872 -0.028682563 -0.23402236 -0.1895558
0.09884755 -0.0071853134 -0.070263416 0.095196314 -0.1269583 0.20638424 0.078414075 -0.020895928
-0.012024799 0.023195725 -0.14753024 -0.027768856 -0.15675771 0.04607166 0.16109769 -0.024619928
0.090636216 0.12026687 -0.030226313 -0.17856206 0.0055889483 -0.13918722 -0.033965375 -0.0013486609
-0.15719993 0.071287796 -0.014534343 -0.15122034 0.06230698 0.20414065 0.025226956 0.34968543
0.089549035 -0.090956725 0.14608972 0.07162775 0.087758765 -0.034058813 -0.1146966 0.115508385
-0.09114563 -0.18385215 0.13319589 -0.08135071 -0.09259893 0.2050994 -0.026353192 0.05467336
-0.10686222 0.0994011 -0.07568964 0.20977546 -0.13945201 0.17261891 -0.03754109 0.1103869
0.037204515 -0.18235011 0.011738102 -0.10677333 -0.19925232 -0.045107376 0.013170966 -0.025452895
-0.033095177 0.08945915 0.21605389 -0.029793428 0.19145375 -0.017210657 0.03769545 0.09667009
0.0012399233 -0.15018637 0.07162733 -0.3536091 -0.051918816 0.22215581 -0.045400828 -0.2474324
-0.14711088 0.19704011 0.02747313 -0.032583144 -0.20365134 -0.15953334 -0.2650844 -0.26148334
0.23265451 -0.2582352 0.05095166 -0.14750838 0.07031046 0.001232301 -0.0119739575 -0.2944878
-0.1117485 0.056089886 -0.04587117 0.0013581318 -0.11131322 -0.10472969 0.19577183 0.00065491075
-0.1454679 0.05515807 0.009166751 0.07430452 0.17510392 0.12166647 0.101811536 0.06492883
0.029217668 -0.239199 -0.04468603 -0.05032193 -0.11529121 -0.03251447 -0.052969806 0.11297454
-0.13672654 -0.15128176 -0.22934406 0.44117293 -0.20761473 0.09797506 0.3150103 -0.10183507
-0.26359698 0.03675814 0.02776778 -0.04315647 0.27553058 -0.3077277 0.17746653 0.1498785
0.15445 -0.03163301 -0.2015477 -0.08743132 -0.22912228 0.14044973 -0.030695887 -0.041252445
-0.044832446 0.07948886 -0.14502892 -0.017591354 -0.11452255 -0.087481536 0.18261622 0.023011813
-0.15392904 0.2789637 0.01726466 0.27872673 0.11931761 0.17859991 -0.2309002 0.18079865
0.010972539 -0.02068046 -0.1782215 0.2797774 0.3393579 0.06333579 0.11254385 -0.079164885
-0.0029742157 -0.36417687 -0.0048685977 0.16257691 0.027696857 -0.006638504 -0.10335785 0.0138876205
00000000: f6ab 7fbd 4356 38be d1ca 8cbd 018d 61bd
00000010: 7b6d 16be df48 143e 8096 97bc fdd4 94bc
00000020: b2f7 dfbd 7d5e 203e 3824 203e e3f9 693e
00000030: 61d2 0c3e ef1b 86bd 16d7 963d 7c00 5f3d
00000040: 3f26 443e 33e5 18bd 60af 48bd fafa 293e
00000050: ed0e ac3c 8b84 c9bd 5760 133e 8a38 073d
00000060: 9564 aebc efab 293e 2c2a 55bd bb33 89bd
00000070: d5cb 1fbe 0b6f 933d 9fab 863d 87a5 253e
00000080: fb42 02be 4b89 c63d d317 b63d 9910 a3bd
00000090: adda 0b3e e92c 2cbe ec19 933c 023b 333c
000000a0: 71a0 60be be74 803b 22f8 10bc a4c1 e3bc
000000b0: 60ff b73d cee8 863d 8932 243e 2abd e33d
000000c0: dec5 263e a95c afbd ee05 a13d 52d4 0f3e
000000d0: 9e30 20be 6eb9 bf3c d727 213e c489 c53c
000000e0: d611 6ebb aafe cb3d 5193 1ebd 64b4 973d
000000f0: a2cb 293e fc4a c7bd a490 ba3d a9d2 b6bd
00000100: 44e8 733c f5a5 863d db6b 5b3d 6ad4 d6bd
00000110: d3ca e53c 7d97 b439 b8ab d7bd 18cc 013d
00000120: a22b f93d 4451 643e 512e 15be f5dd af3d
00000130: 9379 3f3e b2f7 eabc 8fa3 6fbe ea1a 42be
00000140: 9670 ca3d c772 ebbb 44e6 8fbd 49f6 c23d
00000150: 5b01 02be 6456 533e 8f97 a03d f02d abbc
00000160: aa03 45bc f604 be3c 2b12 17be 837b e3bc
00000170: 1885 20be a3b5 3c3d cbf6 243e bbaf c9bc
00000180: 7b9f b93d 7a4e f63d 2c9d f7bc f9d8 36be
00000190: 7f23 b73b 1887 0ebe 471f 0bbd 8dc5 b0ba
000001a0: 05f9 20be 56ff 913d 7421 6ebc 81d9 1abe
000001b0: 9b35 7f3d 3f0a 513e c3a8 ce3c f809 b33e
000001c0: 7c65 b73d 8547 babd 8b98 153e 92b1 923d
000001d0: deba b33d 4181 0bbd 0de6 eabd a98f ec3d
000001e0: 8faa babd bd43 3cbe 8164 083e 339b a6bd
000001f0: 82a4 bdbd 9405 523e a6e2 d7bc 2cf1 5f3d
00000200: 94da dabd ce92 cb3d 2c03 9bbd 61cf 563e
00000210: 82cc 0ebe 03c3 303e b0c4 19bd 8712 e23d
00000220: c363 183d fdb9 3abe 2b51 403c faab dabd
00000230: cd08 4cbe 83c2 38bd 09cb 573c 9782 d0bc
00000240: cf8e 07bd 5c36 b73d 3b3d 5d3e 5911 f4bc
00000250: 740c 443e 5dfd 8cbc 8b66 1a3d f8fa c53d
00000260: ec84 a23a 75ca 19be 59b1 923d 410c b5be
00000270: d3a8 54bd d07c 633e 38f6 39bd eb5e 7dbe
00000280: 3ca4 16be e2c4 493e 540f e13c e775 05bd
00000290: fa89 50be b55c 23be 24b9 87be 25e1 85be
000002a0: fc3c 6e3e 6737 84be b0b2 503d 700c 17be
000002b0: eefe 8f3d 2985 a13a 6b2e 44bc 1bc7 96be
000002c0: 66dc e4bd 82be 653d 68e3 3bbd 5703 b23a
000002d0: 2ff8 e3bd 857c d6bd 6978 483e 51ae 2b3a
000002e0: 8af5 14be 6eed 613d 2430 163c f82c 983d
000002f0: 714e 333e 452c f93d 9182 d03d 68f9 843d
00000300: e459 ef3c 95f0 74be b308 37bd 5e1e 4ebd
00000310: cc1d ecbd e52d 05bd def6 58bd 325f e73d
00000320: 0b02 0cbe 9be9 1abe 2bd9 6abe 6be1 e13e
00000330: f598 54be 26a7 c83d 0849 a13e e88e d0bd
00000340: 2ff6 86be b48f 163d 4179 e33c d7c4 30bd
00000350: 5812 8d3e 7c8e 9dbe c9b9 353e c079 193e
00000360: 2428 1e3e 9d91 01bd 8562 4ebe 310f b3bd
00000370: 089f 6abe 0ed2 0f3e f175 fbbc 53f8 28bd
00000380: 3aa2 37bd 0ecb a23d 7682 14be be1b 90bc
00000390: cc8a eabd 8529 b3bd bfff 3a3e 4583 bc3c
000003a0: 939f 1dbe 55d4 8e3e 9e6e 8d3c 45b5 8e3e
000003b0: cb5c f43d e5e2 363e 1a71 6cbe 4823 393e
000003c0: 2ac6 333c 116a a9bc b27f 36be fc3e 8f3e
000003d0: 52c0 ad3e 32b6 813d 647d e63d 3321 a2bd
000003e0: 0feb 42bb 6475 babe c288 9fbb 907a 263e
000003f0: 85e4 e23c cf87 d9bb 48ad d3bd e788 633c

decoder.2.bias f4 [50]
-0.02959892 -0.014840241 -0.052550413 0.17536345 -0.026553046 -0.11104448 0.106025465 0.1083572
0.003877349 0.016152758 0.14190467 0.012365067 -0.051169112 -0.00016664297 -0.16938604 -0.08639648
0.0327368 -0.0051386063 0.09600162 0.079815075 0.13449955 -0.18824378 -0.0026565548 -0.0780829
0.10512841 -0.011075586 -0.07268288 0.1637837 -0.09418751 -0.03563844 0.08112174 0.032663874
0.12433167 0.07386105 0.09652506 0.04469212 0.013602546 0.0023270657 0.08206928 -0.06847413
-0.10789939 0.052312344 0.023619018 -0.14302754 0.009288991 0.05269123 0.14631033 0.057527058
0.07769162 -0.13827905
00000000: 6f79 f2bc 7b24 73bc 1a3f 57bd 7a92 333e
00000010: c685 d9bc 4a6b e3bd e123 d93d 61ea dd3d
00000020: 1f1b 7e3b ca52 843c 754f 113e da96 4a3c
00000030: b496 51bd e2bc 2eb9 8973 2dbe a3f0 b0bd
00000040: 0617 063d c161 a8bb 7f9c c43d 1676 a33d
00000050: 40ba 093e fac2 40be 9819 2ebb ede9 9fbd
00000060: 904d d73d 6076 35bc c3da 94bd eab6 273e
00000070: 62e5 c0bd 9df9 11bd 2823 a63d 8eca 053d
00000080: 9aa1 fe3d 7644 973d eeae c53d 160f 373d
00000090: 37dd 5e3c af81 183b f013 a83d 2a3c 8cbd
000000a0: 5bfa dcbd 7845 563d ac7c c13c d075 12be
000000b0: da30 183c c2d2 573d 60d2 153e 7ea1 6b3d
000000c0: c91c 9f3d 0699 0dbe

decoder.4.weight f4 [50, 50]
-0.118702754 0.06814371 -0.10778481 0.07317243 -0.03234718 0.026517382 0.18681948 -0.09663044
0.13665888 -0.17962621 0.38643047 -0.036761697 -0.013039146 -0.060021758 -0.20984451 0.15733208
-0.19649108 -0.12625122 -0.1670316 0.07625225 -0.10975345 -0.14485583 -0.16738482 -0.032166477
0.0669434 -0.076819494 -0.010891895 0.057282183 -0.04617339 0.06816543 -0.105452575 0.10393826
-0.088200964 0.24829514 0.026682286 0.077387 0.23476256 0.097636886 0.055686772 -0.088794366
0.10245798 0.029777808 0.22227578 -0.04833474 0.054799072 -0.30510893 0.036410097 -0.017813733
-0.03062084 0.08980805 0.035402395 -0.06517895 -0.0056398525 -0.0057956306 0.20642014 0.007562002
0.14852062 0.08371953 0.13316832 0.07299985 0.32020125 0.23027615 0.02187733 0.039027862
-0.22776195 0.06741199 -0.057449523 -0.16913489 0.04357511 0.074725375 -0.10890992 -0.17564708
-0.004873032 -0.14648774 0.0051661865 -0.024677236 -0.14932694 0.039836787 -0.045866467 0.16900489
0.017510941 -0.13710287 0.007867083 -0.030108284 0.042060107 0.13421293 0.044890877 -0.030920682
0.06132492 -0.02854868 -0.010333545 0.12256475 0.15537643 -0.08597944 -0.11302229 -0.018511659
0.13309355 0.13724749 0.0019264447 0.14322336 0.15271617 -0.13783127 -0.2342809 -0.030902358
-0.27971894 0.029292347 -0.050582428 0.2004972 -0.2117224 0.07322623 -0.1484538 -0.16515641
0.08675179 0.11150538 -0.07860819 -0.017829323 0.22033988 0.03678449 -0.09037258 0.0369493
0.08941568 0.10611566 -0.14259171 -0.026588924 -0.013596649 -0.17159228 -0.036848344 0.1483741
0.08858462 -0.07866333 0.12588005 -0.16314465 0.10261144 -0.1284487 -0.03798837 -0.14698014
0.089119986 -0.2259843 -0.122857675 0.020617701 -0.12494226 0.071035735 0.0604009 -0.13727127
-0.1270045 0.0015798922 -0.039733846 0.06507171 0.026001735 -0.18381754 0.22332546 -0.016931396
0.21528299 -0.21936804 -0.069511786 0.18040551 0.06626407 -0.11918925 -0.14242609 0.022499135
-0.059386738 0.0007811978 -0.03934778 0.08900381 -0.017198216 -0.04631477 0.12945211 0.16556694
-0.1489318 -0.07453825 0.05692212 0.050169684 0.04387629 0.19630219 0.051450536 -0.08972783
-0.0736813 -0.2120308 -0.015173463 -0.11031275 0.008100535 0.10801663 -0.01448187 -0.08640197
0.124354385 0.019559713 -0.2363671 -0.024909565 -0.06549677 0.044205617 -0.027701577 -0.04139239
-0.14557858 0.13850488 -0.015220046 -0.19826193 0.07088265 -0.18530965 -0.11488418 -0.029983046
-0.025805766 -0.1481433 0.00013232512 -0.03560247 -0.070182815 -0.031420287 0.06838721 -0.05058254
-0.14283417 0.14311224 -0.23646772 -0.1513376 0.13615675 -0.11155133 0.2085906 -0.04903814
-0.018346362 0.06267547 0.16828775 -0.12677364 -0.060843915 0.18997933 -0.068882495 0.07111402
-0.022365682 -0.16700752 -0.06881946 0.012441733 0.08216393 -0.080486804 -0.10583327 0.033949625
-0.024766138 -0.03268684 -0.06813709 -0.0754691 -0.0694839 -0.1152035 -0.11963208 0.060788937
0.052862555 -0.077790864 -0.22156852 -0.07898221 0.077710554 0.16806784 -0.12857361 0.030226316
-0.11197022 0.04370061 0.08233866 0.355066 0.16895062 0.16682541 0.20252801 0.22454369
00000000: 6e1a f3bd ee8e 8b3d 48be dcbd 6ddb 953d
00000010: 7a7e 04bd fb3a d93c 9b4d 3f3e 2ee6 c5bd
00000020: 4ef0 0b3e efef 37be 37da c53e 6f93 16bd
00000030: 24a2 55bc 60d9 75bd 7be1 56be a91b 213e
00000040: f534 49be 0048 01be 550a 2bbe 242a 9c3d
00000050: 6bc6 e0bd 1655 14be ed66 2bbe ffc0 03bd
00000060: 9f19 893d 8a53 9dbd eb73 32bc b9a0 6a3d
00000070: 4f20 3dbd 519a 8b3d 85f7 d7bd 95dd d43d
00000080: b5a2 b4bd 1541 7e3e cf94 da3c 137d 9e3d
00000090: 9965 703e d9f5 c73d d017 643d d2d9 b5bd
000000a0: 7dd5 d13d 97f0 f33c 439c 633e a6fa 45bd
000000b0: fe74 603d 3d37 9cbe c122 153d 1bee 91bc
000000c0: 8ed8 fabc 48ed b73d 1a02 113d 8b7c 85bd
000000d0: 83ce b8bb 46e9 bdbb cd5f 533e acca f73b
000000e0: ca15 183e 2575 ab3d 475d 083e f280 953d
000000f0: 6bf1 a33e 83cd 6b3e 1638 b33c aedb 1f3d
00000100: 6e3a 69be 4c0f 8a3d 3150 6bbd b231 2dbe
00000110: d17b 323d 9e09 993d 2a0c dfbd d4dc 33be
00000120: f5ad 9fbb e200 16be 1d49 a93b ea27 cabc
00000130: 29e9 18be e62b 233d 7ade 3bbd 9e0f 2d3e
00000140: 1b73 8f3c b264 0cbe f0e4 003c a6a5 f6bc
00000150: 3847 2c3d 1d6f 093e 7fdf 373d 5f4d fdbc
00000160: d72f 7b3d ecde e9bc 074e 29bc 3a03 fb3d
00000170: 001b 1f3e fd15 b0bd 3b78 e7bd c3a5 97bc
00000180: ad49 083e 9b8a 0c3e c280 fc3a 25a9 123e
00000190: a161 1c3e a423 0dbe 55e7 6fbe f126 fdbc
000001a0: 5237 8fbe 81f6 ef3c 852f 4fbd 234f 4d3e
000001b0: c2cd 58be a2f7 953d 4604 18be c31e 29be
000001c0: ecaa b13d ef5c e43d 55fd a0bd cd0e 92bc
000001d0: c7a0 613e 55ab 163d 4215 b9bd 2658 173d
000001e0: 911f b73d 2b53 d93d 9003 12be 04d1 d9bc
000001f0: 7bc4 5ebc e3b5 2fbe 4aee 16bd 61ef 173e
00000200: da6b b53d 3d1a a1bd b3e6 003e 640f 27be
00000210: f225 d23d 0e88 03be b199 1bbd f681 16be
00000220: 8a84 b63d 6e68 67be ce9c fbbd 74e6 a83c
00000230: bae1 ffbd 2f7b 913d ef66 773d d790 0cbe
00000240: 780d 02be 6314 cf3a f5bf 22bd 5144 853d
00000250: 9701 d53c aa3a 3cbe 6eaf 643e b6b3 8abc
00000260: 2573 5c3e 04a2 60be 325c 8ebd 39bc 383e
00000270: 75b5 873d 7e19 f4bd 25d8 11be 1b50 b83c
00000280: 823f 73bd 4cc9 4c3a 232b 21bd a147 b63d
00000290: 46e3 8cbc 8eb4 3dbd 188f 043e 618a 293e
000002a0: 9481 18be 83a7 98bd 2b27 693d ba7e 4d3d
000002b0: a0b7 333d 7103 493e ccbd 523d 39c3 b7bd
000002c0: 39e6 96bd 9a1e 59be 1e9a 78bc a7eb e1bd
000002d0: 1bb8 043c d337 dd3d 5e45 6dbc 84f3 b0bd
000002e0: 83ad fe3d b13b a03c 380a 72be 250f ccbc
000002f0: 2c23 86bd f310 353d 6bee e2bc 118b 29bd
00000300: 8d12 15be 39d4 0d3e 805d 79bc 2d05 4bbe
00000310: ec2a 913d d0c1 3dbe 6648 ebbd 019f f5bc
00000320: 9d66 d3bc e1b2 17be c1c0 0a39 e5d3 11bd
00000330: 02bc 8fbd 8fb2 00bd 980e 8c3d a32f 4fbd
00000340: 1f43 12be 048c 123e 9824 72be 3ef8 1abe
00000350: ad6c 0b3e 0675 e4bd c698 553e 37dc 48bd
00000360: 1c4b 96bc ff5b 803d a053 2c3e f3d0 01be
00000370: 7837 79bd f189 423e 4412 8dbd 3aa4 913d
00000380: 3c38 b7bc 0504 2bbe 38f1 8cbd 69d8 4b3c
00000390: 9045 a83d 44d6 a4bd 1dbf d8bd c30e 0b3d
000003a0: 5be2 cabc a3e2 05bd 758b 8bbd 8b8f 9abd
000003b0: 934d 8ebd d0ef ebbd aa01 f5bd d2fd 783d
000003c0: 6886 583d d150 9fbd dce2 62be 6dc1 a1bd
000003d0: b626 9f3d fa19 2c3e cda8 03be 2e9d f73c
000003e0: a550 e5bd 69ff 323d 2ca1 a83d 36cb b53e
000003f0: 6401 2d3e 48d4 2a3e 8163 4f3e c8ee 653e

decoder.4.bias f4 [50]
0.123590976 0.010133034 0.10729949 -0.15899831 0.0054061534 0.034555074 -0.12549224 0.16579704
-0.15081155 0.17689787 -0.05540712 -0.0940075 0.16113865 0.064642005 0.11349324 -0.1498725
0.044357285 -0.16927303 -0.11624173 0.08955834 -0.08851715 -0.08045678 -0.008943743 -0.14494626
-0.028424032 0.021186871 -0.0041125435 -0.036431383 -0.18211138 0.13095693 0.09957154 0.060543418
0.10385017 -0.042476196 0.005724089 0.15188685 0.14048262 0.17288065 -0.028811458 0.15426219
0.046835966 -0.1228584 0.06694441 -0.15735886 -0.0869811 0.15832946 -0.091279045 -0.16044843
0.11876313 0.083316326
00000000: 441d fd3d 0605 263c d6bf db3d 74d0 22be
00000010: 1a26 b13b 9f89 0d3d 0a81 00be b3c6 293e
00000020: 586e 1abe b724 353e 94f2 62bd 0187 c0bd
00000030: 8801 253e 0763 843d 256f e83d 2d78 19be
00000040: fcaf 353d e955 2dbe 2510 eebd 5d6a b73d
00000050: 7b48 b5bd 86c6 a4bd c788 12bc cb6c 14be
00000060: 84d9 e8bc 1790 ad3c 84c2 86bb 1339 15bd
00000070: 687b 3abe 9319 063e 2aec cb3d 60fc 773d
00000080: 66af d43d 85fb 2dbd 2491 bb3b 3a88 1b3e
00000090: adda 0f3e a007 313e 0206 ecbc e8f6 1d3e
000000a0: 12d7 3f3d 2f9d fbbd 271a 893d ae22 21be
000000b0: 2623 b2bd 1e21 223e 82f0 babd 984c 24be
000000c0: 153a f33d c0a1 aa3d

decoder.6.weight f4 [1, 50]
-0.20044684 -0.20696317 0.14304343 0.15985624 0.19429748 -0.2220621 0.2740857 -0.2836211
0.27868325 -0.3333016 -0.08569733 -0.19915023 -0.25356793 -0.19645385 -0.2353731 0.14969225
0.19230953 0.25544983 -0.028979737 0.22694056 0.2167741 0.18740045 0.19190076 0.35444823
0.32272905 0.1383592 0.25832558 -0.16030839 0.13107546 -0.23249935 -0.15692677 -0.2120315
-0.2384438 0.15963882 -0.32345122 -0.3161244 -0.09279133 -0.123031974 -0.2658677 -0.14624341
-0.081528306 -0.17491536 -0.13699217 0.19039851 -0.08676333 -0.33090898 -0.12466005 0.1490152
-0.23576845 -0.036157794
00000000: f041 4dbe 27ee 53be fa79 123e 5bb1 233e
00000010: ebf5 463e 3f64 63be f654 8c3e c936 91be
00000020: 92af 8e3e 82a6 aabe 1582 afbd 0aee 4bbe
00000030: a8d3 81be 332b 49be a505 71be ed48 193e
00000040: caec 443e 52ca 823e ea66 edbc 1b63 683e
00000050: 08fa 5d3e e7e5 3f3e a281 443e 3d7a b53e
00000060: be3c a53e 09ae 0d3e 4043 843e e227 24be
00000070: a538 063e 4f14 6ebe 69b1 20be c91e 59be
00000080: 9d2a 74be 5c78 233e 669b a5be 0fdb a1be
00000090: 6109 bebd 30f8 fbbd d01f 88be d5c0 15be
000000a0: 50f8 a6bd 031d 33be ad47 0cbe d4f7 423e
000000b0: f9b0 b1bd e76c a9be c54d ffbd 7197 183e
000000c0: 496d 71be 321a 14bd
