Code/Trained models/all_5000_norm_4001_P2INN_10_4_10_3_20_6.pth (torch, 23170 bytes, 27 tensors)

param_encoder.0.weight f4 [10, 5]
0.16302626 -0.06918134 0.05047972 0.07073011 -0.12824771 0.15950182 -0.0020265318 -0.12588093
2.9899797e-05 0.008202688 -0.025116274 0.0065592173 -0.020628575 -0.09245822 0.18488492 0.041577578
-0.170451 -0.08878927 -0.07303346 -0.20542489 0.0048651495 -0.010073537 -0.010403448 -0.036293704
-0.045383237 -0.05414298 0.06033944 0.061403997 -0.19819614 -0.22808036 -0.042568766 -0.0062645623
0.13823989 -0.014559211 0.0058364174 0.020014437 -0.00246924 -0.029349247 -0.049328342 0.024529086
0.007960546 0.14535563 -0.12728022 0.0010566935 -0.006768457 0.026786566 0.010353567 -0.0067795953
0.01188939 -0.13939032
00000000: 5bf0 263e f2ae 8dbd d3c3 4e3d f3da 903d
00000010: 5e53 03be 7254 233e 90cf 04bb eee6 00be
00000020: 53d1 fa37 9164 063c a5c0 cdbc b4ee d63b
00000030: 42fd a8bc bc5a bdbd 7952 3d3e 404d 2a3d
00000040: b58a 2ebe 26d7 b5bd 9192 95bd e75a 52be
00000050: d56b 9f3b 7a0b 25bc 3973 2abc b5a8 14bd
00000060: c6e3 39bd 08c5 5dbd 7d26 773d c282 7b3d
00000070: eef3 4abe e68d 69be 965c 2ebd f546 cdbb
00000080: c28e 0d3e c289 6ebc 6b3f bf3b 51f5 a33c
00000090: f9d2 21bb d56d f0bc 840c 4abd 39f1 c83c
000000a0: f36c 023c 1bd8 143e bf55 02be c080 8a3a
000000b0: efc9 ddbb 806f db3c 02a2 293c 5e27 debb
000000c0: b7cb 423c 56bc 0ebe

param_encoder.0.bias f4 [10]
0.49292466 0.303761 0.9859762 -0.3487208 -0.09413779 -0.89916855 0.7771717 -0.3411555
-0.01947943 -0.52809197
00000000: 9f60 fc3e 9086 9b3e f068 7c3f 888b b2be
00000010: 50cb c0bd e92f 66bf b9f4 463f efab aebe
00000020: 5393 9fbc 0931 07bf

param_encoder.2.weight f4 [10, 10]
-0.155857 0.30019015 -0.043384593 -0.101754144 -0.03709604 -0.024736714 -0.17068939 0.3263956
0.22254628 -0.2335339 0.10151351 -0.38551813 -0.20541808 -0.15067841 0.07946831 -0.06644811
-0.0187703 0.3060537 0.011408971 -0.1760069 0.15641238 0.11561211 -0.16219084 -0.028322987
0.18313806 -0.14159276 -0.1968708 -0.336828 0.085543334 -0.08420212 -0.12697904 0.15034162
0.21519881 0.24564512 -0.50179476 -0.014987982 0.2040333 -0.094360776 0.1185229 -0.18546422
0.08279904 0.06030426 0.42696455 -0.056822065 -0.22173901 -0.12630181 0.59493005 -0.12602977
0.081580356 -0.5761509 0.16293693 0.02778755 0.20968613 0.089979894 0.3398755 0.033037357
-0.0803572 0.030117596 -0.3150742 -0.056134585 -0.2740044 -0.16694643 0.19610313 -0.16500689
0.1194019 0.04482763 0.41323307 -0.2762604 0.28896898 -0.2070006 -0.012003143 0.15196049
-0.18229768 -0.026103303 -0.50547665 -0.08157342 -0.38319403 -0.15890965 -0.10680655 -0.1966147
0.24413615 0.08398988 -0.019380346 -0.04570653 -0.3357541 0.16099705 0.0439243 0.8351114
-0.19915976 -0.16823809 0.2456237 -0.22971673 -0.21182927 -0.14999129 -0.1605503 -0.08828175
0.61307764 -0.14359544 -0.09110697 -0.49888575
00000000: fa98 1fbe 86b2 993e 0bb4 31bd 7a64 d0bd
00000010: 04f2 17bd a6a4 cabc 33c9 2ebe 531d a73e
00000020: 2ce3 633e 8323 6fbe 51e6 cf3d a262 c5be
00000030: 1e59 52be 714b 1abe 48c0 a23d f215 88bd
00000040: 2cc4 99bc 12b3 9c3e b1ec 3a3c 273b 34be
00000050: 912a 203e 0bc6 ec3d 5b15 26be 9c05 e8bc
00000060: 8b88 3b3e b1fd 10be 8098 49be b874 acbe
00000070: 5831 af3d 2972 acbd cb06 02be 27f3 193e
00000080: 145d 5c3e 658a 7b3e 9f75 00bf 2790 75bc
00000090: 1bee 503e 3940 c1bd 22bc f23d 55ea 3dbe
000000a0: 8b92 a93d 9a01 773d 199b da3e 41be 68bd
000000b0: 8d0f 63be 4355 01be 564d 183f f30d 01be
000000c0: 9a13 a73d a07e 13bf f0d8 263e b7a2 e33c
000000d0: f6b7 563e 6147 b83d 2904 ae3e 2e52 073d
000000e0: 5192 a4bd 2db9 f63c 6851 a1be 61ed 65bd
000000f0: 4e4a 8cbe 01f4 2abe 42cf 483e 91f7 28be
00000100: fc88 f43d 2d9d 373d 4993 d33e 0172 8dbe
00000110: bef3 933e f7f7 53be d5a8 44bc 889b 1b3e
00000120: 3eac 3abe 98d6 d5bc eb66 01bf f70f a7bd
00000130: 0232 c4be 36b9 22be 64bd dabd 5d55 49be
00000140: d4fe 793e e302 ac3d 88c3 9ebc c536 3bbd
00000150: f6e7 abbe 69dc 243e f7e9 333d dcc9 553f
00000160: 89f0 4bbe 9b46 2cbe c784 7b3e dd3a 6bbe
00000170: c6e9 58be 5197 19be 4c67 24be 10cd b4bd
00000180: a8f2 1c3f af0a 13be 4b96 babd f46d ffbe

param_encoder.2.bias f4 [10]
-0.10109201 -0.0725813 -0.1507184 -0.21889004 0.051911112 -0.073008515 -0.017244698 -0.15440348
0.03703213 -0.24594699
00000000: 5409 cfbd 81a5 94bd ed55 1abe b624 60be
00000010: bfa0 543d 7d85 95bd c144 8dbc f21b 1ebe
00000020: 01af 173d 87d9 7bbe

param_encoder.4.weight f4 [10, 10]
0.012343841 -0.3672708 0.35982752 -0.3221825 0.007991025 0.032354802 -0.18768443 0.27314594
0.005780645 -0.28548378 0.53374666 -0.08114834 -0.19449972 -0.051188108 0.40596154 0.33765435
0.033599462 -0.48127946 0.71124154 -0.29140055 0.33684745 -0.120224476 0.25711748 -0.19920336
-0.45263153 -0.010138075 -0.3870384 -0.30764017 0.1646149 -0.3449783 0.012063634 -0.22707301
0.13504814 0.31702992 0.3148353 0.062213615 -0.2415434 0.58188426 0.5535147 0.061590567
0.639461 0.08376945 0.2805966 0.23596844 -0.15029347 -0.26854947 -0.14127593 0.727659
0.069189966 -0.48018095 0.6121624 0.109006956 -0.032931976 -0.04801876 -0.121570714 -0.3556077
-0.48359686 0.79800457 0.44406953 0.1890905 0.11895431 0.43325812 -0.011762094 0.030366471
0.42267534 -0.41095912 0.29588124 0.059150804 0.16142482 -0.22362538 0.09321596 0.10527292
-0.37746778 0.039459974 -0.03886694 0.3254347 -0.41185504 0.099772274 0.48423427 -0.2226609
0.49219552 -0.06310321 0.118186645 0.14476997 0.3650946 -0.3699814 0.22011384 -0.061849944
0.18808943 -0.4251425 -0.2560849 0.12919973 -0.37590212 0.30130175 -0.09859112 -0.1319357
-0.17399117 0.2291904 0.08447836 0.14430627
00000000: d23d 4a3c eb0a bcbe 503b b83e 1bf5 a4be
00000010: caec 023c 7886 043d 5930 40be c9d9 8b3e
00000020: 916b bd3b ee2a 92be 9fa3 083f 1a31 a6bd
00000030: ef2a 47be 9faa 51bd 31da cf3e 08e1 ac3e
00000040: 979f 093d 436a f6be ed13 363f 7432 95be
00000050: 4577 ac3e 4038 f6bd e7a4 833e f7fb 4bbe
00000060: 52bf e7be 2b1a 26bc e629 c6be 0383 9dbe
00000070: cf90 283e ffa0 b0be 8ca6 453c d485 68be
00000080: 0f4a 0a3e bf51 a23e 1832 a13e b4d3 7e3d
00000090: 2757 77be 5ef6 143f 24b3 0d3f 6446 7c3d
000000a0: b7b3 233f 518f ab3d 5caa 8f3e b6a1 713e
000000b0: 88e6 19be 517f 89be a3aa 10be dc47 3a3f
000000c0: 78b3 8d3d 47da f5be adb6 1c3f 0a3f df3d
000000d0: aee3 06bd 52af 44bd 11fa f8bd 3612 b6be
000000e0: 029a f7be 074a 4c3f 155d e33e f1a0 413e
000000f0: 519e f33d 02d4 dd3e ccb5 40bc 1bc3 f83c
00000100: e768 d83e 3c69 d2be bf7d 973e 1d48 723d
00000110: 8c4c 253e 0dfe 64be 02e8 be3d 5499 d73d
00000120: 7543 c1be c8a0 213d f132 1fbd 619f a63e
00000130: aade d2be 6855 cc3d 8eed f73e 3801 64be
00000140: 0d01 fc3e 413c 81bd d70b f23d 943e 143e
00000150: aeed ba3e 346e bdbe 8665 613e 5e56 7dbd
00000160: 849a 403e 47ac d9be 8f1d 83be ef4c 043e
00000170: 3e76 c0be 3944 9a3e 24ea c9bd 271a 07be
00000180: be2a 32be e3b0 6a3e fe02 ad3d 06c5 133e

param_encoder.4.bias f4 [10]
-0.13929273 0.17725714 -0.260243 -0.009712657 -0.29008323 -0.28135332 0.24176875 -0.34470388
0.16890627 -0.19434994
00000000: c1a2 0ebe e582 353e 923e 85be d621 1fbc
00000010: ca85 94be 8b0d 90be 3a92 773e 077d b0be
00000020: c4f5 2c3e ac03 47be

param_encoder.6.weight f4 [10, 10]
0.3622883 -0.14616887 -0.124778174 0.15318944 -0.17572549 -0.2644839 -0.28969654 0.17238921
0.22836684 -0.22789839 0.4984591 -0.7565631 0.22536011 -0.2699639 0.3501817 -0.30338484
-0.3512403 -0.20024669 -0.6103212 -0.022722567 0.08754164 0.28865647 0.26497766 0.039143585
-0.10895965 0.05677017 -0.30035514 -0.20125274 -0.24539877 -0.25990492 -0.28482658 -0.22462793
-0.07390697 -0.20990694 0.1440141 0.031297848 0.2682752 0.3018119 -0.08595287 0.1283894
-0.4570109 0.16743158 -0.059766527 0.33170682 -0.42422304 0.09880911 -0.2168725 0.088921666
-0.29030865 0.4647687 -0.05604608 -0.36932406 -0.3339388 0.030098826 -0.5022301 -0.35478613
0.22522159 -0.42424312 -0.3676571 0.18329988 -0.33939087 0.018422425 0.029938353 -0.5134323
-0.17564166 -0.61866385 -0.09766064 -0.7182095 0.23452501 -0.34360912 0.46815655 0.26044175
0.20806447 -0.0814001 -0.1531765 0.061804436 -0.25722542 -0.41799563 0.01592273 -0.63235426
-0.15575294 0.2646371 -0.3176509 0.572699 -0.025007233 0.19540492 0.080254324 0.4512613
0.30744794 0.20661376 0.044287737 -0.09247578 -0.092558116 0.34570125 0.28370494 0.2573342
0.3020291 -0.43395624 0.026197832 0.096938364
00000000: da7d b93e 4bad 15be b38b ffbd b1dd 1c3e
00000010: 62f1 33be 6f6a 87be 1b53 94be cc86 303e
00000020: ffd8 693e 325e 69be 0836 ff3e 1fae 41bf
00000030: cdc4 663e b538 8abe 044b b33e 4255 9bbe
00000040: c5d5 b3be 780d 4dbe 033e 1cbf ad24 babc
00000050: 0849 b33d c8ca 933e 27ab 873e 0655 203d
00000060: 3d26 dfbd d687 683d 26c8 99be 3315 4ebe
00000070: d149 7bbe 4212 85be cad4 91be dd04 66be
00000080: 8a5c 97bd d8f1 56be 6f78 133e 2c32 003d
00000090: 5e5b 893e 1787 9a3e 0f08 b0bd 8378 033e
000000a0: 55fd e9be 2f73 2b3e bfcd 74bd 7ad5 a93e
000000b0: c333 d9be 6e5c ca3d d313 5ebe 901c b63d
000000c0: 56a3 94be 2af6 ed3e 9390 65bd 0b18 bdbe
000000d0: 07fa aabe d091 f63c 2792 00bf 87a6 b5be
000000e0: 7da0 663e 6536 d9be 8d3d bcbe f7b2 3b3e
000000f0: a4c4 adbe a0ea 963c 4741 f53c 4d70 03bf
00000100: 68db 33be c160 1ebf 4d02 c8bd 94dc 37bf
00000110: 5327 703e 89ed afbe 37b2 ef3e 9f58 853e
00000120: da0e 553e 18b5 a6bd 4dda 1cbe a626 7d3d
00000130: 0db3 83be 8603 d6be 6370 823c f8e1 21bf
00000140: b37d 1fbe 847e 873e 24a3 a2be 679c 123f
00000150: f8db ccbc 3a18 483e 615c a43d b90b e73e
00000160: d169 9d3e 8f92 533e 0f67 353d f163 bdbd
00000170: 1c8f bdbd c1ff b03e c641 913e 4fc1 833e
00000180: 8fa3 9a3e 832f debe d69c d63c 9f87 c63d

param_encoder.6.bias f4 [10]
0.1254636 -0.26021615 0.2652266 -0.07988206 0.08074058 0.0041827066 -0.09929003 0.23707274
0.092680864 0.31712905
00000000: 8879 003e 0d3b 85be c8cb 873e 3599 a3bd
00000010: 515b a53d 160f 893b 9258 cbbd 32c3 723e
00000020: 77cf bd3d bd5e a23e

coord_encoder.0.weight f4 [10, 1]
0.9267666 -0.562443 -0.21219006 -0.80725724 0.5334733 -0.7863063 0.66521925 -0.7408603
1.0231066 0.64377844
00000000: 9340 6d3f 44fc 0fbf 5a48 59be 69a8 4ebf
00000010: b591 083f 5f4b 49bf cf4b 2a3f 05a9 3dbf
00000020: 28f5 823f aace 243f

coord_encoder.0.bias f4 [10]
-0.9070273 -0.055797007 0.23805432 -0.17818475 -0.6923887 -0.24890038 -0.7379913 -0.13617076
0.8812298 -0.41807154
00000000: f132 68bf 678b 64bd 83c4 733e 1076 36be
00000010: 6340 31bf bedf 7ebe ffec 3cbf 5970 0bbe
00000020: 4798 613f 790d d6be

coord_encoder.2.weight f4 [10, 10]
0.03965906 0.022943527 0.19269831 0.12886877 -0.0976467 -0.014901679 -0.2152393 0.22505437
0.10933467 -0.0035555311 0.050679453 -0.27596703 -0.3402762 0.0685738 0.121195756 0.16811933
0.30944178 -0.07611808 0.24653894 -0.01400295 -0.31627145 0.10574592 -0.01930832 0.32899264
0.2415836 -0.0942872 -0.034369644 0.13700639 -0.33061484 0.06625674 0.03842255 0.14904764
-0.013954566 0.32924795 -0.28295034 0.2092455 -0.027725816 -0.23375571 -0.06213512 -0.23766546
-0.18218067 0.026981838 0.19537169 0.15355605 -0.11548386 0.11519243 -0.025920967 0.17243941
-0.05992726 -0.15094207 0.2717937 -0.07672183 0.010189599 0.105850026 0.26752022 0.04035343
0.19663212 0.00960528 0.040814195 0.38409007 -0.12187121 -0.2387841 -0.27356032 0.035660405
0.31455287 -0.37051052 -0.05309791 -0.32313073 0.028437221 0.04704922 -0.24075232 0.20689282
-0.07141928 0.2932986 -0.26946753 0.021204527 -0.25164688 0.046379086 0.26943934 -0.38982916
-0.11515737 0.2945975 0.32008255 -0.063126825 0.08526857 0.33281216 -0.023623861 0.26063955
-0.06542854 0.14983535 0.089900665 -0.018521503 -0.20137626 -0.28223053 0.006039387 -0.29996702
-0.20958339 -0.17975263 -0.14491513 0.115783475
00000000: 8a71 223d 10f4 bb3c b552 453e 2df6 033e
00000010: fefa c7bd 2c26 74bc b167 5cbe a774 663e
00000020: dbea df3d ea03 69bb 4295 4f3d 8d4b 8dbe
00000030: af38 aebe 6c70 8c3d 7b35 f83d 7927 2c3e
00000040: 276f 9e3e cce3 9bbd b474 7c3e a16c 65bc
00000050: 55ee a1be 5191 d83d 7b2c 9ebc b971 a83e
00000060: b161 773e a619 c1bd 2fc7 0cbd 674b 0c3e
00000070: 5946 a9be 9db1 873d f760 1d3d f29f 183e
00000080: b1a1 64bc 3093 a83e dede 90be 7444 563e
00000090: 4021 e3bc a85d 6fbe 6581 7ebd 935e 73be
000000a0: 928d 3abe 0409 dd3c 840f 483e cc3d 1d3e
000000b0: cd82 ecbd 02ea eb3d 3558 d4bc f593 303e
000000c0: 4976 75bd 8f90 1abe 8b28 8b3e 5620 9dbd
000000d0: 47f2 263c e6c7 d83d 69f8 883e a349 253d
000000e0: ee59 493e 775f 1d3c c92c 273d 74a7 c43e
000000f0: 9d97 f9bd d283 74be 1910 8cbe a510 123d
00000100: 130d a13e 8eb3 bdbe 327d 59bd 6471 a5be
00000110: 2df5 e83c afb6 403d c787 76be b6db 533e
00000120: 4544 92bd 3c2b 963e a6f7 89be 1eb5 ad3c
00000130: dcd7 80be fff7 3d3d f4f3 893e b097 c7be
00000140: a1d7 ebbd 7cd5 963e dce1 a33e a348 81bd
00000150: 4aa1 ae3d 5b66 aa3e d486 c1bc 8c72 853e
00000160: 66ff 85bd 706e 193e d71d b83d 68ba 97bc
00000170: 9435 4ebe 8580 90be 0de6 c53b 4795 99be
00000180: 079d 56be 1311 38be a264 14be e31f ed3d

coord_encoder.2.bias f4 [10]
0.031773914 0.14046162 0.013181528 0.16006133 -0.19297524 0.06776964 0.15707687 0.18154752
-0.06617408 0.1495473
00000000: 5d25 023d 2cd5 0f3e 56f7 573c 1ee7 233e
00000010: 4d9b 45be cfca 8a3d c2d8 203e 98e7 393e
00000020: 4786 87bd ed22 193e

coord_encoder.4.weight f4 [10, 10]
-0.06805294 0.03864391 -0.2712099 -0.044134457 0.3850948 -0.012686975 -0.12802513 0.19314533
0.31304988 -0.1533438 0.22106439 -0.21731246 0.22788304 0.5312711 0.5074834 -0.70350915
0.16444981 0.37624195 0.062425897 0.1346299 -0.2959471 -0.010874074 0.031284608 -0.22260939
0.030946344 0.17584987 0.17326654 0.062416025 -0.40487626 0.35955516 0.036916167 -0.15730868
-0.066016495 0.07812418 0.1476089 -0.17507127 -0.3222747 0.022877524 0.26059648 -0.07657379
0.028628077 0.0466602 -0.30836064 -0.33505282 0.044697605 0.29489678 0.3463676 -0.26600757
-0.1601993 -0.05744751 0.49845466 -0.45555174 -0.36275485 0.453391 -0.25175887 -0.0058518765
0.07094657 0.2824901 -0.18768895 -0.022764606 -0.25392547 0.31090507 -0.21120813 -0.08097318
0.049163766 0.34280095 0.35723674 0.1161477 -0.10474968 0.2746263 -0.19420192 -0.33304745
0.13950524 0.15982829 0.40584713 0.08182349 -0.410834 -0.11987398 0.09115617 0.12725906
0.039240878 -0.12836415 0.17113374 0.4291373 0.119427904 0.10086999 0.034529336 0.03587758
0.052180033 -0.40093473 0.16791713 -0.4172116 0.1162312 -0.039046843 0.12315018 -0.32581964
0.018157532 0.292127 0.0015835844 -0.41332963
00000000: 575f 8bbd 1449 1e3d 06dc 8abe 55c6 34bd
00000010: 252b c53e 08dd 4fbc 0519 03be e4c7 453e
00000020: 1348 a03e 2806 1dbe b45e 623e 2887 5ebe
00000030: 2c5a 693e 6201 083f 6fea 013f 2d19 34bf
00000040: 8865 283e c9a2 c03e 4cb2 7f3d 6cdc 093e
00000050: 6186 97be 2c29 32bc 4a24 003d b7f3 63be
00000060: 3083 fd3c fd11 343e c96c 313e f2a7 7f3d
00000070: f14b cfbe 9d17 b83e 6835 173d 8715 21be
00000080: a833 87bd 92ff 9f3d ca26 173e e245 33be
00000090: 3101 a5be a569 bb3c e76c 853e b8d2 9cbd
000000a0: 6e85 ea3c c41e 3f3d 72e1 9dbe 0b8c abbe
000000b0: d614 373d b6fc 963e 1857 b13e 2532 88be
000000c0: 490b 24be 154e 6bbd 7335 ff3e 143e e9be
000000d0: 01bb b9be dd22 e83e 8ae6 80be 19c1 bfbb
000000e0: 6f4c 913d 8ba2 903e 8831 40be d77c babc
000000f0: 8502 82be f32e 9f3e f246 58be 44d5 a5bd
00000100: f25f 493d 9b83 af3e bce7 b63e d8de ed3d
00000110: 0087 d6bd d29b 8c3e dedc 46be 3285 aabe
00000120: 76da 0e3e 07aa 233e 32cb cf3e 1393 a73d
00000130: d658 d2be 7d80 f5bd 16b0 ba3d 3350 023e
00000140: 0bbb 203d e471 03be af3d 2f3e e2b7 db3e
00000150: 9e96 f43d ed94 ce3d a26e 0d3d 5ff4 123d
00000160: bbba 553d 5147 cdbe 78f2 2b3e c29c d5be
00000170: a00a ee3d 95ef 1fbd 2936 fc3d d5d1 a6be
00000180: 1bbf 943c ac91 953e 4690 cf3a f19f d3be

coord_encoder.4.bias f4 [10]
-0.104999386 0.31561068 0.17431735 -0.20421158 0.046816576 0.41936943 -0.20714338 -0.087354615
0.1760151 0.25299978
00000000: eb09 d7bd b997 a13e 3f80 323e d71c 51be
00000010: bdc2 3f3d 97b7 d63e 651d 54be fae6 b2bd
00000020: 4d3d 343e 3089 813e

decoder.0.weight f4 [20, 20]
-0.1198305 -0.23571378 -0.19853781 0.20288445 0.1501528 0.1494777 0.2164348 -0.28920883
-0.14491537 -0.11257945 -0.19092044 -0.108161725 -0.088126235 -0.05861602 0.3369733 -0.073157296
0.1337114 -0.09595423 -0.3402543 -0.26557258 -0.07747367 -0.22711124 0.06437675 0.23728976
-0.20386554 -0.018712241 0.24485016 0.10395992 0.224912 0.24947365 0.0015532072 -0.016398989
0.3243003 0.020479372 -0.07132046 0.13453066 0.33723608 -0.16222079 -0.121547885 -0.15477085
0.13762626 0.20747961 0.04930742 -0.18659624 0.050177887 0.012079343 -0.10048466 0.2439701
0.03905402 0.13071759 -0.0059031025 -0.051488742 0.24310675 -0.34411076 0.20802255 0.3319635
0.22523826 -0.16855611 -0.17374288 -0.1896502 0.07692861 0.16902484 -0.0052903094 0.021414688
-0.04376172 -0.013639715 -0.030907933 0.31662983 -0.23512611 -0.17919824 -0.069781534 -0.20361039
-0.2989327 0.07108879 0.11626367 -0.10190342 -0.27785566 0.21003157 0.11366618 0.08986988
0.19972907 -0.11894392 -0.12850097 0.04615057 -0.23642324 -0.26678067 0.29811025 0.15018205
0.009658181 0.047161978 -0.10866076 -0.022738442 -0.03367431 0.060638696 0.08683373 0.08648067
-0.30047005 0.09545059 0.24030165 0.07068583 0.15904914 0.12820366 0.021696234 0.0776833
-0.020158151 0.08147714 -0.35599077 -0.17034924 0.21484488 0.20193127 0.22229774 0.06934514
0.14005147 -0.007010741 0.094736494 0.25594214 0.069528736 -0.110218026 -0.033231247 0.3085193
0.27168134 0.11242471 0.18067074 -0.110584 -0.018216083 -0.13397579 0.07280647 0.21370386
-0.10211159 0.065627754 -0.14876553 -0.16699924 0.15392628 -0.32065168 0.09582665 0.27624235
0.289572 -0.09064328 -0.27243412 -0.23207761 0.15490511 -0.13992515 -0.16748369 -0.01808477
-0.033221 -0.09573353 -0.05180555 -0.022776743 0.23583645 0.2252669 -0.18575421 0.13048105
0.08524853 0.014834624 0.11879074 0.2208543 0.30923054 -0.03440142 -0.07896684 -0.1589077
0.1846791 -0.031853992 0.2590413 -0.4769162 -0.25631803 -0.39201584 -0.12730524 0.67637074
0.031906318 0.24028155 -0.06220152 0.46203977 -0.13675737 0.08564744 -0.18926382 0.5244458
-0.28602973 -0.32922554 0.15981822 0.24174155 -0.14899519 0.094422676 0.26044196 0.12877026
0.2662092 -0.047028776 -0.16210687 -0.09373896 0.041536946 -0.22439341 0.07726128 0.1977286
-0.09609486 0.24176371 -0.33250248 -0.1081755 -0.041487902 -0.0137655465 -0.05302819 0.10977109
0.06271347 0.25125173 0.08479008 -0.15705189 0.07837166 0.11815261 0.13073389 -0.080798924
-0.24202691 0.031124253 -0.10047557 -0.045518685 0.23168026 -0.19348249 0.07168981 -0.25105378
0.2373286 -0.096345596 -0.23017922 -0.15921263 0.07986397 0.25345138 0.03324721 0.024590194
-0.0088717835 0.15574372 -0.048325088 -0.061881404 -0.24463572 0.23221935 -0.13505414 -0.0063942056
0.22392236 -0.21937336 0.10147092 0.0050290185 0.12034994 -0.3111888 -0.3441742 -0.14045027
-0.060622416 -0.021109402 -0.25895396 0.21043645 0.3196003 -0.2723556 -0.24253322 -0.43506807
0.34437612 -0.11120076 0.10857269 -0.14362447 -0.02906392 0.027630521 0.08408923 -0.12080094
00000000: b169 f5bd f45e 71be 7f4d 4bbe f1c0 4f3e
00000010: a8c1 193e af10 193e 16a1 5d3e 2e13 94be
00000020: b264 14be 0e90 e6bd a680 43be e583 ddbd
00000030: 877b b4bd 5a17 70bd c487 ac3e 7ed3 95bd
00000040: a4eb 083e a783 c4bd d035 aebe 21f9 87be
00000050: 84aa 9ebd d98f 68be f5d7 833d 16fc 723e
00000060: 21c2 50be 6a4a 99bc 00ba 7a3e f0e8 d43d
00000070: 554f 663e 0576 7f3e fc94 cb3a 2c57 86bc
00000080: b00a a63e 5bc4 a73c 7610 92bd 68c2 093e
00000090: 35aa ac3e 351d 26be 19ee f8bd 407c 1ebe
000000a0: e6ed 0c3e 8975 543e 94f6 493d 1613 3fbe
000000b0: 5487 4d3d 70e8 453c e7ca cdbd 4cd3 793e
000000c0: 1cf7 1f3d d5da 053e d06e c1bb dce5 52bd
000000d0: faf0 783e 492f b0be dd03 553e 1ff7 a93e
000000e0: dca4 663e f999 2cbe a7e9 31be a933 42be
000000f0: bf8c 9d3d d914 2d3e 555a adbb db6d af3c
00000100: 7d3f 33bd 1c79 5fbc a232 fdbc 4e1d a23e
00000110: e6c4 70be be7f 37be 9fe9 8ebd 3e7f 50be
00000120: b50d 99be 0097 913d a61b ee3d beb2 d0bd
00000130: 1943 8ebe 8412 573e d0c9 e83d b30d b83d
00000140: c785 4c3e df98 f3bd c295 03be 6108 3d3d
00000150: ef18 72be 7a97 88be e8a1 983e 53c9 193e
00000160: 593d 1e3c eb2c 413d 8889 debd f845 babc
00000170: 13ee 09bd 4860 783d e2d5 b13d c71c b13d
00000180: 36d7 99be 997b c33d a311 763e bcc3 903d
00000190: c7dd 223e d247 033e 4dbc b13c 6c18 9f3d
000001a0: b522 a5bc 7ddd a63d 6c44 b6be 0870 2ebe
000001b0: 4c00 5c3e 12c7 4e3e 05a2 633e d304 8e3d
000001c0: a769 0f3e 5cba e5bb 3505 c23d d90a 833e
000001d0: 1565 8e3d fdb9 e1bd 7d1d 08bd 3ef6 9d3e
000001e0: d119 8b3e ed3e e63d c001 393e dd79 e2bd
000001f0: e539 95bc f330 09be 8f1b 953d 2fd5 5a3e
00000200: e21f d1bd d867 863d fe55 18be d901 2bbe
00000210: da9e 1d3e 752c a4be c340 c43d a36f 8d3e
00000220: c842 943e 2fa3 b9bd 7c7c 8bbe c1a5 6dbe
00000230: 729f 1e3e 8a48 0fbe d880 2bbe 8326 94bc
00000240: be12 08bd f10f c4bd 0e32 54bd 4b96 babc
00000250: 1c7f 713e 5eac 663e 5a36 3ebe d39c 053e
00000260: c896 ae3d ec0c 733c 8f48 f33d a127 623e
00000270: 7753 9e3e 81e8 0cbd 5eb9 a1bd b3b8 22be
00000280: 851c 3d3e 5579 02bd 10a1 843e 5c2e f4be
00000290: 1e3c 83be 4db6 c8be 4e5c 02be a226 2d3f
000002a0: 33b0 023d 5e0c 763e 05c7 7ebd 7a90 ec3e
000002b0: 200a 0cbe ed67 af3d 60ce 41be 1442 063f
000002c0: 7d72 92be 4090 a8be 63a7 233e 198b 773e
000002d0: 3292 18be ad60 c13d a658 853e 5adc 033e
000002e0: 924c 883e 3fa1 40bd 58ff 25be 36fa bfbd
000002f0: a522 2a3d 63c7 65be 293b 9e3d 5e79 4a3e
00000300: 62cd c4bd e890 773e c43d aabe 1e8b ddbd
00000310: 38ef 29bd e388 61bc 1634 59bd aacf e03d
00000320: eb6f 803d 11a4 803e 6ca6 ad3d 36d2 20be
00000330: 5281 a03d fff9 f13d 1bdf 053e e879 a5bd
00000340: e7d5 77be 4af8 fe3c 23c6 cdbd cd71 3abd
00000350: 973d 6d3e 4620 46be 1bd2 923d 1f8a 80be
00000360: 4506 733e d750 c5bd 1ab4 6bbe a308 23be
00000370: b98f a33d 61c4 813e 3a2e 083d 6071 c93c
00000380: f55a 11bc 487b 1f3e 87f0 45bd 5b77 7dbd
00000390: c981 7abe e9ca 6d3e a24b 0abe 7c86 d1bb
000003a0: e74b 653e 69a3 60be fccf cf3d 77ca a43b
000003b0: 087a f63d 2354 9fbe 9a37 b0be 32d2 0fbe
000003c0: 364f 78bd a0ed acbc 9d95 84be a77c 573e
000003d0: a7a2 a33e 3172 8bbe a15a 78be 3ec1 debe
000003e0: 1152 b03e 39bd e3bd 5c5b de3d 4b12 13be
000003f0: 7517 eebc 6759 e23c f936 ac3d 7c66 f7bd

decoder.0.bias f4 [20]
-0.13433108 -0.16569886 0.08798076 0.1479251 0.15893276 0.04550999 0.16619141 -0.088438034
0.29621103 0.13721727 0.03903303 0.21212761 -0.082215846 -0.060613208 -0.10543984 0.11201359
-0.19751294 -0.031353407 0.23957326 -0.11714535
00000000: 168e 09be f6ac 29be 422f b43d ad79 173e
00000010: 45bf 223e af68 3a3d 152e 2a3e 001f b5bd
00000020: f9a8 973e af82 0c3e 19e1 1f3d fb37 593e
00000030: c860 a8bd 8e45 78bd d8f0 d7bd 6267 e53d
00000040: d540 4abe 6e6c 00bd b152 753e e7e9 efbd

decoder.2.weight f4 [20, 20]
0.031785138 -0.023143617 -0.41561377 -0.008405422 0.13859822 -0.08422978 -0.5176457 -0.35084113
0.05964787 0.22373092 -0.20611091 -0.483511 0.10088365 0.25055078 -0.0074325367 -0.07113892
0.34984368 0.42790517 0.23887846 -0.18297164 0.34978062 0.28774616 0.13506663 0.034052227
-0.15966332 0.11581279 0.11881758 0.304812 -0.1153514 -0.08028557 -0.056071695 0.09824472
0.26945993 0.027150385 0.10430049 -0.22697227 0.0078509515 -0.026552241 0.33866325 0.21621135
0.314907 0.31280386 0.2182735 -0.156783 -0.0802434 -0.09716414 0.21829589 0.01232624
-0.3555182 -0.3066674 0.18541889 0.29611433 0.11997967 -0.32943982 -0.275594 0.0009282982
-0.3936844 -0.06788514 -0.18867083 -0.02846303 -0.24016468 -0.22109418 -0.3306663 0.17634603
0.054862093 -0.3186045 -0.21059671 -0.34806922 0.036509596 0.45676002 0.13584283 -0.37817848
-0.354732 0.17319249 -0.115562774 0.07562726 0.15808448 0.39373913 0.09765111 -0.33858824
0.29912147 -0.025019301 0.24028277 -0.40435022 -0.0552451 0.10504723 0.06422519 0.4261023
-0.43472305 -0.41650793 0.19028692 0.22383113 -0.024361147 -0.44989097 0.042924732 0.0950419
-0.27742857 0.13386834 0.13046128 0.54385597 -0.06565101 0.14324246 0.001877895 -0.18827693
-0.14804544 0.12710059 -0.12538818 0.31413177 -0.27704704 0.016861934 -0.26210544 -0.15348276
0.47064298 -0.279679 0.27014846 -0.16703774 -0.12959892 0.037684962 -0.06302835 0.2306304
0.36151344 0.2855636 -0.023788633 -0.015562452 -0.07211137 0.027610313 0.089463145 -0.08426562
-0.28447628 0.12522168 0.037019372 0.27959108 -0.089984395 -0.37216926 -0.3556178 0.3601967
-0.3327316 -0.015578445 -0.09943137 0.2989068 -0.04197345 -0.10745729 -0.22209033 0.3272219
0.14583662 0.001158625 -0.16938445 -0.348735 0.14620927 -0.008589609 -0.03962099 0.07034933
-0.26390803 0.19264665 -0.2749065 0.20890199 -0.16784163 -0.061856877 0.27022928 -0.28596935
0.2213571 0.21276279 0.14130563 -0.17062075 -0.03475581 0.13086416 -0.049199883 -0.06814161
-0.17064162 0.082199045 0.0010689236 0.15501052 0.17668533 -0.21565235 -0.17740723 -0.19109029
-0.08351591 -0.05730514 -0.24128506 0.3899513 -0.08671216 0.2596086 0.28954744 -0.08460434
0.13998127 0.031024313 0.3626808 0.1752084 -0.07054503 -0.38116103 0.15765706 -0.019736009
0.08212493 -0.29417267 -0.20979585 0.13402106 -0.3106427 -0.11508667 -0.029228471 0.29400483
0.12175963 0.1303915 0.15959252 -0.1822052 -0.19880728 0.5384448 -0.18342274 0.19554275
0.19179988 0.33950138 -0.060999967 0.07422635 0.41668558 0.31890237 -0.0892601 -0.16286117
0.07604072 0.07466028 -0.4344883 -0.11499315 0.059582293 -0.05095382 -0.38008875 0.17362827
0.33330122 -0.47946694 -0.3619786 -0.4165101 0.1148057 0.009487832 -0.049265556 -0.3322347
-0.09276281 0.27670676 0.42465276 -0.34179544 0.51118064 0.12101802 0.59986717 -0.13915542
0.027481034 0.18916653 -0.025060127 -0.19415155 -0.2693829 0.29464805 0.34160835 0.054298267
-0.0063782176 0.07866298 0.22516172 0.23440574 0.20493658 -0.058686275 -0.23795941 0.060908057
00000000: 2231 023d af97 bdbc 54cb d4be e5b6 09bc
00000010: b1ec 0d3e aa80 acbd 6e84 04bf 73a1 b3be
00000020: 5351 743d b819 653e bd0e 53be c18e f7be
00000030: 169c ce3d 3148 803e a38c f3bb 48b1 91bd
00000040: b61e b33e 6316 db3e 8e9c 743e eb5c 3bbe
00000050: 7216 b33e 7753 933e e84e 0a3e 597a 0b3d
00000060: c87e 23be 422f ed3d a256 f33d 5210 9c3e
00000070: 5b3d ecbd c36c a4bd 6fab 65bd 8734 c93d
00000080: a7f6 893e 7c6a de3c 7f9b d53d 6b6b 68be
00000090: 47a1 003c 1684 d9bc 4565 ad3e 8266 5d3e
000000a0: 7e3b a13e d427 a03e 1783 5f3e b98b 20be
000000b0: a756 a4bd fefd c6bd f588 5f3e fff3 493c
000000c0: 7b06 b6be 8203 9dbe 73de 3d3e 4c9c 973e
000000d0: e7b7 f53d 56ac a8be a81a 8dbe 0a59 733a
000000e0: 0091 c9be 5d07 8bbd ed32 41be 4d2b e9bc
000000f0: bbed 75be 8366 62be 184d a9be 0e94 343e
00000100: 13b7 603d 2120 a3be aaa6 57be 2136 b2be
00000110: 168b 153d 73dc e93e 621a 0b3e 9ca0 c1be
00000120: 6f9f b5be 5f59 313e 2dac ecbd 77e2 9a3d
00000130: e6e0 213e 2d98 c93e 4efd c73d 705b adbe
00000140: 7326 993e 47f5 ccbc b00c 763e fe06 cfbe
00000150: b048 62bd 0123 d73d 7f88 833d 152a da3e
00000160: 0594 debe 8740 d5be 93da 423e fd33 653e
00000170: 0791 c7bc 1c58 e6be d8d1 2f3d 54a5 c23d
00000180: 1e0b 8ebe c814 093e a497 053e 253a 0b3f
00000190: 0974 86bd 27ae 123e b323 f63a abcb 40be
000001a0: 3999 17be a826 023e c265 00be e1d5 a03e
000001b0: 1cd9 8dbe 0a22 8a3c af32 86be 962a 1dbe
000001c0: 1ef8 f03e 1632 8fbe e650 8a3e f10b 2bbe
000001d0: 94b5 04be 8c5b 1a3d 0215 81bd 602a 6c3e
000001e0: 4a18 b93e 6435 923e 61e0 c2bc a8f9 7ebc
000001f0: 20af 93bd 062f e23c 7438 b73d 7493 acbd
00000200: e0a6 91be 1d3a 003e a0a1 173d 9026 8f3e
00000210: bd49 b8bd f88c bebe 8913 b6be b46b b83e
00000220: cc5b aabe bc3c 7fbc ada2 cbbd 500a 993e
00000230: 5aec 2bbd 9112 dcbd a66b 63be a189 a73e
00000240: 3256 153e 01dd 973a 1e73 2dbe 658d b2be
00000250: e2b7 153e 6ebb 0cbc 9f49 22bd 4f13 903d
00000260: f41e 87be 2a45 453e 8bc0 8cbe 67ea 553e
00000270: adde 2bbe a35d 7dbd 7e5b 8a3e 936a 92be
00000280: 70ab 623e 7dde 593e 6cb2 103e 35b7 2ebe
00000290: 1c5c 0ebd 4101 063e d185 49bd d48d 8bbd
000002a0: adbc 2ebe f957 a83d 201b 8c3a 14bb 1e3e
000002b0: 00ed 343e f8d3 5cbe 3eaa 35be 2cad 43be
000002c0: 640a abbd cbb8 6abd 6e13 77be b2a7 c73e
000002d0: 2596 b1bd 6beb 843e 903f 943e 0a45 adbd
000002e0: 4057 0f3e b326 fe3c 4cb1 b93e d569 333e
000002f0: ea79 90bd 8a27 c3be da70 213e 69ad a1bc
00000300: 1e31 a83d cd9d 96be b9d4 56be d13c 093e
00000310: 8f0c 9fbe 8fb2 ebbd 8c70 efbc cd87 963e
00000320: 1d5d f93d 5985 053e 396c 233e 0094 3abe
00000330: 2394 4bbe 85d7 093f 2cd3 3bbe 5c3c 483e
00000340: 3067 443e 20d3 ad3e 1adb 79bd fc03 983d
00000350: d057 d53e 2c47 a33e 00ce b6bd 14c5 26be
00000360: 3dbb 9b3d 7de7 983d 4075 debe 8781 ebbd
00000370: 900c 743d f4b4 50bd fe9a c2be 9ccb 313e
00000380: 75a6 aa3e b17c f5be 4255 b9be d040 d5be
00000390: 401f eb3d da72 1b3c aeca 49bd ab1a aabe
000003a0: 6efa bdbd 82ac 8d3e 166c d93e d0ff aebe
000003b0: bcdc 023f 4cd8 f73d e590 193f c27e 0ebe
000003c0: e81f e13c dfb4 413e e54a cdbc aacf 46be
000003d0: 8eec 89be 1cdc 963e 4ae7 ae3e dc67 5e3d
000003e0: 5e00 d1bb 0e1a a13d cb90 663e 0f08 703e
000003f0: e5da 513e 0561 70bd a2ab 73be ba7a 793d

decoder.2.bias f4 [20]
-0.21933997 -0.056158084 0.10892518 -0.09150458 -0.10247294 -0.17466356 0.09542341 -0.07482373
0.022713065 0.0938888 -0.11048025 -0.2924949 0.16434616 0.12426944 -0.25500393 -0.24533023
-0.029329417 0.09942288 0.027800664 0.09972709
00000000: a89a 60be 0506 66bd 2a14 df3d c166 bbbd
00000010: 55dd d1bd 01db 32be 596d c33d 2f3d 99bd
00000020: c010 ba3c c548 c03d 7843 e2bd e4c1 95be
00000030: 5c4a 283e fa80 fe3d e08f 82be d937 7bbe
00000040: 3f44 f0bc 399e cb3d 38be e33c b73d cc3d

decoder.4.weight f4 [20, 20]
0.25699356 -0.25247228 0.1366957 0.18347213 -0.04251592 -0.14845222 0.23834133 0.23588414
0.025640402 -0.10776193 0.07154718 -0.18957008 -0.06277641 -0.2540869 0.35171673 0.08419452
0.21660377 0.08049316 0.2925626 0.32887468 0.16140558 -0.17797424 -0.40269172 0.035076294
-0.20985742 0.07671398 -0.22575636 0.20786259 -0.12590283 -0.38348794 0.08577558 0.1915678
-0.19228789 0.03933571 -0.24803427 -0.15228115 0.12140173 -0.11897436 0.007592591 -0.02131233
-0.30679938 -0.5054264 0.10503515 0.4363283 -0.08203554 -0.39954835 0.42576158 0.0855125
-0.14881663 0.2331918 -0.054072533 -0.5074767 0.32343662 0.018804716 -0.2023357 0.00016499622
-0.40674388 -0.03990091 -0.030975722 -0.14707856 -0.13412395 0.107898496 0.19325069 -0.22684455
0.12409526 0.12619975 0.27990672 -0.1994847 -0.0710824 -0.008673113 -0.15651001 -0.041232236
0.16903646 -0.15164399 0.18792273 0.13612877 0.14055984 -0.09352838 0.2229965 0.07296005
0.32398707 -0.05534515 0.017672706 -0.07950344 0.055767816 0.2950938 -0.12085526 -0.13456063
-0.17169115 -0.1664755 -0.0687877 0.41948196 -0.13663432 0.018067371 0.19038534 0.088391595
0.29165375 0.2450068 -0.035385653 0.18478855 0.16383068 -0.36015627 -0.27901426 -0.18789764
-0.14795221 -0.27922282 -0.19059111 0.12509038 -0.062166195 -0.29809582 -0.11187634 -0.058043946
-0.08248511 -0.10315889 -0.64419395 -0.30248046 0.15171967 0.5484141 -0.18523207 0.14091264
0.26339677 -0.090724796 0.023958003 0.2920114 -0.14643838 -0.24739574 0.04664991 0.18393125
-0.21388455 -0.24607523 -0.10961881 0.011201619 0.018870069 -0.10208063 0.04788101 0.007832992
0.03338717 -0.18126296 -0.25814763 -0.15244609 0.21968955 -0.24664344 -0.32836017 0.29233515
-0.22772382 -0.06947732 0.0066309655 0.34119815 -0.38556278 -0.23089013 -0.43014315 0.16716841
-0.08218965 -0.038962964 0.066451505 -0.27722967 0.0055684373 0.09391495 -0.19338296 0.3531741
0.08271825 0.0155525645 0.20173131 0.0032014141 0.19676368 0.088046916 0.26210344 0.11824768
0.07904091 0.20114572 0.16542198 -0.20137346 0.005977828 -0.18141074 0.31112838 0.14062329
-0.3787084 0.105046116 0.11880014 -0.28654355 0.2773579 0.13938402 -0.011299907 -0.08826853
0.36733648 0.47584787 -0.04430576 -0.1458757 0.21066944 0.06405584 0.16931902 0.3578975
-0.03480802 -0.47119004 0.69449216 0.20326525 0.0044274735 -0.6428038 0.17281283 -0.44491097
0.28619996 0.3683219 0.054783583 0.106314175 0.23559576 0.19210708 -0.30558297 -0.023581311
-0.0876797 -0.15627535 -0.049634077 0.23531324 -0.3410759 -0.033394426 0.19362997 0.12013388
0.37475577 0.33308566 0.06667101 0.059536558 0.14825124 0.054151587 0.17457926 -0.050354242
-0.08267105 0.090336226 0.010989183 0.11627778 0.1428069 0.008939967 -0.14511684 -0.07610844
0.0099496925 0.2968621 1.2244438 0.78884864 -0.1381608 -0.3093679 -0.15814193 -0.19719687
0.16982017 0.04288687 0.029378219 0.10795928 -0.22551318 0.0893726 -0.3571324 0.10093465
-0.064356305 -0.0152860675 0.069624536 0.027561298 -0.17459324 -0.14368604 -0.1491907 -0.4237816
00000000: a994 833e 0c44 81be f5f9 0b3e 1ee0 3b3e
00000010: 2c25 2ebd dc03 18be c00f 743e 9d8b 713e
00000020: d20b d23c 49b2 dcbd 5487 923d a91e 42be
00000030: eb90 80bd ae17 82be 3714 b43e 2d6e ac3d
00000040: 61cd 5d3e 99d9 a43d c4ca 953e 4362 a83e
00000050: 8147 253e e13e 36be 9c2d cebe 29ac 0f3d
00000060: dde4 56be 381c 9d3d ad2c 67be eed9 543e
00000070: acec 00be 8858 c4be 1bab af3d 592a 443e
00000080: 1ee7 44be 7b1e 213d b2fc 7dbe 97ef 1bbe
00000090: 78a1 f83d d4a8 f3bd 45cb f83b 3297 aebc
000000a0: cf14 9dbe a063 01bf ab1c d73d 6c66 df3e
000000b0: 4002 a8bd 9a91 ccbe 6cfd d93e 2d21 af3d
000000c0: 6363 18be d5c9 6e3e 297b 5dbd fee9 01bf
000000d0: 7c99 a53e 590c 9a3c 1731 4fbe d602 2d39
000000e0: bc40 d0be 236f 23bd ccc0 fdbc c39b 16be
000000f0: ca57 09be e3f9 dc3d 82e3 453e f049 68be
00000100: a825 fe3d 823a 013e ef4f 8f3e b845 4cbe
00000110: a693 91bd ac19 0ebc 2944 20be 22e3 28bd
00000120: e517 2d3e 9048 1bbe d16e 403e 5765 0b3e
00000130: ebee 0f3e cf8b bfbd 3259 643e 146c 953d
00000140: a2e1 a53e 99b1 62bd 5ac6 903c b3d2 a2bd
00000150: cb6c 643d 8916 973e f682 f7bd 43ca 09be
00000160: cecf 2fbe 8e78 2abe 91e0 8cbd 57c6 d63e
00000170: dee9 0bbe 0602 943c 60f4 423e a706 b53d
00000180: a453 953e 10e3 7a3e 8cf0 10bd 3639 3d3e
00000190: 3bc3 273e 6766 b8be f5da 8ebe 3d68 40be
000001a0: c980 17be 4bf6 8ebe 512a 43be b117 003e
000001b0: fba1 7ebd 04a0 98be 6c1f e5bd 7dbf 6dbd
000001c0: f4ed a8bd f844 d3bd e5e9 24bf b8de 9abe
000001d0: 675c 1b3e de64 0c3f 7aad 3dbe 674b 103e
000001e0: f1db 863e eccd b9bd 9343 c43c 8582 953e
000001f0: f1f3 15be 4f55 7dbe fa13 3f3d 7958 3c3e
00000200: 8d04 5bbe 25fb 7bbe d47f e0bd ff86 373c
00000210: 6795 9a3c a60f d1bd e11e 443d f355 003c
00000220: fcc0 083d ff9c 39be ed2b 84be d41a 1cbe
00000230: 4cf6 603e 1990 7cbe d31e a8be f4ac 953e
00000240: 6f30 69be 204a 8ebd 9248 d93b 86b1 ae3e
00000250: 7c68 c5be 766e 6cbe b93b dcbe 322e 2b3e
00000260: 0c53 a8bd a197 1fbd ba17 883d 0cf1 8dbe
00000270: 7077 b63b 7b56 c03d 2f06 46be 3cd3 b43e
00000280: 3068 a93d 2fd0 7e3c a792 4e3e d1ce 513b
00000290: 6b7c 493e f151 b43d 6c32 863e d72b f23d
000002a0: 33e0 a13d 25f9 4d3e 6164 293e d834 4ebe
000002b0: a8e1 c33b bdc3 39be 384c 9f3e 8dff 0f3e
000002c0: 11e6 c1be 6b22 d73d 7d4d f33d d6b5 92be
000002d0: db01 8e3e afba 0e3e 3f23 39bc 22c6 b4bd
000002e0: 8713 bc3e 55a2 f33e f579 35bd 7160 15be
000002f0: bbb9 573e b52f 833d f761 2d3e 573e b73e
00000300: db92 0ebd d23f f1be 3dca 313f c424 503e
00000310: 5714 913b ca8e 24bf d9f5 303e 5fcb e3be
00000320: cd88 923e b094 bc3e c064 603d 3fbb d93d
00000330: 0440 713e b8b7 443e 5f75 9cbe 982d c1bc
00000340: 6a91 b3bd a506 20be 1a4d 4bbd f4f5 703e
00000350: 80a1 aebe 98c8 08bd ef46 463e c008 f63d
00000360: fddf bf3e 348a aa3e cf8a 883d 9bdc 733d
00000370: 2ccf 173e 0ece 5d3d e8c4 323e 4040 4ebd
00000380: 714f a9bd 3302 b93d f90b 343c 0b23 ee3d
00000390: f93b 123e f078 123c 8299 14be bede 9bbd
000003a0: 0904 233c 4ffe 973e 93ba 9c3f fcf1 493f
000003b0: 067a 0dbe 7865 9ebe f5ef 21be faed 49be
000003c0: 57e5 2d3e 25aa 2f3d 97aa f03c c119 dd3d
000003d0: edec 66be fb08 b73d 0fda b6be d3b6 ce3d
000003e0: 3dcd 83bd 6a72 7abc 4f97 8e3d 3bc8 e13c
000003f0: 92c8 32be 6f22 13be 72c5 18be e7f9 d8be

decoder.4.bias f4 [20]
-0.1624789 -0.06659272 0.35761544 -0.03306053 -0.17389786 0.22033316 0.02816645 -0.11165934
6.247018e-07 -0.48891875 0.00801095 -0.09415727 -0.17357029 -0.09854143 0.1701007 -0.0052388664
-0.12226116 -0.1529989 -0.104415715 0.25033972
00000000: de60 26be c461 88bd 5f19 b73e 7a6a 07bd
00000010: 4812 32be 049f 613e 54bd e63c a7ad e4bd
00000020: 2eb1 2735 8f53 fabe 5c40 033c 87d5 c0bd
00000030: 69bc 31be 17d0 c9bd e12e 2e3e ccaa abbb
00000040: 0f64 fabd beab 1cbe e8d7 d5bd 872c 803e

decoder.6.weight f4 [20, 20]
0.20826206 0.19417578 0.047143597 -0.13750601 0.2663551 0.08855938 0.1716921 0.19115412
0.07517171 0.20961569 0.25149623 -0.0739826 0.18386014 0.05996835 0.025802352 0.30687624
0.25196874 -0.11520781 0.10351357 -0.16859321 0.06284695 0.0064619905 -0.008791212 -0.23059069
-0.1544147 0.23609078 0.15202564 0.33290416 -0.010374518 -0.2653302 -0.042089302 0.0718735
0.08731054 -0.29802686 0.23390093 0.19528046 0.30565774 0.046633843 0.13489036 0.05419104
0.16452423 0.041060526 -0.47364357 0.21892318 0.36790016 -0.030295352 -0.14113703 0.034092505
-0.09039436 0.3512387 0.14680657 0.063465156 0.057612896 -0.052124806 -0.26368532 0.13417001
0.25490916 -0.025700776 0.14512545 -0.14630164 -0.2582113 -0.36819792 0.08910267 0.15420862
0.05572452 0.20154306 -0.123823665 -0.012802939 0.36919397 -0.035161123 -0.08940089 -0.085412554
0.06378954 0.09361351 0.06018289 0.19449362 0.21683192 0.26092276 0.18142588 -0.25730088
0.12077426 -0.2729568 0.46699736 0.0654479 0.0014424303 0.055882934 0.031881157 0.13591212
-0.05711232 -0.40795627 -0.058640648 0.44056204 -0.07743601 -0.23333602 0.37191224 0.20754524
0.11436098 -0.033538613 -0.2588391 -0.20776309 0.16680177 0.0687509 0.156496 -0.035643794
0.021247413 0.43175265 0.073839635 -0.088545635 0.021917209 -0.808991 -0.1425796 0.60580707
-0.16182695 -0.021661906 0.16906253 0.062556915 -0.0036594602 0.26261047 -0.19708724 0.37464103
0.325868 0.23087706 -0.36150944 -0.020908576 0.22647822 0.170202 0.22232708 -0.00039614624
-0.1085227 -0.021509508 0.17817907 0.1927636 0.27934605 -0.1351938 -0.24278696 0.3082143
0.16482787 -0.2901815 -0.15531717 0.10634338 0.05513407 -0.029239928 0.06379238 -0.23395462
0.1558724 -0.1760049 0.015869914 0.057962235 0.0763837 0.2480016 -0.09271938 -0.23938656
-0.09258408 -0.15830946 -0.08069208 -0.08526435 0.1732096 0.103838004 -0.38343304 -0.022086801
0.034059025 0.24154964 0.04884112 -0.3599531 0.2621323 0.24911201 0.25001112 0.15022764
-0.13233821 -0.065547 0.19062063 0.19218199 0.31025562 -0.21279243 0.042476874 0.27769879
0.22448473 -0.2102341 -0.19598062 0.2918687 -0.10092129 0.06268698 0.14282814 0.18626769
-0.0872506 -0.15145181 0.044978518 -0.13621339 0.074092075 0.118132636 -0.22919264 -0.09298955
-0.11131878 0.19859129 -0.23689295 -0.08077198 0.20070629 -0.059459046 -0.19077311 0.0074118846
0.21685787 -0.03491781 -0.40320775 -0.14312713 0.33503672 -0.015416637 -0.262623 0.091575876
0.09769496 0.32916132 0.42524144 -0.09784524 0.14420162 0.07704022 0.08003783 0.11202077
0.32619247 -0.045740336 0.120738745 -0.068898804 -0.11606195 0.5023236 0.010091914 -0.15543167
0.03670577 0.30041265 0.1917093 -0.017749304 -0.4753512 -0.34283102 0.29855183 0.17319596
0.22395445 -0.5227817 -0.3754354 -0.14400746 -0.29138502 -0.274277 -0.18337364 0.02487583
-0.15559052 0.120923445 0.3117086 -0.12364252 -0.24455172 0.18509626 0.11545219 -0.008856566
-0.07330473 -0.36802354 -0.0067766896 -0.5989124 -0.0729104 0.040331755 0.342417 0.15847988
00000000: a642 553e 04d6 463e a519 413d 60ce 0cbe
00000010: b25f 883e 9f5e b53d 0ed0 2f3e e8bd 433e
00000020: a0f3 993d 7fa5 563e 1dc4 803e 3084 97bd
00000030: d545 3c3e 5fa1 753d 745f d33c e21e 9d3e
00000040: 0c02 813e 13f2 ebbd ecfe d33d b3a3 2cbe
00000050: e7b5 803d 1bbf d33b 0409 10bc f71f 6cbe
00000060: e31e 1ebe c8c1 713e 9cac 1b3e 6a72 aa3e
00000070: e2f9 29bc 5cd9 87be d565 2cbd 6a32 933d
00000080: decf b23d fa96 98be ba83 6f3e 9af7 473e
00000090: 2c7f 9c3e 2103 3f3d b320 0a3e 6df7 5d3d
000000a0: 0a79 283e 152f 283d 6981 f2be 662d 603e
000000b0: 695d bc3e f52d f8bc 3a86 10be 95a4 0b3d
000000c0: ae20 b9bd 8fd5 b33e 7654 163e 05fa 813d
000000d0: 80fb 6b3d d280 55bd c301 87be dd63 093e
000000e0: 7483 823e 6f8a d2bc c49b 143e 19d0 15be
000000f0: 4634 84be 7084 bcbe 767b b63d dde8 1d3e
00000100: 653f 643d 4e61 4e3e 4397 fdbd 6bc3 51bc
00000110: fe06 bd3e 1c05 10bd d017 b7bd c7ec aebd
00000120: 17a4 823d 71b8 bf3d 5682 763d 5629 473e
00000130: 3009 5e3e ab97 853e b5c7 393e f1bc 83be
00000140: 7f58 f73d fec0 8bbe 471a ef3e 8c09 863d
00000150: ee0f bd3a 81e5 643d d195 023d 8c2c 0b3e
00000160: 9cee 69bd a5df d0be 2d31 70bd 5991 e13e
00000170: c596 9ebd a3ef 6ebe 486b be3e bd86 543e
00000180: 1736 ea3d c95f 09bd 8f86 84be d9bf 54be
00000190: 15ce 2a3e 46cd 8c3d 7d40 203e 3aff 11bd
000001a0: 0e0f ae3c af0e dd3e 3c39 973d 6a57 b5bd
000001b0: b88b b33c 091a 4fbf 6300 12be 2c16 1b3f
000001c0: f7b5 25be 4f74 b1bc ba1e 2d3e d71d 803d
000001d0: 8ed3 6fbb e174 863e 3dd1 49be f3d0 bf3e
000001e0: 2cd8 a63e 096b 6c3e c417 b9be 7648 abbc
000001f0: e8e9 673e 6f49 2e3e b6a9 633e d9b1 cfb9
00000200: 2641 debd b534 b0bc 9374 363e d263 453e
00000210: 7206 8f3e 3e70 0abe 259d 78be 44ce 9d3e
00000220: a3c8 283e ab92 94be 770b 1fbe 8fca d93d
00000230: 43d4 613d 9388 efbc 94a5 823d cd91 6fbe
00000240: 049d 1f3e a13a 34be 9f01 823c cf69 6d3d
00000250: 0f6f 9c3d 22f4 7d3e a9e3 bdbd c021 75be
00000260: b99c bdbd e01b 22be e441 a5bd 139f aebd
00000270: db5d 313e 05a9 d43d 5651 c4be 61ef b4bc
00000280: 7a81 0b3d ca58 773e a00d 483d c64b b8be
00000290: 3436 863e 3817 7f3e 7501 803e 46d5 193e
000002a0: ab83 07be 813d 86bd 0e32 433e 5bcb 443e
000002b0: d3d9 9e3e 42e6 59be 3bfc 2d3d 892e 8e3e
000002c0: 53df 653e 9c47 57be 25af 48be d06f 953e
000002d0: d2af cebd 0862 803d 8a41 123e f5bc 3e3e
000002e0: 71b0 b2bd 2f16 1bbe 653b 383d 867b 0bbe
000002f0: 96bd 973d 86ef f13d 7ab1 6abe 4e71 bebd
00000300: 1afb e3bd 845b 4b3e 1194 72be c86b a5bd
00000310: f385 4d3e 548b 73bd 075a 43be 65df f23b
00000320: fd0f 5e3e fa05 0fbd 3f71 cebe eb8f 12be
00000330: ef89 ab3e 1096 7cbc 8676 86be 228c bb3d
00000340: 4c14 c83d d587 a83e 3fb9 d93e 1663 c8bd
00000350: 97a9 133e 43c7 9d3d e0ea a33d 256b e53d
00000360: b302 a73e 385a 3bbd e045 f73d d11a 8dbd
00000370: e3b1 edbd 4898 003f 8e58 253c 7b29 1fbe
00000380: ca58 163d b0cf 993e 714f 443e fd66 91bc
00000390: 3c61 f3be 8c87 afbe c9db 983e 485a 313e
000003a0: 5154 653e 06d5 05bf 1239 c0be b176 13be
000003b0: 6b30 95be 096e 8cbe 4dc6 3bbe 66c8 cb3c
000003c0: 1f53 1fbe b6a6 f73d 4598 9f3e 4a38 fdbd
000003d0: c46b 7abe e089 3d3e 3372 ec3d 211b 11bc
000003e0: ca20 96bd 956d bcbe fe0e debb 5352 19bf
000003f0: 0c52 95bd e932 253d 4851 af3e 8d48 223e

decoder.6.bias f4 [20]
0.074992895 0.025979318 -0.3408504 -0.028239882 0.11789416 0.1005802 0.09308756 -0.23937741
-0.15398772 -0.035623632 0.045784082 -0.17995071 0.23305838 -0.054539114 0.21229795 0.0130216265
-0.177724 0.09335101 0.12440651 0.19675621
00000000: e095 993d 94d2 d43c f283 aebe 5357 e7bc
00000010: 7e72 f13d fefc cd3d b1a4 be3d 5a1f 75be
00000020: f5ae 1dbe 16ea 11bd 1788 3b3d 0045 38be
00000030: dba6 6e3e 6864 5fbd a264 593e a958 553c
00000040: 48fd 35be d02e bf3d d7c8 fe3d 767a 493e

decoder.8.weight f4 [20, 20]
0.057759516 0.12777387 -0.028692223 0.07130548 -0.02540078 0.2434801 0.0953711 -0.21999022
0.17740214 0.11618543 0.13782044 -0.1111756 -0.28511932 0.09115521 -0.004216419 -0.1853977
-0.1919067 0.18385653 0.16875999 0.116760574 -0.029390683 0.17734745 0.13188851 0.06706404
0.3357966 -0.11166321 -0.011289229 -0.14701629 -0.14298056 0.23569016 0.11226939 0.12754223
-0.19536336 0.00470711 0.09976794 0.001408694 -0.17378893 0.29253778 -0.034667604 0.26137984
-0.17910442 -0.07114763 -0.1072615 -0.28500813 -0.16961245 -0.19286305 -0.106137976 0.32391384
-0.15148792 0.012590997 -0.19740494 0.12982999 0.07896324 0.2526693 -0.19876435 0.03563262
0.20924157 -0.42133954 -0.17645037 -0.12656675 -0.14735794 0.082386546 0.24220878 0.13428226
0.17376362 0.308652 0.15783 -0.19656101 -0.03105297 -0.25765496 -0.07907959 -0.058071993
0.13806985 -0.21610369 0.023072995 0.00547168 0.0118889045 -0.02112123 -0.048345756 0.17373765
-0.065152355 -0.13874228 0.015479127 -0.25255448 -0.09566168 -0.39646405 0.04153688 -0.093787774
-0.043342154 0.03585819 -0.16398825 0.3662977 -0.09226569 0.18532006 0.3350995 -0.12522529
0.20473465 -0.3964132 0.14918503 -0.29827225 -0.122730814 -0.19967756 0.0032907664 -0.05612179
-0.2668621 -0.33408085 -0.105139144 -0.13659507 -0.07841742 0.20194113 0.056904912 0.16424845
0.3243808 0.1027939 0.08406213 -0.0688722 0.05386322 -0.41273132 0.02540956 -0.29538783
-0.032231852 -0.061785772 0.070258394 0.0005074337 0.022564726 -0.077643424 -0.11877589 0.067911044
0.16790406 0.13829476 -0.08140087 -0.074454665 -0.26442012 -0.07774311 -0.24945547 0.22676335
-0.0033321115 0.122629404 0.025504354 -0.014465036 -0.15811023 0.13564233 0.3372212 -0.124483034
-0.6175797 -0.17701669 -0.05394683 -0.07404536 0.07566232 -0.25439265 0.41056997 0.05183131
-0.12533526 0.17049624 -0.35467064 -0.33848423 -0.025656804 -0.054338157 0.048077513 0.19964491
-0.12352737 -0.086547144 0.20646124 0.27446014 0.17159729 0.16982482 0.17135842 -0.26572362
-0.14934622 -0.13033882 -0.07042648 -0.1899465 -0.050594997 -0.12990884 -0.19474722 -0.19690904
-0.11168321 0.26364824 0.13661426 -0.07148395 0.14873698 0.16292922 0.31550974 0.20686008
-0.44985563 -0.23891608 0.11652517 -0.05950473 0.15794969 -0.2246019 0.2257151 -0.09481417
-0.21145095 0.21675089 -0.11442181 -0.14935724 -0.140438 -0.13781989 -0.21674013 0.1484019
-0.30480355 0.05273661 -0.059909537 -0.33346587 -0.01889173 0.0041270573 -0.20098752 0.15457247
-0.23068136 0.07227075 -0.11819895 0.053167094 0.0045682704 -0.060533807 0.04906748 0.024419386
0.0679358 -0.047077127 0.25002092 0.0034650245 -0.05437504 0.04127995 0.34366056 0.0064885826
-0.46536607 -0.1540043 0.08267576 -0.104797155 0.0062396605 -0.17603043 0.24713638 -0.027252633
-0.21959572 -0.20325504 -0.06071304 0.034307215 -0.14659323 -0.11257595 -0.3000676 -0.20774813
0.2639114 -0.094325654 -0.047648672 0.36157402 -0.114171155 0.018081235 -0.10348166 -0.19004084
0.110389315 0.04803521 0.11300555 -0.2637158 0.007996847 -0.19360209 0.06985258 -0.2461134
00000000: 3e95 6c3d 27d7 023e f40b ebbc 9c08 923d
00000010: 4c15 d0bc d952 793e ec51 c33d 1e45 61be
00000020: e8a8 353e a0f2 ed3d cd20 0d3e 08b0 e3bd
00000030: 29fb 91be 95af ba3d e329 8abb e5d8 3dbe
00000040: 3183 44be e344 3c3e 6bcf 2c3e 2b20 ef3d
00000050: bbc4 f0bc 929a 353e c80d 073e df58 893d
00000060: 88ed ab3e aeaf e4bd 75f6 38bc 708b 16be
00000070: 7f69 12be c358 713e 7eed e53d 6e9a 023e
00000080: 550d 48be 1a3e 9a3b 2253 cc3d eda3 b83a
00000090: baf5 31be 83c7 953e 9eff 0dbd 94d3 853e
000000a0: 2667 37be d9b5 91bd ebab dbbd 96ec 91be
000000b0: e3ae 2dbe e47d 45be de5e d9bd 09d8 a53e
000000c0: a61f 1bbe 784a 4e3c 8524 4abe 27f2 043e
000000d0: 7bb7 a13d df5d 813e e288 4bbe 83f3 113d
000000e0: 6c43 563e d1b9 d7be 68af 34be b79a 01be
000000f0: 00e5 16be 47ba a83d 9405 783e 4a81 093e
00000100: 17ef 313e a307 9e3e 309e 213e 4a47 49be
00000110: cc62 febc 5aeb 83be 7bf4 a1bd e6dc 6dbd
00000120: 2f62 0d3e 494a 5dbe 9403 bd3c c74b b33b
00000130: aec9 423c 6e06 adbc 3306 46bd 48e8 313e
00000140: 996e 85bd 7512 0ebe 2a9c 7d3c d24e 81be
00000150: 45ea c3bd 56fd cabe 9322 2a3d ce13 c0bd
00000160: 8b87 31bd 0ae0 123d 89ec 27be 5f8b bb3e
00000170: cbf5 bcbd 8bc4 3d3e 2992 ab3e 0f3b 00be
00000180: f6a5 513e acf6 cabe f6c3 183e 24b7 98be
00000190: 4b5a fbbd 4678 4cbe e6a9 573b f6df 65bd
000001a0: 26a2 88be a50c abbe 3153 d7bd 94df 0bbe
000001b0: 5099 a0bd a8c9 4e3e 2015 693d bf30 283e
000001c0: 3d15 a63e 9c85 d23d c428 ac3d de0c 8dbd
000001d0: ae9f 5c3d 8551 d3be b627 d03c 133d 97be
000001e0: 8c05 04bd 1413 7dbd a2e3 8f3d 4d05 053a
000001f0: a9d9 b83c 8403 9fbd c640 f3bd f214 8b3d
00000200: 0bef 2b3e 249d 0d3e 80b5 a6bd b07b 98bd
00000210: 1362 87be c837 9fbd 4171 7fbe a734 683e
00000220: 8e5f 5abb 2025 fb3d 82ee d03c c2fe 6cbc
00000230: a6e7 21be d3e5 0a3e 42a8 ac3e f6f0 febd
00000240: b419 1ebf dd43 35be 5af7 5cbd 18a5 97bd
00000250: d9f4 9a3d c13f 82be 3a36 d23e 114d 543d
00000260: e357 00be 9196 2e3e 6497 b5be ce4d adbe
00000270: 382e d2bc b091 5ebd edec 443d b76f 4c3e
00000280: ebfb fcbd a13f b1bd 936a 533e 0a86 8c3e
00000290: 33b7 2f3e 8fe6 2d3e 9578 2f3e ed0c 88be
000002a0: 37ee 18be 8a77 05be c23b 90bd 5681 42be
000002b0: b33c 4fbd d306 05be d16b 47be 86a2 49be
000002c0: 2bba e4bd e7fc 863e 9ce4 0b3e 2d66 92bd
000002d0: 824e 183e ebd6 263e 7e8a a13e 21d3 533e
000002e0: 7a53 e6be 6ba6 74be c0a4 ee3d 3bbb 73bd
000002f0: 90bd 213e 0afe 65be dc21 673e ee2d c2bd
00000300: 9986 58be f2f3 5d3e fb55 eabd 1bf1 18be
00000310: fbce 0fbe a820 0dbe 20f1 5dbe abf6 173e
00000320: 360f 9cbe 5802 583d b463 75bd 0abc aabe
00000330: d4c2 9abc 443c 873b accf 4dbe 3f48 1e3e
00000340: bc37 6cbe b002 943d 4b12 f2bd bdc5 593d
00000350: 6eb1 953b 4cf2 77bd fbfa 483d 2a0b c83c
00000360: ed21 8b3d f2d3 40bd be02 803e 7715 633b
00000370: 5db8 5ebd 2a15 293d 47f4 af3e 2d9e d43b
00000380: 7644 eebe 4eb3 1dbe e951 a93d e49f d6bd
00000390: 1176 cc3b 5241 34be 5211 7d3e ea40 dfbc
000003a0: b3dd 60be 1722 50be 3dae 78bd b985 0c3d
000003b0: 891c 16be 388e e6bd 76a2 99be edbb 54be
000003c0: 651f 873e cf2d c1bd 412b 43bd 3b20 b93e
000003d0: 91d2 e9bd 191f 943c 31ee d3bd 119a 42be
000003e0: cb13 e23d 92c0 443d 746f e73d c205 87be
000003f0: 3505 033c a03f 46be df0e 8f3d 2705 7cbe

decoder.8.bias f4 [20]
0.18472046 0.06608045 0.03370083 -0.1116456 -0.1289683 -0.26961192 -0.10557423 -0.29391667
0.15606752 -0.31001547 -0.0052621923 -0.23161112 0.17766225 -0.034511775 0.12041813 0.034414615
0.26313466 0.27223822 -0.1844204 -0.022661068
00000000: 5c27 3d3e 3055 873d e209 0a3d 73a6 e4bd
00000010: 4410 04be 930a 8abe 4d37 d8bd 3f7c 96be
00000020: 2ad0 1f3e 59ba 9ebe 786e acbb 772b 6dbe
00000030: 18ed 353e 385c 0dbd c89d f63d 57f6 0c3d
00000040: 96b9 863e cf62 8b3e b4d8 3cbe b4a3 b9bc
