Code/Trained models/all_5000_norm_4001_P2INN_30_2_30_2_50_2.pth (torch, 32556 bytes, 13 tensors)

param_encoder.0.weight f4 [30, 5]
0.062995054 -0.01675029 0.021786926 0.04007952 -0.167308 0.20438938 -0.010350789 -0.13259718
-0.026138078 0.11145364 0.27646154 -0.2865006 -0.35766962 0.031642977 0.27172625 0.023746949
0.0046166205 0.017563123 -0.080773406 0.22534439 -0.12048167 0.01671944 0.15865877 0.02771831
0.029207902 -0.07734077 0.17555335 -0.0677257 0.04297568 -0.10423759 0.0036779905 0.020082228
0.044788063 -0.10777931 -0.17699826 -0.0124655245 0.028513918 -0.034330722 0.092418514 -0.101025715
-0.48421893 0.04671694 0.38284853 0.02562301 0.0022442641 -0.07136763 0.025729137 -0.04287791
0.009628669 0.24378082 -0.53823113 0.11309736 0.39295977 -0.020592991 -0.07149591 0.093405336
0.27887446 -0.1566722 -0.08077184 -0.03391483 -0.046664152 -0.1089456 -0.0021561757 0.1469513
-0.035008594 0.0817886 0.09917379 -0.010348755 0.051966887 -0.1374109 -0.013244284 -0.14328834
-0.04071573 -0.096176535 0.1857419 0.10972629 0.010340516 -0.055537898 -0.07829355 0.07381589
-0.03452219 0.049908653 -0.29079074 0.011261602 -0.03502118 -0.0031071492 0.018336823 -0.026237575
-0.027161278 -0.109255165 -0.052751493 -0.034433715 0.048750814 -0.04090171 -0.10694065 0.022051545
-0.064204626 -0.039371658 -0.18664607 -0.1361773 -0.19524328 0.062991485 0.030935954 -0.04059341
0.043682683 -0.073206685 0.32376778 0.067756034 0.020782296 -0.06442787 0.20072709 0.025396297
-0.14824082 -0.01250059 0.14560734 0.24978583 -0.13265784 -0.15702441 0.01223516 -0.23325412
-0.009155431 0.14677988 -0.13704325 -0.00240604 0.37620354 0.13110702 -0.16972151 -0.017178247
-0.12236541 0.123994395 -0.08808276 0.027258473 0.21866646 -0.005114528 0.19515797 0.047473647
-0.05027385 -0.03730135 -0.07916669 -0.015616514 0.033176105 0.14852081 0.089904435 0.0049078087
0.17449743 0.100994505 0.0923174 -0.26253372 0.033933043 0.14153484
00000000: 8d03 813d e737 89bc 7f7a b23c 6c2a 243d
00000010: ca52 2bbe 734b 513e 5b96 29bc 8ec7 07be
00000020: 861f d6bc ce41 e43d 5e8c 8d3e 35b0 92be
00000030: 7920 b7be 119c 013d b41f 8b3e f688 c23c
00000040: 0547 973b 8ae0 8f3c 876c a5bd aec0 663e
00000050: 18bf f6bd 35f7 883c 7277 223e 8211 e33c
00000060: 6945 ef3c d664 9ebd 42c4 333e c6b3 8abd
00000070: 4407 303d 857a d5bd 710a 713b 7c83 a43c
00000080: b073 373d 66bb dcbd 083f 35be 333c 4cbc
00000090: 0596 e93c 5f9e 0cbd eb45 bd3d 92e6 cebd
000000a0: 8beb f7be 435a 3f3d b904 c43e 59e7 d13c
000000b0: 8114 133b 3129 92bd e9c5 d23c bfa0 2fbd
000000c0: 91c1 1d3c aea1 793e 84c9 09bf 979f e73d
000000d0: 0632 c93e a2b2 a8bc 736c 92bd 4c4b bf3d
000000e0: a2c8 8e3e ad6e 20be b56b a5bd 47ea 0abd
000000f0: e922 3fbd df1e dfbd a04e 0dbb 677a 163e
00000100: 2c65 0fbd c880 a73d a11b cb3d d38d 29bc
00000110: 3bdb 543d 71b5 0cbe 8efe 58bc 2eba 12be
00000120: 8ac5 26bd 34f8 c4bd 2033 3e3e 2db8 e03d
00000130: 456b 293c b57b 63bd 5e58 a0bd c92c 973d
00000140: 2467 0dbd 046d 4c3d 86e2 94be 9582 383c
00000150: 5e72 0fbd 50a1 4bbb 1b37 963c 2ff0 d6bc
00000160: 5481 debc 2cc1 dfbd f311 58bd 5e0a 0dbd
00000170: efae 473d 8d88 27bd b303 dbbd 71a5 b43c
00000180: b77d 83bd 2d44 21bd 2620 3fbe 1072 0bbe
00000190: dbed 47be ae01 813d 666d fd3c 4745 26bd
000001a0: 9dec 323d 63ed 95bd e4c4 a53e adc3 8a3d
000001b0: a23f aa3c c2f2 83bd 678b 4d3e e50b d03c
000001c0: 71cc 17be 46cf 4cbc 171a 153e dbc7 7f3e
000001d0: 75d7 07be 02cb 20be fb75 483c 2bda 6ebe
000001e0: a900 16bc 774d 163e 1155 0cbe a7ae 1dbb
000001f0: c09d c03e eb40 063e 7acb 2dbe 65b9 8cbc
00000200: b79a fabd c6f0 fd3d bc64 b4bd 294d df3c
00000210: 1aea 5f3e c597 a7bb 7ed7 473e ba73 423d
00000220: f4eb 4dbd 4dc9 18bd 2522 a2bd 68dc 7fbc
00000230: abe3 073d d715 183e d11f b83d afd1 a03b
00000240: 74af 323e 35d6 ce3d e810 bd3d d26a 86be
00000250: 60fd 0a3d 82ee 103e

param_encoder.0.bias f4 [30]
-0.68248546 -0.49538553 -0.44971466 0.6157856 0.87553334 -0.53970045 -0.3630185 0.46922138
-0.41986653 -0.415941 -0.14405097 0.097373866 -1.104382 -0.30063155 -0.2510005 0.12696506
-0.5428145 -0.042225722 0.103791535 0.9565767 -0.30506727 -0.048686173 0.44196463 -0.27983943
-0.5664423 0.5941345 0.87528384 -0.37632596 -0.17684174 -0.7943829
00000000: 5eb7 2ebf 2ca3 fdbe 0041 e6be 20a4 1d3f
00000010: f422 603f cf29 0abf 90dd b9be c93d f03e
00000020: bff8 d6be 38f6 d4be 1982 13be f36b c73d
00000030: 645c 8dbf 61ec 99be 2383 80be 2103 023e
00000040: e4f5 0abf e1f4 2cbd a890 d43d 36e2 743f
00000050: c731 9cbe 276b 47bd 3049 e23e 1d47 8fbe
00000060: 5d02 11bf 3319 183f 9a12 603f ccad c0be
00000070: 0016 35be ae5c 4bbf

param_encoder.2.weight f4 [30, 30]
0.029357497 0.20701773 -0.107236296 0.06949709 -0.054632924 0.009872931 -0.11801862 -0.045600504
-0.25474837 0.0078646615 -0.18062714 -0.11777965 0.106287025 -0.12234743 0.043649845 0.18884425
0.09933711 -0.13849288 -0.08158288 -0.1397937 -0.035389323 0.04592822 -0.035740763 0.1749017
-0.17497459 -0.08744243 -0.12504339 0.10942373 0.09770109 0.16405289 -0.12939656 -0.07639855
0.08418829 -0.012082542 -0.079960346 0.019923069 0.16396302 -0.09835539 0.026981752 0.021951286
-0.08330091 -0.11466488 -0.05378378 0.17890209 0.08224534 -0.038663287 0.15245268 -0.019482434
-0.05930637 0.16996393 -0.16861688 -0.12020795 -0.15999715 0.042865075 0.048610017 -0.16201603
-0.00071441726 0.2265868 0.038128484 -0.14937136 0.03265575 0.010419606 0.011064928 0.1304602
0.38454235 0.11002702 -0.058371734 -0.2120224 -0.06803148 0.06626956 0.12035717 -0.10343641
0.2641609 0.071373515 0.10802292 -0.22864515 -0.14534678 -0.09708821 -0.029088343 -0.011191301
0.066616684 -0.22129378 -0.06938852 0.22700523 -0.01422673 0.0050801616 0.13952039 -0.11648797
-0.051008463 0.047106642 -0.08185041 0.220933 -0.055787556 -0.13411745 -0.1061953 -0.05917863
0.08576362 0.0035833726 -0.0332753 0.0062495726 -0.014761983 0.011899954 0.17371625 -0.12582904
0.14071332 0.15848745 0.057669368 -0.20557676 -0.23340069 0.019436438 0.017844724 0.09469699
0.060549393 0.049424727 0.15273522 -0.1483703 -0.030673964 0.2999715 -0.016224392 0.13295002
0.09108249 -0.025895039 -0.045145985 -0.06831396 -0.36131182 0.15381518 0.53789014 -0.17446227
0.16998845 -0.027874565 -0.17244144 -0.010483365 0.021686098 0.1458883 -0.004276322 0.028414402
0.1533005 0.32472488 0.03956653 -0.1373099 0.10084794 0.15277177 -0.44203377 0.21003962
0.13188304 0.13203454 0.22240242 0.4779373 0.116235316 -0.018170113 -0.64853066 -0.09203249
0.005134085 0.6092711 0.4707973 -0.026869666 -0.23989008 -0.27742398 -0.096382074 -0.13600379
-0.13007063 0.012274227 -0.19814469 -0.16286646 0.027194727 0.33483547 0.039988723 -0.4794494
-0.2370554 -0.02181191 -0.12059421 -0.11732709 0.06968902 0.23675643 -0.20700228 0.0061936337
0.17813416 -0.14592977 -0.059633 -0.05525435 0.19896163 -0.14784937 0.040011864 0.028981004
-0.00090083043 0.03918137 -0.13722154 0.255816 0.047911312 0.054731008 -0.03407516 -0.18094636
0.113139994 -0.038636293 0.031359386 -0.022171736 -0.00018381719 -0.10939001 -0.20760044 -0.071523055
-0.09125797 0.035918374 0.055578094 0.09897784 -0.120908305 0.039692212 -0.060189348 -0.38158914
-0.018755084 -0.038217302 -0.011340818 -0.14005578 -0.12835208 0.12222742 -0.14869034 -0.048907217
-0.04614282 -0.19842386 0.18311164 0.109392874 -0.09604907 -0.008093708 0.02927503 -0.036631435
0.13872255 0.12149061 0.05482457 -0.144747 -0.21071284 -0.028113598 0.13830948 -0.07371176
0.03896267 0.059466023 -0.1515376 -0.03634873 -0.058656614 -0.03914375 0.03863074 0.12807299
0.15796119 -0.21691005 -0.08630673 0.124667175 0.2259997 0.025534792 0.13566792 0.11032511
0.1452997 -0.15884082 0.097091444 0.006804301 0.009599506 0.05347336 -0.0021295152 -0.1484976
00000000: 227f f03c 75fc 533e b49e dbbd 7e54 8e3d
00000010: c6c6 5fbd 13c2 213c bfb3 f1bd 98c7 3abd
00000020: 616e 82be c8da 003c 52f6 38be 7536 f1bd
00000030: 03ad d93d 4a91 fabd 2eca 323d 6360 413e
00000040: 4171 cb3d 14d1 0dbe ed14 a7bd 1426 0fbe
00000050: 65f4 10bd 3b1f 3c3d e864 12bd 6e19 333e
00000060: 8a2c 33be 0415 b3bd 600b 00be 8c19 e03d
00000070: 8217 c83d 7bfd 273e 8880 04be d876 9cbd
00000080: e96a ac3d dbf5 45bc 40c2 a3bd b435 a33c
00000090: ece5 273e 8d6e c9bd d608 dd3c 2fd3 b33c
000000a0: ab99 aabd 6cd5 eabd 624c 5cbd 1c32 373e
000000b0: 3f70 a83d 655d 1ebd 8e1c 1c3e a099 9fbc
000000c0: 3ceb 72bd 060b 2e3e e7a9 2cbe 962f f6bd
000000d0: 4bd6 23be 4a93 2f3d 4c1b 473d 88e7 25be
000000e0: bb47 3bba 5f06 683e 9d2c 1c3d cef4 18be
000000f0: 09c2 053d ffb6 2a3c ac49 353c 5c97 053e
00000100: bce2 c43e d955 e13d 3317 6fbd 661c 59be
00000110: 1754 8bbd 56b8 873d d27d f63d 78d6 d3bd
00000120: 1940 873e 472c 923d 1f3b dd3d f421 6abe
00000130: c9d5 14be 2fd6 c6bd ad4a eebc b85b 37bc
00000140: 546e 883d d69a 62be 921b 8ebd 0f74 683e
00000150: 3b17 69bc 7c77 a63b 6fde 0e3e 3f91 eebd
00000160: 40ee 50bd e5f2 403d 30a1 a7bd 433c 623e
00000170: 7e81 64bd 1656 09be ec7c d9bd 4b65 72bd
00000180: d6a4 af3d 04d7 6a3b ae4b 08bd 37c9 cc3b
00000190: 3fdc 71bc 06f8 423c ace2 313e 54d9 00be
000001a0: 2717 103e 894a 223e b736 6c3d b782 52be
000001b0: 9700 6fbe 2a39 9f3c 192f 923c 7ff0 c13d
000001c0: a402 783d 9571 4a3d 9f66 1c3e 62ee 17be
000001d0: f747 fbbc dd95 993e 04e9 84bc 0d24 083e
000001e0: 7589 ba3d d521 d4bc ffea 38bd 31e8 8bbd
000001f0: ddfd b8be ba81 1d3e 2bb3 093f 3da6 32be
00000200: 7411 2e3e 3359 e4bc 7d94 30be 6bc2 2bbc
00000210: 0ba7 b13c be63 153e 6420 8cbb 52c5 e83c
00000220: cefa 1c3e 5742 a63e 8410 223d f79a 0cbe
00000230: 5d89 ce3d 3470 1c3e 4052 e2be a014 573e
00000240: 590c 073e 1034 073e 76bd 633e 33b4 f43e
00000250: c80c ee3d 7dd9 94bc 1b06 26bf 887b bcbd
00000260: d43b a83b 31f9 1b3f 580c f13e c61d dcbc
00000270: bfa5 75be 840a 8ebe f763 c5bd 9444 0bbe
00000280: 3c31 05be d719 493c 71e6 4abe 77c6 26be
00000290: 7ac7 de3c 8e6f ab3e 37cb 233d 647a f5be
000002a0: a7be 72be e4ae b2bc 19fa f6bd 2f49 f0bd
000002b0: 1eb9 8e3d 4770 723e 68f8 53be f7f3 ca3b
000002c0: cd68 363e 9d6e 15be bc41 74bd 6352 62bd
000002d0: 99bc 4b3e d365 17be 7be3 233d 9269 ed3c
000002e0: b525 6cba a57c 203d ce83 0cbe 51fa 823e
000002f0: a73e 443d 9f2d 603d 6592 0bbd 014a 39be
00000300: f1b5 e73d 1741 1ebd b372 003d 80a1 b5bc
00000310: 0dbf 40b9 df07 e0bd 3695 54be ae7a 92bd
00000320: 75e5 babd 251f 133d dba5 633d e5b4 ca3d
00000330: c69e f7bd 4d94 223d 1b89 76bd a75f c3be
00000340: 43a4 99bc bf89 1cbd d7ce 39bc c86a 0fbe
00000350: ba6e 03be 5f52 fa3d 4842 18be ef52 48bd
00000360: 4100 3dbd a02f 4bbe 9e81 3b3e 5f09 e03d
00000370: 60b5 c4bd 799b 04bc 30d2 ef3c d80a 16bd
00000380: 490d 0e3e 12d0 f83d ba8f 603d 8f38 14be
00000390: 1bc5 57be 7d4e e6bc 00a1 0d3e 31f6 96bd
000003a0: 5297 1f3d a592 733d ac2c 1bbe 68e2 14bd
000003b0: eb41 70bd 3255 20bd 443b 1e3d 9125 033e
000003c0: 94c0 213e ab1d 5ebe 95c1 b0bd 8151 ff3d
000003d0: 776c 673e 572e d13c 88ec 0a3e 22f2 e13d
000003e0: 72c9 143e 2ba7 22be e1d7 c63d 9df6 de3b
000003f0: 3f47 1d3c e206 5b3d 568f 0bbb c10f 18be

param_encoder.2.bias f4 [30]
0.19246493 -0.0780812 0.07714985 0.0249775 -0.18729924 0.062704 0.010141219 -0.19953613
-0.027007056 -0.23518807 0.18499699 0.003700466 -0.35205325 0.023571724 0.15960161 -0.26278642
0.06443616 -0.20919414 0.17608547 0.054769877 -0.14724484 -0.038656384 -0.095951065 -0.07893406
0.074220404 -0.16983506 0.5058409 0.19346346 0.20442334 -0.14387603
00000000: 8715 453e 09e9 9fbd be00 9e3d 9d9d cc3c
00000010: 5fcb 3fbe f46a 803d 5b27 263c 3353 4cbe
00000020: e73d ddbc 24d5 70be da6f 3d3e 8483 723b
00000030: 5340 b4be 7d19 c13c 9b6e 233e f18b 86be
00000040: 1bf7 833d fd36 56be c04f 343e 6156 603d
00000050: 5ac7 16be 2856 1ebd fe81 c4bd 2ea8 a1bd
00000060: de00 983d 3ee9 2dbe ca7e 013f 491b 463e
00000070: 5a54 513e 3d54 13be

coord_encoder.0.weight f4 [20, 1]
-0.009587447 0.62247294 0.034733452 0.17005919 -0.64353627 0.26188087 -0.80231225 -0.4553177
-0.7141427 0.5805056 0.72797817 -1.0444815 -0.9849973 -0.03425686 0.76889974 -1.1483921
-0.06680613 -0.8007928 -1.0880376 1.074496
00000000: ab14 1dbc 635a 1f3f aa44 0e3d ff23 2e3e
00000010: cbbe 24bf 4015 863e 5664 4dbf 671f e9be
00000020: 0ed2 36bf 049c 143f c75c 3a3f 92b1 85bf
00000030: c828 7cbf ec50 0cbd 9dd6 443f 83fe 92bf
00000040: a7d1 88bd c200 4dbf d144 8bbf 1689 893f

coord_encoder.0.bias f4 [20]
-0.72332853 -0.5247312 0.9924413 -0.6846634 -0.3753196 -0.6320784 -0.45970842 0.12135108
0.58547187 0.17419024 -0.6777445 0.34312555 -0.5147106 0.8064926 -0.8691589 0.47198567
-0.818291 -0.3473611 -0.73165816 0.24192193
00000000: 0f2c 39bf c954 06bf a210 7e3f 1a46 2fbf
00000010: e429 c0be e4cf 21bf e75e ebbe ea86 f83d
00000020: 7ce1 153f ed5e 323e aa80 2dbf 27ae af3e
00000030: 13c4 03bf 4d76 4e3f 3381 5ebf 1ba8 f13e
00000040: 857b 51bf 50d9 b1be f34d 3bbf 62ba 773e

coord_encoder.2.weight f4 [20, 20]
0.18648255 0.09465773 0.021221459 0.03252603 -0.015055573 -0.040314697 -0.2041627 -0.3386382
-0.15618353 -0.13105932 0.19543661 -0.5025152 -0.04312088 -0.22679873 0.03515348 -0.43888137
-0.0863827 -0.19244117 -0.07488473 0.04683118 0.21797486 -0.087092936 0.13573098 0.05126061
0.2945121 0.08952826 0.18489005 0.42648596 -0.060567908 -0.2616634 -0.106484696 0.22187592
0.11205689 0.07551249 -0.21329096 0.35899058 0.102036476 0.17632371 0.38456306 -0.31715286
-0.27788588 -0.10812524 0.24786194 -0.17246181 0.018071987 -0.080217965 0.13851844 -0.21822733
0.13562931 0.25787318 0.07015008 -0.34924397 0.07052225 -0.040808033 -0.14774787 -0.21810271
-0.10039532 0.034918986 0.016615156 0.014713138 -0.009759927 -0.22977063 -0.008529537 0.077701926
0.28585982 -0.17163935 0.04719683 0.042991664 -0.062263247 -0.21116325 0.121866316 0.00021720043
0.0027545628 -0.040758774 0.07456576 0.28644294 0.06874729 0.34794176 0.20572978 -0.3933267
0.15083735 -0.06115516 -0.15062809 0.15311736 0.009795196 0.24422906 -0.02868772 0.46856532
0.2583246 0.0032686957 -0.23820382 0.07780954 0.2556996 -0.27807721 -0.18842858 0.25279206
-0.07273223 0.17357469 0.26385397 -0.18995902 0.20789064 0.35641822 -0.19285695 0.34720105
0.11911768 0.11115132 0.029216839 -0.50701386 -0.3614431 0.027202863 0.70733476 -0.39301002
-0.23653726 -0.30482623 0.63983923 -0.50172395 0.28853866 -0.13518362 -0.06801542 0.15913755
-0.14568172 -0.34371287 0.28287476 -0.2554262 -0.03142269 0.15030059 0.0125532085 0.31723985
0.35874045 -0.015312516 -0.41888252 0.33399776 0.14303651 0.04895461 0.09966913 0.46912447
-0.25078127 0.22973478 0.100524716 -0.02754848 0.018845469 0.15923695 -0.17896226 -0.037671372
-0.24870998 -0.030207155 -0.3019617 0.14751011 -0.18155123 0.012941664 -0.05018858 0.030471196
-0.0875667 -0.003022946 0.13691172 0.16042195 0.22605269 -0.16812657 -0.19669104 0.2988964
0.05646635 -0.11600474 -0.08766911 -0.2221009 0.30950686 -0.0308121 0.3913457 0.24319364
0.30576983 -0.16574584 -0.17385417 0.26677567 0.3569312 0.16967316 0.113677636 0.22817405
0.07802852 0.25103527 0.31936195 -0.14628783 -0.08025919 0.03145048 0.04609034 -0.13588277
-0.13160121 -0.032108203 0.16868953 0.21082796 0.150699 0.14680846 -0.18362105 0.077641405
0.22887264 0.18682767 -0.17848106 -0.10602395 0.15644974 0.013245674 -0.16429214 0.025314607
0.04366515 0.10248711 0.15965126 -0.19592541 -0.05637647 -0.050631884 -0.07737075 -0.25793582
0.08513504 0.038178954 0.029251304 -0.44135252 -0.12498725 0.21583752 0.11662826 -0.4296669
-0.0026796726 0.03304921 -0.048047308 0.091018274 -0.1080261 0.12959096 -0.21888986 -0.037051007
-0.065891266 0.11203702 -0.3066163 -0.22730808 0.041726105 0.32628116 0.13584785 -0.10078578
-0.122475624 -0.17387752 0.081225716 -0.29279616 0.02069196 -0.32091537 -0.23984121 0.11957331
-0.06540765 -0.25681123 -0.023140844 -0.2713116 -0.18391177 -0.22497831 -0.14680122 0.11947539
0.22317438 0.014692994 -0.3947923 0.33741805 -0.12934862 -0.042494018 0.025936773 0.10044087
00000000: 48f5 3e3e e9db c13d a0d8 ad3c 043a 053d
00000010: a6ab 76bc 0621 25bd 0710 51be fc61 adbe
00000020: 93ee 1fbe 6a34 06be 8920 483e d6a4 00bf
00000030: 859f 30bd ed3d 68be 18fd 0f3d 0fb5 e0be
00000040: 6ae9 b0bd 4c0f 45be 2a5d 99bd 0dd2 3f3d
00000050: cd34 5f3e c85d b2bd 10fd 0a3e a5f6 513d
00000060: 4aca 963e 985a b73d d153 3d3e 5e5c da3e
00000070: 0e16 78bd bff8 85be a614 dabd 7133 633e
00000080: 157e e53d 4ba6 9a3d f268 5abe 9dcd b73e
00000090: 80f8 d03d 348e 343e 73e5 c43e dc61 a2be
000000a0: 0f47 8ebe c470 ddbd 85cf 7d3e d499 30be
000000b0: b40b 943c 5149 a4bd c7d7 0d3e fc76 5fbe
000000c0: 69e2 0a3e f407 843e d8aa 8f3d 1bd0 b2be
000000d0: f86d 903d 5326 27bd 384b 17be 5156 5fbe
000000e0: 109c cdbd 3607 0f3d 821c 883c 600f 713c
000000f0: 1ae8 1fbc fe48 6bbe 79bf 0bbc 3022 9f3d
00000100: 385c 923e 3ac2 2fbe 7751 413d 0718 303d
00000110: bf07 7fbd 2e3b 58be 0c95 f93d 4cc0 6339
00000120: e585 343b acf2 26bd efb5 983d a6a8 923e
00000130: 61cb 8c3d 6c25 b23e d4aa 523e 1e62 c9be
00000140: 1b75 1a3e d57d 7abd 403e 1abe ccca 1c3e
00000150: 087c 203c 2f17 7a3e 8202 ebbc cbe7 ef3e
00000160: 1f43 843e 9d37 563b b4eb 73be 9c5a 9f3d
00000170: 0feb 823e 2360 8ebe 6cf3 40be f66d 813e
00000180: a3f4 94bd 90bd 313e de17 873e 9e84 42be
00000190: 49e1 543e 737c b63e 4b7c 45be 56c4 b13e
000001a0: f8f3 f33d 4ea3 e33d 2758 ef3c a9cb 01bf
000001b0: 120f b9be 8ad8 de3c e413 353f 9c38 c9be
000001c0: d336 72be 2f12 9cbe 81cc 233f fb70 00bf
000001d0: 57bb 933e 936d 0abe ab4b 8bbd f4f4 223e
000001e0: 972d 15be 22fb afbe f6d4 903e 39c7 82be
000001f0: 14b5 00bd 66e8 193e f9ab 4d3c 436d a23e
00000200: d4ac b73e 59e1 7abc c577 d6be c101 ab3e
00000210: 2a78 123e a184 483d 541f cc3d 1531 f03e
00000220: 6766 80be 983f 6b3e e7df cd3d 5aad e1bc
00000230: d061 9a3c 030f 233e e241 37be 4c4d 1abd
00000240: d4ad 7ebe ff74 f7bc b99a 9abe e40c 173e
00000250: 91e8 39be 4609 543c 8a92 4dbd bb9e f93c
00000260: 2c56 b3bd 9e1c 46bb 9632 0c3e a745 243e
00000270: 5b7a 673e 5f29 2cbe 6069 49be f308 993e
00000280: 4249 673d e593 edbd dd8b b3bd 6b6e 63be
00000290: af77 9e3e a869 fcbc 775e c83e c107 793e
000002a0: dd8d 9c3e 47b9 29be d406 32be d296 883e
000002b0: b0bf b63e cdbe 2d3e d2cf e83d 75a6 693e
000002c0: 6bcd 9f3d b287 803e 6983 a33e 7acc 15be
000002d0: ee5e a4bd 38d2 003d 39c9 3c3d da24 0bbe
000002e0: 78c2 06be e483 03bd f3bc 2c3e 49e3 573e
000002f0: d750 1a3e f554 163e 2807 3cbe 7502 9f3d
00000300: 975d 6a3e c14f 3f3e bdc3 36be 1623 d9bd
00000310: 5c34 203e 6204 593c 333c 28be 9460 cf3c
00000320: 3ada 323d c3e4 d13d 9f7b 233e aca0 48be
00000330: 03eb 66bd 6163 4fbd 8e74 9ebd 2a10 84be
00000340: 485b ae3d 8961 1c3d 6ea0 ef3c f5f8 e1be
00000350: 51f9 ffbd 8304 5d3e ccda ee3d 4dfd dbbe
00000360: 729d 2fbb 9c5e 073d 41cd 44bd ca67 ba3d
00000370: ca3c ddbd 7eb3 043e aa24 60be ccc2 17bd
00000380: 00f2 86bd aa73 e53d d0fc 9cbe 73c3 68be
00000390: fee8 2a3d 530e a73e b31b 0b3e c668 cebd
000003a0: 80d4 fabd f30c 32be ab59 a63d 61e9 95be
000003b0: 2f82 a93c 054f a4be ef98 75be dae2 f43d
000003c0: 72f4 85bd c37c 83be de91 bdbc 5be9 8abe
000003d0: 5e53 3cbe b760 66be 0f53 16be 83af f43d
000003e0: d387 643e e2ba 703c 3722 cabe 0fc2 ac3e
000003f0: f773 04be 350e 2ebd 5b79 d43c f1b3 cd3d

coord_encoder.2.bias f4 [20]
0.097957976 -0.10672464 0.02404127 0.053093914 -0.2173238 -0.21439905 0.013964758 -0.07462284
-0.1436609 0.24055031 -0.16077474 -0.072765484 0.14436492 0.14423676 0.025534563 0.22795126
0.026402 0.1435967 -0.23881027 0.09720348
00000000: 319e c83d 7392 dabd 33f2 c43c 0179 593d
00000010: 218a 5ebe 6d8b 5bbe 71cc 643c dcd3 98bd
00000020: d81b 13be d252 763e 22a2 24be 1206 95bd
00000030: 66d4 133e cdb2 133e dc2d d13c 0e6c 693e
00000040: 0249 d83c 030b 133e ae8a 74be 9e12 c73d

decoder.0.weight f4 [50, 50]
-0.21216519 0.0010928782 -0.08141957 -0.058682613 0.09213015 0.0075563947 -0.09258828 0.1108123
0.29477987 -0.0031971026 -0.03898402 -0.030042265 -0.11784401 0.030033937 0.14497714 0.041066263
-0.0564939 -0.091354996 0.100011416 -0.0061783004 -0.0024350681 -0.017379563 0.24055119 0.18961234
0.08708069 -0.22658625 0.08831727 0.00519593 -0.0017050114 -0.19649573 -0.01789345 0.05889663
0.02805837 -0.113865346 0.0674974 -0.024508756 -0.035553835 0.049707968 -0.025674652 -0.2104757
-0.09230877 -0.11962318 0.09748406 0.106742464 0.1611249 -0.12841812 -0.062693514 -0.015678091
0.013049859 0.05469457 0.048150063 -0.23764835 0.14099854 0.15258896 -0.07384686 -0.09180473
-0.040942084 0.19354525 0.016624961 0.20034766 -0.035020385 -0.012467016 0.08623495 -0.21593185
-0.14306585 0.17642227 0.096661836 -0.051161606 -0.016165828 -0.25435603 -0.037090223 -0.013722811
-0.03900909 0.42621925 0.23957376 0.21663018 -0.028926602 -0.014899763 0.11501176 -0.14425936
0.22262916 -0.1822725 -0.031075533 -0.011124442 0.07100836 0.09144446 -0.38039196 0.042906914
-0.17527302 0.04925389 0.22537218 0.1283646 0.07485404 -0.3633023 0.5039081 0.017487371
-0.20033821 0.2834651 -0.035283204 -0.35767898 0.2329489 0.088249825 -0.08401765 0.12745705
-0.12871964 0.16447352 -0.13656032 -0.04210046 -0.21241075 0.016674967 -0.03600355 -0.01910681
-0.100509375 0.13476005 0.060963076 -0.014853684 0.036917996 -0.054240182 0.0786499 -0.088566124
-0.13851161 0.09356479 -0.15016533 -0.13817774 -0.03553651 0.077047415 0.15529871 0.04561564
0.041567773 -0.051229615 0.032577753 -0.077673145 0.15950893 -0.14397414 -0.112073116 0.025513763
-0.05100191 -0.1273296 0.043744776 0.10688609 0.26153684 -0.045151167 0.038547147 -0.00090800703
0.2426628 -0.105148084 -0.111239724 0.08727305 -0.088099875 -0.1994297 -0.2997926 -0.1292007
-0.08854061 -0.07220026 -0.16146515 -0.047649313 0.040181156 -0.23733726 0.22333495 -0.27969122
-0.049314942 -0.26228413 -0.047026813 0.016896745 0.069091916 -0.1541053 0.028948285 -0.12171378
0.17391399 0.21641627 -0.028269049 0.09601291 0.045921065 0.21713981 0.058547497 -0.2252537
0.22284713 0.09765491 0.2215175 -0.15823403 0.02185158 0.06689124 0.14125535 -0.049510196
-0.119171605 -0.24348521 0.07699831 -0.14771146 0.09949462 0.033100784 0.12523016 -0.102861166
0.05293505 0.06555011 -0.0123412805 0.14540485 0.046316437 0.13694817 -0.004106551 -0.01677116
0.19680277 -0.07040409 0.24965341 0.015473152 0.03271277 -0.019286994 -0.008251694 -0.030015592
0.088323414 -0.014103527 0.010706339 0.24116954 0.0010103512 -0.18738808 0.05190727 0.2056115
-0.11931872 -0.09664041 -0.14362343 -0.117722526 0.09212288 -0.12123458 -0.32929638 0.07329734
-0.12018411 0.089788966 -0.011610361 0.1721677 0.03463487 0.006638514 0.051365446 0.114094645
0.15883932 0.03525267 0.14669868 -0.08011026 0.18892817 -0.10006679 0.07995856 0.16463941
0.09236558 -0.051591076 -0.045914967 0.105029255 0.026701005 0.14967196 0.06637047 -0.10040816
-0.16411386 -0.052098397 0.09754083 -0.03346453 0.13961762 -0.04589976 -0.007735137 -0.0662412
00000000: d541 59be e83e 8f3a 4ebf a6bd 2e5d 70bd
00000010: bbae bc3d a29b f73b ed9e bdbd 8ff1 e23d
00000020: 63ed 963e 7b86 51bb b5ad 1fbd 321b f6bc
00000030: 3358 f1bd bb09 f63c e374 143e 1935 283d
00000040: 2666 67bd 5418 bbbd c9d2 cc3d 5773 cabb
00000050: aa95 1fbb 965f 8ebc 0d53 763e bd29 423e
00000060: 5c57 b23d 3a06 68be afdf b43d 9f42 aa3b
00000070: b07a dfba 2d36 49be 4995 92bc 983d 713d
00000080: abda e53c 3c32 e9bd 143c 8a3d 96c6 c8bc
00000090: e6a0 11bd 959a 4b3d a653 d2bc f186 57be
000000a0: 610c bdbd fffc f4bd b9a5 c73d cb9b da3d
000000b0: edfd 243e 0a80 03be 7565 80bd 576f 80bc
000000c0: 13cf 553c 6a07 603d 0039 453d 175a 73be
000000d0: ec61 103e 4840 1c3e 063d 97bd 1e04 bcbd
000000e0: e3b2 27bd ba30 463e 1231 883c f027 4d3e
000000f0: 8971 0fbd 7442 4cbc f39b b03d 3d1d 5dbe
00000100: db7f 12be 0aa8 343e a4f6 c53d d58e 51bd
00000110: 336e 84bc f43a 82be ebeb 17bd a4d5 60bc
00000120: ffc7 1fbd 6939 da3e d352 753e 4dd4 5d3e
00000130: 7bf7 ecbc 231e 74bc 498b eb3d bab8 13be
00000140: e6f8 633e a4a5 3abe 1e92 febc 4b43 36bc
00000150: d56c 913d 3c47 bb3d bcc2 c2be 29bf 2f3d
00000160: c57a 33be 72be 493d f7c7 663e 0272 033e
00000170: 134d 993d c202 babe 1f00 013f ad41 8f3c
00000180: 7625 4dbe 5622 913e 1f85 10bd b321 b7be
00000190: 288a 6e3e 53bc b43d 7211 acbd 1a84 023e
000001a0: 15cf 03be bf6b 283e 78d6 0bbe 8871 2cbd
000001b0: 3482 59be f199 883c 7578 13bd e385 9cbc
000001c0: dcd7 cdbd 8afe 093e 6bb4 793d de5c 73bc
000001d0: 5337 173d f42a 5ebd 3313 a13d 2862 b5bd
000001e0: fdd5 0dbe e69e bf3d f1c4 19be 777e 0dbe
000001f0: bb8e 11bd 09cb 9d3d a006 1f3e 77d7 3a3d
00000200: f842 2a3d 25d6 51bd 4070 053d 1913 9fbd
00000210: 4f56 233e f56d 13be 9786 e5bd 3d02 d13c
00000220: 61e7 50bd b162 02be b92d 333d 18e7 da3d
00000230: 28e8 853e 6ef0 38bd 9de3 1d3d 5207 6eba
00000240: 997c 783e e157 d7bd a7d1 e3bd 36bc b23d
00000250: b56d b4bd 4d37 4cbe 6a7e 99be 304d 04be
00000260: c854 b5bd bbdd 93bd 1f57 25be ed2b 43bd
00000270: ff94 243d 8a08 73be ebb1 643e b033 8fbe
00000280: 77fe 49bd 1b4a 86be 309f 40bd 0b6b 8a3c
00000290: 1080 8d3d c8cd 1dbe f424 ed3c 1345 f9bd
000002a0: 8216 323e 3a9c 5d3e 7e94 e7bc 6ba2 c43d
000002b0: ba17 3c3d e659 5e3e 80cf 6f3d e8a8 66be
000002c0: 0a32 643e 4cff c73d 7cd5 623e 1a08 22be
000002d0: 1602 b33c 46fe 883d 3ea5 103e 34cb 4abd
000002e0: 3e10 f4bd 3054 79be 4ab1 9d3d ac41 17be
000002f0: d6c3 cb3d b094 073d 563c 003e e0a8 d2bd
00000300: 6cd2 583d 233f 863d 1533 4abc 02e5 143e
00000310: 4eb6 3d3d 243c 0c3e 3f90 86bb ac63 89bc
00000320: aa86 493e 0530 90bd 25a5 7f3e 1a83 7d3c
00000330: d3fd 053d c2ff 9dbc 1d32 07bc 42e3 f5bc
00000340: e8e2 b43d 7b12 67bc a469 2f3c 26f5 763e
00000350: c36d 843a a9e2 3fbe b89c 543d d28b 523e
00000360: 605d f4bd 68eb c5bd 0512 13be 8218 f1bd
00000370: ecaa bc3d d649 f8bd 8999 a8be ea1c 963d
00000380: 1623 f6bd 47e3 b73d 6239 3ebc bb4c 303e
00000390: 4bdd 0d3d e487 d93b 9364 523d 74aa e93d
000003a0: c6a6 223e 1b65 103d 2e38 163e d910 a4bd
000003b0: 6376 413e d1ef ccbd 50c1 a33d 3c97 283e
000003c0: 2a2a bd3d 2a51 53bd 5511 3cbd 9419 d73d
000003d0: 11bc da3c 9b43 193e 3eed 873d cba2 cdbd
000003e0: 770d 28be 2165 55bd 7dc3 c73d 1a12 09bd
000003f0: ecf7 0e3e 6301 3cbd 0877 fdbb 77a9 87bd

decoder.0.bias f4 [50]
-0.18351744 0.004436959 -0.033920754 0.08965197 -0.0050745183 -0.1265846 -0.16282614 0.02578031
0.16589355 -0.11897604 -0.20611456 -0.295446 -0.094872855 -0.18336478 0.20071737 0.041985147
-0.21679291 -0.15416726 0.09063978 0.041048296 0.12888013 0.10552512 -0.060618717 0.117568254
0.1023256 -0.007882105 0.11216796 0.1546216 0.021457493 -0.09677919 -0.061122734 -0.09738671
0.113259755 0.040351562 0.05148121 0.0756315 0.16973953 0.08923947 0.017073898 0.08646034
-0.042207938 -0.16296025 -0.07767009 0.043179568 0.08813709 -0.020855803 -0.05244798 0.20689383
-0.13963637 -0.10661389
00000000: ffeb 3bbe e963 913b 7df0 0abd 749b b73d
00000010: 2548 a6bb 659f 01be e5bb 26be 3b31 d33c
00000020: 00e0 293e b6a9 f3bd b20f 53be b344 97be
00000030: b34c c2bd fac3 3bbe db88 4d3e 9ef8 2b3d
00000040: f6fe 5dbe 06de 1dbe 59a1 b93d 4222 283d
00000050: 27f9 033e 8e1d d83d 554b 78bd a0c7 f03d
00000060: 1690 d13d f223 01bc 51b8 e53d 2055 1e3e
00000070: a0c7 af3c 2b34 c6bd d55b 7abd af72 c7bd
00000080: bbf4 e73d ae47 253d f6dd 523d b0e4 9a3d
00000090: 33d0 2d3e 2fc3 b63d 8fde 8b3c 1e12 b13d
000000a0: 3be2 2cbd 0ddf 26be 7f11 9fbd 0fdd 303d
000000b0: 3881 b43d cad9 aabc b1d3 56bd fadb 533e
000000c0: d6fc 0ebe 6258 dabd

decoder.2.weight f4 [50, 50]
-0.32898197 0.046497837 0.0071607525 -0.14739712 0.026367147 -0.017571751 -0.13951088 0.16919792
-0.14515196 -0.025301136 0.05132158 -0.131597 0.17611489 -0.09234976 0.12770297 0.038357217
-0.057544816 -0.072794974 0.051029254 0.19761132 0.012043141 -0.038237467 -0.018383242 0.1981539
0.043688506 0.023919165 -0.103802666 -0.03495202 -0.14300609 0.14841776 -0.06381511 0.08847802
-0.053203344 0.14472875 0.07345431 -0.08622797 0.19956966 -0.030599382 -0.039384898 0.22098844
-0.12473637 -0.17473502 -0.015823482 -0.09060637 0.07318456 -0.08665222 0.041651025 0.13719645
0.08392259 -0.08022096 -0.09514364 0.35730448 -0.14588478 -0.072558865 0.08666165 0.025646398
-0.027279377 0.07199707 0.082246356 0.085606314 0.14346065 0.5665681 -0.00781693 -0.19830506
-0.04490373 -0.4992412 0.09098767 -0.21092652 0.0919868 -0.064592436 -0.047153052 0.036913592
0.14900339 0.07702424 -0.07294836 0.083886705 0.16231537 0.10283613 -0.121891126 -0.06496269
0.4257895 0.20716688 -0.43634707 -0.098398075 -0.10472058 0.09245158 -0.10563771 -0.09843063
0.42183387 -0.16894108 -0.13821371 0.1273225 -0.04770801 -0.089931175 0.038772944 -0.11277872
0.09030792 0.060057722 -0.29448798 0.004602825 -0.24871852 -0.011157286 0.08893927 -0.14130601
-0.033927057 -0.12131758 -0.18845905 0.020651812 0.045725785 0.06419941 -0.11623218 0.008231122
0.09625819 -0.13836595 0.18291356 0.08553684 -0.06863404 -0.09227219 0.10097308 0.14661929
-0.08379822 -0.058248144 0.03995279 0.0133126 0.007834435 0.061096735 -0.017486308 0.07536601
-0.059171956 0.3158643 -0.33670488 0.07181822 0.38372588 0.57364005 -0.055016812 0.1893721
0.086805426 0.09982863 -0.044580486 0.026779851 -0.11552697 -0.12101472 -0.042929612 0.018991593
-0.07415226 -0.098404676 0.1507475 0.106704205 0.39923906 0.026787145 0.11404583 0.022564068
-0.07681383 0.2955505 0.2270629 -0.105940625 0.2193313 -0.36288044 -0.2933472 -0.3105578
-0.040564783 -0.071653016 0.4347175 -0.40959316 -0.077292904 0.18633337 -0.21078783 -0.24244164
0.21706529 0.040542345 -0.3612868 0.12409455 -0.1252073 -0.19652976 -0.19702841 0.097870104
-0.328103 0.019707115 -0.41244444 -0.059122816 -0.035891905 -0.11315337 0.23341596 0.4109697
-0.19112605 0.2049004 0.2791093 0.24440685 -0.100676574 0.28928414 -0.014314287 0.16420859
0.03888328 0.23725346 0.28121233 -0.07653606 -0.3502161 -0.13028775 -0.0029397195 -0.26347288
-0.23096254 -0.215585 -0.04015246 0.3281662 0.043228164 -0.21953899 0.21330106 0.017001674
-0.26972303 -0.3020831 -0.12636328 -0.17890845 0.28947723 -0.28134185 -0.08228533 0.34530094
0.336594 -0.12995665 -0.18531303 0.09480198 -0.24207518 0.17210324 -0.2764733 0.017072866
0.14859718 0.15265916 -0.1808617 0.15294816 -0.09413756 -0.032301962 0.009081106 -0.31884676
0.15480001 0.17413047 0.009275815 0.23015417 0.32877493 0.2691094 -0.09072149 0.28718773
0.20143305 0.19337252 -0.04933075 0.40617713 0.29588842 -0.16303065 -0.292672 0.20365748
-0.14057998 -0.3956735 0.027116317 0.0633922 0.36661482 -0.44778603 -0.3683116 -0.4156305
00000000: 5370 a8be 8474 3e3d bfa4 ea3b 45ef 16be
00000010: eaff d73c a2f2 8fbc f1db 0ebe 3842 2d3e
00000020: b7a2 14be 5444 cfbc 9436 523d 5dc1 06be
00000030: 7657 343e df21 bdbd 91c4 023e 751c 1d3d
00000040: 1db4 6bbd 8815 95bd 0d04 513d 9f5a 4a3e
00000050: 9850 453c e49e 1cbd 7498 96bc dbe8 4a3e
00000060: b8f2 323d 20f2 c33c 7e96 d4bd d929 0fbd
00000070: 3070 12be d3fa 173e 7fb1 82bd f733 b53d
00000080: c0eb 59bd c633 143e 376f 963d 4a98 b0bd
00000090: fd5b 4c3e 8eab fabc 0f52 21bd cb4a 623e
000000a0: c875 ffbd bded 32be 3fa0 81bc d58f b9bd
000000b0: c9e1 953d b876 b1bd 449a 2a3d 3a7d 0c3e
000000c0: 9bdf ab3d e34a a4bd abda c2bd 9df0 b63e
000000d0: d262 15be be99 94bd aa7b b13d 6518 d23c
000000e0: 0079 dfbc 3373 933d c770 a83d 5d52 af3d
000000f0: 59e7 123e 9b0a 113f 9512 00bc 7b10 4bbe
00000100: f9ec 37bd 8b9c ffbe be57 ba3d 1ffd 57be
00000110: 9363 bc3d 0a49 84bd 8f23 41bd b532 173d
00000120: 5894 183e e2be 9d3d f365 95bd cbcc ab3d
00000130: 0036 263e c09b d23d 0ea2 f9bd 290b 85bd
00000140: 1501 da3e 8e23 543e e268 dfbe ee84 c9bd
00000150: be77 d6bd 4157 bd3d 9558 d8bd 0096 c9bd
00000160: 9cfa d73e e4fe 2cbe e587 0dbe d460 023e
00000170: 7969 43bd d62d b8bd 61d0 1e3d 88f8 e6bd
00000180: 5cf3 b83d 16ff 753d 21c7 96be 4bd3 963b
00000190: 11b0 7ebe 0dcd 36bc cb25 b63d 86b2 10be
000001a0: 19f7 0abd 5a75 f8bd 69fb 40be fd2d a93c
000001b0: f64a 3b3d fb7a 833d 230b eebd d4db 063c
000001c0: 0423 c53d ceaf 0dbe b14d 3b3e f02d af3d
000001d0: 0190 8cbd 34f9 bcbd f9ca ce3d 5e23 163e
000001e0: 679e abbd 9b95 6ebd 89a5 233d 171d 5a3c
000001f0: 015c 003c 9240 7a3d 723f 8fbc 7f59 9a3d
00000200: 4b5e 72bd f7b8 a13e 9564 acbe 6e15 933d
00000210: b877 c43e 13da 123f 4f59 61bd c3ea 413e
00000220: 0bc7 b13d f472 cc3d 079a 36bd 6b61 db3c
00000230: 6799 ecbd 91d6 f7bd f6d6 2fbd 4294 9b3c
00000240: 24dd 97bd 6488 c9bd 8d5d 1a3e bc87 da3d
00000250: 1069 cc3e b770 db3c dc90 e93d 48d8 b83c
00000260: 9250 9dbd 6552 973e 2d83 683e 66f7 d8bd
00000270: 6298 603e 77cb b9be 9b31 96be 6f01 9fbe
00000280: 4227 26bd d1be 92bd 4b93 de3e 32b6 d1be
00000290: be4b 9ebd 2dce 3e3e c4d8 57be 9f42 78be
000002a0: 5d46 5e3e bb0f 263d 95fa b8be 4925 fe3d
000002b0: 5836 00be 193f 49be d1c1 49be 1f70 c83d
000002c0: 1efd a7be d170 a13c eb2b d3be c42a 72bd
000002d0: 6403 13bd f4bc e7bd 9804 6f3e 9f6a d23e
000002e0: 8cb6 43be 69d1 513e 6ae7 8e3e ca45 7a3e
000002f0: 852f cebd 0d1d 943e 7986 6abc 4c26 283e
00000300: 1344 1f3d 92f2 723e 10fb 8f3e f0be 9cbd
00000310: 864f b3be 276a 05be 4fa8 40bb ebe5 86be
00000320: 7281 6cbe 50c2 5cbe e876 24bd 6605 a83e
00000330: 0410 313d d4ce 60be 986b 5a3e 1847 8b3c
00000340: 2319 8abe a3aa 9abe 6065 01be c733 37be
00000350: 5c36 943e 0a0c 90be 3685 a8bd 49cb b03e
00000360: 0c56 ac3e 5b13 05be b3c2 3dbe 8a27 c23d
00000370: 8ee2 77be d53b 303e e98d 8dbe 65dc 8b3c
00000380: dc29 183e af52 1c3e cf33 39be 719e 1c3e
00000390: 31cb c0bd 104f 04bd ebc8 143c e23f a3be
000003a0: e583 1e3e 424f 323e 97f9 173c 89ad 6b3e
000003b0: 3055 a83e b5c8 893e 30cc b9bd 450a 933e
000003c0: 7744 4e3e 7203 463e 0a0f 4abd 73f6 cf3e
000003d0: b07e 973e 82f1 26be 1bd9 95be 968b 503e
000003e0: 33f4 0fbe b895 cabe 0a23 de3c c5d3 813d
000003f0: f0b4 bb3e 3644 e5be 5793 bcbe 85cd d4be

decoder.2.bias f4 [50]
0.097894736 -0.060350794 0.112499 0.16567522 0.0862469 0.071179666 0.072408974 0.11941334
-0.06891068 0.05358954 0.019670682 -0.036499098 -0.15940277 -0.12700814 -0.02412448 -0.14513126
0.052287787 0.055157978 0.15111457 -0.0390591 0.19825244 -0.18070915 0.03103968 -0.15415877
0.04858763 -0.0029982335 -0.10094928 0.082637556 -0.04866366 0.13232826 0.08843376 0.0529639
0.17156805 0.088841 0.21815717 0.08624264 -0.07181644 0.09632667 0.11102615 0.032752957
-0.21627265 0.08110073 -0.119764574 -0.025755817 -0.01450855 0.1355141 0.23218274 0.026829412
0.061471686 -0.20296153
00000000: 097d c83d 6532 77bd e065 e63d c4a6 293e
00000010: 37a2 b03d a5c6 913d 284b 943d fb8e f43d
00000020: 0b21 8dbd b580 5b3d 6924 a13c 1480 15bd
00000030: 7b3a 23be 6c0e 02be b4a0 c5bc 4a9d 14be
00000040: b82b 563d 55ed 613d c7bd 1a3e 6ffc 1fbd
00000050: b002 4b3e d20b 39be ed46 fe3c ccdb 1dbe
00000060: d303 473d 037e 44bb 7fbe cebd e13d a93d
00000070: 8c53 47bd 0f81 073e c21c b53d adf0 583d
00000080: 89af 2f3e 45f2 b53d 9864 5f3e fb9f b03d
00000090: 7f14 93bd eb46 c53d ae61 e33d f727 063d
000000a0: 9476 5dbe 2418 a63d 2147 f5bd ddfd d2bc
000000b0: 45b5 6dbc 35c4 0a3e 50c1 6d3e 5bc9 db3c
000000c0: bcc9 7b3d 26d5 4fbe

decoder.4.weight f4 [1, 50]
-0.23839365 0.49990878 -0.20821166 -0.24663568 -0.36325765 0.2866356 0.15409113 -0.25999504
0.3768399 -0.28486025 0.27983478 -0.31017148 0.34481823 -0.21337411 -0.343867 0.38270247
-0.25433344 0.26448715 -0.22501728 0.3427969 -0.22697178 0.14247748 -0.5097242 0.28341535
0.22692643 -0.30384645 0.2970869 0.07746146 -0.465166 -0.23252434 -0.29719025 0.3159088
-0.45914057 0.41922548 -0.20373191 0.30055943 0.4107111 -0.26960817 -0.3924224 -0.2594636
0.3873382 -0.24539654 0.20858596 -0.27057865 0.23423044 -0.21216205 -0.19397013 -0.26054445
-0.24038549 0.16177109
00000000: 771d 74be 0bf4 ff3e 7035 55be 108e 7cbe
00000010: e8fc b9be e7c1 923e 11ca 1d3e 121e 85be
00000020: 29f1 c03e 34d9 91be 8146 8f3e ccce 9ebe
00000030: 048c b03e be7e 5abe 560f b0be 94f1 c33e
00000040: fe37 82be dc6a 873e ee6a 66be 1383 af3e
00000050: 4a6b 68be 9ee5 113e 497d 02bf d11b 913e
00000060: 675f 683e c391 9bbe c61b 983e 1da4 9e3d
00000070: 3d2a eebe dc1a 6ebe 5229 98be ccbe a13e
00000080: 7914 ebbe b9a4 d63e 199f 50be ede2 993e
00000090: ba48 d23e 150a 8abe 97eb c8be 6ad8 84be
000000a0: 3151 c63e 3b49 7bbe 8f97 553e 4989 8abe
000000b0: 1bda 6f3e 0241 59be 1ba0 46be 1566 85be
000000c0: 9d27 76be 52a7 253e
