Code/Trained models/all_5000_norm_4001_vanilla_newstds.pth (torch, 9778 bytes, 9 tensors)

net.0.weight f4 [20, 6]
000000 bc 11 59 3f 03 6e 02 3d a6 8c ba bc b8 00 66 3c
       0.84792686 0.031843197 -0.022772145 0.014038257
000010 a0 5b 82 bb 9a 11 24 be d6 03 31 bf 56 d9 1f 3c
       -0.0039782077 -0.1602234 -0.6914648 0.009756407
000020 55 7c 63 3d 7f f2 5f bd 4e 52 bd 3c a2 16 25 be
       0.055538494 -0.05467462 0.023110535 -0.16121915
000030 24 53 6e bf 82 04 17 3e 18 78 34 3d e0 e7 93 bd
       -0.9309561 0.14747813 0.044059843 -0.07221961
000040 9d 64 bc bb be cd 20 bd d9 52 49 bf c2 6c 85 bd
       -0.0057492987 -0.03925871 -0.7864204 -0.065148845
000050 13 3f 58 3d 19 1f 11 bc ba 66 4b 3d 20 35 88 3d
       0.052794527 -0.008857512 0.049658515 0.06650758
000060 70 4a e4 be 20 23 32 3e 9f 73 f5 bb bc 3b 92 bc
       -0.4458804 0.17396212 -0.0074905897 -0.01785075
000070 e3 76 fb 3c 03 c4 8e be 1c 2d 10 3d 49 be 1f 3e
       0.030696338 -0.2788392 0.03519927 0.15599932
000080 25 9b 38 3d 5f d4 19 3d 44 af 84 bb fc d9 82 bd
       0.045069832 0.03755605 -0.0040492136 -0.063892335
000090 be 9a 1f bf 57 1e bb 3d 58 3d fc bc 3b c6 ee bc
       -0.6234549 0.09136646 -0.03079097 -0.029147258
0000a0 37 58 e6 bc 66 05 f7 3d 70 ac 4a bf b5 7f d6 3d
       -0.028118236 0.120615765 -0.7916937 0.10473577
0000b0 f1 41 1b bd cd 03 08 bd 66 83 1c bc 53 85 52 bd
       -0.037904684 -0.03320675 -0.009552812 -0.05139668
0000c0 b9 0c dd be db bb 70 be a8 16 06 3e 8f be 87 bd
       -0.4317377 -0.23509161 0.1309458 -0.06628143
0000d0 14 4e 26 ba 30 46 1e 3d dd 01 a8 3e 1b 54 d3 3c
       -0.0006344032 0.038641155 0.32813922 0.02579694
0000e0 a2 a8 2c 3d 27 e1 54 bc 1a c1 56 3c 8e 2c c0 3d
       0.04215301 -0.012993134 0.013107562 0.09383498
0000f0 16 c3 54 bf ee be 83 3c 93 78 38 bd f1 78 58 3d
       -0.8311018 0.016082253 -0.045036864 0.052849714
000100 a2 96 a9 ba 0a 65 39 3d a0 46 61 bf f6 7b 1b bd
       -0.0012938569 0.045262374 -0.8799839 -0.037960015
000110 8b 4e ca bb e5 84 c8 3d 9f 6c 2e bb 15 b1 39 3c
       -0.006173914 0.097909726 -0.0026615036 0.011333724
000120 ea 21 46 bf 85 99 7f bc 2c 3a 8b 3c d5 62 43 bc
       -0.773955 -0.015600567 0.016995512 -0.011925419
000130 a9 18 36 bd ae e3 0e bd 64 0e 47 bf 9d 50 a4 bd
       -0.04445711 -0.0348851 -0.77756333 -0.08023188
000140 9a 79 91 3c 2d 7d e0 3d 88 51 8f bb 3e 1d db 3c
       0.01775818 0.109613754 -0.004373733 0.026747342
000150 ef bf 07 3f 92 fc 67 bc 9d c2 0b bd bc 8d 7e 3d
       0.5302724 -0.014159339 -0.034121145 0.062146887
000160 c2 5b 44 bd fa 1b 6e 3d d0 cc 41 bf 99 43 97 3c
       -0.04793907 0.05813215 -0.75703144 0.01846485
000170 50 8c 0f bc bb 88 3c 3d 2b 16 a5 bc 3b 52 55 bd
       -0.00876148 0.046028834 -0.020152172 -0.052080374
000180 45 c2 9b 3e 02 38 05 be 01 4f d6 3d a5 a8 83 bc
       0.30421653 -0.13009647 0.104642875 -0.016071627
000190 2e 51 a3 3d 4f 4b 3c be 51 1e e7 3e 0e d3 3a bd
       0.07974468 -0.18388103 0.45140317 -0.045611434
0001a0 21 1c b1 bc 34 c6 0b 3e e8 8e ae ba da 15 76 bc
       -0.021619858 0.13649827 -0.0013317736 -0.015019858
0001b0 c1 95 fa 3e 5c 8d 33 be a9 d3 3c 3e f5 88 1f 3d
       0.48942378 -0.17534393 0.18440117 0.03894897
0001c0 a1 58 38 bc 40 74 18 bd 6b fa 0b 3f 18 fe b9 bc
       -0.0112515995 -0.03722024 0.5467898 -0.02270417
0001d0 79 d6 8a bc 73 71 b9 3d 2b c4 0c 3d 91 58 da 3c
       -0.016947972 0.09054842 0.034366768 0.02665356

net.0.bias f4 [20]
000000 03 3b 78 bd 4a e6 1a bf b6 03 b6 3f 3d 34 01 bf
       -0.060603153 -0.60507643 1.4219882 -0.50470334
000010 43 6b bc be d9 13 a2 bd e1 60 fb 3c 41 0b a4 3e
       -0.36800584 -0.07913942 0.030685844 0.32039836
000020 fa 3d 7c be 6d a3 24 be fd f6 c3 be b6 e0 02 3e
       -0.24633017 -0.16077967 -0.38274375 0.12781033
000030 e8 4b 8b be bc 5d 00 bf f1 6b 39 bf 9f ce 93 3e
       -0.2720635 -0.5014303 -0.7243033 0.28868577
000040 c9 63 27 bf 4d 6b 99 3e fa e3 cf 3e 35 45 e3 be
       -0.65386635 0.29964676 0.4060362 -0.44388738

net.2.weight f4 [20, 20]
000000 d5 a8 4e 3e 0d 9b 15 3f d1 6d 65 bd c4 2c 56 3e
       0.20181592 0.58439714 -0.056012932 0.20915514
000010 01 fb 05 be db 42 ff 3d 4a 56 11 bf 16 7e c3 3e
       -0.13084032 0.124639235 -0.5677229 0.38182133
000020 c8 92 ab 3d 83 f8 27 be 4c 41 f2 3e b5 db b1 3e
       0.08377606 -0.16403393 0.47315443 0.34737936
000030 04 7c a2 bd 44 97 90 3d 7b a5 1f be 6a ff cb 3e
       -0.0793381 0.07060102 -0.1559047 0.39843303
000040 3a 43 2f 3e 8d 22 97 be 18 af 97 be a2 18 7f be
       0.17115489 -0.29518548 -0.29625773 -0.2491174
000050 ae bf 98 3e 0b 62 be 3e 49 ea 67 bf bf bb b4 bd
       0.2983374 0.37184176 -0.90591866 -0.08824872
000060 23 26 aa 3c 42 ba d1 3d 46 76 87 be 44 d4 15 bf
       0.020770138 0.10240604 -0.26457423 -0.58527017
000070 17 bc 7e 3e 48 f5 22 3d cb fb a1 bd 48 a2 26 bf
       0.24876438 0.0397847 -0.07909354 -0.6509137
000080 4d 25 e6 3d 52 db 9c bd f0 cd ea 3e f3 56 9e be
       0.11237583 -0.076590195 0.45860243 -0.30925712
000090 07 dd 58 3d a6 ed 29 3f ed 3a 42 3c d8 dd a8 3e
       0.052945163 0.6637825 0.011854869 0.32981753
0000a0 56 fe af 3e 0c b6 bc 3d b3 18 e1 bd d8 75 7e be
       0.3437373 0.0921441 -0.10991039 -0.24849641
0000b0 46 0e 2c 3e d8 b9 ec 3d 9d bb e5 bd c4 4b 44 bf
       0.1680232 0.115588844 -0.11217425 -0.7667811
0000c0 29 18 01 3e 15 a8 43 be 92 d0 e8 be 3d 00 dd be
       0.12606873 -0.19107087 -0.45471627 -0.43164244
0000d0 f6 23 32 3c 19 fe 23 bd ab 6d cb bb 7e f8 e6 3c
       0.010872832 -0.04003725 -0.006208142 0.028194662
0000e0 c0 9e f8 bc 56 6f e3 3e a1 e1 15 3f 93 af 1e 3e
       -0.030349135 0.4442088 0.5854741 0.15496664
0000f0 68 4c b2 be e8 cd 95 bc eb 58 51 3d ac 35 a2 3e
       -0.34823918 -0.01828666 0.05111019 0.31681573
000100 7b 27 df bd 2c 96 7c bd ce f8 1b 3d 26 33 f6 3e
       -0.10896202 -0.061666653 0.038079076 0.48085898
000110 e4 f3 22 3d 4c 13 20 3d 95 e4 45 3f e4 b1 81 3e
       0.039783373 0.039080903 0.77301913 0.25331032
000120 6d 87 c1 3e 85 da e7 3e c7 ce 8a be d6 37 b4 3d
       0.37798634 0.45283905 -0.27110884 0.08799712
000130 be e5 29 be 6d 40 10 be fb 8f 87 be 2f 9c e3 be
       -0.16591546 -0.14087076 -0.26477036 -0.44455096
000140 78 b8 92 3c b9 8c af bd a4 81 14 3f 24 7b 01 be
       0.017910227 -0.085717626 0.58010316 -0.1264463
000150 dc 99 18 3e b7 f8 3d bd 49 19 4b be 8b a3 02 3f
       0.14902443 -0.04637977 -0.19833864 0.51030797
000160 f1 35 00 be 1d df ac 3d d0 9d 86 3e 75 2a 16 3f
       -0.12520577 0.08440993 0.26292276 0.58658534
000170 b0 04 0c 3b 89 d0 d8 bd 5d 80 82 be 6b b5 77 bd
       0.0021365099 -0.1058665 -0.25488558 -0.060475748
000180 6d 18 99 bd b5 42 b6 be db 22 07 3f 3c 3e 12 bf
       -0.07475362 -0.35597768 0.5278756 -0.5712621
000190 cb 7d 06 be b0 a1 6c bb 2b 97 a7 bc a1 e2 20 3e
       -0.13133924 -0.0036107115 -0.020457825 0.15711452
0001a0 6f 9f 9b bd 0b cc 24 3e e3 d6 7f be 70 86 21 3e
       -0.07598769 0.16093461 -0.24984317 0.1577394
0001b0 44 eb 25 3e 42 ff 94 bd 43 44 f2 3e 61 cd b3 3d
       0.16203028 -0.07275249 0.47317705 0.08779407
0001c0 84 2b 9d 3e c3 b1 88 3d 0c 0c 80 3d fc 08 3f be
       0.30697262 0.0667453 0.06252298 -0.18655771
0001d0 44 8c 82 3d 60 5c b9 be 26 25 77 be 94 d4 a7 be
       0.0637441 -0.3620329 -0.24135265 -0.32779372
0001e0 d3 cd 8e be 51 47 c4 bc cc f6 e7 3d 54 f6 90 3e
       -0.27891406 -0.023959788 0.1132637 0.28312933
0001f0 f2 7e 8b 3d 80 24 0c 3d e0 df 26 be ad f9 b6 3e
       0.06811322 0.034214497 -0.16296339 0.35737363
000200 55 33 05 be 3a c0 4f bd 66 3e a8 3e bd cb be 3e
       -0.13007863 -0.05072043 0.32860106 0.37264815
000210 3b 79 ec 3c db 00 14 3e 51 02 e1 be c7 20 fa 3d
       0.028866401 0.14453451 -0.4394708 0.12213283
000220 f1 75 1c 3e 9f e4 be be fe 24 33 bd 3b 30 00 bf
       0.15279366 -0.372838 -0.04373645 -0.50073594
000230 a4 81 d8 3e 96 af 87 be 34 e7 e3 3e f3 17 80 be
       0.42286408 -0.2650115 0.4451233 -0.25018272
000240 b8 76 c1 bd 1a eb 85 3e 6a 36 50 be cd 4c 33 3e
       -0.09446472 0.2615593 -0.20333257 0.17509766
000250 40 b0 96 3d 7d 04 5d be 72 18 81 be 15 a4 82 be
       0.07357836 -0.21583743 -0.25213963 -0.2551581
000260 94 e9 ec 3c 70 f1 da be 49 d8 33 3d 83 f5 12 3c
       0.028919972 -0.42762327 0.043907437 0.008969667
000270 49 c3 41 be 81 94 ae 3c c0 fc 0d be 4d 11 95 3d
       -0.18922152 0.021311047 -0.13865948 0.072786905
000280 c6 6e 31 3e 23 0c f2 bc 82 43 35 3d 90 42 6f be
       0.17327413 -0.029546803 0.044253834 -0.23365235
000290 1f 03 c8 bd 56 27 93 bd 54 8e 46 be 8c c5 e3 be
       -0.0976622 -0.07185237 -0.19390231 -0.44486654
0002a0 53 ef 49 be 73 8d 07 3d c4 7f 17 bf 1a f5 d4 be
       -0.19720201 0.03309388 -0.5917933 -0.41593248
0002b0 6c f9 aa be e8 b7 bf be 58 3d 35 3e f8 36 4b be
       -0.3339342 -0.37444997 0.17699182 -0.19845188
0002c0 9e 0e 03 3e bc c4 7f 3e 4e 37 ca 3c a1 48 a0 3e
       0.12798545 0.24977392 0.024684574 0.3130541
0002d0 84 48 56 be 6c ab 17 be ad 63 f4 3e b1 b9 c3 3d
       -0.209261 -0.14811486 0.47732297 0.09556902
0002e0 db ae 89 be d1 c7 dd 3d 66 df af 3e 59 2d a2 3e
       -0.26891217 0.108291276 0.34350127 0.31675223
0002f0 d2 90 b3 bd 0f 24 36 3d 30 37 11 3d b7 33 96 3e
       -0.08767857 0.044467982 0.03545302 0.2933633
000300 95 26 4c be c0 5d 9d 3d e2 b9 53 be ed 6e 94 3e
       -0.19936593 0.07683897 -0.20676377 0.2899088
000310 5d 31 b0 3c ef 89 fe be 76 23 32 bf 7f 18 64 be
       0.021507913 -0.4971461 -0.6958536 -0.2227497
000320 ea ea f7 be 75 bb 48 3e a8 9a fa 3c 43 2d ce 3e
       -0.48421413 0.19602759 0.030591324 0.40268907
000330 2c 9f 16 3d 29 75 9a 3d 83 66 a9 bc 26 a6 85 3e
       0.036772892 0.07541878 -0.020678764 0.26103324
000340 39 6e c5 3d ba ba 1e bf 80 0c 23 3f a8 8e 14 3f
       0.09640164 -0.6200367 0.6369095 0.58030176
000350 b1 40 d1 3e 7e 46 78 3e bc 17 10 bf 7b b0 bd 3e
       0.40869668 0.2424564 -0.56286216 0.37048706
000360 9a 6a 92 be 44 04 c5 be f2 db 9c 3d f7 bc 13 bf
       -0.28596956 -0.38479817 0.07659139 -0.5771021
000370 3a 28 21 bf 11 f0 18 3e 95 d2 80 be d7 90 1e 3f
       -0.62952006 0.14935328 -0.2516066 0.6193976
000380 58 b1 82 3c 5c 95 2a 3d e2 75 16 3e 62 c9 12 3f
       0.015953705 0.041646346 0.14693406 0.57338536
000390 57 e4 49 3e 25 c0 a5 3d 3e 2a 05 3f 1a 19 a5 3e
       0.19716011 0.08093289 0.5201758 0.32245713
0003a0 ef 01 ad 3e d6 ca e0 3e 78 5d f0 bd 91 18 0c 3f
       0.33790538 0.43904752 -0.11736578 0.54724985
0003b0 a4 f4 15 3e c0 8d da be ea 8f 3d be 46 06 91 be
       0.14644104 -0.42686272 -0.1851193 -0.283251
0003c0 94 3a b1 3e 7a 4c d4 be 59 b1 a7 3d 5e 96 ab be
       0.34615004 -0.41464597 0.08188123 -0.3351316
0003d0 e5 d4 19 3d a6 7d 40 3e c4 d7 fe bd 9d 71 96 be
       0.037556548 0.18797931 -0.12443498 -0.29383555
0003e0 8c 58 c4 3d 8d bf f5 3e f9 50 92 be cc 76 00 bf
       0.095872015 0.47997704 -0.28577402 -0.5018127
0003f0 e1 2f 91 be 22 c4 c5 be 22 fb d0 3e 43 fb c5 be
       -0.2835684 -0.386262 0.408166 -0.3866826

net.2.bias f4 [20]
000000 82 59 cf be 80 9e cf be 7a 02 9d 3d 64 70 1b be
       -0.40497977 -0.40550613 0.07666488 -0.15179592
000010 5f f0 d8 3e 1b 1e 33 bc cc cf c0 3c 5a 70 88 3e
       0.4237089 -0.010932471 0.023536585 0.26648217
000020 00 b2 e3 bc dd f2 ac 3e ff 4f ed bd 0c a4 6c be
       -0.027794838 0.3377904 -0.11587524 -0.23109454
000030 d2 22 22 bd 30 b5 ae bd 24 e0 60 be 19 a2 0b bf
       -0.03958399 -0.085306525 -0.21960503 -0.54544216
000040 86 c4 69 be bf da 1e be 0a 62 66 3e 71 0e 85 bc
       -0.22828874 -0.15513133 0.22498336 -0.016242238

net.4.weight f4 [20, 20]
000000 22 23 cc 3e 0e 36 09 3e f8 74 8e 3c 2c 57 2d be
       0.39870554 0.13399526 0.01738976 -0.16927785
000010 68 6b 15 be 14 ba 5e 3e 47 0c 59 3e e0 f4 3c be
       -0.14591753 0.2175067 0.2119609 -0.18452787
000020 6a dd b0 3c 0d a3 4c bf a9 22 56 bd b9 6f 6f be
       0.021589953 -0.79936296 -0.05227915 -0.23382463
000030 0f 10 97 bb d2 d8 c4 3e 50 29 42 be b0 27 f6 3e
       -0.0046100686 0.3844667 -0.18961072 0.48077154
000040 86 92 3e 3e 50 e7 d9 3c 9a 42 97 bc a1 d6 80 3d
       0.18610582 0.026599556 -0.018464375 0.06290937
000050 6f b8 0c bf 3b e3 a3 be c1 ee 98 be 1c d3 11 be
       -0.54968923 -0.320093 -0.29869655 -0.14240688
000060 1a 64 9f 3e 22 7d 5a 3c 08 6c ce 3d 05 e5 8e 3e
       0.3113106 0.013335498 0.10079199 0.27909103
000070 d9 ef 77 bd 25 64 b6 3f d2 06 26 3d 7a 07 37 be
       -0.06053147 1.4249312 0.040533848 -0.17873946
000080 28 42 9b bd 35 d3 8f be 89 6e 55 3e b2 79 00 bf
       -0.07580978 -0.28090826 0.20842947 -0.5018569
000090 40 86 c3 be 94 9c 89 be 7b 56 d9 3c 1f 2f b8 be
       -0.38188362 -0.26877272 0.026530495 -0.3597345
0000a0 1c 6b 08 3d 81 6f 5c be 11 b4 0e 3e 81 dc ff 3e
       0.033305272 -0.2152691 0.13935877 0.4997292
0000b0 22 88 00 3e 35 3f 7f 3e 59 af f4 3e 49 4f b2 bd
       0.1255193 0.24926455 0.4779003 -0.08706529
0000c0 dc cc 25 be b8 6f cf be 69 17 41 be b3 70 40 be
       -0.16191429 -0.40514922 -0.18856587 -0.18792991
0000d0 5c 56 9c bd ca 37 bb bd 82 09 b7 be 7a 7c 17 be
       -0.07633659 -0.091415 -0.3574944 -0.14793578
0000e0 49 45 a8 3c aa 4e 85 3e f8 f8 71 be f1 53 4e be
       0.02054085 0.26036578 -0.2363013 -0.20149209
0000f0 95 18 93 be 67 3e c1 3e b7 6a 4e 3e c7 5f 8c be
       -0.28729692 0.37742922 0.20157896 -0.27416822
000100 e7 aa e9 bd c3 0e 34 bd 42 2e c3 be c8 13 cb bc
       -0.1140955 -0.04395939 -0.3812123 -0.024789706
000110 ec 90 ad 3e c5 75 88 3e 8f c6 bc be fb c3 a1 be
       0.3389963 0.2665235 -0.36870238 -0.31594834
000120 22 ac d2 3e 26 20 17 3e 4a f4 a6 3e 4d 60 59 3d
       0.41146952 0.14758357 0.32608253 0.053070355
000130 5c 88 02 3f 63 cf e4 bd 02 14 f0 bb 11 33 11 be
       0.5098932 -0.111723684 -0.007326604 -0.14179637
000140 61 f6 2f be 2e 9c f4 be a3 43 3d be 41 0c 0f 3f
       -0.1718383 -0.47775406 -0.18482833 0.5587807
000150 77 1e 02 3f 02 5e 10 3e b3 09 d3 3e c5 90 8f be
       0.50827736 0.14098361 0.41218337 -0.28040138
000160 9f 16 1a bf 79 29 95 be 9b 8b 99 3d 17 ce b5 bd
       -0.6019077 -0.29133204 0.07497331 -0.08877199
000170 a1 7d 0e be 57 9f d6 bd 4e c9 27 bf c6 96 22 be
       -0.13915111 -0.104796104 -0.6554154 -0.15877828
000180 41 de b6 bd 58 81 c4 3e e2 13 45 be 41 32 91 3d
       -0.0892911 0.3837993 -0.19245866 0.07089663
000190 d7 36 d9 3d f7 51 38 3f ed bf 0c 3f 53 84 d7 bd
       0.10606163 0.7200007 0.54980356 -0.10523286
0001a0 7d 03 39 bf cb 23 84 bd a1 4c cd be 84 02 59 3d
       -0.7227095 -0.064521395 -0.40097526 0.052980915
0001b0 0c 77 86 3e 07 43 91 3e 76 75 4b be 82 09 21 3e
       0.262627 0.2837145 -0.19869027 0.15726283
0001c0 a6 6d bd 3e 76 36 2a 3e a5 54 41 3f ae 76 14 3f
       0.36997718 0.16622338 0.7551978 0.5799359
0001d0 37 ab de 3d 46 bf de 3d 44 2c 08 3f 51 bd 55 3e
       0.108725004 0.10876326 0.53192544 0.20873
0001e0 54 65 b7 3d 9a 6c 71 3f ee f3 0b 3f 1a 02 43 be
       0.08954874 0.9430634 0.5466908 -0.1904377
0001f0 bb 46 25 be 28 be 43 3e 95 e6 95 3c 64 44 fb bd
       -0.16140263 0.19115508 0.018298427 -0.12268904
000200 13 f4 9c bd 77 ae 72 be 57 38 ba bd a7 c7 b4 3d
       -0.07663741 -0.23699366 -0.09092777 0.08827143
000210 7a ca f1 bd 15 d9 fc 3e e8 d6 4d 3e 9d 03 ce 3e
       -0.118061975 0.4938437 0.20101511 0.40237132
000220 77 e7 03 3e d1 65 38 3e ce bd 24 3e 7c d0 1e 3e
       0.12881266 0.1800759 0.1608803 0.15509218
000230 e2 d6 15 bf b3 6b 94 3c 68 0a 70 be c0 0d 14 be
       -0.5853101 0.018117761 -0.2344147 -0.1445837
000240 01 6b 25 3e de 20 46 be 6d 93 d4 be 22 0b 62 3e
       0.161541 -0.19348475 -0.41518727 0.2207456
000250 d9 b6 f7 3d 88 5b 63 3e e3 98 8d 3d 4f 7a 4a be
       0.12095422 0.22202885 0.069139265 -0.1977322
000260 7e 7a 07 3d 9a df 44 3e 63 44 ab 3d 57 f4 60 be
       0.033075802 0.19225922 0.08362653 -0.21968208
000270 67 ad 8e 3e 9f 0c 65 be 3a 97 e6 3d 39 32 e0 bb
       0.2786667 -0.22368096 0.11259313 -0.0068419245
000280 fb 30 d2 be ed 10 35 3e 7a b5 0b be 27 95 a6 bd
       -0.41052994 0.17682238 -0.13643447 -0.08133917
000290 e1 e6 c4 3d cb 62 19 be 1e 25 b7 be ba a9 f9 3d
       0.09614349 -0.14979093 -0.35770506 0.12190576
0002a0 3f d0 04 3e d3 56 e8 3d cd 48 bf 3e 26 5d 1f 3e
       0.12970065 0.113446854 0.3736023 0.15562877
0002b0 d1 77 ef bd 4d 20 13 3e 29 6f ce 3d a2 60 d1 3d
       -0.11692775 0.1436779 0.10079796 0.10223509
0002c0 5b f5 d1 bd 9c ab 4a be f0 c8 33 3e 12 34 ea 3d
       -0.10251876 -0.19792026 0.1755712 0.11435713
0002d0 22 45 c6 3e b5 89 a8 be c2 77 81 3e e2 5c d2 3d
       0.3872462 -0.32917562 0.2528668 0.10271622
0002e0 8c 38 af 3e f7 50 47 3e 36 20 f9 3e 9e 52 16 be
       0.3422283 0.1946448 0.48657387 -0.14679953
0002f0 18 93 89 be 36 c9 d0 3d eb 74 19 3f 55 c8 99 3e
       -0.26870036 0.10194628 0.5994403 0.30035654
000300 86 a7 9e be ee 5c cf bd 65 6f 9f be 6b 22 6e be
       -0.30987185 -0.10125147 -0.31139675 -0.23255317
000310 61 5d cf be 1f cf 36 3e a5 f6 91 be 96 d0 b9 3c
       -0.4050093 0.17852448 -0.28508487 0.02268247
000320 17 5e 07 3e ff 84 b9 be 8f 09 4a 3e 4d 59 0d be
       0.13219486 -0.3623428 0.19730209 -0.13803597
000330 c0 6e 28 3e 6f 2e 23 3d 19 2e b1 3e be 01 07 3e
       0.16448498 0.039839204 0.34605482 0.13184258
000340 3e fe 90 be d6 c8 2f be ed cd 03 3f f6 a7 7c bc
       -0.2831897 -0.17166457 0.5148609 -0.015420904
000350 89 f0 dc be 02 a1 1d bd 14 a7 99 be 17 6b 1f be
       -0.43152264 -0.038483627 -0.30010283 -0.15568195
000360 36 9d 13 bf bd 4d 2b 3c 00 ec ee 3d 36 a7 d9 3d
       -0.5766176 0.010455546 0.11666107 0.10627596
000370 94 94 16 bf a4 1b 7b be 7a 67 fc bd 64 8f e3 3e
       -0.5882046 -0.24522263 -0.12324424 0.44445336
000380 dd aa 83 3e 65 a3 20 3e 2e d2 f8 3e a8 69 c8 bc
       0.25716296 0.1568733 0.48597854 -0.024464443
000390 82 a4 8a be 8a 44 19 bd 89 79 3a 3e dc 94 aa 3d
       -0.27078635 -0.03741888 0.18210424 0.08329174
0003a0 ac c9 c8 be 31 73 05 be 25 be 07 bf 36 af b9 be
       -0.39216363 -0.13032223 -0.5302451 -0.36266488
0003b0 78 9b d0 be 5d 4c 34 3e a2 17 e1 be fb 77 ea bd
       -0.40743613 0.17607255 -0.43963343 -0.11448666
0003c0 b6 50 5b be 38 b0 ac 3e 99 12 58 be 7e c1 5f 3d
       -0.21417508 0.33728194 -0.21100844 0.054627888
0003d0 8c 33 08 be 71 3c 07 be b8 a8 a4 be ce e4 bc bd
       -0.13300914 -0.1320665 -0.32159972 -0.092233285
0003e0 03 63 53 3d 82 7f 20 3d b8 95 1e be ec 75 6b 3d
       0.051608097 0.0391841 -0.154868 0.057485506
0003f0 1b 9b 33 3e 6f 4b 1e 3e 2d 4c 75 3e 01 8c b7 bd
       0.17539637 0.15458463 0.2395484 -0.089622505

net.4.bias f4 [20]
000000 aa 54 5b be 4c 0f b8 3e d3 6a 52 be 00 f5 15 be
       -0.21419016 0.3594917 -0.20548563 -0.14644241
000010 2b 19 f7 bd f8 0f 4c be a6 69 3b 3e d7 44 72 3e
       -0.12065347 -0.19927967 0.1830202 0.23659073
000020 90 63 8a 3e d0 72 0b 3e 6b 62 04 3e 63 32 36 3d
       0.27029085 0.13618016 0.12928168 0.044481646
000030 8b 1f 93 3d 89 eb 62 be 1b e0 49 3d 16 cf 4b 3d
       0.07183751 -0.22160162 0.04928599 0.04975804
000040 ef 07 aa 3e ac 34 9e 3d c3 5c 13 3e 0d 49 2b 3d
       0.33209178 0.0772489 0.14390855 0.041817714

net.6.weight f4 [20, 20]
000000 70 b7 80 bd 36 d8 4b 3e f1 a4 81 bd dd b7 10 bc
       -0.06284988 0.19906697 -0.06330288 -0.008832899
000010 53 69 36 be 25 0d 01 bf 46 0a 7d 3e d1 99 81 3e
       -0.17813616 -0.5041068 0.2471095 0.25312665
000020 ab 3b b8 3e c6 20 79 3e b1 e3 b6 bd 61 4e 52 be
       0.35983023 0.24328908 -0.089301474 -0.20537712
000030 81 8b c5 bc f9 1b d5 3e 76 53 ac 3e 55 29 4e 3f
       -0.024114372 0.41622904 0.33657426 0.8053182
000040 99 e7 39 3f a3 ba 00 bf 2d 24 60 3c 79 9c 2c 3e
       0.72619015 -0.50284785 0.0136805 0.16856565
000050 32 c4 d6 3e e5 6f fa be 14 7a 20 3e b2 46 73 3e
       0.4194656 -0.48913494 0.15671569 0.23757437
000060 59 fa 8f 3c bf 0e 14 3f 39 2a 31 bf 36 87 e4 3c
       0.01757543 0.57835 -0.6920505 0.027896505
000070 6c 4d 73 be 09 f6 a2 be 2f c7 5e be ae 18 28 3f
       -0.23760003 -0.31828335 -0.2175567 0.6566266
000080 27 d5 ad be a6 78 de be f1 b8 47 bf 38 c1 b0 be
       -0.33951685 -0.43451422 -0.78016573 -0.34522414
000090 76 9e 1c bf 4b ff 9d 3e d4 2e 9c be be ad 2c 3d
       -0.6117929 0.30858836 -0.30504477 0.04215788
0000a0 08 a6 41 3e 9e 6a 76 3d 4f 03 29 3d b7 ed 8e be
       0.18910992 0.06016027 0.04126292 -0.27915737
0000b0 18 31 99 3e 31 2b dd 3e 0e da e9 3d 01 42 95 bc
       0.29920268 0.43197015 0.11418544 -0.01821995
0000c0 dc 32 ae be 59 a6 ba 3e 48 eb 24 be ba 25 a8 bd
       -0.34023178 0.36455038 -0.16105378 -0.08210321
0000d0 77 a9 3d bd 4b b1 21 3f c5 e7 ad 3e 8a d0 22 3c
       -0.046304192 0.6316115 0.3396589 0.009937415
0000e0 e6 93 9b be a7 28 e7 be 68 a5 10 3f 80 36 4a bd
       -0.30386275 -0.45148203 0.5650239 -0.04936838
0000f0 b7 12 64 3e 3c dd 9c 3a 7b 1e 20 3e 13 06 71 bd
       0.22272764 0.0011967788 0.15636627 -0.058843683
000100 42 10 0a bd 7d 3f 65 3e d2 f8 b3 be 4c 37 b9 bd
       -0.03370691 0.223875 -0.35150772 -0.0904375
000110 a2 4e 49 3d 81 6f 40 be fb d0 98 bd e4 b3 9f 3e
       0.049147256 -0.18792535 -0.07461735 0.31191933
000120 e0 4b 51 be 4a c5 5d be 1d c1 88 be 78 08 34 bd
       -0.204391 -0.21657291 -0.26709834 -0.04395339
000130 bb e0 f5 be 4c 6d 9e bd 12 3f 16 3d a0 e3 8f bd
       -0.48023018 -0.077356905 0.036681242 -0.07025838
000140 7d 39 17 3e c8 cc da be 03 65 c8 3e f6 99 ae 3e
       0.14768024 -0.4273436 0.39139566 0.34101838
000150 d0 2f 89 3c 96 ac bb 3e 4c c0 6d bd cb b8 90 bd
       0.016746432 0.3665511 -0.058044717 -0.070664965
000160 f7 35 4b be 6c de a2 be fa 86 29 3e 29 90 c9 3e
       -0.19844805 -0.3181032 0.16555396 0.39367798
000170 4f a9 c7 3d 97 b5 1f be f7 99 98 be cd 04 8a be
       0.0974909 -0.15596615 -0.29804966 -0.26956788
000180 ff 72 69 be 5c 42 f3 3e de d6 62 3c 3c 62 1c be
       -0.22797774 0.47511566 0.013845174 -0.15271848
000190 7a f1 2d be 54 ca 4e 3e 04 fe 28 be 30 d6 a2 3d
       -0.16986647 0.2019437 -0.1650315 0.07951009
0001a0 20 96 6a be 34 77 b5 be 06 36 b2 3e b9 55 5a 3d
       -0.2290883 -0.35442507 0.34806842 0.053304408
0001b0 0c 74 d2 3e 86 67 10 bd a3 26 b9 3d 42 17 81 be
       0.41104162 -0.035254978 0.090405725 -0.25213057
0001c0 36 21 5e 3e 47 66 c1 3e 88 8d b8 3e 7a bf 1a 3e
       0.21692356 0.37773344 0.3604548 0.15112105
0001d0 c9 39 0f 3f 0f ab ff be 11 ed b0 3c 24 a6 7b bd
       0.5594755 -0.49935195 0.021597417 -0.06143774
0001e0 7a 45 53 bd 6b 27 d4 3e b1 79 4b be 0d 72 a0 be
       -0.05157993 0.41436324 -0.1987064 -0.31337014
0001f0 72 20 9f be cd fc 8c be f5 c5 a9 3d ce 5f 15 3d
       -0.3107944 -0.27536622 0.082897104 0.03646832
000200 bc bf cf 3d c0 b1 c1 3d 5c 1d 17 be 98 21 96 be
       0.10143992 0.09457731 -0.14757293 -0.29322505
000210 96 d7 ac bd d8 84 c2 3e bf 71 8a 3e 85 af 4e 3e
       -0.08439557 0.37991977 0.27039906 0.20184143
000220 3d cf ce 3e 1b 1b ce be c1 b5 83 3d e0 a3 a8 3e
       0.40392485 -0.40255055 0.06431151 0.32937527
000230 84 2c 68 3d 60 64 89 3d c8 45 b3 be f0 e0 88 3e
       0.05668308 0.06708598 -0.35014176 0.26734114
000240 c9 f7 2f be fc 1b 3b be 6c a4 e0 ba 75 71 bf 3e
       -0.17184366 -0.18272394 -0.0017138845 0.37391248
000250 46 41 67 3e 07 df 54 be e3 94 78 3d f8 13 94 be
       0.22583494 -0.20788203 0.060688864 -0.28921485
000260 37 ef 5a 3e d1 cc 11 bf 16 ea 9c be eb b0 60 bd
       0.21380316 -0.5695315 -0.30647343 -0.054856222
000270 84 0b c2 3e a5 a0 e9 3e 90 a2 13 bf db 6e fd 3c
       0.3789941 0.45630375 -0.57669926 0.03093665
000280 fa 77 3f bd 3d 68 76 3e 71 af d2 be 70 26 6a be
       -0.046745278 0.24063201 -0.41149476 -0.22866225
000290 f1 a4 0e 3d ba d6 0e be 71 ba 1f 3d fe bc 86 3e
       0.03482527 -0.13949099 0.038996164 0.26316065
0002a0 1c 35 85 3e c1 ca 54 3e e0 d8 69 bc 8b a7 4c be
       0.26017082 0.2078047 -0.014272898 -0.19985788
0002b0 8a 7b b2 3d 3c 10 a0 3e 22 f2 c8 3d 5f c8 97 3e
       0.087149695 0.31262386 0.09811808 0.2964506
0002c0 b4 01 ce 3e 60 b0 96 bd 47 d8 31 3d 51 dd 23 3e
       0.40235674 -0.073578596 0.04341915 0.16002394
0002d0 75 48 3d bd 6e 2c 2a be 70 d3 29 3e dd 43 16 bf
       -0.04621168 -0.16618511 0.16584563 -0.586973
0002e0 9d 24 15 3e 63 60 cd bd 8c c1 c9 bd b2 0c 01 be
       0.14564748 -0.1002815 -0.09851369 -0.12602499
0002f0 00 bf e0 bc 2a 19 cf 3e 60 e8 a7 3e 67 1c 5c 3e
       -0.027434826 0.40448886 0.32794476 0.2149521
000300 b8 df b4 be 32 63 d1 3e 07 7b bc 3e fe 71 2e 3c
       -0.35326934 0.40895993 0.36812612 0.010647295
000310 ae ca 77 3b 18 58 c9 be c9 c6 cd bd c7 ca dc 3d
       0.0037810015 -0.39325023 -0.10047681 0.10780864
000320 5d 20 5b bc 8b 5b 40 bd bd 89 10 3e 27 2f 13 3e
       -0.013374415 -0.046962302 0.14115043 0.14373456
000330 e9 e1 9e 3d cc b7 d2 3e 35 cf 19 bf c1 db eb bd
       0.07757933 0.4115585 -0.600818 -0.11516524
000340 09 d8 b5 be 79 46 fa bc 4b f5 ad bd 36 22 8d 3e
       -0.35516384 -0.030551182 -0.084940515 0.27565163
000350 8f 2c 64 be de d5 42 be e8 9b 6b be 0e 13 91 be
       -0.22282623 -0.19026896 -0.23008692 -0.2833485
000360 07 b0 11 bf 68 50 07 3e c7 80 73 be 22 14 5e be
       -0.5690922 0.13214266 -0.23779593 -0.21687368
000370 86 2f b9 be 04 81 be 3e 97 0b 50 bf e1 04 84 be
       -0.3616907 0.37207806 -0.81267685 -0.25784972
000380 42 bf 3c bf 20 72 0d bd e3 64 63 be 26 ff f6 3d
       -0.73729336 -0.034532666 -0.22206454 0.120603845
000390 c3 3c 17 3f 96 55 6e 3e 4d c3 ad 3e 79 23 d8 be
       0.5907709 0.23274836 0.33938065 -0.42214563
0003a0 1f 1a b8 3e e0 09 ab 3e a3 72 09 3f 65 86 65 3e
       0.3595743 0.33405972 0.53690547 0.22414549
0003b0 42 46 15 3e 26 99 f3 be cd c0 d6 bd d0 0d 02 3f
       0.14577582 -0.4757778 -0.104859926 0.50802326
0003c0 32 66 80 be 00 82 8a 3e 98 aa 97 be 79 c3 65 be
       -0.2507797 0.27052307 -0.2962234 -0.22437848
0003d0 5e 92 a3 be a5 e3 cb be 42 52 05 3e 42 8f b4 3c
       -0.31947607 -0.39822116 0.1301966 0.022040967
0003e0 07 2b 5c 3c b2 85 cc 3e fd e0 4b be 0d 99 48 be
       0.013437993 0.3994575 -0.19910045 -0.19589634
0003f0 44 cf 78 3e b0 0e a8 3e 3f 8b f1 3e df 3d 2e 3e
       0.24297816 0.32823706 0.4717655 0.1701579

net.6.bias f4 [20]
000000 71 5f ef 3b a1 37 74 3d 2d 28 86 bd b4 12 0a 3e
       0.0073050787 0.059623364 -0.06550632 0.13483697
000010 9e 76 8c 3d 94 05 e7 bc 23 b8 1a bd b5 87 15 3e
       0.06858562 -0.028200902 -0.037773263 0.1460255
000020 5a f3 1c be 8d b3 d9 bd 5e 03 4f be eb fc 85 3e
       -0.15327206 -0.1062995 -0.20216128 0.26169524
000030 1c 8e 82 bd 63 75 77 bd df d7 e8 bd b6 b0 bb bd
       -0.063747615 -0.060414683 -0.11369299 -0.09164564
000040 66 2e 3f be e7 45 13 be bc 9c 1a 3e 7d 02 1d bd
       -0.18670043 -0.14382134 0.15098852 -0.03833245

net.8.weight f4 [1, 20]
000000 0b 54 ff be 23 54 02 3f 1d bb 69 be eb 9a 27 3e
       -0.49868807 0.5090963 -0.22825284 0.1636769
000010 f6 74 d5 3e 5a e9 f5 be 7b ce d4 be 89 a2 76 3e
       0.41690797 -0.48029596 -0.41563782 0.2408544
000020 ba 4a b7 be a2 ad 8c be 3d 5c 17 3f ae 00 8a be
       -0.357992 -0.2747622 0.5912512 -0.26953644
000030 80 00 19 bf ab c7 27 bf c4 97 52 be 79 8b 28 3f
       -0.5976639 -0.65539044 -0.20565706 0.6583782
000040 7a ee eb 3e 33 a6 02 bf 2e aa bb 3e 1a db a6 be
       0.4608038 -0.5103485 0.36653274 -0.32589036
