Code/Trained models/all_5000_norm_8001_P2INN_100_2_50_2_150_3.pth (torch, 332046 bytes, 15 tensors)

param_encoder.0.weight f4 [100, 5]
000000 07 6a b0 3c 8a 26 af bc ad a2 1d 3e 75 a3 5d 3b
       0.021534933 -0.021380682 0.15394087 0.0033819352
000010 58 fb 71 be 45 46 82 3e b9 2b 40 3d b7 73 c8 be
       -0.23631036 0.25444236 0.046916697 -0.39150783
000020 11 52 09 3d 1e 76 ff 3e 50 54 58 3e df 8c d9 be
       0.03352553 0.49894804 0.21125913 -0.4249029
000030 00 d3 7f be 97 50 2d 3f 53 9f 81 3e 16 18 42 3d
       -0.24982834 0.67701095 0.25316867 0.04738625
000040 ab bd 83 bd ac fb b2 3d c8 c9 3a 3d 94 b6 60 3e
       -0.06432661 0.08739409 0.04560259 0.21944648
000050 9a 78 f0 be 64 e7 7c be 28 77 05 3c 59 9f 1a 3e
       -0.46967012 -0.24697644 0.008146085 0.15099849
000060 f8 70 04 be 84 78 22 be c6 e1 b4 3d a3 7c c0 be
       -0.12933719 -0.15866286 0.08832125 -0.3759509
000070 ab a7 32 3e 8f b7 ab be 95 a6 04 be 28 61 05 3e
       0.17446773 -0.33538482 -0.12954171 0.13025343
000080 63 d4 0b 3d 4f 0e f6 be 35 a5 9b be b1 d4 12 3e
       0.034138095 -0.48057792 -0.3039948 0.14338948
000090 15 21 86 bd b4 72 a4 bc ba be 4f 3e fd 5d 41 be
       -0.06549279 -0.020074226 0.202876 -0.1888351
0000a0 cc 5d eb be 10 7b 6c 3e 96 2c d3 3e da 5d 21 be
       -0.4597 0.2309382 0.41244954 -0.15758458
0000b0 58 03 fa bd d4 90 09 be b6 71 95 bb 5c 21 3d 3c
       -0.12207669 -0.13434154 -0.0045606745 0.011543598
0000c0 71 b9 88 bc 28 c7 b3 3e f5 fa af be d6 08 86 3e
       -0.016689988 0.35112882 -0.34371153 0.26178616
0000d0 45 6c df 3e c9 06 8f bd 21 6d 88 be 71 aa dd 3e
       0.4363729 -0.06983716 -0.2664576 0.432941
0000e0 1a 4c f8 3e f9 e0 87 3b de 43 f9 bd 12 a3 2d be
       0.4849556 0.004146692 -0.12171148 -0.16956738
0000f0 b5 2e fc be 0d e0 bd bd 25 45 85 bd e7 66 e7 3e
       -0.49254385 -0.0927125 -0.06507329 0.45195696
000100 a5 3d 70 bd 9c c8 01 3e ce 99 44 3e 06 d3 23 3e
       -0.05865254 0.12674183 0.19199297 0.15998468
000110 8c 74 a0 bc 7e 0c 8d bd f9 a6 f3 bc e6 5a be be
       -0.019586824 -0.06887148 -0.029742705 -0.37178725
000120 a9 cb 89 be e1 c7 95 bc 81 0e eb 3e b6 07 ab bc
       -0.26913193 -0.018283786 0.45909503 -0.0208777
000130 a1 56 6a 3e 6c 59 a4 3d e1 56 a0 be d8 20 c3 3e
       0.22884609 0.08024868 -0.31316283 0.38110995
000140 bc 8e 62 3e 48 8f ec bd d3 f2 8f be 67 f2 27 be
       0.22124761 -0.11550766 -0.28114948 -0.16401063
000150 01 96 08 be 49 1a d3 bd 30 cc 66 bd bf e3 42 3e
       -0.13338472 -0.10307748 -0.056347072 0.1903219
000160 33 38 0c be ec dc 90 bc c9 ea fa bd 76 0a 27 be
       -0.13693313 -0.017683469 -0.12251813 -0.16312584
000170 f7 35 3b 3d 75 9f 04 be 8b 27 25 be fe f9 ee 3e
       0.04570576 -0.12951453 -0.16128366 0.46675104
000180 fd 4e a6 bd ea 2b d0 be c5 6e 30 3d 83 95 05 3d
       -0.081205346 -0.40658504 0.043074388 0.03261329
000190 e3 a0 fe bd 7d aa a5 3e ef ee 81 be 97 a3 29 be
       -0.124330305 0.32356635 -0.25377604 -0.16566311
0001a0 87 ff 49 3e 96 ca d3 bd 75 f2 96 3e 12 a6 b2 3e
       0.19726382 -0.103413746 0.29481855 0.34892327
0001b0 86 90 9f bd aa 82 f9 bd da 0e 73 3e ae 87 5d 3e
       -0.077912375 -0.12183125 0.23736134 0.21633789
0001c0 c6 cf 8d be 28 cb 1a 3e 43 e7 e3 3d 00 b9 e6 3e
       -0.2769758 0.1511656 0.11128094 0.4506302
0001d0 95 88 13 be 9d f6 c5 be 9c a1 17 3e 2f ac 00 bf
       -0.1440757 -0.38664714 0.14807743 -0.5026273
0001e0 9e 3b f5 3c cd d8 2e 3e dc 36 bc be e4 68 e7 3e
       0.029935654 0.1707489 -0.36760604 0.45197213
0001f0 84 07 af 3e 6e 64 de 3d 55 99 df bd 74 f7 c4 3d
       0.3418542 0.10858999 -0.10917918 0.096175104
000200 09 9c 3f bd 78 71 14 3e 37 6e ac be d3 ea 2d 3e
       -0.046779666 0.1449641 -0.33677837 0.1698411
000210 8b 04 2e bc 6e f4 40 3e 86 3a c7 3e 60 35 ba 3b
       -0.0106212 0.18843243 0.38911837 0.0056826323
000220 92 e7 f9 bd f2 19 1b be 56 b5 17 bd a4 e9 05 bd
       -0.12202372 -0.15146616 -0.03703817 -0.03269352
000230 66 6d 92 3e b5 b1 58 3e 4c 34 3b 3e c6 a3 93 3e
       0.2859909 0.2116154 0.18281668 0.28835887
000240 14 3c 2b 3e dd 15 95 bd 38 ea 8b 3d 9e 55 09 be
       0.16722137 -0.07279561 0.06831783 -0.13411567
000250 fd e0 02 3e 55 33 5c 3e 13 cf 92 be f6 74 a3 be
       0.12781139 0.21503957 -0.2867361 -0.31925172
000260 d2 24 0b bf bc 5f 2a bc d1 39 3e be 60 78 10 bd
       -0.5435306 -0.010398801 -0.18576743 -0.03527105
000270 70 27 95 3c ca 9f 03 3d 04 9a 13 be 53 de 12 bd
       0.018207282 0.03213481 -0.14414221 -0.035856556
000280 4a 1f 75 3c d7 9b 7d bd 58 4c f2 be ec b8 ce be
       0.014961073 -0.0619162 -0.4732387 -0.4037546
000290 3e e5 4e be 44 b9 a8 3d 04 eb 8b 3e f1 41 81 be
       -0.20204636 0.082384616 0.2732774 -0.25245622
0002a0 06 78 4d bd c4 5c e3 3e 18 f4 d2 bd f3 fe 26 3e
       -0.05016329 0.44406712 -0.103004634 0.16308193
0002b0 6a 60 77 3e 03 3f 16 bd f9 f6 51 be 80 e7 54 3e
       0.24157873 -0.036681186 -0.20504369 0.20791435
0002c0 33 90 91 3d b5 e3 68 be 8b e5 be be 31 85 a1 bd
       0.07107582 -0.22743113 -0.37284502 -0.07886732
0002d0 c1 6f 32 3d 13 f4 0e 3e bc da 2d be 29 c0 a8 3c
       0.043563608 0.13960294 -0.16977972 0.020599442
0002e0 e6 ec b0 3d 94 1c a4 3d 2d 3c 88 be 75 44 17 be
       0.08638935 0.08013263 -0.2660841 -0.14772208
0002f0 b2 84 cc be 19 b9 c0 3e 0c 47 88 be 61 f1 99 be
       -0.39944988 0.37641218 -0.26616704 -0.3006697
000300 5c 86 b7 3e 2d d2 f7 bd 77 30 a6 3d f2 5d 03 3e
       0.35844696 -0.12100635 0.08114713 0.12828806
000310 98 96 5b 3d e8 e8 3c be af 1b 4e 3d 22 b8 35 be
       0.053610414 -0.18448222 0.05031937 -0.17746022
000320 c3 09 66 bc 3f 25 d1 3c a6 0a c2 bd 6c 99 c0 3d
       -0.014040413 0.025530456 -0.09474687 0.09404263
000330 82 34 21 be a0 0d fb be c4 8a 76 be 60 e2 e4 bd
       -0.15742686 -0.49033833 -0.24076372 -0.1117599
000340 7b 4b fb 3e 0c d6 d5 3e 01 05 ec be 81 24 bc 3d
       0.49081025 0.41764867 -0.46097568 0.0918665
000350 6e ae cc 3e 8d d8 bf 3c 25 71 df bd 75 1f 80 3d
       0.3997683 0.02341869 -0.109102525 0.06256
000360 76 c3 e2 3e 4a 4a 29 be bf 13 b2 3d 11 ca 13 3e
       0.4428975 -0.16532245 0.086951725 0.14432551
000370 fc a8 4e be a3 f9 11 be 16 db 02 be 70 20 83 3e
       -0.2018165 -0.14255385 -0.12778887 0.25610685
000380 e3 a9 88 3d bc 00 b9 be 32 57 42 3e d9 33 8d 3d
       0.06673028 -0.36133373 0.18978575 0.06894655
000390 ba 00 9b be 6b ae 26 3f 4e 11 c9 be 37 5c 68 be
       -0.30273992 0.6510989 -0.39271015 -0.22691427
0003a0 06 0b 7b be 00 70 34 3d e1 f6 77 3e 4a 7d a6 be
       -0.24515924 0.044052124 0.2421527 -0.32517463
0003b0 16 6e 44 3d 66 5f 3a 3e de 58 4f 3d ac d6 97 be
       0.04795655 0.18200454 0.05062186 -0.2965597
0003c0 f0 32 8b 3e 11 15 34 3d fa 93 c9 3c d7 06 db bc
       0.271873 0.043965403 0.024606694 -0.02673666
0003d0 11 4d e7 3e 8d d8 9d 3d 84 b3 c2 bd 90 17 e7 bc
       0.45175985 0.077073194 -0.09506896 -0.028209478
0003e0 63 f7 be bd 9a 76 82 3e ed 30 a9 3e 0a d5 96 3e
       -0.09324529 0.2548111 0.3304514 0.2945941
0003f0 eb 88 d5 3e 41 9c 17 3f 69 d9 ba 3e 10 34 56 be
       0.41706023 0.592228 0.36493996 -0.20918298

param_encoder.0.bias f4 [100]
000000 2d e1 00 3d ec be 92 bd 63 53 de be 77 ed 29 3f
       0.031464744 -0.07165322 -0.43422994 0.6637797
000010 bb 56 52 3e ab 9b a9 3e 4d 57 07 3e ac 5b cc 3e
       0.20540898 0.33126578 0.13216896 0.3991369
000020 c9 8e a7 bb e2 54 80 bd ad a6 26 3e 1f 8f bd 3d
       -0.005113457 -0.0626619 0.1627452 0.09255814
000030 0d 01 aa 3e 9f 54 cd 3e 5e e8 d8 3c 3b 2c a5 3d
       0.33203927 0.40103623 0.026477989 0.08065077
000040 81 cd c8 3d 1d 82 01 bf ec 25 c8 3e 67 9f 83 be
       0.09804822 -0.5058916 0.39091432 -0.25707552
000050 b2 db 06 bd f3 87 c9 bd ca 57 c7 be 1b 49 00 bf
       -0.03292436 -0.098403834 -0.38934165 -0.5011155
000060 db d6 91 3e 15 d7 31 3f 02 35 c8 be b3 60 50 be
       0.28484234 0.69468814 -0.39102942 -0.20349388
000070 54 c0 c1 bd 50 f6 03 bf e9 cd eb be 72 5d 06 3e
       -0.09460512 -0.5154772 -0.46055534 0.13121584
000080 9b 35 bf bb 22 25 77 3e 69 db cf 3e 51 2e 68 bc
       -0.0058352477 0.24135259 0.40597084 -0.014171199
000090 d6 a7 f9 bc ad e7 9b 3e f5 32 cd bd 38 9d b0 be
       -0.030475538 0.30450192 -0.10019485 -0.34494948
0000a0 ee 85 8b be d9 28 bd 3d fb f9 d7 3b 9a fc f4 bd
       -0.27250618 0.09236307 0.0065910793 -0.119622424
0000b0 76 c6 1d 3f 3a f3 7b 3e 2e a9 33 3e a4 b9 c2 3d
       0.6163095 0.24604502 0.17545006 0.095080644
0000c0 f8 f3 b4 be 77 ed ae 3e f9 b3 2b be 8d bd e5 3e
       -0.35342383 0.34165546 -0.16767873 0.44871178
0000d0 b1 d8 1a bd fb 9f a8 3e d9 7f 3a be 5e 0a 39 3d
       -0.03780431 0.32934555 -0.18212833 0.045175903
0000e0 94 85 ae 3d 9c 22 3c bf 25 00 77 be 0f 2e 9f 3e
       0.08521572 -0.7349031 -0.24121149 0.31089827
0000f0 a1 91 d4 3e da 6b d4 3e 50 b8 9a be 26 ca 0b 3f
       0.41517356 0.41488534 -0.30218744 0.5460533
000100 39 aa 4a 3e 49 1f 32 be 60 64 b6 3b 4c 55 f5 be
       0.19791497 -0.17394747 0.005566165 -0.4791664
000110 bd 38 59 be e9 e6 b6 3e cc bc c8 3d b4 a9 21 be
       -0.2121305 0.35723045 0.09801635 -0.15787393
000120 1a 58 1b 3e 5c bd aa 3d 60 e9 bf 3e 67 97 96 3e
       0.15170327 0.08336899 0.37482738 0.29412386
000130 59 17 b7 bd f3 f1 36 3e 07 32 e0 be 4c de 1a bf
       -0.0894 0.17865734 -0.43788168 -0.6049545
000140 db 07 9a 3e 0f 18 23 bf 18 71 92 3e 8f 0a 22 3f
       0.30084118 -0.63708586 0.2860191 0.6329736
000150 b4 7d 0e 3e a7 14 38 3e d8 de a9 3e 26 fe 00 3e
       0.1391514 0.17976628 0.3317783 0.1259695
000160 13 ed d0 3e bd de d7 3e bc 12 d4 3e 06 5e 25 bf
       0.40805873 0.42162123 0.41420543 -0.64596593
000170 8f dd 29 3e bb 3d 4c 3e f9 a6 46 3e 2b ee 9a 3d
       0.16588424 0.19945423 0.19399633 0.07564958
000180 ff 53 13 bf cb 29 8b be bb a3 b4 bd f3 d6 46 be
       -0.5755004 -0.27180323 -0.088202916 -0.19417934

param_encoder.2.weight f4 [100, 100]
000000 6d 0d e9 3d 0a 0b c6 3d e4 b4 81 bd f9 1e 8e bd
       0.11379514 0.09670074 -0.0633333 -0.06939501
000010 f0 7a c2 3d 5a 9e 98 3c 7f c2 24 bd 9b bb 2e bd
       0.09496105 0.018630195 -0.04022455 -0.042659383
000020 c3 65 53 3b b0 15 69 bd b6 92 5d bd a0 b3 40 3d
       0.00322567 -0.05690545 -0.054094993 0.047046304
000030 7a b9 61 bd 1d f6 40 3d b7 ee 09 bc b4 d4 2d bd
       -0.055108525 0.047109712 -0.00841873 -0.042439178
000040 7f 4e 21 3d 0b db 78 3d 5a 46 e4 3d 91 e6 bc 3c
       0.0393815 0.06075577 0.11146231 0.023059161
000050 d8 29 c2 bd a7 70 3e bd 13 71 91 bc 5a 36 fe b8
       -0.09480637 -0.046494152 -0.017754113 -0.000121217876
000060 07 cc 5c bd a6 e9 ba 3d bc 70 b0 3d 31 70 86 3c
       -0.053905513 0.09126596 0.086152524 0.016410919
000070 77 3e 13 be 3f c7 86 bd 8b dc 28 3d 24 45 ac 3d
       -0.14379297 -0.06580972 0.04122595 0.08411625
000080 ee f0 b8 bc bc 60 fc 3c 05 23 f0 3c 95 04 72 3e
       -0.022575822 0.030807845 0.029313574 0.2363456
000090 61 e2 29 bd b6 0f 82 bd ac 6e 6b bb f8 f4 55 3d
       -0.041475657 -0.06350653 -0.003592412 0.052235574
0000a0 08 c9 b5 3d 38 b1 9b 3b eb 1b e0 bd 2b c4 58 3c
       0.08876234 0.0047513507 -0.10942825 0.013230364
0000b0 9b 5d 64 bc d5 22 bc 3d fc a5 4b bd 3a db f6 bd
       -0.013938333 0.09186331 -0.049718842 -0.12053533
0000c0 8c ed f7 3d 8e c2 0e bd 30 40 87 bd 85 e5 43 3d
       0.12105855 -0.03485351 -0.0660404 0.04782631
0000d0 83 8d b2 3d ef 27 ca bd 65 4d cb bd 95 49 39 3c
       0.087183975 -0.09870898 -0.09926871 0.011309047
0000e0 68 1b 6b bc a6 67 b8 3d 8f 5e ce 3b 92 f1 bc bd
       -0.014349796 0.09004144 0.0062978934 -0.092257634
0000f0 5f d2 6c 3d ff 11 82 bd 03 48 98 3d 66 40 98 bd
       0.057817813 -0.06351089 0.0743561 -0.07434158
000100 9b ea b2 bb 06 12 ff 3d 0b 23 38 bc cd 89 25 bd
       -0.005460096 0.124546096 -0.011238824 -0.04041462
000110 89 fc e9 39 ce 0c f6 3d 35 d7 05 bd 56 4d e0 bd
       0.00044629376 0.12014161 -0.03267594 -0.10952251
000120 09 71 c5 bd 33 a5 81 3d a9 97 c1 bc 73 ab 10 bd
       -0.096407 0.063303374 -0.023631888 -0.035319757
000130 cd 0c 2f 3d 38 73 57 3d 4d af fa 3d 63 40 d4 3d
       0.042736817 0.052600116 0.12240467 0.10363843
000140 d0 d4 fb bd 3e e1 19 3c 12 9b 7e 3c 0d 0b 36 bd
       -0.1229645 0.009392081 0.015539901 -0.044444133
000150 75 5b 85 3d d0 71 d5 3d 8b 04 cc bd 39 91 61 3d
       0.06511585 0.10422099 -0.09961804 0.055070136
000160 6c 63 28 3c ff bd ce bd f5 b3 32 3d 22 0f a7 3d
       0.01027761 -0.10094833 0.04362865 0.08157183
000170 02 e7 a2 bd 4c 17 b7 bd 87 84 7f 3d 80 6a ce bd
       -0.079542175 -0.089399904 0.062382247 -0.10078907
000180 ba fd 2a bd 79 d2 fa bc e8 dc f7 bd 0f d7 5e 3d
       -0.04174588 -0.03061794 -0.121026814 0.054404315
000190 24 2c 86 bc 33 52 57 3d 26 d5 d5 bd a9 ba bc bd
       -0.01637847 0.052568626 -0.104410455 -0.0921529
0001a0 88 ef b7 bd 89 d0 a6 bd 74 cb 05 bc 11 6b a8 3c
       -0.08981234 -0.08145244 -0.008166183 0.020558866
0001b0 46 c2 cf bc 78 b9 3f bd e0 3e ea 3d 47 9d 3e 3c
       -0.025361191 -0.046807736 0.11437774 0.0116341775
0001c0 a0 cd 15 3c 70 11 b3 bd c7 99 1f 3d 5d ad 68 3d
       0.009143263 -0.0874356 0.038965013 0.056805957
0001d0 e4 21 87 3c fb e4 8f bd 62 d5 8f bd 9a f4 37 3c
       0.016495652 -0.070260964 -0.070231214 0.011227751
0001e0 66 d2 04 bc 2a 82 85 bc e1 77 8a 3d 90 8a dd 3d
       -0.0081068035 -0.016297419 0.06761146 0.10817444
0001f0 48 d8 f0 3d f2 0a a1 bd 57 b4 52 3d 43 8a a7 3c
       0.117600024 -0.07863416 0.051441517 0.02045167
000200 d1 8e 9e 3d b0 47 bf bd 2e a2 36 3a 6d 34 26 3e
       0.07742084 -0.09339845 0.00069669157 0.16230936
000210 76 19 ab 3b 84 55 11 37 93 6a 82 bd 68 74 b6 3c
       0.005221541 8.662584e-06 -0.06367984 0.022272304
000220 cf 67 86 bd f7 f9 6a 3d e3 14 97 3d af be d2 3b
       -0.06562769 0.05736729 0.07377031 0.0064314227
000230 bc 1b b7 bd 9a f6 82 3c c1 e3 ba 3d bb e7 29 bd
       -0.08940837 0.01598673 0.09125472 -0.04148076
000240 f7 0e a4 bd a3 70 76 3c 9b 8c a7 3d 46 b7 99 3d
       -0.08010667 0.015041503 0.08181115 0.0750566
000250 10 ac 83 3d 43 a8 82 bd e0 cc c3 3d fc d9 b7 bc
       0.06429303 -0.063797496 0.09560561 -0.02244281
000260 2a ee 51 bc ad 5e a4 3c 5c 0c 0d 3d 24 4d 27 bd
       -0.01281313 0.020064676 0.034435615 -0.04084505
000270 f9 de 46 3d 8d 90 65 bd 7d 8b d4 bb 32 a8 ca bd
       0.048552487 -0.056046057 -0.006486355 -0.09895362
000280 9a fa 0e bc 89 67 de bc e2 be a8 bb 3a e1 e8 3c
       -0.00872674 -0.027148979 -0.005149708 0.028427709
000290 32 67 03 3d 11 9d 97 3c 1c b2 91 3d f8 58 65 bd
       0.032080837 0.018507512 0.0711405 -0.05599305
0002a0 48 16 11 3d 2c 4f 8b 3d 99 84 38 bc df bb 0f bd
       0.03542164 0.0680221 -0.0112620825 -0.035091277
0002b0 8f 02 19 3d 33 a6 b0 bd ff 14 a4 3d 50 11 ab 3d
       0.037355956 -0.0862545 0.08011817 0.083529115
0002c0 85 6f 3a bd c1 84 93 bb 4a 32 0e bd 2c ae 87 bd
       -0.04551651 -0.0045019095 -0.034715928 -0.066250175
0002d0 dc 0c 3b 3c eb 72 b3 3c bd a0 8c 3d 48 4d 38 bc
       0.01141664 0.021905383 0.06866596 -0.011248894
0002e0 a5 d2 f5 3d 83 ec 9b 3c 16 42 ca bd 22 f3 62 3d
       0.12003068 0.019033676 -0.09875886 0.05540765
0002f0 9f 8c a5 3d 73 95 9d bd 44 fe 80 3d ae 48 dc 3d
       0.08083462 -0.07694521 0.06298497 0.1075605
000300 fc a5 6a bd 8e 40 f2 bc ca 98 42 bb 62 77 2b 3d
       -0.0572872 -0.029571798 -0.002969312 0.0418619
000310 cc 78 ea bc 3e fc 07 3c 77 7a 24 bd 15 22 63 3d
       -0.028622054 0.008299885 -0.040155854 0.055452425
000320 a3 9d 5b bb 33 61 45 3d 02 7a 9c 3c ce c7 99 bb
       -0.0033510707 0.0481884 0.019101147 -0.004693008
000330 26 2b bd 3d bb c9 6f bb 7d 66 99 3a 98 72 3a bc
       0.092367455 -0.0036588747 0.0011703518 -0.01137986
000340 28 54 46 bd 01 6b 81 3c ed 66 75 bd 07 b5 ee 3d
       -0.0484201 0.015798094 -0.05991261 0.11655622
000350 ba c4 98 3d f6 a9 57 bd 09 e1 2c 3d 61 65 d4 bd
       0.074593976 -0.05265232 0.042206798 -0.10370899
000360 4a b3 d6 bd 50 0b d8 3d 77 f8 cd 3b 2e 35 0b bc
       -0.104834154 0.10549033 0.006285723 -0.008496566
000370 b7 06 89 bc e6 de e3 3d bb f1 6e 3d 18 46 b6 bc
       -0.016726835 0.11126499 0.058336 -0.02225022
000380 e5 c7 f5 3d 78 99 1a 3c fe 71 a6 bd 5c c4 d0 3c
       0.120010175 0.009436004 -0.08127211 0.025484256
000390 0d ee 1e 3d 75 6d 4a bd 30 70 4c 3c 25 3a 50 bd
       0.03880124 -0.049420793 0.012477919 -0.0508367
0003a0 ed 43 48 bc f4 f2 32 bd 31 d5 81 3d 1e be 49 3d
       -0.012223226 -0.04368873 0.06339491 0.049253576
0003b0 90 7e 9d bd 76 08 a0 3d 61 a4 de 3c 19 92 9c bd
       -0.076901555 0.07814114 0.027177991 -0.076450534
0003c0 8d 0e b9 3d 21 0c 8c bd ce dd a4 bc e5 d2 fa bc
       0.090359785 -0.06838251 -0.020125296 -0.03061814
0003d0 40 e7 b3 bc b1 0c c4 3c 73 a2 c1 3d 9a cf 0f 3d
       -0.021960855 0.023931833 0.09454813 0.035110094
0003e0 e4 d3 3d 3c 64 09 a6 bd 49 3e bd 3c 7b 1a 21 bc
       0.011586163 -0.0810726 0.023100989 -0.009832974
0003f0 f0 4b 26 bd c5 f4 03 be 0d d0 a5 bd 1b 40 a8 3d
       -0.040599763 -0.12886341 -0.08096323 0.08215352

param_encoder.2.bias f4 [100]
000000 25 7a 87 3c be 0c c1 bd 71 37 38 3d 53 16 ef bc
       0.016537735 -0.094262585 0.044974748 -0.02918545
000010 de 17 b3 3d 36 e5 50 bd 74 ce a9 3d fb 2b 59 bd
       0.08744787 -0.050999843 0.08291331 -0.05302046
000020 b3 aa c1 3d 27 e1 78 3d 97 d4 95 bd 80 99 16 3b
       0.094563864 0.060761597 -0.07315939 0.0022979677
000030 8b e5 d5 3d b8 21 07 bd b8 d9 5d 3d ca fa 90 3d
       0.104441725 -0.03299114 0.05416271 0.07079084
000040 50 1c 06 be 4f 56 3b bd 55 ba d0 bc 02 08 28 bd
       -0.13096738 -0.045736607 -0.025479475 -0.04102326
000050 ee 10 78 bd a0 c2 81 ba 41 7d ba 3d 7c 60 8f bd
       -0.06056302 -0.0009899922 0.091059215 -0.07000825
000060 14 19 11 be 24 5b 02 be 35 04 78 3d c9 ff 49 3d
       -0.14169723 -0.1273008 0.060550887 0.0493162
000070 ff 13 9f 3d a8 54 b0 bd 91 6e 06 bc 37 5c db bc
       0.07767486 -0.08609897 -0.008205072 -0.02677737
000080 be b3 13 3d 20 b9 d7 3d 52 9a 70 bd 6a 7f 0b be
       0.036060087 0.10533357 -0.05874092 -0.13622823
000090 68 5b 87 3e 9f 76 02 3c 57 0c 6d bc fa a9 1b be
       0.26436925 0.007962852 -0.014468274 -0.1520156
0000a0 6c 16 e5 bd 1f e0 d0 bd 72 97 5d bc 49 ee b4 3c
       -0.11185917 -0.10198998 -0.013524877 0.02208628
0000b0 7b 46 ad bd af 9c 96 3d 7c 24 b5 3d ab f4 52 bc
       -0.08460709 0.07354104 0.088448495 -0.012875716
0000c0 68 40 88 3d 05 f1 b9 3d dc 98 67 bd e2 40 e6 bd
       0.066529095 0.09079174 -0.056542262 -0.11242844
0000d0 1e f4 25 3e 58 ee a5 bd de 21 f2 bd 28 a6 ca bc
       0.16206405 -0.08102101 -0.11822866 -0.024737433
0000e0 e7 39 09 be b6 b1 1d 3d 77 af 7f bd bc 8b dc 3d
       -0.13400994 0.038499556 -0.062423196 0.1076884
0000f0 c7 4c 75 bd 3b a7 cc 3c b9 a7 55 bd 39 74 46 3c
       -0.059887674 0.024982085 -0.052161906 0.012112671
000100 51 3f 17 3e b8 7c 2c 3e ec 3a ea 3d 54 bb cc 3b
       0.14770247 0.16844451 0.1143702 0.006247917
000110 55 d4 19 3e 1a 1e 9f bb db be 77 bd 60 be c8 3d
       0.15022404 -0.0048558833 -0.06048475 0.09801936
000120 27 34 1d 3c 5e 89 a5 3d 16 0b f1 3d a2 aa c6 3d
       0.009594954 0.08082841 0.117696926 0.097005144
000130 5a e8 8f bd 43 e1 a6 3d 13 da 52 bd 76 23 a4 3d
       -0.070267394 0.08148434 -0.051477503 0.08014576
000140 14 ce 47 be b5 cd 8c 3d 69 c4 d2 3c 85 4c 5e 3d
       -0.19512206 0.06875173 0.025728421 0.054272193
000150 6d 50 e1 3d c5 57 66 bd ce 4a 32 3d cb c3 0d bd
       0.11001668 -0.056236047 0.04352837 -0.03461055
000160 59 1c 95 3c b2 97 a6 bd 1a f6 47 3d 7c 72 96 3d
       0.018201994 -0.08134402 0.048818685 0.07346055
000170 91 5f ba bd 35 53 f3 bd 77 2b 16 bc d1 80 05 3e
       -0.09100259 -0.11881105 -0.009165636 0.13037421
000180 91 d7 42 bc f1 45 ac 3d 43 11 18 be 70 ad b7 bd
       -0.011892215 0.08411778 -0.14850335 -0.089686275

coord_encoder.0.weight f4 [50, 1]
000000 20 cb af 3e fc aa 35 be 70 1b d4 3e 88 41 9c be
       0.3433466 -0.17741007 0.41427183 -0.30518746
000010 e4 c6 30 3f 1b a2 54 bf 73 32 6b bf ae fe 1d bf
       0.69053483 -0.83059853 -0.91873854 -0.61716735
000020 6a 06 fc be ae 22 9f 3d 58 3a b0 bd bd 9d 83 3f
       -0.49223644 0.077702865 -0.08604878 1.0282513
000030 e4 24 b9 3e 1f e5 75 bf 73 fa 85 bf e5 51 3d 3f
       0.36160958 -0.96052736 -1.0467056 0.73953086
000040 4d 4f 45 3f 59 a5 6b 3e b8 b5 94 3e 2c 1a 83 bf
       0.7707413 0.23012294 0.2904489 -1.0242362
000050 a4 dc 6b bf 79 0c 05 3f ed 5d 51 3e 08 a0 1f 3f
       -0.92133546 0.51972157 0.20445986 0.62353563
000060 77 62 01 3f 18 7a 5d 3e 19 e5 45 3f c9 c6 e5 be
       0.5054087 0.21628606 0.773027 -0.44878224
000070 a6 0f 05 3e cc 0c 94 3f 26 42 66 3d 1e 6f 4f 3f
       0.1299425 1.1566405 0.056215428 0.81028926
000080 90 fb 56 3f 70 2a c6 3e 8f 9b 98 3e 3b 4a e4 3e
       0.83977604 0.38704252 0.29806182 0.44587883
000090 9d 37 8c 3e 75 46 11 3f 72 fc 08 3f 1f 21 26 3f
       0.2738618 0.56748134 0.535102 0.6489429
0000a0 96 8a 7e bf cd 67 f4 3d 71 61 23 be 38 46 1c bf
       -0.99430215 0.11933861 -0.1595514 -0.61044645
0000b0 54 94 7c 3e 95 4e 08 3f 54 00 c0 be 97 62 4b be
       0.24665958 0.53244907 -0.3750025 -0.19861828
0000c0 df 24 28 bf 49 41 01 3e
       -0.6568126 0.1262256

coord_encoder.0.bias f4 [50]
000000 60 6b 16 3f d7 fa 1c bd 1f 2f d1 3e e2 44 e2 3e
       0.5875759 -0.038325157 0.40856263 0.44193178
000010 ba 83 f2 bb 38 2e e2 be 2b 9c cf be 9c 59 46 3e
       -0.007400957 -0.44175887 -0.40548834 0.19370121
000020 26 60 2b 3f e5 ff 23 3f b6 ea 30 be 8d 18 0e 3f
       0.66943586 0.6406234 -0.17277035 0.5550621
000030 a7 f3 3f bf 23 3e 0d bf 70 d7 6f bf bb 71 13 bf
       -0.7498116 -0.5517294 -0.93688107 -0.57595414
000040 98 1c 23 3f c1 a0 86 be ae 78 12 be 6f db 93 3d
       0.63715506 -0.2629452 -0.14303848 0.07219588
000050 5d 40 07 be 21 f2 ac be f5 4e c9 3e 65 42 e5 3e
       -0.13208146 -0.3377848 0.39318052 0.44777218
000060 ca 7d 38 3e 28 00 14 be 36 9d 22 bf e3 8a d3 be
       0.18016735 -0.14453185 -0.63521135 -0.413169
000070 dc 19 c1 bd f2 70 16 3f 6a ef 00 3f 4b 10 65 3f
       -0.094287604 0.5876609 0.50365317 0.89477986
000080 1b b9 13 3f ce c3 26 bf f6 f9 15 bf 84 4f 6a bd
       0.57704324 -0.65142524 -0.58584535 -0.05720474
000090 ff 39 94 be 13 0e 50 3f 26 1b 15 bf 1c c1 3f 3e
       -0.28950498 0.81271476 -0.5824455 0.18726009
0000a0 31 de 69 3d c8 5a 4a 3f 06 cc c6 3d fb 87 bb 3d
       0.057096664 0.7904477 0.09706883 0.091567956
0000b0 aa b1 57 3e fd 51 1a be 07 68 79 3e 4e a1 76 bf
       0.21063867 -0.15070339 0.2435609 -0.9633988
0000c0 7c a7 9c 3e ca 2c 9c 3e
       0.3059653 0.3050292

coord_encoder.2.weight f4 [50, 50]
000000 df 85 09 be fb 2a 1a 3e 5d f4 49 3d fa 98 54 3c
       -0.13429974 0.15055458 0.04930531 0.012975926
000010 b2 b5 e2 bc 3e c9 b9 3d 84 34 29 3d 48 58 98 3d
       -0.02767453 0.09071587 0.04130985 0.07438713
000020 bc ee f7 3d 19 86 66 3c 30 62 1d bd af b7 2c bd
       0.12106082 0.014070057 -0.038423717 -0.04216736
000030 4d 8f 95 3c dc ba 54 bd 8e 5d ec bd 84 17 15 be
       0.018256808 -0.051936015 -0.11541282 -0.14559752
000040 19 e0 80 bd 4e 00 c7 bd c7 3e c6 bb 6b 78 9a bd
       -0.06292743 -0.09716855 -0.006049964 -0.07542499
000050 f2 58 35 bd b6 34 c7 3d ee 2e 92 bd eb dc 53 3d
       -0.044274278 0.09726851 -0.071378574 0.051724356
000060 f1 52 88 bd a2 36 ec bd 90 3d bb 3d 58 02 e1 bd
       -0.06656445 -0.11533858 0.091426015 -0.10986775
000070 d3 18 59 bc 2c 62 b8 3d fc f4 56 3d bb 0b 69 3d
       -0.013250547 0.090031 0.05247973 0.056895953
000080 55 37 e3 3d f1 22 ec bd 53 8f de bd 0f 54 98 bd
       0.11094538 -0.11530102 -0.10867181 -0.07437908
000090 c5 2b bf 3d 07 42 fe bd 73 e1 10 be 71 a0 ad 3d
       0.0933452 -0.124149375 -0.14148502 0.084778674
0000a0 cf 92 0d be 81 41 23 3a 54 ce a5 bd aa d3 a1 3d
       -0.13825534 0.00062277174 -0.080959946 0.079017
0000b0 9d ff 12 be 47 d0 82 3d b2 4d 0e bd 00 44 43 3d
       -0.14355321 0.06387382 -0.034742065 0.04767227
0000c0 05 76 46 3e 2a 3c fc bd 2f 10 ef 3d 2c a3 ed 3d
       0.19380958 -0.12316163 0.11673009 0.11603388
0000d0 4d 5b f4 3d c9 52 2f bb 03 39 08 bd ac 1f fb bd
       0.11931477 -0.0026752225 -0.033257496 -0.122619
0000e0 bd 74 01 bd ff 30 87 bd 12 54 ee bd 14 81 a7 bb
       -0.03160547 -0.06601142 -0.11637129 -0.005111823
0000f0 01 cf 99 bb 50 d8 41 bc 01 92 03 be 53 08 00 be
       -0.0046938662 -0.011831358 -0.12848665 -0.12503175
000100 d1 9d 6d 3b 3a 43 e7 bd 26 06 c9 3d f4 fd 15 3c
       0.0036257396 -0.11292119 0.09815626 0.009154785
000110 b1 40 d8 bc 66 1b b4 3d a6 43 d9 bd d6 45 8b 3d
       -0.026398035 0.08794288 -0.10608606 0.068004295
000120 9f 12 9e bd 4c 92 d8 bd cc 02 05 be 83 01 71 bb
       -0.077183954 -0.10574779 -0.12989348 -0.0036774583
000130 4d 09 2c bd 26 24 bb bc 74 f0 c6 bd 19 6f 1f 3e
       -0.042001057 -0.022844385 -0.097138315 0.15569724
000140 d6 e7 a8 bc 73 9a 53 3d 42 b5 a4 bd 91 c1 6a 3d
       -0.02061836 0.051660966 -0.08042385 0.057313506
000150 91 a2 05 3e d1 a9 1e bd 21 9b e5 bc 62 fa 81 bd
       0.13050295 -0.03873617 -0.028028073 -0.06346585
000160 0f ee 62 3d 2e 8d 0f 3e 23 da a7 3d da 79 18 be
       0.05540281 0.140187 0.08195903 -0.14890233
000170 cf d2 9d bd 6f 39 9b bd b1 e0 35 3d 87 0a b5 bd
       -0.07706224 -0.07579314 0.044403736 -0.088398986
000180 ad 3e 13 be 1f ce 25 3d 50 df 77 bd cb 50 36 3d
       -0.14379378 0.040479776 -0.0605157 0.044510644
000190 92 dc a9 bd e0 88 eb 3d 29 5a 9f bc 06 50 d6 bd
       -0.082940236 0.11500716 -0.019452171 -0.10464482
0001a0 49 16 10 3e d4 8a d8 3d 62 60 c0 bc 6f b6 b0 bd
       0.14071001 0.10573354 -0.023483459 -0.086285464
0001b0 bc ba e8 bd 57 7a ee bd 9f 28 33 3d 18 75 cf bd
       -0.11363742 -0.11644428 0.04373991 -0.10129756
0001c0 05 c7 ec 3d da c5 ce bd c0 27 e8 3d 19 81 bc 3d
       0.115613975 -0.10096331 0.11335707 0.09204311
0001d0 7e 86 85 bd c1 8e cc bd 92 54 31 3e e5 48 89 3d
       -0.06519793 -0.09988166 0.17317417 0.06703357
0001e0 0a 69 15 3d 8f 3d 52 bd bb 8f f5 bd d7 c2 95 3d
       0.036477126 -0.051328238 -0.11990305 0.073125534
0001f0 06 89 01 be 3f 4f 05 3e da 7a e7 3c 35 30 b7 bd
       -0.12649927 0.13018511 0.028256822 -0.08944742
000200 31 9b 99 3d 57 d2 be 3d 9e a7 b4 bd d4 c2 0f 3d
       0.075003035 0.09317463 -0.08821033 0.035097912
000210 ad 76 ca bd 8d a6 9f bd 08 8c ca bc c5 f5 2e 3d
       -0.09885917 -0.07795439 -0.024724975 0.042714853
000220 4d a8 bf 3d 18 98 39 3d 47 29 a0 3d b5 78 59 bb
       0.09358273 0.045311064 0.07820373 -0.003318352
000230 20 e9 71 bd 84 91 13 be da 71 d9 3c 0b b5 93 bd
       -0.059060216 -0.14410979 0.026543546 -0.072122656
000240 c1 de d1 bd a3 b9 1a bd c5 8b 36 be 1b 7c 45 bc
       -0.10247565 -0.037774693 -0.17826755 -0.012053515
000250 55 57 29 be 3c 4e b9 bd b0 0b 07 be 94 45 c8 bd
       -0.16537221 -0.09048125 -0.13188052 -0.09778896
000260 e4 7c 60 bd cb 32 35 3e 3f d2 46 bd c9 06 fe bd
       -0.054806605 0.17695157 -0.04854035 -0.12403638
000270 aa 74 80 3d 21 bd 73 bd 94 2a 91 3d 6b 74 4a 3c
       0.06272252 -0.05950654 0.07088199 0.012356858
000280 a0 8f e9 bd 13 ab 92 bd a3 fb b4 bd d4 14 c4 bd
       -0.114043474 -0.07161536 -0.088370584 -0.09574285
000290 c0 4d ae bd b5 86 ca 3b 57 c2 f7 3d 57 58 30 be
       -0.085109234 0.006180609 0.12097614 -0.17221199
0002a0 d3 f0 0b be 12 7e cf 3d bd 7f f7 3c fd 83 64 be
       -0.13666086 0.10131468 0.030212278 -0.22315975
0002b0 d2 70 fd 3c c0 28 f0 3d 8f 8d 89 bd 34 18 45 3d
       0.030937586 0.117265224 -0.06716453 0.048118785
0002c0 f6 2e 79 bd 46 24 9e bd 81 24 9c 3d 1f 8d e6 39
       -0.0608358 -0.07721762 0.0762415 0.00043974162
0002d0 09 46 4d 3d 8f 10 ee bd f4 33 5c bc c7 05 cb 3d
       0.05011562 -0.11624252 -0.013440121 0.09913211
0002e0 e8 2d 86 3d 25 4c 83 bc c9 f9 e3 bd ee 99 f7 3c
       0.06551725 -0.01602752 -0.11131627 0.030224767
0002f0 60 75 93 ba f0 a4 d9 bd c1 74 8d 3d 7a b6 ce bd
       -0.001125019 -0.106271625 0.06907035 -0.100933984
000300 2c 3b 6a 3e 2e 2f fd 3d 64 3f ae bc 31 40 31 be
       0.22874135 0.123625144 -0.021270461 -0.17309643
000310 08 21 55 3e b7 5c be bd ca 9c b8 3e 0d 1e 5a 3c
       0.20813382 -0.09295028 0.3605712 0.013312829
000320 e6 bf 89 bd 6b 8e db bd c7 27 ee bc dc 70 f4 3b
       -0.06726055 -0.107205234 -0.029071702 0.007459743
000330 08 f5 0c 3e 3f 04 0c bd 11 dc 03 3e c8 1a 0a be
       0.13765347 -0.034183737 0.12876917 -0.13486779
000340 59 38 23 be 83 27 77 bd 0d 71 bb 3c 73 44 86 3d
       -0.15939464 -0.060340416 0.022881055 0.065560244
000350 8c df 9c 3d 3a 98 04 3e c3 c1 b0 3d 7e 21 3b 3e
       0.07659826 0.12948695 0.08630707 0.18274495
000360 a0 e3 bc 3d 5c d3 21 bd 22 ba e8 3d 30 ae 76 bd
       0.092231035 -0.03950821 0.11363627 -0.060224712
000370 e0 22 1a be f4 b6 7c 3d 21 b5 60 3d fe 6d d1 3d
       -0.15052366 0.061697915 0.054860238 0.102260575
000380 52 60 71 bb 0f 52 1f 3e 6e 2e ae 3c 9c 60 bb bd
       -0.0036831093 0.15558647 0.021262374 -0.09149286
000390 82 8a 0f 3e c0 0d b7 bd 26 69 06 be 5d 5d 2f bd
       0.1401768 -0.089381695 -0.13126048 -0.042813648
0003a0 a3 06 ef 3d 85 41 b7 bc 8d 37 29 3d 5b e8 55 bd
       0.11671188 -0.02237011 0.041312743 -0.052223545
0003b0 77 fe 16 3e a6 62 70 3d ce c1 38 3e 1e 80 f9 bd
       0.14745508 0.05868783 0.1804268 -0.121826395
0003c0 4f d2 16 be 76 e6 ec bd dd 1b 53 be 4e 1d fe bc
       -0.14728664 -0.115673944 -0.20616098 -0.031019833
0003d0 35 7f a9 bd dc 63 f2 3d 81 74 52 bc 67 2f af 3d
       -0.08276216 0.11835453 -0.0128451595 0.08553963
0003e0 42 10 df bd b2 26 7e 3d d2 e7 62 bd 9d e7 a5 3c
       -0.10891773 0.06204862 -0.055396862 0.020252043
0003f0 19 b7 67 3d 8f fd 7a 3d 53 53 ee bd d1 a5 f8 bd
       0.0565711 0.06127697 -0.116369866 -0.12141002

coord_encoder.2.bias f4 [50]
000000 c4 c3 d8 bd 6f 5b 3f bb bc 64 1d 3d 87 1a 87 3d
       -0.10584214 -0.0029198786 0.038426146 0.065968566
000010 b7 63 8d bd 37 fd f6 bc 39 28 b9 3b 70 42 e5 3c
       -0.06903785 -0.03015004 0.005650547 0.027985781
000020 08 79 60 3d aa d9 98 bd 0b e4 04 be e0 33 10 3e
       0.054802924 -0.07463391 -0.12977616 0.14082289
000030 0e 33 f2 3c 74 60 e1 bd 07 df 01 3e 34 3e 89 bd
       0.02956536 -0.11004725 0.12682734 -0.067013174
000040 89 1f 06 bd d6 ea b2 bd 25 e2 9e bd 3e c9 71 bd
       -0.032744918 -0.08736198 -0.077579774 -0.05902981
000050 49 85 68 bd 29 49 eb 3b ff e0 c7 3d 5c 1b 93 bd
       -0.056767736 0.007180352 0.097597115 -0.07182953
000060 e7 3b 0d 3e 66 d1 f7 bc 12 4e 51 bd bd 79 0a bd
       0.13792382 -0.030251216 -0.051099844 -0.033807505
000070 75 1b c3 bd bc da ce 3d 34 32 49 bd f9 65 4e 3d
       -0.095267214 0.10100314 -0.049120143 0.050390217
000080 af 7b 12 3e 70 21 8d bd 4f 52 0f bd cd 12 df bd
       0.14304994 -0.06891143 -0.034990605 -0.10892258
000090 70 33 79 3b 00 26 c0 bd 42 29 d5 bd 87 9d 72 bd
       0.0038025044 -0.09382248 -0.1040826 -0.05923226
0000a0 db 24 f4 39 34 ab 5a 3d 17 fc 54 3d b9 72 b4 3d
       0.00046566766 0.05338593 0.051998224 0.08810944
0000b0 40 94 ea 3d 62 41 03 3e 6b 63 c8 bd e6 3b 9f 3c
       0.11454058 0.1281791 -0.097845875 0.019437741
0000c0 96 d2 87 3b 05 4e f0 3d
       0.004144977 0.11733631

decoder.0.weight f4 [150, 150]
000000 39 fe 58 bc ab de e0 bc 5f b8 2c bd 6e fe 09 bd
       -0.013244205 -0.027449926 -0.042168017 -0.03368991
000010 ec 04 6e bd f3 1d 35 bc 0b b6 0a 3d aa f6 53 3d
       -0.058110163 -0.011054504 0.033865016 0.05174891
000020 23 15 86 3b 24 71 83 3c 69 ca 79 bd a5 d0 7c bd
       0.004091875 0.01604516 -0.06098405 -0.061722416
000030 ed 90 9a 3c a6 eb 96 3d 4d 98 4d 3d 03 ca 76 3d
       0.018867934 0.07369165 0.050194073 0.060251247
000040 9f 8f 3e bd de 75 9f 3c 97 33 99 bc 03 5f 65 bc
       -0.046523686 0.019465383 -0.018701358 -0.013999703
000050 90 f1 87 3d 70 1c b2 3d c0 54 aa bd f3 35 2e bd
       0.06637871 0.0869683 -0.08316946 -0.04253192
000060 79 63 86 3b 53 25 63 3d 94 af d1 3c a8 aa 12 3d
       0.0041012135 0.055455517 0.025596417 0.03580728
000070 91 20 a9 bd 2e ae 8c 3d 97 4a 3f bd a2 4d dc 3d
       -0.08258165 0.0686916 -0.046701994 0.10756995
000080 08 dc 0b 3d f2 5b 70 3d 8a 27 b7 bc e0 2c 09 bd
       0.034145385 0.058681436 -0.02235772 -0.03349006
000090 91 5d a7 bd e1 09 65 bd 60 8f 81 3d a9 43 67 3d
       -0.08172143 -0.055917624 0.06326175 0.05646101
0000a0 b4 97 69 bd 42 28 e0 bc 2c 17 3b 3d af c0 c0 3b
       -0.05702944 -0.027362946 0.045676395 0.0058823447
0000b0 e4 0b bd bc b3 b2 9f 3d eb 78 0b 3c 49 3a 04 3d
       -0.023076959 0.07797756 0.008512716 0.032282148
0000c0 2a 90 28 3d d0 c6 01 3d cf 48 8e bc 91 86 bb bc
       0.04115311 0.031683743 -0.017368702 -0.022891315
0000d0 9c b9 92 bb 90 ff 79 3d 2c 75 99 bd 81 6c ae bd
       -0.004477693 0.06103474 -0.07493052 -0.08516789
0000e0 60 1c 08 ba f0 50 4b bc 72 21 66 bc 17 ae 62 3d
       -0.00051922165 -0.012409434 -0.01404606 0.055341806
0000f0 04 07 20 bc d4 cd 06 bd d5 d1 f3 bc 84 63 9e 3d
       -0.009767298 -0.032911137 -0.029763142 0.07733825
000100 ad dd 3e bc 07 f6 95 bd cd ac 48 3c e3 61 60 3d
       -0.011649531 -0.073223166 0.01224823 0.054780852
000110 c3 4e b5 3d f0 59 81 bd 95 e0 3f 3d fa ce 98 3c
       0.08852913 -0.06315982 0.046845037 0.018653382
000120 21 97 5c 3d 49 7d 67 3d 0c 34 1f 3d ac c3 06 bd
       0.053855065 0.056515966 0.038867995 -0.03290145
000130 30 2e 8c 3d f8 0d 95 bc fa 6b f8 bc a9 d6 ea bd
       0.06844747 -0.018195137 -0.030324925 -0.114667244
000140 b8 50 3c 3a 4e d2 b6 bd b7 31 39 bd 97 89 08 bd
       0.0007183659 -0.08926831 -0.045213427 -0.03333434
000150 61 2e df 3b 10 81 b1 3d b7 0d b0 3a 84 15 3c 3c
       0.0068109487 0.08667195 0.0013431822 0.011479739
000160 81 a6 98 3d 30 78 e4 bc 18 e9 da bc b9 68 5f bd
       0.07453633 -0.027889341 -0.026722476 -0.05454323
000170 b4 f9 1f bd 53 66 61 3d 75 9d 3a 3d 92 66 7f bc
       -0.039056495 0.055029225 0.04556032 -0.0155884195
000180 0c dc ad bd bd e3 01 3d a5 0a 37 3d 91 6c 3d 3c
       -0.08489236 0.03171133 0.044687886 0.011561529
000190 ac 40 34 bb 7f cf 58 ba 72 77 01 3d bd 46 9b bd
       -0.0027504368 -0.00082706654 0.031608053 -0.07581852
0001a0 cc 44 48 bd 57 ec e6 bc 31 47 6a bb 3a 7a 61 3d
       -0.048893735 -0.028188867 -0.0035748 0.055048205
0001b0 61 d7 92 3d f4 37 d8 bc f2 ed 46 3d 2e ee a6 bd
       0.071699865 -0.026393868 0.048566766 -0.08150898
0001c0 d8 28 90 bd 07 23 a5 3d eb 8d d5 3c 4e 5f 7a bd
       -0.0703904 0.080633216 0.026068648 -0.061126046
0001d0 f7 dc 5a 3b 61 81 93 bb d2 3e 56 bd 74 cc 91 bd
       0.0033395865 -0.004501507 -0.052306004 -0.071190745
0001e0 d1 7b 4b 3c a3 2c 77 3d ea 01 a2 3d cc 7b 84 bd
       0.012419657 0.060345303 0.07910521 -0.06468925
0001f0 0d 20 a1 3c 9d 9d 39 bd 3a 23 3f 3d 71 43 7e 3d
       0.019668603 -0.045316327 0.046664454 0.062076036
000200 d6 79 19 3d 4e 54 8d 3d 3a 24 3e bd 7b e2 a4 3c
       0.037469707 0.069008455 -0.046421267 0.020127526
000210 bf e5 98 3d 80 fb 51 3b 5d 0d fe 3c 05 24 d6 bd
       0.074656956 0.0032040775 0.031012231 -0.10456089
000220 9b d0 08 3d 6c 20 16 3d f3 47 0d 3d 33 6a 3e 3d
       0.033402067 0.036652014 0.034492444 0.046488
000230 29 df a3 3c bf e3 4f bc c1 df 4d bd 5a 13 96 bd
       0.020003872 -0.012688576 -0.050262216 -0.0732791
000240 66 90 d4 3c 5f 64 29 bd 7e 29 2e 3d ae b9 94 bc
       0.02594776 -0.041355487 0.04252004 -0.018154945
000250 b9 9b 83 3d eb 2b bc 3b a8 85 8f bd 08 9d 1f bd
       0.06426186 0.00574254 -0.07007915 -0.038968116
000260 c5 e9 8f bd 42 bd 7e bd c3 f6 c3 3c 44 e5 a4 bc
       -0.0702701 -0.06219221 0.023921376 -0.020128854
000270 9c 97 a0 3d d5 46 51 3d 09 f7 71 bd 88 4c 30 bc
       0.07841417 0.05109294 -0.05907348 -0.010760434
000280 69 04 ad bd 55 89 70 3d c3 ce 95 3d 44 0f 92 bd
       -0.08448107 0.05872472 0.07314827 -0.07131818
000290 6e c1 45 bd f2 e2 81 3d eb 33 40 3b 08 28 9c 3d
       -0.048280172 0.063421145 0.002932782 0.07624823
0002a0 87 32 0a be 08 9a 33 3d 95 39 67 bd 59 86 9b 3d
       -0.13495837 0.043848068 -0.0564514 0.07593984
0002b0 4a 33 34 3d d4 8e 7c 3d c1 50 67 3d a3 d5 92 ba
       0.043994226 0.06165965 0.056473497 -0.0011202585
0002c0 9d 3d 03 bd aa 17 7b 3d 6f 22 c1 bc 1f c0 96 3d
       -0.03204118 0.061301865 -0.02357599 0.07360863
0002d0 c9 28 d5 3c 06 9e 25 bc 81 03 d6 bc 73 69 02 bd
       0.026020424 -0.0101084765 -0.026124718 -0.031838845
0002e0 3f 75 8c 3d 3d 69 7c 3b 5f 68 98 bd 5f cd 7c 3d
       0.068583004 0.0038514875 -0.07441782 0.061719295
0002f0 72 3f 83 3d 44 5b 4b bd fa 20 31 bc a0 cf 6a 3d
       0.064085856 -0.049647585 -0.010811085 0.057326913
000300 78 af 9b bc dc f6 7c 3d 64 5d 86 bd e0 cc 10 3b
       -0.019004568 0.06175886 -0.065607816 0.0022094771
000310 27 af 48 bd 06 d0 ad bd a4 b3 67 bd 23 34 ec bc
       -0.048995163 -0.08486943 -0.056567803 -0.028833454
000320 c1 98 a2 3d 54 51 86 3d 10 68 83 3d c6 7c e8 3c
       0.07939292 0.06558481 0.06416333 0.02837981
000330 9c 7b dd 3c 51 1d 65 3d 08 6d a9 bd 14 e5 d7 3c
       0.02703648 0.05593616 -0.08272749 0.02635435
000340 23 c3 36 3d ce a3 5d 3d ef e8 08 bd d4 fe 3f bd
       0.04461969 0.054111294 -0.033425268 -0.046873882
000350 e0 07 a0 3c 30 d6 f8 3c 51 50 93 bd 66 23 bd bb
       0.019535005 0.03037557 -0.071930535 -0.005772042
000360 f2 ad 70 3d 8a f5 9d 3c 6c 45 9e bd 1e 57 bc 3d
       0.058759637 0.019282121 -0.07728085 0.09196304
000370 03 d7 a1 bd b9 49 53 bd 36 15 25 3d c9 5c 59 3d
       -0.07902338 -0.05158398 0.04030343 0.053067002
000380 f2 a3 f2 3c d3 d4 22 3d da 4c 27 bc f6 f1 27 bc
       0.02961919 0.039753746 -0.010211194 -0.010250559
000390 ad 43 4e bd 22 cf 96 3d 80 a2 a8 3d d8 70 d8 bd
       -0.05035751 0.07363726 0.082341194 -0.10568398
0003a0 54 40 88 3c 7a 2d 07 3b 2c 45 66 bd 42 8c c9 3d
       0.016632237 0.0020626471 -0.05621831 0.09841205
0003b0 f7 8c 4a 3d 2a 10 c9 bc e1 71 9f bc 30 9c 6a 3d
       0.04945084 -0.02454384 -0.019463481 0.05727786
0003c0 a8 68 80 3d d2 48 b2 3b f6 1a 7e bd 44 d3 c3 bc
       0.062699616 0.0054408098 -0.06203743 -0.02390445
0003d0 61 1a 89 3c bc 03 22 3d 54 5f 57 3d 70 9c be bd
       0.016736211 0.039554343 0.052581146 -0.09307182
0003e0 6e 7e f7 3c d6 b3 0f 3d 40 e2 93 bd 44 21 32 bd
       0.030211654 0.035083614 -0.07220888 -0.043488756
0003f0 14 1f 8e bd e7 f6 8a ba f9 f5 0c 3d ab 66 03 3d
       -0.069395214 -0.0010602147 0.034414265 0.032080334

decoder.0.bias f4 [150]
000000 3d d3 4e 3d 82 c2 81 3d 01 1a 0b bd af f5 ff 3c
       0.05049442 0.063359275 -0.033960346 0.03124508
000010 8a c8 b0 bb 81 ea 89 3b c8 c8 36 bd 00 df a2 bb
       -0.005395 0.0042088632 -0.044625074 -0.0049704313
000020 bd d0 47 3d ea 9c e4 3c 3c bf 58 3b 03 2f 3e bd
       0.048783053 0.027906854 0.003307297 -0.046431553
000030 36 6d 92 bc 0b 8f 8f bd d3 5e 83 bd 28 1c 9a 3d
       -0.017874341 -0.07009705 -0.06414571 0.07524902
000040 15 1d ed bc 5d 09 84 3c 0c 3d 2e 3c b4 1b 4c bd
       -0.028944531 0.016117746 0.010634672 -0.049831107
000050 41 66 76 3d 06 2b e6 3c 3f 54 f3 3c f6 a2 3f 3d
       0.06015611 0.028096687 0.029703258 0.04678627
000060 7b 5b 89 3d e4 1d 29 3d 9c ea 31 bd dd 2d 2a bd
       0.06706902 0.04128827 -0.04343663 -0.041547645
000070 b8 61 ce 3d 25 47 46 3d d9 00 91 bd e6 08 79 3d
       0.10077232 0.048407692 -0.0708024 0.0607995
000080 79 a6 df bc aa df b4 3d ac 5c 57 bd 17 b9 b2 3b
       -0.02730106 0.08831723 -0.052578613 0.0054541933
000090 d6 2d 25 3d aa 0c b5 3d 19 11 40 bd 9f ee 08 3d
       0.040326916 0.08840306 -0.046891306 0.03343069
0000a0 8f 8a 41 bc 8c a9 2d be 16 0a 4d 3d 75 f5 ef ba
       -0.01181282 -0.16959208 0.050058447 -0.0018307405
0000b0 42 d3 5e bd 01 64 a3 bd e7 00 8f bd bd 3e 9d 3d
       -0.05440069 -0.079780586 -0.06982594 0.07677982
0000c0 fa b2 9a 3d 2b 9d 82 3d 1f 1d a7 bd dc 32 a6 bb
       0.07553668 0.06377634 -0.08159851 -0.005071981
0000d0 59 f6 83 3d d4 d2 a1 bd 7e 94 50 3d a4 c5 a7 bd
       0.064434715 -0.079015404 0.050922863 -0.08191994
0000e0 7b 23 88 bd 54 ac 65 bd 8a 1e 70 3d a5 77 c9 bc
       -0.06647392 -0.056072548 0.058622874 -0.024593184
0000f0 26 b7 aa 3b 47 f6 95 bd ef af 38 3d 83 3b 97 3d
       0.0052098213 -0.07322364 0.04508966 0.07384398
000100 38 17 9e 3d cd 11 94 bc 9c 16 32 bd e3 25 75 3d
       0.077192724 -0.018074894 -0.043478593 0.059850585
000110 13 6b 34 3d be 03 0e bd c4 73 35 3d cf f4 a3 3a
       0.044047426 -0.034671538 0.044299856 0.0012508872
000120 0c b0 b7 bc 4a 34 69 3d 49 ab 02 3d f3 df e9 3a
       -0.022422813 0.056934632 0.03190163 0.0017843231
000130 a4 aa 12 be 6b bc 20 bc 11 ce a4 3d 38 3a f4 bb
       -0.14322907 -0.009810547 0.080471165 -0.0074532293
000140 b8 9e 11 bd 63 b2 09 bc 70 2a eb bc a0 b8 ea 3c
       -0.035551757 -0.008404347 -0.02870676 0.02865249
000150 ff d4 39 bd 94 bb f3 bb e3 65 99 bd 85 bc 6f bd
       -0.045369145 -0.0074381325 -0.074901365 -0.058529396
000160 63 ff 80 bd a3 b1 70 bd 25 af d3 3c 53 ec 4a 3d
       -0.06298711 -0.058763158 0.025840351 0.049541783
000170 4c aa 86 3d 2f c8 44 bd d2 f2 70 bd dd 54 1b 3d
       0.0657545 -0.048042472 -0.05882532 0.03792273
000180 20 60 59 bd 63 a9 7e bd 52 8a 9b 3b de 28 59 3d
       -0.053070188 -0.06217326 0.0047467137 0.05301749
000190 9e ea 9d 3b 25 f7 79 bd ca b1 15 3c c6 55 f3 3c
       0.0048192283 -0.06102671 0.0091366265 0.029703986
0001a0 c8 a7 45 3b e5 c0 fe bc b6 e0 84 ba 02 05 b9 3c
       0.003015982 -0.031097839 -0.001013777 0.022585396
0001b0 a0 59 4a bd fe 04 10 bd 13 3a 4f bd 69 a7 07 bc
       -0.04940188 -0.03516101 -0.050592493 -0.00827966
0001c0 2e 63 c1 3c 62 e6 3c bd c3 5b 23 bc cd c2 86 bd
       0.023606863 -0.046118148 -0.009970608 -0.06580124
0001d0 50 c7 93 bc 1b 98 45 3e 2b 39 c6 3c 8f 95 8d 3d
       -0.018039376 0.19296305 0.024197182 0.06913292
0001e0 69 cc 7d bd 3c a5 4b 3b 6a c8 d7 bb b5 74 91 3d
       -0.06196252 0.003107383 -0.0065851705 0.07102338
0001f0 6d 38 27 bd 67 d0 09 bd b0 43 35 bd 01 ab 3d 3d
       -0.040825296 -0.033646014 -0.044254005 0.04630566
000200 41 e7 cb bc d0 60 51 3c 73 29 28 bc 1b dc 82 bd
       -0.024890544 0.01277943 -0.0102637885 -0.06389638
000210 8b b2 99 bd 36 f1 f8 ba 1c c1 8d 3c 8d 85 d0 3b
       -0.075047575 -0.0018992785 0.017303996 0.0063635767
000220 6d e6 a1 3d e0 ff 85 bd aa 41 5a bb 42 7a 0c 3c
       0.07905278 -0.06542945 -0.00333033 0.00857407
000230 a6 61 42 3d 6e 08 12 3d 15 dc 34 3d 5b 63 1b be
       0.047456406 0.03565257 0.0441552 -0.1517462
000240 c8 4d 0a 3d 45 d7 93 bd 4d 6b 03 3d f8 20 9f bd
       0.033765584 -0.07218794 0.032084752 -0.0776996
000250 f3 85 90 3d 0b 60 8b 3d
       0.07056799 0.06805428

decoder.2.weight f4 [150, 150]
000000 c2 f5 e0 3c 3f 76 bd 3b 2a 05 8f bd 1d a4 cf bc
       0.027460936 0.0057819183 -0.06983407 -0.02534681
000010 b2 43 55 3c f7 85 d8 3b 9d 54 97 bd 12 bf 45 bd
       0.013016628 0.0066077667 -0.073891856 -0.048277922
000020 6d 5b 68 bc 26 ed 2f 3c 12 55 76 3c 76 d1 76 bd
       -0.014181954 0.010737693 0.015034931 -0.06025835
000030 da 3f 3e 3d 40 ef ce bd b1 1b 29 3c b8 21 50 3d
       0.046447612 -0.10104227 0.010321544 0.050813407
000040 91 e5 a8 bc 5f c7 18 3d d1 45 ab bc 99 b9 0e bd
       -0.020617278 0.03729951 -0.020907314 -0.03484497
000050 90 f9 14 bd 53 0a 8e 3c 60 43 17 bd 44 5f 20 bd
       -0.036370814 0.017338907 -0.03692949 -0.039153352
000060 22 0a 86 bd ec fb 36 3d e5 84 e8 bd 7e 7a 28 bd
       -0.065449014 0.044673845 -0.113534726 -0.041132443
000070 2c 52 6e 3d 52 74 9f 3d 88 b5 91 bd 84 4d 7d bd
       0.058183834 0.07785858 -0.071147025 -0.061841503
000080 f0 0c 0b 3d 33 e0 60 3c 1a dc 09 3d ef 14 93 3d
       0.033947885 0.013725328 0.03365717 0.07181727
000090 eb 37 49 3d be d3 8a 3c 26 bf 19 bd ad 00 37 3c
       0.049125593 0.01694667 -0.03753581 0.011169595
0000a0 f6 ba a6 b7 10 f4 8a 3d e1 2c 47 3d 83 84 fe 3c
       -1.9875803e-05 0.067848325 0.048626784 0.031069046
0000b0 e4 9e db 3c b8 8d 34 bd 14 99 81 3d c6 1b 2f bd
       0.026809163 -0.044080466 0.063280255 -0.042751096
0000c0 3c 4e 7f bd 3d ad e2 3b 44 24 2b 3d 2c 32 0f 3d
       -0.06233047 0.0069176243 0.041782632 0.034959957
0000d0 32 b9 11 3d ea 08 3e 3d c2 19 a0 bd c4 e6 b6 bb
       0.035577007 0.04639522 -0.07817413 -0.0055817086
0000e0 43 d7 4a 3d 43 91 18 bc 4c 70 95 3d 60 37 30 bd
       0.049521696 -0.009311977 0.072968096 -0.04302156
0000f0 ce dd 39 bd 46 be 9c 3d 46 bf ad bc 28 23 30 bd
       -0.045377545 0.07653479 -0.02120937 -0.043002278
000100 24 58 4c bc af 62 e9 3c 97 14 01 bd a3 77 be 3d
       -0.012472186 0.028489439 -0.031513777 0.09300163
000110 5c 42 b8 bd b7 68 5c 3d 45 90 62 bd 3c eb 85 bd
       -0.08997032 0.0538108 -0.055313367 -0.06539008
000120 84 7e 73 bd 62 03 a8 3d 80 48 1a bd 29 93 15 bd
       -0.059446827 0.0820377 -0.037666798 -0.036517296
000130 fa 6b 10 3e 77 29 72 3c 99 6c aa 3d 0f 5a 56 bd
       0.1410369 0.014780394 0.083214946 -0.05233198
000140 a7 05 81 bd 1d 1e 58 3d 1d 7e 85 3d ef 8b 12 bd
       -0.06299906 0.052763093 0.06518195 -0.035777982
000150 fd df 37 bd 2a 98 5b 3d 9b f0 08 3c 3c e3 4a 3d
       -0.044891346 0.05361191 0.008358146 0.049533114
000160 92 37 6f bd 6a 9c 6e bd f5 72 a2 3d 58 53 5e 3a
       -0.058402605 -0.058254637 0.079320826 0.0008481047
000170 3f 22 94 3d f6 b2 02 3a 57 69 35 3c 91 b7 92 3d
       0.072330944 0.00049857737 0.011072478 0.07163919
000180 ad 10 8c bd 1f e0 3c 3d b4 2c 07 bd 93 d3 83 3d
       -0.06839118 0.046112176 -0.033001617 0.06436839
000190 70 e4 01 bd 38 f1 96 3d 10 ec 68 bd be c2 99 bc
       -0.031711996 0.073702276 -0.05686575 -0.018769618
0001a0 48 fc d6 ba 3a 2f b6 bc c6 cc 39 3d 8c 0b 77 bd
       -0.001640209 -0.022239316 0.045361303 -0.060313746
0001b0 86 f6 eb bb bb 9d 0a 3d a3 15 2a 3d 02 95 de 3c
       -0.0072010187 0.03384183 0.04152454 0.027170662
0001c0 bd 08 ae bd 2c 18 45 3a ee 2f 0d 3d a7 64 0d bc
       -0.084977604 0.00075185555 0.034469537 -0.008629954
0001d0 f7 ab 53 bd 56 30 87 bc fc 3f 10 bd fa 39 09 bd
       -0.05167767 -0.01650254 -0.03521727 -0.033502556
0001e0 a6 ca 71 bd 5e 0f 51 bd da 94 65 3d da ed ea 3c
       -0.05903115 -0.051040046 0.05605016 0.02867787
0001f0 dd 51 25 3d 1f 10 42 bd 01 a4 6d 3d 28 ac 9d 3d
       0.040361274 -0.047378656 0.058017734 0.07698852
000200 6f 80 8d bd f8 ca 87 3c 2b 82 02 bd 70 1f b3 3c
       -0.069092624 0.016576275 -0.03186242 0.021865577
000210 fd b5 f3 3c 7d 13 d4 bc 84 ec 74 3d f2 d7 af 3c
       0.029749865 -0.025888199 0.05979587 0.021465275
000220 5d 8e 8d 3c ef b9 50 ba 2c 28 ec 3b 3f 8c 61 ba
       0.017279798 -0.00079622766 0.0072069373 -0.0008603967
000230 ce 7c bb 3b 3d 40 cc bd fb fc 9d bd 22 7c 47 3c
       0.005721665 -0.0997319 -0.07714268 0.012175592
000240 c6 ea 78 bc da c5 c2 3c e8 0b 19 3d 29 a8 1a 3d
       -0.015192693 0.023775984 0.03736487 0.037758026
000250 4e 44 e2 3d 4d 61 24 bd 90 45 fa 39 0c 33 41 3d
       0.11048184 -0.040131856 0.00047735544 0.047167823
000260 16 f4 c9 bd 90 9f 10 3d 81 73 86 3d 89 2f a5 3c
       -0.09861009 0.03530842 0.06564999 0.020164268
000270 59 cb 50 bd b6 c8 8b 3d fe f7 fc 3c 2d fb 65 3d
       -0.050975177 0.06825392 0.03087997 0.056147743
000280 31 89 d2 bc f5 6f fa bc db 4c 42 3d 70 6b b5 bd
       -0.025700184 -0.030570963 0.047436576 -0.08858383
000290 29 d4 e2 3c 8c bf 99 3c bf 37 5b bd 34 8a c4 3d
       0.027689056 0.018768094 -0.05351996 0.09596673
0002a0 37 ad 9e 3b f6 27 79 bc 55 97 90 3d 01 f8 a5 3d
       0.004842426 -0.015207281 0.07060114 0.081039436
0002b0 f1 77 8d bd 17 71 4d bd fd 86 2d 3d 29 c5 6a bc
       -0.06907643 -0.05015668 0.042365063 -0.014329233
0002c0 0e 60 0e be 0a 7e 6d bc ad 7f da bc 91 99 3b 3c
       -0.1390383 -0.014495382 -0.026672209 0.011450187
0002d0 d4 e9 70 bd 5b 2b fe bc e3 3b 6e 3d 65 21 c8 3d
       -0.058816746 -0.031026533 0.05816258 0.097719945
0002e0 90 d9 81 bd 2c d7 08 3d 5c e0 92 bd 40 94 b6 3c
       -0.06340325 0.03340833 -0.071716994 0.022287488
0002f0 b0 73 88 ba 30 80 2f bd 1d 18 bd bc 95 1c 23 3c
       -0.0010410454 -0.04284686 -0.023082787 0.009955545
000300 12 b3 80 bd f2 2a 32 bd e7 b8 81 bc 53 68 76 bd
       -0.06284155 -0.043497987 -0.015835239 -0.060158085
000310 5f a7 fe bc 7a 8a 0c bc 82 b2 2e bd 9e 0f 45 bd
       -0.031085668 -0.008577937 -0.042650707 -0.048110597
000320 7d 89 f0 3b f6 65 c0 3d c0 9c 93 3d 07 1d ac bc
       0.0073406086 0.093944475 0.07207632 -0.021009935
000330 e1 0e db bd 6d 8d d9 bc aa 69 db bb 9b 57 89 bd
       -0.10696197 -0.026556695 -0.0066959457 -0.067061625
000340 30 d3 45 3d 08 ca 40 bd 13 4f bb 3d 06 89 38 38
       0.048297107 -0.047067672 0.091459416 4.399663e-05
000350 5b ad f8 bb a8 b4 da 3d f6 1f b3 3d 41 71 84 3d
       -0.007589025 0.10678989 0.087463304 0.06466914
000360 a3 b1 07 3d de 7c d4 bc f3 f7 2b 3d cf ae 83 bb
       0.033128392 -0.025938448 0.04198451 -0.0040186415
000370 f8 2a 1d bd 78 9b 5a bd e8 5e e0 b9 9f dc c0 3c
       -0.038371056 -0.053370923 -0.0004279532 0.0235427
000380 44 5f 71 3d 18 c3 d3 3d 82 f9 2a bd 57 c1 b6 3d
       0.058928743 0.103399456 -0.041741855 0.089235954
000390 59 5d 0d bc 18 bb a4 bd dc 4e 2a bc 96 bf d9 ba
       -0.008628213 -0.08043498 -0.010394778 -0.0016612883
0003a0 c8 12 2a bd 5d 9f 13 bd 5b 19 5e 3d f7 a6 1e bd
       -0.041521817 -0.036040653 0.0542234 -0.03873345
0003b0 f4 44 d0 bc 0c 0b bc 3d 4e cf 62 bd 22 15 ab bd
       -0.025423504 0.091817945 -0.055373482 -0.0835364
0003c0 0d 8d 85 3d c6 72 b7 3d 63 4c 6c 3d c1 36 70 bd
       0.06521044 0.08957438 0.057690036 -0.058645967
0003d0 01 49 79 bd ba 28 87 bd bf ca d0 bc 7e bc a6 bb
       -0.060860638 -0.06599565 -0.025487302 -0.005088388
0003e0 d3 88 cc bd 49 6f 01 3e bb b5 92 3d 42 2e f4 3c
       -0.09987035 0.12640108 0.071635686 0.029807214
0003f0 71 9a 41 bd 14 81 1e bd 9e 1d 6b bd 7c 8b 01 3d
       -0.047266427 -0.038697317 -0.057401292 0.031627163
