Code/Trained models/all_5000_norm_8001_P2INN_10_4_10_3_20_6.pth (torch, 23170 bytes, 27 tensors)

param_encoder.0.weight f4 [10, 5]
0	0xbc408b0b	-0.0117519
1	0xbc0165b0	-0.007897779
2	0x3cfb5d3d	0.030684108
3	0x3b8d16f0	0.004305713
4	0xbdd7d52d	-0.10538707
5	0x3d626f93	0.055282187
6	0x3e0c61a7	0.13709126
7	0xbe0680d0	-0.13135076
8	0xbae0786c	-0.0017125732
9	0xb9acb6f6	-0.00032942713
10	0xbcd2a8bb	-0.025715223
11	0x3c1d6b19	0.009608054
12	0x37b49650	2.1527667e-05
13	0xbd11a56f	-0.03555816
14	0x3e999bcd	0.3000168
15	0xbd968fc3	-0.07351639
16	0xbe0d694a	-0.13809696
17	0x3e57e5a2	0.21083692
18	0x3b112221	0.0022145587
19	0x3ce49ba3	0.027906245
20	0xbddfe366	-0.10932045
21	0x3cdce541	0.026964786
22	0x3cdceeb8	0.026969299
23	0x3c04dc8b	0.008109222
24	0xbc038d21	-0.008029253
25	0xbc687ff3	-0.014190662
26	0x3b1b3829	0.0023684597
27	0xbb11be59	-0.00222387
28	0x3da78874	0.08180323
29	0xbe015ce7	-0.12633096
30	0xbdf7eb15	-0.12105385
31	0x3e2d979a	0.16952363
32	0xbaea1917	-0.001786026
33	0x39814dc8	0.0002466275
34	0xbd1236f0	-0.035696924
35	0x3cc0a1c9	0.023514645
36	0xbae94ebb	-0.0017799953
37	0xbdbf8478	-0.09351438
38	0x3c2362d8	0.009972297
39	0xbd0c37e9	-0.034233008
40	0xbdb9258a	-0.09040363
41	0x3dcbea47	0.09956794
42	0x3d820529	0.063486405
43	0xbd05e822	-0.032692082
44	0xbe40577e	-0.18783376
45	0x3bc18965	0.0059062713
46	0x3b6a1db0	0.0035723262
47	0x3a975ab3	0.0011547416
48	0x3dcc2178	0.09967321
49	0x3bd3d1ca	0.006464218

param_encoder.0.bias f4 [10]
0	0x3dd18720	0.10230851
1	0x3e77c5a7	0.24196492
2	0x3febc272	1.8418715
3	0x3f5d781b	0.8651139
4	0x3dee5319	0.11636943
5	0x3f06b2eb	0.5261676
6	0x3dedbd7f	0.11608409
7	0xbee2d4f9	-0.4430311
8	0xbe9e8680	-0.3096199
9	0xbe1d9b02	-0.15391162

param_encoder.2.weight f4 [10, 10]
0	0xbf1486a7	-0.58017963
1	0x3e3cd076	0.18438897
2	0x3e72fdb4	0.23729593
3	0x3ebbc6c3	0.3667508
4	0xbe0cfb80	-0.13767815
5	0x3db6f3ff	0.08933257
6	0x3e226df5	0.15862258
7	0x3d72da80	0.05929041
8	0xbcdd8dac	-0.027045093
9	0xbcd70868	-0.026249126
10	0xbb9701a8	-0.0046083517
11	0xbdba7a3e	-0.09105347
12	0xbe838d8e	-0.25693935
13	0xbe3479a0	-0.17624521
14	0x3f281ee2	0.65672123
15	0xbe6f6963	-0.23380046
16	0x3e2b568a	0.16732231
17	0x3d98384d	0.074326135
18	0xbe662ba9	-0.22477593
19	0x3dea446f	0.11438834
20	0xbdadffa3	-0.084960245
21	0x3be12049	0.006870304
22	0xbe5977b4	-0.2123707
23	0xbe74124e	-0.23835108
24	0xbe178dd0	-0.14800191
25	0xbe220ec7	-0.1582595
26	0x3d60923e	0.054826967
27	0x3f288d53	0.65840644
28	0xbe60ef79	-0.21966352
29	0x3ec2dac4	0.3805753
30	0x3dd0013f	0.10156488
31	0xbe232ab0	-0.15934253
32	0xbe315b88	-0.17320073
33	0xbd8ce2f0	-0.068792224
34	0xbed33e3e	-0.41258425
35	0x3e8dfbab	0.2773107
36	0xbdb29155	-0.08719126
37	0x3f10340a	0.56329405
38	0x3f15aa36	0.58462846
39	0xbf835e1f	-1.0263098
40	0xbf059dd6	-0.52193964
41	0x3eb7ef1b	0.3592461
42	0xbd8256ad	-0.06364188
43	0xbdc33d32	-0.095331565
44	0xbdf657c2	-0.12028457
45	0xbcf1221f	-0.029435216
46	0x3e2086ea	0.15676466
47	0x3e94d998	0.2907226
48	0xbe01acfe	-0.12663648
49	0x3e21158b	0.15730874
50	0x3e9c1b07	0.3048937
51	0x3edad093	0.42737255
52	0xbe62ecaf	-0.221606
53	0xbc9aabe8	-0.0188808
54	0x3e5e16e4	0.2168842
55	0x3ea9c202	0.3315583
56	0xbe16d000	-0.14727783
57	0xbe4d2d54	-0.20036823
58	0xbe0467b8	-0.1293019
59	0xbe732c4d	-0.23747368
60	0xbd9aa7fe	-0.07551573
61	0xbe2d995f	-0.16953038
62	0xbe822fab	-0.25426993
63	0x3e9dfdd0	0.30857706
64	0xbded3058	-0.115814865
65	0x3cee9658	0.029124424
66	0x3ccba393	0.024858272
67	0x3eb77c9a	0.3583725
68	0x3e0d7d5d	0.13817354
69	0x3eed6542	0.46366316
70	0xbeb99ce2	-0.36252505
71	0xbd86deb0	-0.06585443
72	0x3e57fc0d	0.21092243
73	0x3d151b62	0.036403067
74	0x3eba8d91	0.36436132
75	0x3c913639	0.01772605
76	0xbe398770	-0.18118072
77	0xbea45a30	-0.32100058
78	0xbe40fafc	-0.18845743
79	0xbd128f83	-0.035781395
80	0x3f05c56a	0.52254355
81	0xbd9c2888	-0.07624918
82	0x3e8e45f4	0.27787745
83	0x3e48d4a2	0.19612363
84	0xbdfd2088	-0.123597205
85	0x3bd4fad8	0.0064996295
86	0xbe0f7dc6	-0.14012823
87	0xbf806414	-1.0030541
88	0x3cddb77e	0.027065035
89	0x3e1046b8	0.14089477
90	0x3cbf96aa	0.023387272
91	0xbe1a4872	-0.15066698
92	0xbe786728	-0.24258101
93	0x3e496fd9	0.19671573
94	0xbe9a45be	-0.30131334
95	0x3e0fdae3	0.14048342
96	0x3d931ac2	0.07182838
97	0x3ec7aafb	0.38997635
98	0xbe13df6c	-0.14440697
99	0xbef06d81	-0.46958545

param_encoder.2.bias f4 [10]
0	0xbb1ad2b3	-0.0023624122
1	0x3ca41d46	0.02003349
2	0xbeb07815	-0.34466615
3	0xbf115db6	-0.56783617
4	0xbe1078c3	-0.14108567
5	0x3e238143	0.15967278
6	0x3e1d2a19	0.1534809
7	0xbea091e5	-0.3136131
8	0x3dfa4d2d	0.12221751
9	0x3e9c1f37	0.30492565

param_encoder.4.weight f4 [10, 10]
0	0xbdf5fac3	-0.120107196
1	0x3c6b023e	0.014343796
2	0x3eea83fb	0.45803818
3	0xbe313c54	-0.1730817
4	0xbbb1a2e9	-0.0054210317
5	0x3f064bfc	0.5245969
6	0xbe0d8cb4	-0.13823205
7	0xbeb46de8	-0.35240102
8	0xbf03afb0	-0.5143995
9	0x3e6f1048	0.23346055
10	0xbcfbb566	-0.030726146
11	0x3e64dd6d	0.22350092
12	0xbe57ed14	-0.21086532
13	0x3ad55dff	0.0016278623
14	0x3d31a8dc	0.043373927
15	0x3e92e93f	0.28693578
16	0xbe330aec	-0.17484635
17	0xbe769e03	-0.24083714
18	0xbe993653	-0.2992426
19	0xbd37bbd2	-0.044856854
20	0x3ddde66d	0.10834966
21	0xbefef256	-0.49794263
22	0x3ddadc9d	0.1068661
23	0xbf0ccc41	-0.54999167
24	0x3c9206e1	0.017825546
25	0xbdd5e17f	-0.104434006
26	0x3f167859	0.58777386
27	0xbec69cc3	-0.38791475
28	0xbea95798	-0.3307464
29	0x3eaf0bb4	0.34188616
30	0xbe049b0a	-0.12949768
31	0xbd08b2c9	-0.033373628
32	0xbdac9ccf	-0.08428346
33	0x3ea8c38d	0.32961693
34	0xbeb89a81	-0.36055377
35	0x3d90c0af	0.070680015
36	0xbe31fe01	-0.17382051
37	0xbe8003ee	-0.25002998
38	0x3e208ed3	0.15679483
39	0x3f1454ca	0.5794188
40	0xbf0eb10c	-0.557389
41	0x3e9dcfd6	0.3082263
42	0x3e543b6c	0.20725793
43	0xbe244250	-0.16040921
44	0xbe4bfeed	-0.19921465
45	0x3d2b8739	0.041877005
46	0x3ed806c3	0.4219266
47	0xbf35e5b1	-0.71053606
48	0x3dc53449	0.09629113
49	0xbbd3b1a5	-0.006460386
50	0xbe790312	-0.24317577
51	0xbd979162	-0.074007764
52	0x3e053fb1	0.13012578
53	0x3f16043a	0.586002
54	0x3d835771	0.064131625
55	0xbdefd272	-0.11710061
56	0x3e8a4b52	0.2701059
57	0xbee204ef	-0.4414439
58	0xbeeb09be	-0.4590587
59	0x3f351a4a	0.7074324
60	0x3d03b07f	0.03215074
61	0xbdc9c519	-0.098520465
62	0xbcc10ec7	-0.023566617
63	0x3e2e91b3	0.17047767
64	0x3e6cbba1	0.2311845
65	0xbf2157a8	-0.6302438
66	0xbe3ee787	-0.18643008
67	0x3e805596	0.25065297
68	0xbd2c86d1	-0.04212076
69	0xbe83a05d	-0.25708285
70	0x3e3b7175	0.18304999
71	0xbe134fb2	-0.1438587
72	0x3ddc6bb8	0.10762733
73	0x3e2850ad	0.16437025
74	0x3e9ec342	0.31008345
75	0x3e10e03e	0.14148042
76	0xbe360433	-0.1777504
77	0xbe52b4e4	-0.20576817
78	0xbe719db3	-0.23595314
79	0x3ef4f293	0.4784132
80	0x3f0c0c41	0.547062
81	0xbc4fc74d	-0.012681794
82	0x3f079c21	0.5297261
83	0x3e765bde	0.24058482
84	0x3ec3d42d	0.38247815
85	0xbf0fc185	-0.5615466
86	0x3d43eaf2	0.047831483
87	0x3e2f33b0	0.17109561
88	0xbebb61f2	-0.36598164
89	0x3d9c7c84	0.07640937
90	0x3f2e602f	0.68115515
91	0xbf59537b	-0.84893006
92	0x3e52a72e	0.20571586
93	0x3ea732bc	0.32655895
94	0x3e6163fd	0.22010799
95	0xbdcecf3f	-0.10098123
96	0x3f082e70	0.5319586
97	0x3ed0ec1d	0.4080514
98	0xbebd5855	-0.36981454
99	0x3f124d74	0.57149434

param_encoder.4.bias f4 [10]
0	0x3e7cd60b	0.24691026
1	0x3e45c842	0.19314674
2	0x3d1faee8	0.038985163
3	0xbe70c3cc	-0.2351219
4	0xbe07f575	-0.13277228
5	0xbdfa322f	-0.12216603
6	0xbcb4d97d	-0.022076363
7	0x3eb5f676	0.35539597
8	0xbd3b7ac5	-0.04577138
9	0xbe137947	-0.14401732

param_encoder.6.weight f4 [10, 10]
0	0xbe0f851f	-0.14015625
1	0xbe1cdec0	-0.15319347
2	0x3e60bc75	0.2194689
3	0xbdcc1d14	-0.09966484
4	0x3d8cb96a	0.068713024
5	0xbe382f6f	-0.17986844
6	0x3d34e9b6	0.044168197
7	0xbf21202a	-0.62939703
8	0x3c01a7b9	0.007913523
9	0xbdd6efce	-0.10494958
10	0x3d254e17	0.040357675
11	0x3e1f7b70	0.15574431
12	0x3eb15a4f	0.34639212
13	0xbe422287	-0.18958484
14	0x3e83c6ed	0.25737706
15	0xbe26b4d1	-0.16279913
16	0x3ddab405	0.10678867
17	0x3eaa3838	0.33246017
18	0x3e936520	0.2878809
19	0x3e2762b3	0.16346245
20	0xbebb03d9	-0.36526373
21	0xbf30a6d5	-0.69004565
22	0xbd83f25f	-0.06442713
23	0x3f1b052a	0.60554755
24	0xbefcd801	-0.49383548
25	0x3e23d914	0.16000777
26	0x3eb78878	0.35846305
27	0xbdcd687a	-0.10029693
28	0x3e9f8a46	0.31160182
29	0x3f162109	0.5864416
30	0xbcbdfadf	-0.023190914
31	0x3e19a20b	0.1500322
32	0x3db19eaa	0.08672841
33	0x3e5c69f0	0.21524787
34	0xbda17532	-0.07883681
35	0x3e320421	0.17384388
36	0xbeba4404	-0.36380017
37	0x3e4e25d4	0.20131618
38	0xbf000cbb	-0.50019425
39	0xbe004760	-0.12527227
40	0x3e3c759f	0.18404244
41	0x3f0ff33f	0.5623054
42	0x3d4f3994	0.05059202
43	0x3f3bed8e	0.73409355
44	0x3f1fb0d5	0.623792
45	0x3ef5e870	0.48028898
46	0xbe5c2401	-0.2149811
47	0xbe095a09	-0.13413252
48	0xbeb65f3c	-0.35619533
49	0xbef901c6	-0.48634166
50	0xbeaf5647	-0.34245512
51	0xbe51d743	-0.20492272
52	0x3f099742	0.53746426
53	0x3f01528c	0.5051658
54	0x3e34fe32	0.17675093
55	0x3e805bbf	0.25069997
56	0xbdab86a1	-0.08375288
57	0xbe84ebf4	-0.25961268
58	0x3da47e4a	0.080319
59	0xbd7594f2	-0.0599565
60	0xbf20259e	-0.625574
61	0xbed087f5	-0.40728727
62	0xbe68b53e	-0.22725388
63	0xbe13a587	-0.14418612
64	0x3eac1020	0.33606052
65	0xbf17c74e	-0.5928849
66	0xbe1755c4	-0.1477881
67	0xbf30289c	-0.68811965
68	0xbf4da0cf	-0.803235
69	0xbecbac24	-0.3977977
70	0xbe063aa6	-0.1310831
71	0xbece2202	-0.4026032
72	0x3d622913	0.055214953
73	0xbd9754f7	-0.07389253
74	0xbec0cfb5	-0.37658468
75	0xbe3eb46d	-0.18623514
76	0x3ea4dcc8	0.32199693
77	0xbdde9400	-0.108680725
78	0x3ec07d13	0.37595424
79	0x3e778223	0.24170737
80	0x3ea8f7ad	0.33001462
81	0xbe6e23d3	-0.23255853
82	0x3ef13045	0.4710714
83	0x3e51c774	0.20486242
84	0x3d744af3	0.05964179
85	0x3e205998	0.15659177
86	0xbeacd03e	-0.33752626
87	0x3ef2b2d2	0.47402054
88	0x3b4afeb0	0.003097456
89	0x3e807b89	0.2509425
90	0xbe67f787	-0.22653018
91	0xbe8186cb	-0.2529815
92	0xbeda9c18	-0.42697215
93	0xbdda30d9	-0.10653848
94	0x3e4c530d	0.19953556
95	0xbdfd530a	-0.12369354
96	0x3e85ba88	0.26118875
97	0xbea57c43	-0.32321367
98	0xbe3d3dbe	-0.18480584
99	0xbec58acf	-0.38582465

param_encoder.6.bias f4 [10]
0	0xbdda4094	-0.106568485
1	0x3e77a340	0.24183369
2	0x3c8276d2	0.015925799
3	0x3ef887c8	0.48541093
4	0xbe8875a0	-0.2665224
5	0x3ead2cca	0.33823234
6	0x3cb9274c	0.022601746
7	0xbe861045	-0.26184288
8	0x3e7f7def	0.24950384
9	0xbd8b0109	-0.06787307

coord_encoder.0.weight f4 [10, 1]
0	0xbf42ef0a	-0.76145995
1	0xbf7dbf8d	-0.9912041
2	0xbf43a430	-0.76422405
3	0x3f71bcfd	0.94429
4	0xbf2d13e7	-0.67608494
5	0xbf0cbd72	-0.5497657
6	0xbec0ab7c	-0.37630832
7	0xbf84dec2	-1.038048
8	0x3f827c76	1.0194232
9	0x3f5c6f8f	0.86107725

coord_encoder.0.bias f4 [10]
0	0xbf0274c4	-0.5095942
1	0xbd8a9446	-0.06766562
2	0x3da2f984	0.079577476
3	0xbf64eac8	-0.8942075
4	0x3f6151aa	0.88015234
5	0x3f18584d	0.59509736
6	0x3e721b0b	0.23643129
7	0xbf3dfa1c	-0.7420976
8	0xbf68c8ed	-0.9093159
9	0x3a6aade0	0.0008952301

coord_encoder.2.weight f4 [10, 10]
0	0x3cb82b1e	0.022481497
1	0xbeb51c89	-0.35373333
2	0xbcfa4201	-0.030549051
3	0xbc7f278a	-0.015573392
4	0xbe52408f	-0.2053244
5	0xbcb3b728	-0.021937922
6	0xbda08229	-0.07837326
7	0xbe985637	-0.29753277
8	0x3dfab016	0.12240617
9	0x3ed5647d	0.4167823
10	0x3e21346f	0.15742658
11	0x3cddab92	0.02705935
12	0xbde01156	-0.109408066
13	0x3eabdef2	0.3356853
14	0x3e681738	0.22665107
15	0xbc8d531b	-0.017251542
16	0x3e4b049e	0.1982598
17	0x3e5be21f	0.21472977
18	0x3e6bde0b	0.23033921
19	0xbe538cbf	-0.20659159
20	0x3e0c359d	0.13692327
21	0x3e22a93d	0.15884872
22	0x3e7c7d88	0.24657261
23	0xbe3e2143	-0.18567376
24	0x3e8a9551	0.27067044
25	0x3d26217f	0.040559288
26	0x3c7499f6	0.014929285
27	0xbe151216	-0.1455768
28	0xbec188f7	-0.37799808
29	0xbede5527	-0.4342434
30	0x3eb0b1b4	0.34510577
31	0x3ea7a524	0.3274318
32	0x3decdd0e	0.115656
33	0xbe2b65a2	-0.16737989
34	0x3e137b75	0.14402564
35	0x3da7db77	0.081961565
36	0x3e0b1784	0.13583189
37	0xbe2f238e	-0.17103407
38	0xbd21388c	-0.039360568
39	0xbefa43ba	-0.48879796
40	0xbeeb39f5	-0.45942655
41	0x3ddaf243	0.10690739
42	0xbe87f760	-0.2655592
43	0xbe644550	-0.22292066
44	0x3ebec073	0.37256202
45	0x3dff657c	0.124705285
46	0xbe07c34e	-0.13258097
47	0xbe2bfa20	-0.16794634
48	0xbeb0c3d1	-0.34524396
49	0x3e7d0389	0.2470838
50	0xbe80eb48	-0.25179505
51	0xbeb7d9f5	-0.35908476
52	0xbe9792b1	-0.29604104
53	0x3ed21255	0.4102961
54	0xbcc58119	-0.02410941
55	0xbe342e73	-0.17595844
56	0xbed26ce4	-0.41098702
57	0xbd95b420	-0.07309747
58	0x3ec3838e	0.38186306
59	0x3eaa8f60	0.3331251
60	0x3ed4e45b	0.4158047
61	0x3ed7a3c5	0.42117134
62	0x3d460aaf	0.048350032
63	0x3e1d2057	0.15344368
64	0x3d1a930d	0.037737895
65	0x3e77dacd	0.2420456
66	0x3e8b29c8	0.27180314
67	0x3e743218	0.23847234
68	0x3e414986	0.18875703
69	0xbd53235f	-0.051547404
70	0x3cb68fbf	0.02228534
71	0x3e992781	0.29912952
72	0x3ea93135	0.33045354
73	0xbc20e619	-0.009820485
74	0x3ea3b925	0.31977192
75	0x3e7a8aff	0.24467085
76	0xbcf9828a	-0.030457754
77	0x3e83b717	0.25725624
78	0xbeb12653	-0.34599552
79	0xbe76ca1a	-0.24100533
80	0x3daf527a	0.08560653
81	0x3e12616b	0.14294975
82	0xbd4c127b	-0.04982231
83	0xbf10860a	-0.5645453
84	0x3e8a568d	0.27019158
85	0x3ea44261	0.32081893
86	0x3f0bb4a3	0.54572505
87	0xbe004906	-0.12527856
88	0xbef73fe3	-0.4829093
89	0xbea18bc1	-0.31551936
90	0xbe94a295	-0.2903029
91	0xbe223d47	-0.15843688
92	0xbee0a9b1	-0.43879464
93	0x3e5a4db1	0.213187
94	0x3e835706	0.2565233
95	0x3eb4ad0a	0.35288268
96	0x3de9e2c4	0.11420205
97	0xbc6b94d0	-0.014378741
98	0xbdb35cbb	-0.08757921
99	0x3e5a05f8	0.2129134

coord_encoder.2.bias f4 [10]
0	0x3e5fc801	0.21853639
1	0xbd0f84e5	-0.035038847
2	0x3e69d75f	0.22836064
3	0x3e1963f9	0.14979543
4	0x3e3cbf3c	0.18432325
5	0xbc093a64	-0.008375738
6	0x3cb85394	0.02250079
7	0xbeb68024	-0.3564464
8	0x3e7fc57c	0.24977678
9	0x3d5cc54b	0.05389909

coord_encoder.4.weight f4 [10, 10]
0	0x3e3de2af	0.18543504
1	0xbe5a4a32	-0.21317366
2	0xbebb83c1	-0.36623958
3	0xbedcc378	-0.4311788
4	0x3e4a0749	0.19729342
5	0x3ecf5354	0.40493262
6	0xbe9a4d49	-0.3013709
7	0xbe429a29	-0.1900412
8	0xbd909b98	-0.07060927
9	0xbe64db4f	-0.22349285
10	0xbefccd62	-0.49375445
11	0x3e57bfd5	0.21069272
12	0x3e3ec4f9	0.18629827
13	0x3e8bde7f	0.2731819
14	0x3dbe2fe2	0.09286477
15	0xbe17d942	-0.14828971
16	0x3e40a2eb	0.18812148
17	0x3e9ecd18	0.3101585
18	0xbded00b9	-0.115724035
19	0xbe9de7ed	-0.30841008
20	0x3df66328	0.12030631
21	0x3d2f2693	0.042761397
22	0xbe4ced0b	-0.200123
23	0xbe5ef3d2	-0.21772698
24	0x3eb8471c	0.35991752
25	0x3ecd7b9a	0.40133363
26	0xbc1d947c	-0.009617921
27	0xbe359647	-0.17733108
28	0xbe4a5090	-0.19757295
29	0x3e9cc041	0.30615428
30	0x3cc1c33d	0.023652667
31	0x3e80e5cf	0.2517533
32	0xbede114b	-0.43372568
33	0xbe0928a9	-0.13394417
34	0xbe622b00	-0.22086716
35	0x3ea13aa8	0.31490064
36	0xbd14dd33	-0.036343765
37	0xbed86e41	-0.42271617
38	0xbf153633	-0.58285826
39	0x3e13fb21	0.14451267
40	0x3ebdf536	0.37101144
41	0x3d82a590	0.06379235
42	0xbec6d998	-0.38837886
43	0x3dbd6a22	0.09248759
44	0x3e00c52a	0.12575212
45	0x3da90e3d	0.08254669
46	0xbe2cd10f	-0.16876625
47	0xbed09d16	-0.40744847
48	0xbe192fb8	-0.1495961
49	0x3e9fcd3e	0.31211275
50	0x3eaeb117	0.34119484
51	0x3e04008c	0.12890834
52	0xbee64f15	-0.4498221
53	0xbebf17f1	-0.37322953
54	0x3e293205	0.16522987
55	0x3f03d786	0.5150074
56	0xbe28f071	-0.16497971
57	0xbe687906	-0.22702417
58	0xbf25f23f	-0.64822763
59	0xbe052925	-0.13003977
60	0x3d9efba6	0.07762842
61	0xbec0736b	-0.37588057
62	0x3f04473f	0.5167121
63	0x3f0a00ca	0.53907454
64	0x3ed003af	0.4062781
65	0xbe5f12ba	-0.21784487
66	0x3e16161f	0.14656876
67	0x3de4f1fe	0.11178969
68	0x3f34b9be	0.7059592
69	0x3ee6afdd	0.45056048
70	0x3e99ce19	0.30040053
71	0xbec866e2	-0.39140993
72	0x3e74e4f8	0.2391547
73	0x3e0ead45	0.13933285
74	0x3e7bc0eb	0.24585311
75	0x3d87377d	0.066023804
76	0xbeb69e6c	-0.3566774
77	0xbd73f7f2	-0.05956263
78	0x3e156933	0.14590912
79	0xbc18dec1	-0.009330452
80	0x3f19c399	0.60064083
81	0xbd5f702c	-0.054550335
82	0xbddc2b13	-0.10750403
83	0xbec16586	-0.3777277
84	0x3eb72c7f	0.35776135
85	0x3e27d01f	0.16387986
86	0xbf2619d3	-0.64883155
87	0xbf3e35b9	-0.74300724
88	0x3e104944	0.14090449
89	0x3e7819d8	0.24228609
90	0xbe8963a7	-0.2683384
91	0x3e887c37	0.26657268
92	0xbe02510c	-0.1272623
93	0x3e8bf6ef	0.27336833
94	0xbe32213b	-0.17395489
95	0xbe9490fa	-0.29016858
96	0x3e25bd77	0.16185556
97	0x3ef82be8	0.48470998
98	0x3e82f3b6	0.25576562
99	0xbe51b919	-0.20480765

coord_encoder.4.bias f4 [10]
0	0xbe3fe72e	-0.18740532
1	0xbe9af005	-0.30261245
2	0x3ceed733	0.02915535
3	0xbdfe26db	-0.12409755
4	0xbd90363f	-0.070415966
5	0x3e5c625f	0.215219
6	0x3ef6bf4f	0.48192832
7	0xbe3d480e	-0.18484518
8	0xbb30fb58	-0.0027005281
9	0xbe1a8f0a	-0.15093628

decoder.0.weight f4 [20, 20]
0	0x3dbb91c6	0.091586635
1	0x3e965e0b	0.29368624
2	0xbdf0a4d0	-0.117501855
3	0x3e9b5529	0.3033841
4	0x3dd545c8	0.104137
5	0x3e93575e	0.28777593
6	0xbbdc088a	-0.006714885
7	0xbe647918	-0.22311819
8	0xbc86b0d3	-0.016441738
9	0x3d5a6d4c	0.05332689
10	0x3e96c5ac	0.29447687
11	0xbd8c3f77	-0.068480425
12	0x3e1e1687	0.15438281
13	0x3e63ad42	0.22234061
14	0x3ea6613f	0.32496068
15	0x3ed6f50f	0.4198384
16	0xbed847fa	-0.42242414
17	0xbcd32b04	-0.025777347
18	0x3eda49aa	0.42634326
19	0xbe9e5b0b	-0.30928835
20	0x3ea6e9f3	0.32600364
21	0xba67d2a1	-0.0008843337
22	0x3f1fa7c1	0.6236535
23	0xbec2a005	-0.3801271
24	0xbec83321	-0.39101508
25	0x3d0a6eec	0.03379719
26	0xbe94c455	-0.2905604
27	0x3f16dec9	0.58933693
28	0x3e1c32db	0.15253775
29	0xbe5ace49	-0.21367754
30	0xbe250f21	-0.16119052
31	0x3d72fe0a	0.0593243
32	0x3d9e9fdf	0.07745337
33	0xbe85483c	-0.26031673
34	0xbe21fef8	-0.15819919
35	0x3e338342	0.1753054
36	0x3e63bd0f	0.22240089
37	0xbe5cb297	-0.21552502
38	0xbe0a78b0	-0.13522601
39	0x3e507f94	0.20361167
40	0x3e3b1822	0.18270925
41	0xbe78cf7c	-0.24297899
42	0xbe6ac40f	-0.22926353
43	0x3e592cdf	0.21208523
44	0x3ca476de	0.020076212
45	0xbde73f1d	-0.11291335
46	0x3f035eb1	0.5131636
47	0xbcf71e34	-0.03016577
48	0xbc5556a5	-0.013021146
49	0x3e700a0c	0.23441333
50	0xbd81a19b	-0.06329652
51	0x3d0893ef	0.033344205
52	0x3e3752f4	0.17902738
53	0x3ef95952	0.48700958
54	0x3e16566b	0.14681403
55	0x3f0367b9	0.51330143
56	0xbf2a1e95	-0.66452914
57	0xbe6c2768	-0.23061907
58	0x3dfdafcb	0.123870455
59	0xbe553bf1	-0.20823647
60	0xbd6414f3	-0.05568404
61	0xbe071262	-0.13190606
62	0x3ea8433a	0.3286379
63	0xbe937a72	-0.28804356
64	0xbd64ed5b	-0.055890422
65	0xbe87fef2	-0.26561695
66	0xbe82a943	-0.2551976
67	0x3c8223c8	0.015886202
68	0xbed1faa3	-0.41011533
69	0x3e571be1	0.21006729
70	0xbe3d8b5e	-0.18510196
71	0x3e72e891	0.2372153
72	0xbe6718e9	-0.22568096
73	0xbe112380	-0.14173698
74	0xbe3657aa	-0.17806879
75	0xbe9219e6	-0.28535384
76	0xbdb13930	-0.08653486
77	0xbde4720d	-0.11154566
78	0xbe6e7082	-0.23285106
79	0xbbbf2487	-0.005833212
80	0x3e0365c9	0.12831797
81	0x3f524542	0.8213693
82	0xbcb83cc8	-0.02248992
83	0xbe80e32d	-0.2517332
84	0xbedefd28	-0.43552518
85	0xbc9f39f1	-0.019436808
86	0xbd9d417f	-0.07678508
87	0xbe4e2f1d	-0.2013516
88	0x3ea6b863	0.3256255
89	0xbea3eca3	-0.32016477
90	0x3e3ce60c	0.18447131
91	0xbee4c645	-0.44682518
92	0x3ea7014f	0.32618186
93	0x3e9c7969	0.3056138
94	0x3edb64a1	0.4285021
95	0x3ccbca74	0.02487681
96	0x3d65301a	0.055954076
97	0x3d8ea044	0.06964162
98	0x3f338b4a	0.70134413
99	0xbf10769d	-0.5643099
100	0xbe784304	-0.24244314
101	0x3ed145ee	0.40873665
102	0x3ebe8df2	0.3721767
103	0x3e1023cd	0.14076157
104	0xbeba5524	-0.36393082
105	0x3d635867	0.05550423
106	0xbec291c1	-0.38001826
107	0x3df591b9	0.11990685
108	0x3f01faca	0.507733
109	0xbefc15fb	-0.4923552
110	0xbed1f774	-0.41009104
111	0x3dc001d5	0.093753494
112	0x3d589b3b	0.052882414
113	0xbf09a4e7	-0.53767246
114	0xbe90e131	-0.28296807
115	0xbcacc59a	-0.021090318
116	0x3f1aff6a	0.6054598
117	0x3d3b68c6	0.045754217
118	0x3e09b150	0.13446546
119	0xbc5c564e	-0.013448311
120	0x3d959e65	0.07305602
121	0x3e054d8a	0.1301786
122	0xbe3e62c3	-0.18592362
123	0x3ec47415	0.38369814
124	0x3ddd7c56	0.10814731
125	0x3da67035	0.081268705
126	0x3d762b1d	0.06009971
127	0xbe9863d3	-0.2976366
128	0x3e31355d	0.17305513
129	0xbeda9736	-0.4269349
130	0xbec2d627	-0.3805401
131	0x3e11cd42	0.14238456
132	0xbe6f08f4	-0.23343259
133	0xbdc5bb62	-0.09654881
134	0xbd9ee5cb	-0.07758673
135	0xbc9650f2	-0.018349145
136	0x3e8b94f6	0.27262086
137	0xbe8be700	-0.27324677
138	0xbdc4faa8	-0.096181214
139	0x3ea64cf1	0.32480577
140	0xbe487907	-0.19577418
141	0x3da320bc	0.07965228
142	0x3e358826	0.17727718
143	0x3daa3f98	0.08312911
144	0x3eb98ddb	0.3624104
145	0x3ebdd3a8	0.37075543
146	0x3d198e13	0.03748901
147	0xbe80a02c	-0.251222
148	0x3ded8f06	0.11599545
149	0xbea26fc2	-0.3172589
150	0x3e7d9b2d	0.24766226
151	0xbe4c3797	-0.19943081
152	0x3e881ea6	0.26585883
153	0x3d9c83f7	0.07642358
154	0x3e8e24a8	0.27762341
155	0x3e28e8d3	0.16495065
156	0x38a97582	8.0804355e-05
157	0x3dc43716	0.09580819
158	0x3e9d9e68	0.30784917
159	0xbecf9ff3	-0.4055172
160	0x3e6194b5	0.22029383
161	0x3e425502	0.1897774
162	0xbe63bf40	-0.22240925
163	0x3d90afce	0.07064782
164	0x3b7f3891	0.0038943628
165	0x3e933a22	0.2875529
166	0xbc92bfb5	-0.017913679
167	0xbdbd49b7	-0.092425756
168	0x3b59c3ce	0.003322828
169	0x3e562fc2	0.20916656
170	0xbcedf1bb	-0.02904593
171	0x3e67a0cd	0.22619934
172	0xbdbf9b8b	-0.09355839
173	0xbdc9b842	-0.098495975
174	0xbc97f5e3	-0.018549865
175	0x3d78b6d8	0.06072125
176	0x3e1f4cde	0.15556666
177	0xbdeefb25	-0.11668996
178	0xbe877522	-0.26456553
179	0xbdc585fe	-0.096446976
180	0xbea805c3	-0.32816896
181	0x3e80094f	0.25007102
182	0xbaa9e205	-0.0012961036
183	0xbb8cb0c2	-0.004293532
184	0x3eaee469	0.34158638
185	0xbd8dcbda	-0.06923647
186	0xbde8d568	-0.11368829
187	0x3d983cff	0.07433509
188	0x3e55bdee	0.20873234
189	0xbe0ac8d2	-0.1355317
190	0xbccdb4cf	-0.02511063
191	0x3e132f5c	0.14373535
192	0x3cab2436	0.02089129
193	0xbe14add5	-0.14519437
194	0x3e4088bf	0.18802164
195	0x3dcd3f45	0.10021833
196	0xbc242d31	-0.01002054
197	0x3e781976	0.24228463
198	0x3e00ffc7	0.12597571
199	0xbe4e2a20	-0.20133257
200	0x3e64169d	0.22274251
201	0x3e00a6e4	0.12563664
202	0xbe857bc9	-0.26071003
203	0xbd0c94c6	-0.03432157
204	0x3e6c0dfd	0.23052211
205	0x3dc1757a	0.09446235
206	0xbe3f1b48	-0.1866275
207	0x3e4da4e2	0.20082429
208	0x3e35d8ee	0.17758533
209	0xbdc764bc	-0.097360104
210	0x3e8cc1bb	0.27491555
211	0xbe9d6b03	-0.30745706
212	0x3d896261	0.067082174
213	0xbd7fc447	-0.062443044
214	0x3d186781	0.037208084
215	0x3dd8ade6	0.105800435
216	0x3d797424	0.060901776
217	0x3e4c6651	0.19960906
218	0x3df7dd8b	0.12102803
219	0xbeb3ba17	-0.35102913
220	0x3e16abed	0.14714022
221	0xbdaf1d53	-0.08550515
222	0x3e3b03f1	0.18263222
223	0xbe75760a	-0.2397081
224	0xbe7a32b2	-0.24433401
225	0x3ded5807	0.115890555
226	0xbd8af1d0	-0.06784403
227	0x3e5d006e	0.21582195
228	0x3e33bcab	0.1755244
229	0x3d31c7cf	0.043403443
230	0xbe0078e4	-0.12546116
231	0xbda911cb	-0.08255347
232	0x3e342f57	0.17596184
233	0x3e39f39f	0.1815934
234	0x3dd9d6e2	0.10636689
235	0x3e063045	0.13104351
236	0xbe093ed6	-0.13402876
237	0x3d9a188b	0.075242124
238	0xbe44ef86	-0.19231996
239	0x3df32875	0.11872951
240	0xbe5b7763	-0.21432261
241	0xbe8d2ee4	-0.27574837
242	0xbb15209f	-0.002275504
243	0xbc4e50ef	-0.012592538
244	0xbd037730	-0.032096088
245	0x3e316d63	0.17326884
246	0xbea2e5ae	-0.31815857
247	0xbe3058cb	-0.17221372
248	0x3defbb6c	0.1170567
249	0xbe3f675a	-0.18691769
250	0xbec3bbc6	-0.38229197
251	0x3e990bb6	0.29891747
252	0xbd3a220e	-0.045442633
253	0xbdd7dcd9	-0.1054017
254	0xbe66aba9	-0.2252642
255	0xbeab820d	-0.33497658

decoder.0.bias f4 [20]
0	0x3e80478f	0.25054595
1	0x3c1a40fa	0.009414906
2	0xbe502787	-0.20327578
3	0xbeb0d8e1	-0.34540465
4	0x3df605a3	0.12012794
5	0x3d518b71	0.051158372
6	0xbd97740c	-0.07395181
7	0x3ea65e3c	0.3249377
8	0xbe19ce4d	-0.15020104
9	0x3e8fd572	0.28092533
10	0x3e7e7dfa	0.24852744
11	0x3d939d5e	0.0720775
12	0x3c8c2eee	0.017112222
13	0xbdb4a5ae	-0.088206634
14	0x3e36a0b1	0.17834736
15	0x3db0a764	0.08625677
16	0xbdd900e5	-0.10595874
17	0x3e97a447	0.2961752
18	0x3dc112ae	0.09427391
19	0xbe02bea9	-0.12768044

decoder.2.weight f4 [20, 20]
0	0xbe03d1a2	-0.12872937
1	0x3e968299	0.29396513
2	0x3ea09882	0.31366354
3	0x3e986bbe	0.297697
4	0xbd836157	-0.064150505
5	0x3e6a46ca	0.22878566
6	0x3c4333c1	0.011914195
7	0xbed78a01	-0.42097476
8	0xbe333a51	-0.17502715
9	0xbe909917	-0.28241798
10	0xbe479241	-0.19489385
11	0x3d3278e2	0.043572314
12	0x3d70f6cd	0.058829118
13	0xbdd174a3	-0.10227325
14	0xbed285b2	-0.41117626
15	0xbe3a45b1	-0.18190648
16	0x3ea47a4d	0.32124558
17	0x3cff47bd	0.031162137
18	0xbeb80e17	-0.3594825
19	0x3e0749de	0.13211772
20	0x3db018db	0.08598491
21	0x3e999f9b	0.30004582
22	0x3e09272f	0.13393854
23	0xbdf61351	-0.12015403
24	0xbe1ef3ce	-0.15522692
25	0x3e7b537d	0.24543567
26	0xbe1116b6	-0.1416882
27	0x3ca25875	0.01981757
28	0xbe444c99	-0.19169845
29	0x3cf2e24d	0.029648924
30	0x3dde0b27	0.10841971
31	0x3c1b7d8f	0.009490385
32	0x3e7ef3be	0.24897668
33	0x3e64bd11	0.22337748
34	0xbd1a1715	-0.03761967
35	0xbe0527a9	-0.1300341
36	0x3e1bc2b8	0.15210998
37	0xbe1c2466	-0.1524826
38	0x3d677f45	0.056517858
39	0xbdead9bb	-0.1146731
40	0x3e053e78	0.13012111
41	0xbdd76721	-0.10517717
42	0xbe818100	-0.25293732
43	0xbd9f3e2e	-0.07775532
44	0x3e1f4e67	0.15557252
45	0xbe8c2917	-0.273751
46	0x3de5dc1b	0.112236224
47	0xbdbc9fb0	-0.092101455
48	0x3d19471b	0.037421327
49	0x3c8bfed9	0.017089294
50	0xbe287b36	-0.16453251
51	0xbddb3c96	-0.10704915
52	0xbe0ee7ee	-0.13955662
53	0xbdcdb4b5	-0.10044233
54	0x3dbf5189	0.093417235
55	0xbaf7c015	-0.0018901849
56	0xbe07c697	-0.1325935
57	0x3e4fa49a	0.20277634
58	0x3e236be9	0.15959133
59	0xbe52be24	-0.20580345
60	0xbd7a9ca0	-0.061184525
61	0x3e2aaa88	0.16666615
62	0x3d92ffbe	0.07177685
63	0x3d591a94	0.053003863
64	0xbe459d1f	-0.19298218
65	0x3e2653ef	0.16242956
66	0xbdec4112	-0.11535849
67	0xbe10e0c4	-0.14148241
68	0xbd50ae9c	-0.05094777
69	0x3d21b561	0.039479617
70	0x3d3a2494	0.04544504
71	0xbe41bfdd	-0.18920846
72	0xbdea3eb5	-0.11437742
73	0xbd350c66	-0.044201277
74	0x3b365858	0.0027823653
75	0xbe8c6398	-0.27419734
76	0x3d3f72e6	0.046740435
77	0xbe32932e	-0.17438957
78	0xbe341005	-0.17584236
79	0x3ea258ff	0.31708524
80	0xbe1e6868	-0.15469515
81	0xbe4f1ea6	-0.20226535
82	0xbd81b888	-0.06334025
83	0xbe85c4b8	-0.26126647
84	0xbc98331b	-0.018579056
85	0xbe4ebffd	-0.20190425
86	0xbdb9db15	-0.0907499
87	0x3dde7852	0.10862793
88	0x3e99e9c3	0.3006116
89	0x3dce24b8	0.10065597
90	0xbd54cc64	-0.051952735
91	0xbd9e47a3	-0.07728507
92	0xbe260135	-0.16211398
93	0x3e888489	0.26663616
94	0xbce8b82d	-0.028408134
95	0x3dafb4f4	0.08579436
96	0xbe83cdbe	-0.25742906
97	0xbd746017	-0.05966195
98	0xbf1bad64	-0.6081145
99	0x3e1aead7	0.15128647
100	0x3e59a879	0.21255673
101	0xbe9bf488	-0.3046
102	0x3f39bb94	0.72551847
103	0x3d746cd4	0.0596741
104	0xbbb7ba82	-0.0056069503
105	0xbf43d587	-0.7649769
106	0xbeb2592e	-0.34833664
107	0xbd87c8a8	-0.06630069
108	0x3d5824c9	0.052769456
109	0xbea0ffda	-0.314452
110	0xbe59602f	-0.21228097
111	0x3d759505	0.05995657
112	0xbded6668	-0.11591798
113	0xbdadfde6	-0.08495693
114	0xbe8648f2	-0.26227528
115	0x3c92a05f	0.017898737
116	0x3f1084dd	0.56452733
117	0xbe2e988e	-0.17050382
118	0x3eb93236	0.3617112
119	0xbf018c47	-0.5060467
120	0x3ea7e30f	0.3279042
121	0xbdc56e72	-0.096402064
122	0x3e762fe8	0.24041712
123	0xbd5a2124	-0.05325426
124	0x3e72a044	0.23693949
125	0xbda70b9a	-0.0815651
126	0xbdeacc77	-0.1146478
127	0x3e8e07de	0.27740377
128	0xbce5d167	-0.028053952
129	0xbd7def98	-0.061996073
130	0x3db4f127	0.08835059
131	0x3e063575	0.1310633
132	0xbe56695e	-0.20938632
133	0x3e8513ed	0.25991765
134	0xbe28f76a	-0.16500631
135	0x3ea8da8a	0.32979232
136	0x3db1b864	0.08677748
137	0x3d580654	0.05274041
138	0x3ea26bea	0.31722957
139	0xbe8d80fe	-0.27637476
140	0xbd3b60a2	-0.045746453
141	0xbe907266	-0.2821228
142	0x3f1ca712	0.6119243
143	0xbe1b8a95	-0.15189584
144	0x3e0d2d4a	0.13786808
145	0xbe511d7c	-0.20421404
146	0x3dc3be4f	0.09557783
147	0xbd04ef34	-0.032454684
148	0x3d21a234	0.03946133
149	0x3e6fc0f8	0.23413455
150	0x3dd0eeec	0.10201821
151	0xbd37fc8a	-0.044918574
152	0xbd4b1275	-0.04957815
153	0x3daa7fda	0.08325167
154	0xbe214f8e	-0.15753004
155	0x3e119ba3	0.14219527
156	0x3e5bfcbe	0.21483132
157	0x3de9485a	0.11390753
158	0xbc9c716e	-0.019097056
159	0xbe9cfe79	-0.30662897
160	0x3d8fccb6	0.070214674
161	0xbe88ae4c	-0.26695478
162	0xbde4b7af	-0.11167847
163	0xbe055084	-0.13018996
164	0x3ead57e4	0.33856118
165	0xbebf2bbb	-0.3733805
166	0xbec6820a	-0.38771087
167	0x3cd46c67	0.025930597
168	0xbdee999c	-0.116503924
169	0x3d3c5a9b	0.045984846
170	0x3ebd494d	0.36969987
171	0x3dc7a4c4	0.097482234
172	0xbeaf1e48	-0.3420279
173	0x3db8904e	0.09011899
174	0x3e5c857b	0.21535294
175	0x3eb9bad0	0.3627534
176	0xbd860c8f	-0.06545364
177	0x3ed0a4ac	0.40750635
178	0x3e86dcb9	0.26340273
179	0xbea34878	-0.31891227
180	0xbe243a5a	-0.16037884
181	0x3d83cecf	0.0643593
182	0xbc8d53c8	-0.017251864
183	0x3dbecc3f	0.093163006
184	0xbe877b38	-0.26461196
185	0x3ea19e6f	0.31566188
186	0xbe010948	-0.12601197
187	0x3e107ae4	0.14109379
188	0x3e998826	0.29986686
189	0x3ded2254	0.11578813
190	0xbe0701f4	-0.13184339
191	0xbe8c14d0	-0.2735963
192	0x3e6ad657	0.22933327
193	0xbe680e02	-0.22661594
194	0xbe410c28	-0.18852293
195	0xbe36e3a7	-0.1786028
196	0xbe316c5e	-0.17326495
197	0xbbfa36c7	-0.0076359245
198	0x3e3fbb92	0.18723896
199	0x3e3543de	0.1770167
200	0xbd8c3ce4	-0.068475515
201	0xbd833e3e	-0.06408356
202	0xbdf9222f	-0.12164723
203	0xbdc92177	-0.09820836
204	0x3e64e7f0	0.22354102
205	0xbe739fc4	-0.23791414
206	0xbd61a868	-0.055092245
207	0xbcf810ba	-0.030281413
208	0x3ea21295	0.31654802
209	0xbc51f6ad	-0.01281516
210	0x3e84872c	0.25884378
211	0xbdf85228	-0.12125045
212	0xbe7bfba0	-0.24607706
213	0x3e0def47	0.13860808
214	0x3eaf2b90	0.34212923
215	0xbdf0ad8d	-0.11751852
216	0x3ddbac9d	0.10726283
217	0xbcb98dce	-0.022650626
218	0xbdf8087c	-0.12110993
219	0x3db9186e	0.09037863
220	0xbd91d918	-0.071214855
221	0xbf172fc0	-0.59057236
222	0xbe514781	-0.20437433
223	0xbe9338ef	-0.28754374
224	0x3d14cf4f	0.036330517
225	0xbd6890fd	-0.056778897
226	0xbc5836ae	-0.01319663
227	0x3e2613b9	0.16218461
228	0x3e49e65f	0.19716786
229	0xbe1cfbdc	-0.15330452
230	0xbd11a0b9	-0.035553668
231	0xbeecd456	-0.4625575
232	0x3db17f90	0.08666909
233	0x3f0627d5	0.5240453
234	0x3e9ed505	0.31021896
235	0x3d83f544	0.06443265
236	0x3ee2a630	0.44267416
237	0x3e7cd1f9	0.24689473
238	0xbf59fece	-0.85154426
239	0x3f38ad71	0.7213965
240	0x3d3557fa	0.044273354
241	0x3d8b31f8	0.0679664
242	0xbe614846	-0.22000226
243	0xbc634b3a	-0.013872916
244	0xbe34aae2	-0.17643312
245	0xbe2c5d7f	-0.16832541
246	0xbe3fc2ff	-0.18726729
247	0x3e6557be	0.22396752
248	0xbe334902	-0.17508319
249	0x3d09f74c	0.033683106
250	0xbe2e725e	-0.17035815
251	0x3e07c65e	0.13259265
252	0x3d423665	0.047415156
253	0xbd0063f4	-0.031345323
254	0x3dde9d75	0.10869876
255	0x3e81a46a	0.2532075

decoder.2.bias f4 [20]
0	0xbe5f6df5	-0.21819289
1	0xbe47bbe9	-0.19505276
2	0x3da8eb2e	0.08247982
3	0xbe019354	-0.12653857
4	0x3e6f6011	0.2337649
5	0x3d10b3f4	0.035327867
6	0xbdc0aa4a	-0.0940748
7	0x3d72b7c6	0.05925729
8	0xbc073db2	-0.008254455
9	0xbe7928a7	-0.24331914
10	0x3d071d9d	0.032987226
11	0xbbe33ef7	-0.006934996
12	0x3e49a62a	0.19692293
13	0xbe11f5e5	-0.14253958
14	0x3d8f8b9e	0.07009052
15	0xbd7fe583	-0.06247474
16	0x3cb98ebf	0.022651074
17	0x3e4bc691	0.19899966
18	0x3d4807e0	0.048835635
19	0xbda6a852	-0.08137573

decoder.4.weight f4 [20, 20]
0	0xbdca2e5a	-0.09872122
1	0x3e1371c5	0.14398868
2	0xbd6aec72	-0.057354398
3	0x3dc3c268	0.095585644
4	0x3e476c84	0.19474989
5	0xbe3bf3f3	-0.18354778
6	0xbd472521	-0.048619393
7	0x3e27ca71	0.16385819
8	0x3ea08a62	0.31355578
9	0x3e467bdd	0.19383188
10	0xbda2d448	-0.07950646
11	0xba30f9dc	-0.0006751099
12	0xbe1469e2	-0.14493516
13	0x3d4edede	0.05050551
14	0xba1b5ffd	-0.0005927084
15	0x3e85a7f2	0.26104695
16	0x3e89cf15	0.26915804
17	0xbe32d27e	-0.17463109
18	0x3dd130ed	0.1021441
19	0xbe3e248c	-0.18568629
20	0x3e3032d3	0.17206888
21	0x3dc2d391	0.09513009
22	0x3e02c836	0.12771687
23	0x3e368d5f	0.17827366
24	0xbdf3421c	-0.11877844
25	0x3e4d3fb6	0.20043835
26	0x3d33a770	0.043860853
27	0xbe8eda6d	-0.2790102
28	0xbe1aa0dd	-0.15100427
29	0xbe5196ba	-0.20467654
30	0xbde4fb1e	-0.11180709
31	0xbdd62f93	-0.10458293
32	0xbb28997a	-0.0025726245
33	0xbe2e3437	-0.17012106
34	0x3d1ddb6b	0.03853933
35	0xbcb34a58	-0.021886036
36	0xbe1b6fe5	-0.15179403
37	0xbcfb25c1	-0.03065765
38	0xbe62f23c	-0.22162718
39	0xbd25c514	-0.04047115
40	0x3ea13c34	0.31491244
41	0xbe175eea	-0.147823
42	0x3e163c00	0.14671326
43	0xbd9e0a93	-0.077168606
44	0xbe10223c	-0.1407556
45	0x3e07eb9a	0.13273469
46	0xbe6be7bc	-0.23037618
47	0xbb564c31	-0.0032699222
48	0x3d42677a	0.047461964
49	0x3d81be35	0.06335107
50	0xbd70ccd6	-0.058789097
51	0xbe1c5b41	-0.15269186
52	0xbe2a8f3d	-0.16656204
53	0x3dda54c4	0.10660699
54	0x3e37b45c	0.17939895
55	0x3db56652	0.08857407
56	0xbe312368	-0.17298663
57	0x3dd4f7c4	0.1039882
58	0xbdf2d5e7	-0.11857205
59	0x3dd28931	0.102800734
60	0x3e2dc5b8	0.16969955
61	0xbe639f23	-0.22228675
62	0xbe4fc800	-0.20291138
63	0xbe517b0a	-0.20457092
64	0xbd7857c8	-0.06063059
65	0x3c90f061	0.017692747
66	0xbdf55b41	-0.11980296
67	0x3d6a93be	0.057269804
68	0xbe2fb564	-0.17159039
69	0xbdadd491	-0.084878094
70	0x3d8d9ae5	0.069143094
71	0xbe0c55d2	-0.13704613
72	0xbda0709e	-0.0783398
73	0xbe84bc0e	-0.25924724
74	0xbe7605c1	-0.24025632
75	0x3ad69dcf	0.0016373935
76	0xbe041f27	-0.12902509
77	0x3e2ef736	0.17086491
78	0xbdc7bccd	-0.09752808
79	0x3e244b27	0.16044293
80	0x3e8d1897	0.27557823
81	0xbde9d9bd	-0.114184834
82	0xbd4cd6ba	-0.050009467
83	0x3d9e3488	0.07724863
84	0xbe345dd6	-0.1761392
85	0x3e1ee611	0.15517451
86	0xbdbfa7d3	-0.09358182
87	0xbd1f65ae	-0.03891533
88	0xbe97a33d	-0.29616728
89	0x3e27a250	0.16370511
90	0xbe7f3e68	-0.2492615
91	0xbddd19a4	-0.10795906
92	0x3d0ab198	0.033860773
93	0xbe6660e8	-0.22497904
94	0x3dc44d15	0.09585015
95	0x3e6b5818	0.22982824
96	0xbd4cd8bb	-0.050011378
97	0x3dc15d55	0.0944163
98	0xbdb97b52	-0.090567246
99	0x3d13b8aa	0.03606478
100	0xbdbfe07d	-0.093689896
101	0x3d4dbbe5	0.05022802
102	0xbda932c9	-0.082616396
103	0xbd8bd226	-0.06827192
104	0x3e51b2f3	0.2047842
105	0x3daf72bd	0.085668065
106	0xbe348201	-0.17627718
107	0x3edd1007	0.4317629
108	0x3e85c17a	0.26124173
109	0xbd9bdffa	-0.076110795
110	0x3d63cecb	0.055617135
111	0x3e40d7e7	0.1883236
112	0xbe3b5e8a	-0.18297783
113	0x3e2b05f2	0.16701487
114	0x3dffc4fa	0.12488742
115	0xbd91df9e	-0.0712273
116	0xbdcfb50b	-0.10141953
117	0xbdd49be1	-0.10381294
118	0x3e315ff1	0.17321755
119	0x3d09ec4e	0.033672623
120	0x3d8f2f62	0.069914594
121	0xbd56a865	-0.052406687
122	0x3e295880	0.16537666
123	0x3d11f00f	0.03562933
124	0x3d357f90	0.044311106
125	0xbe7a8150	-0.24463391
126	0x3e75b233	0.23993759
127	0x3bc92ff1	0.0061397483
128	0xbdbbf408	-0.09177405
129	0xbe55aab2	-0.20865896
130	0xbd12d874	-0.035850957
131	0x3dd37a30	0.1032604
132	0x3e2bbd48	0.16771424
133	0xbe4ebfdb	-0.20190375
134	0x3d29962a	0.041402973
135	0xbd6cc2e5	-0.057803053
136	0x3a0052bb	0.00048951403
137	0xbcca0d44	-0.024664529
138	0x3da4834b	0.08032855
139	0xbe6c1b64	-0.23057324
140	0xbde71657	-0.11283558
141	0xbe302aea	-0.1720387
142	0x3e160a77	0.1465243
143	0x3e07c8f2	0.13260248
144	0x3db1f221	0.086887605
145	0xbdb0c113	-0.08630576
146	0xbe291665	-0.16512449
147	0x3e83c169	0.25733498
148	0x3d4aecca	0.049542226
149	0x3d0d788a	0.034538783
150	0x3d554fb2	0.052077956
151	0x3d4f31f4	0.05058475
152	0xbe27be14	-0.16381103
153	0x3e900120	0.28125858
154	0xbdf91c76	-0.121636316
155	0x3db5abea	0.08870681
156	0xbde04d6a	-0.109522656
157	0x3e411cee	0.18858692
158	0xbe09e188	-0.1346494
159	0x3e0b1b03	0.13584523
160	0x3d4c817a	0.049928166
161	0xbd960a7d	-0.07326219
162	0x3d8c3ae8	0.06847173
163	0xbe3e3ad3	-0.18577127
164	0xbe22b57b	-0.15889542
165	0x3d849d5a	0.06475325
166	0x3e69f379	0.22846784
167	0xbeb1b2bb	-0.34706673
168	0xbdc74223	-0.097294115
169	0xbe79a4f4	-0.24379331
170	0xbe1d99a1	-0.15390636
171	0x3d283d00	0.0410738
172	0xbde32730	-0.11091459
173	0x3e41e069	0.18933262
174	0x3e08f257	0.13373695
175	0xbe0fb865	-0.14035185
176	0x3dd6ae76	0.104824945
177	0x3e0014dd	0.12507959
178	0x3e42ddf0	0.19029975
179	0xbd1d9852	-0.038475342
180	0x3db2530b	0.087072454
181	0xbe0e48f9	-0.13895024
182	0xbdc0fab8	-0.09422821
183	0x3e64fe93	0.22362737
184	0x3e69b767	0.22823869
185	0xbec5b70e	-0.38616222
186	0x3e2ef14d	0.17084236
187	0xbecd7a9e	-0.40132612
188	0xbea3f485	-0.3202249
189	0x3e020ba8	0.12699759
190	0x3d3f25af	0.046666797
191	0xbc5e992e	-0.013586326
192	0x3e33e3ee	0.17567417
193	0xbe21c94e	-0.15799448
194	0x3e2b4dbb	0.1672887
195	0x3e042820	0.12905931
196	0xbe37fca8	-0.17967474
197	0x3dd10df1	0.10207737
198	0xbe6e1cfd	-0.23253246
199	0xbda55b07	-0.08074003
200	0x3eb98b7d	0.36239234
201	0x3e0bc139	0.13647927
202	0xbe2c43e3	-0.16822772
203	0x3e7136cd	0.23556061
204	0xbe9ef000	-0.3104248
205	0x3f26b7f2	0.6512443
206	0xbe2da770	-0.16958404
207	0x3e5779d5	0.21042569
208	0xbe807747	-0.25091
209	0x3df8370f	0.121198766
210	0xbe84648a	-0.25857955
211	0xbf14f83b	-0.5819127
212	0xbebb5e0f	-0.365952
213	0xbeb207a6	-0.3477146
214	0x3e12f67b	0.14351837
215	0x3d50dba5	0.05099072
216	0xbddd7764	-0.108137876
217	0xbe12854b	-0.1430866
218	0x3efc43d4	0.492705
219	0xbefa704c	-0.489138
220	0xbe64ca90	-0.22342896
221	0x3e001bfd	0.12510677
222	0xbe1a4882	-0.15066722
223	0x3d4e6ff5	0.05039974
224	0x3d4902d8	0.049074978
225	0x3e380d4a	0.1797382
226	0x3e0b9e21	0.1363454
227	0x3e44665d	0.19179673
228	0x3d66b9d3	0.05632956
229	0xbe615891	-0.22006442
230	0xbe13178d	-0.14364453
231	0xbdba4234	-0.090946585
232	0x3e06c610	0.13161492
233	0xbe1776b6	-0.14791378
234	0xbdb7f518	-0.08982295
235	0xbcc619e9	-0.024182277
236	0x3da4297f	0.08015727
237	0xbe0f5c06	-0.13999948
238	0x3e572b83	0.21012692
239	0x3c29988f	0.010351314
240	0x3ea08939	0.31354693
241	0xbe723576	-0.23653206
242	0x3d72e424	0.059299603
243	0x3d51029d	0.051027883
244	0x3de0d298	0.109776676
245	0xbe347195	-0.17621453
246	0xbc42efe6	-0.011898017
247	0xbdd6a1c8	-0.10480076
248	0xbe9b92cb	-0.30385432
249	0xbe66ec43	-0.22551064
250	0xbc905d37	-0.017622573
251	0x3db4b354	0.088232666
252	0xbe6a84b7	-0.22902189
253	0xbe139025	-0.14410456
254	0xbe247b8b	-0.16062753
255	0xbd0389ce	-0.032113843

decoder.4.bias f4 [20]
0	0xbcfdbfe4	-0.03097529
1	0xbd08c5de	-0.033391826
2	0xbded9d62	-0.11602284
3	0x3dd13f15	0.1021711
4	0x3e2d66e3	0.1693378
5	0x3e822459	0.25418356
6	0x3e31b187	0.17352878
7	0xbd62a5b6	-0.055333816
8	0xbe0dc90c	-0.13846225
9	0x3dcd9820	0.10038781
10	0xbcd2c4e3	-0.025728649
11	0xbd6e8d84	-0.05824043
12	0x3e222358	0.15833795
13	0xbe0e4ffb	-0.13897698
14	0xbddb5011	-0.10708631
15	0x3e48de38	0.1961602
16	0x3e56f22d	0.2099082
17	0xbe5ae6db	-0.21377127
18	0x3d94bec9	0.07262952
19	0x3e750dde	0.23931071

decoder.6.weight f4 [20, 20]
0	0xbd91c599	-0.07117767
1	0x3e3ea48c	0.18617457
2	0x3dafefe3	0.08590677
3	0x3dcd8cbd	0.10036609
4	0x3e56a300	0.20960617
5	0xbe302939	-0.17203225
6	0x3cad2aa6	0.0211385
7	0xbdec64fa	-0.11542697
8	0x3e98123b	0.2970141
9	0x3c1a4c15	0.009417553
10	0x3e54b746	0.20773038
11	0xbd312fd7	-0.043258514
12	0x3e8cc094	0.27490675
13	0xbe299324	-0.16560036
14	0xbd16598f	-0.036706503
15	0x3e3708ab	0.178744
16	0x3dadccbb	0.08486315
17	0x3d84a9c9	0.064776964
18	0x3e33c1d0	0.17554402
19	0xbce719ea	-0.028210599
20	0xbe2dbaa7	-0.16965733
21	0x3e160bae	0.14652893
22	0xbe80ba5b	-0.25142178
23	0x3dae4293	0.08508792
24	0x3e109593	0.14119558
25	0x3e3d9097	0.18512188
26	0x3e5963dc	0.212295
27	0xbe1edf8f	-0.15514968
28	0xbd732023	-0.05935682
29	0x3de6a958	0.112627685
30	0xbddcc57b	-0.10779854
31	0x3d031c0d	0.032009173
32	0x3e6f7a11	0.23386408
33	0x39037322	0.00012536024
34	0xbeaaca1e	-0.33357328
35	0x3e336a92	0.17521122
36	0xbdb2c982	-0.08729841
37	0xbe0df629	-0.13863434
38	0xbe3ee088	-0.1864034
39	0xbd357b07	-0.04430678
40	0xbdaf66f6	-0.0856456
41	0xbde24503	-0.11048319
42	0x3e18ae14	0.14910156
43	0xbbcfc412	-0.006340512
44	0x3db671db	0.08908435
45	0x3bad8944	0.0052959044
46	0x3e291ad5	0.16514142
47	0xbe3a3620	-0.1818471
48	0xbd99c3f0	-0.07508075
49	0xbe771e77	-0.24132715
50	0xbe0ed398	-0.13947904
51	0xbd8eea08	-0.06978232
52	0xbe814a7f	-0.25252149
53	0x3d092206	0.033479713
54	0xbe3b4c5e	-0.1829085
55	0xb8ef1c9f	-0.00011401739
56	0x3dbd70fb	0.09250065
57	0x3df50a64	0.119648725
58	0xbdf4d010	-0.11953747
59	0xbc1a2950	-0.009409264
60	0xbe0cc04c	-0.1374523
61	0xbe2a34d2	-0.16621712
62	0x3daa91ef	0.08328616
63	0x3e125c96	0.14293131
64	0x3e1b9a52	0.15195587
65	0xbc1e59e3	-0.009664985
66	0x3da50699	0.08057899
67	0x3de5a7a7	0.11213618
68	0x3d34d291	0.044146124
69	0x3e904b9c	0.28182685
70	0x3e2e7482	0.17036632
71	0xbe59f4e2	-0.21284822
72	0xba20b945	-0.0006131123
73	0xbe91fd84	-0.2851373
74	0xbea11099	-0.31457976
75	0x3e93d867	0.2887604
76	0xbd6a555d	-0.057210315
77	0xbdf9e098	-0.12201041
78	0xbe4e6a99	-0.20157851
79	0x3e60b590	0.2194426
80	0xbe02f75c	-0.12789673
81	0x3e822a3c	0.25422847
82	0x3e21fbde	0.15818736
83	0xbd1d3604	-0.03838159
84	0x3d693759	0.05693755
85	0x3dbc53fd	0.09195707
86	0x3e7c016e	0.2460992
87	0xbd2b6250	-0.041841805
88	0x3cb1454c	0.021639489
89	0x3ecd19e2	0.4005881
90	0x3e595fd2	0.21227959
91	0xbde84bed	-0.11342607
92	0x3e39eaf5	0.18156035
93	0xbe9e5998	-0.3092773
94	0x3bf8f65b	0.0075977272
95	0x3e240fb5	0.16021617
96	0xbd9584de	-0.07300733
97	0xbde6067e	-0.11231707
98	0x3e31b9e0	0.17356062
99	0x3ca646e6	0.020297479
100	0xbe8aa88e	-0.27081722
101	0x3e2c4fb8	0.16827285
102	0x3db3546c	0.087563366
103	0xbd5d757f	-0.05406713
104	0x3e5b3b0d	0.21409245
105	0xbe4a42ac	-0.19751996
106	0x3d651e71	0.055937234
107	0xbe13906b	-0.1441056
108	0xbd3ab97e	-0.045587055
109	0x3e8ab522	0.27091318
110	0x3e80ead2	0.25179154
111	0xbe2945ed	-0.16530581
112	0xbd76b2f7	-0.060229268
113	0xbe65aa7b	-0.22428314
114	0xbe6db301	-0.23212816
115	0x3d98c3ec	0.07459244
116	0x3e31667f	0.17324255
117	0x3d572e5c	0.052534446
118	0xbdee06ba	-0.11622377
119	0xbdb52d2c	-0.088465065
120	0x3d809fb6	0.062804624
121	0xbdb289dc	-0.08717701
122	0xbe4665ca	-0.19374767
123	0x3ca1db2c	0.01975783
124	0x3cceea94	0.02525834
125	0xbdd5a3eb	-0.104316555
126	0xbe0e7dd6	-0.1391519
127	0x3e2fd81c	0.17172283
128	0xbd499d54	-0.049222305
129	0xbe1514dc	-0.14558738
130	0xbdd4e594	-0.10395351
131	0x3e3393e0	0.17536879
132	0x3b605ce8	0.0034235064
133	0x3e6bf64a	0.2304317
134	0x3c8ddaaa	0.017316181
135	0xbe369735	-0.17831118
136	0x3e34d460	0.1765914
137	0xbdc3c0fc	-0.09558293
138	0x3e7313be	0.23738
139	0x3d3235bf	0.043508288
140	0xbd33c6f6	-0.043890916
141	0xbc6e8980	-0.01455915
142	0xbe613f00	-0.21996689
143	0xbe03f621	-0.1288686
144	0x3e236acb	0.15958707
145	0xbe6d6d7b	-0.23186295
146	0x3b1dce95	0.0024079431
147	0xbda8cf1a	-0.082426265
148	0x3e4d540a	0.2005159
149	0xbe24eba3	-0.16105513
150	0x3d0948de	0.033516757
151	0x3dff4e5b	0.12466117
152	0x3e05ffd0	0.13085866
153	0xbe4d67b8	-0.20059097
154	0x3e11c4da	0.14235249
155	0xbbbf3c06	-0.005836013
156	0x3e4f86ff	0.2026634
157	0x3e1397bb	0.1441335
158	0x3e16ea4f	0.14737819
159	0x3e17bd71	0.1481836
160	0x3dc58518	0.09644526
161	0xbdd88474	-0.105721384
162	0xbe4a7f1e	-0.19775054
163	0x3ddcebfc	0.10787198
164	0x3d1c3ffc	0.038146958
165	0xbdcbe744	-0.0995622
166	0xbe039c15	-0.1285251
167	0x3c213bba	0.0098409
168	0x3e9f121d	0.31068507
169	0x3e030579	0.12795056
170	0x3e5fbd96	0.21849665
171	0x3df4adf1	0.11947239
172	0x3e2bf9af	0.16794465
173	0xbe8e5b7d	-0.27804175
174	0xb9aa18bd	-0.00032443358
175	0x3e5d4ea8	0.21612036
176	0xbd87ce68	-0.06631166
177	0x3de854aa	0.113442734
178	0x3e3ae570	0.18251586
179	0xbd94d614	-0.07267395
180	0xbdc9d099	-0.0985424
181	0x3cc5176e	0.024059024
182	0x3e31d75d	0.17367311
183	0xbd33cf15	-0.04389866
184	0x3e0ae237	0.13562857
185	0xbd659b82	-0.056056507
186	0xbd7539cf	-0.059869584
187	0x3e4aff97	0.19824062
188	0xbe241aff	-0.16025923
189	0x3b199099	0.0023432134
190	0xbd885784	-0.06657317
191	0x3d6b175c	0.057395324
192	0xbe178fe1	-0.14800979
193	0x3e0ee44f	0.1395428
194	0x3e81fa06	0.25386065
195	0xbe81a172	-0.25318485
196	0xbe038bb3	-0.1284626
197	0x3db58970	0.08864105
198	0xbcf4cb9f	-0.02988225
199	0xbe11b089	-0.14227499
200	0xbe809e40	-0.25120735
201	0xbcb94755	-0.022617022
202	0x3e2da9e6	0.16959342
203	0xbdc2cbc5	-0.09511522
204	0x3e0273bb	0.1273946
205	0x3e504035	0.20336993
206	0x3e5c0e6a	0.21489874
207	0xbcb47b5d	-0.02203148
208	0x3daf4020	0.08557153
209	0x3ec57ca0	0.38571644
210	0x3e19dbbe	0.15025231
211	0xbe48f7b2	-0.19625738
212	0xbc89ef71	-0.016837807
213	0xbe4f2c24	-0.20231682
214	0xbe12cc80	-0.14335823
215	0xbbf3ca1c	-0.007439865
216	0x3d6799c7	0.056543138
217	0x3d47131b	0.048602205
218	0xbe237cfd	-0.15965648
219	0xbe078669	-0.13234867
220	0x3e1d702c	0.15374821
221	0xbe9ee5ef	-0.310348
222	0x3dc669d2	0.096881524
223	0x3b4b4e4a	0.0031022006
224	0xbe7314d9	-0.23738421
225	0x3c59fcbe	0.013304887
226	0x3e124557	0.14284264
227	0x3ccf745d	0.025324041
228	0xbd28d395	-0.041217405
229	0xbe9785d1	-0.2959428
230	0xbd8598e6	-0.06523304
231	0xbe9814f6	-0.29703492
232	0x3de4797d	0.111559846
233	0xbd96b675	-0.0735902
234	0xbd317b56	-0.043330513
235	0x3d0194d7	0.031636085
236	0xbcddd16b	-0.027077397
237	0x3d9d6712	0.07685675
238	0x3c160ee7	0.009158826
239	0xbd44a0f8	-0.048005074
240	0x3d569885	0.052391548
241	0x3e15d195	0.1463073
242	0x3dcd97be	0.10038708
243	0xbd6b570f	-0.057456072
244	0xbc5b913c	-0.013401326
245	0x3d950f35	0.07278291
246	0x3ca74a10	0.020421058
247	0x3c8cf04e	0.01720443
248	0xbe27b5b1	-0.16377904
249	0xbe6e73ce	-0.23286363
250	0xbe859009	-0.26086453
251	0xbd521f0d	-0.051299144
252	0xbe9fcb44	-0.31209767
253	0x3ea0b2c9	0.31386402
254	0x3e8e8462	0.27835375
255	0xbdb35359	-0.08756132

decoder.6.bias f4 [20]
0	0xba5d1e55	-0.0008435001
1	0xbe3e4ba1	-0.18583538
2	0xbdd3863f	-0.1032834
3	0x3e2d134f	0.16901897
4	0xbc37c524	-0.011216436
5	0x3dbe133b	0.09281012
6	0xbe1ba919	-0.15201224
7	0x3e350fc3	0.17681794
8	0x3e6cddc2	0.23131469
9	0xbe341525	-0.17586191
10	0x3e7fd5d2	0.2498391
11	0x3e1e5a92	0.15464237
12	0xbdeabf05	-0.11462215
13	0x3e0a8bc2	0.13529876
14	0xbe74e021	-0.23913623
15	0xbc8cd1bd	-0.017189855
16	0x3c3dc50c	0.011582624
17	0x3e3f4d79	0.18681897
18	0x3e6ce864	0.23135525
19	0xbe433353	-0.19062547
