Code/Trained models/all_5000_norm_4001_vanilla.pth (torch, 9666 bytes, 9 tensors)

net.0.weight f4 [20, 6]
0.9190679 0.0243529 0.008969251 -0.111039534 0.015696064 -0.046998814 -0.6404118 0.052535888
-0.009462674 -0.17117546 -0.011247086 0.0037654336 0.35852244 0.10949611 -0.016594527 0.0015961016
0.009621451 -0.05063607 -0.7589993 0.01737597 0.028528338 -0.09941666 0.008514712 0.02474083
0.19866668 -0.010248167 0.07766051 0.11802948 0.038892236 -0.3010807 -0.45057985 0.26865876
-0.047026463 -0.29189035 -0.0019727757 0.18459834 -0.013828767 0.0050125257 -0.007837663 -0.013707323
-0.013288525 0.25825348 -0.98199016 -0.029255377 -0.000361099 0.06202448 -0.0027227968 0.037244525
-1.0222311 -0.026626647 0.053491995 -0.036280155 0.1296578 -0.19081952 0.5065321 0.057554435
-0.015623264 -0.14713785 -0.009544955 0.055362366 -0.6214061 0.106007196 0.0024035498 -0.09385439
-0.0072331317 0.008230094 -0.827302 0.008151761 -0.016079934 0.010084295 -0.008271087 0.01490688
-1.0146222 0.030486524 0.024734624 -0.023169234 -0.004616259 -0.13934663 -1.1151152 -0.039014205
0.0050557503 0.100522265 -0.0060012904 0.023502354 0.59720886 -0.038595922 -0.005306335 0.06891902
-0.0034764705 0.07603643 -0.8219732 0.0023996248 -0.01791592 0.02084155 0.004845989 -0.07875796
0.19851615 0.058167387 0.003131987 -0.0008541353 -0.0061251735 0.08202249 0.8450743 -0.033748623
0.00702116 0.0026742904 0.0088130655 -0.107701674 0.4062171 -0.031789582 0.09598074 -0.059166756
-0.0070986664 -0.053830598 0.6063892 -0.0070811706 -0.012072378 0.09917089 0.002034487 -0.010943684
00000000: 0948 6b3f bc7f c73c c4f3 123c b268 e3bd
00000010: 0895 803c d481 40bd 07f2 23bf df2f 573d
00000020: 5509 1bbc 9f48 2fbe b345 38bc 7ec5 763b
00000030: 4190 b73e 7f3f e03d 3ff1 87bc 4834 d13a
00000040: 4aa3 1d3c c567 4fbd c74d 42bf 0d58 8e3c
00000050: 43b4 e93c f69a cbbd 4a81 0b3c 48ad ca3c
00000060: 476f 4b3e eee7 27bc 790c 9f3d 71b9 f13d
00000070: 774d 1f3d 4027 9abe 67b2 e6be a48d 893e
00000080: d29e 40bd a772 95be af49 01bb 5907 3d3e
00000090: 0e92 62bc 1d40 a43b 8b69 00bc ae94 60bc
000000a0: 1db8 59bc cd39 843e b563 7bbf f9a8 efbc
000000b0: e351 bdb9 620d 7e3d f370 32bb b78d 183d
000000c0: 78d8 82bf 2020 dabc 6c1a 5b3d 809a 14bd
000000d0: 04c5 043e 3166 43be 16ac 013f 33be 6b3d
000000e0: b8f8 7fbc 4eab 16be 7162 1cbc a6c3 623d
000000f0: 7814 1fbf 4d1a d93d e084 1d3b bb36 c0bd
00000100: e803 edbb 84d7 063c 10ca 53bf f78e 053c
00000110: 11ba 83bc 9938 253c 7483 07bc fd3b 743c
00000120: 24df 81bf e0be f93c 44a0 ca3c 68cd bdbc
00000130: fd43 97bb e2b0 0ebe 18bc 8ebf 5ccd 1fbd
00000140: b5aa a53b 9ede cd3d 79a6 c4bb 0288 c03c
00000150: aee2 183f c216 1ebd c4e0 adbb 6a25 8d3d
00000160: 7fd5 63bb fdb8 9b3d d66c 52bf 0643 1d3b
00000170: 68c4 92bc e6bb aa3c 1acb 9e3b da4b a1bd
00000180: d147 4b3e ed40 6e3d 0642 4d3b 0de8 5fba
00000190: aeb5 c8bb 68fb a73d ca56 583f ff3b 0abd
000001a0: c211 e63b 2643 2f3b ad64 103c b292 dcbd
000001b0: b0fb cf3e cb35 02bd 8d91 c43d d758 72bd
000001c0: ee9b e8bb 797d 5cbd 533c 1b3f 2a09 e8bb
000001d0: 39cb 45bc 1c1a cb3d 0755 053b 234d 33bc

net.0.bias f4 [20]
-0.09863139 -0.37383777 0.9557707 -0.54623514 0.19094542 -0.07834092 0.833718 -0.29133752
-0.68166375 -0.37373868 0.28117526 0.09023582 -0.60753477 -0.7323234 -0.74364936 0.448091
-1.2369697 -0.13112229 -0.007634702 -0.44702068
00000000: 41ff c9bd aa67 bfbe 63ad 743f 11d6 0bbf
00000010: 3287 433e 3471 a0bd 8b6e 553f 312a 95be
00000020: 8481 2ebf ad5a bfbe 34f6 8f3e 8fcd b83d
00000030: 6687 1bbf 8c79 3bbf ce5f 3ebf 2f6c e53e
00000040: 0655 9ebf ec44 06be 862c fabb e5df e4be

net.2.weight f4 [20, 20]
-0.14898989 0.47197402 0.13010196 0.60916114 -0.16805784 0.0520538 -0.079205036 0.6883543
0.10067188 -0.2787174 0.24223801 0.4324625 -0.15812983 0.3181811 -0.15377538 0.32587096
0.042928312 -0.3854609 -0.13385676 -0.36224774 0.21095733 -0.1904428 -0.10909839 -0.34642065
-0.07043351 0.1496295 0.03288651 -0.47166196 0.09494407 0.08504775 -0.14589427 -0.540278
0.12191023 -0.17970143 0.5917139 -0.20767291 -0.045233652 0.29531792 0.20468442 0.27422994
0.27535737 0.12491878 -0.006076963 -0.0034583122 -0.07067981 -0.25225404 -0.038578477 -0.4755751
0.3413633 0.33889803 0.07620917 -0.10724997 0.16141765 0.1322505 0.5176791 -0.45871714
0.032628138 -0.25317675 -0.23873495 0.2463002 -0.21670024 0.07766103 0.03160103 0.14274938
0.051697936 -0.14201207 -0.022135736 0.51512754 -0.17613934 -0.0159406 0.48046684 0.2863796
0.14384748 0.25198045 -0.43109643 0.31614238 -0.137348 0.11978326 -0.06606448 -0.4067196
-0.09503093 0.20035599 0.17871009 -0.10793286 -0.0676241 0.06287105 -0.32454962 0.5765441
-0.14881597 -0.26765615 0.28540966 0.41509005 0.08483483 -0.19459036 -0.48975986 0.16617955
0.12877464 -0.046374407 0.23686655 -0.6996822 -0.08525841 0.1721076 -0.27893168 0.17245367
0.19223431 0.01878205 -0.25772968 0.07468477 0.24667065 -0.19427694 0.33741915 0.34258652
0.2837994 0.05694575 0.08321206 -0.20528744 0.10493469 -0.25706315 -0.21265301 -0.38694623
-0.2390779 0.19933285 0.012083043 0.40723187 -0.014382925 0.15633951 -0.12809825 0.48816282
-0.095490344 -0.032322828 0.015702186 0.26891083 -0.13237768 0.25387803 -0.47368002 0.022969516
0.292473 -0.25082856 0.018853314 -0.3230873 0.24210244 -0.18630981 0.09079072 -0.114426635
0.09794517 -0.0217443 -0.026063139 -0.10230853 0.111953825 -0.092702925 0.20986827 -0.51725805
0.050145023 -0.3474213 0.36002988 -0.20324256 -0.21610515 0.044928625 -0.13306278 0.3489724
0.21752685 -0.09700068 0.316923 -0.23113245 0.14961931 0.1679999 -0.2754954 -0.61943346
-0.22429715 -0.075777605 -0.0730448 -0.42327732 -0.22289172 -0.41737473 0.2136637 -0.21550782
0.013634229 0.19812272 0.07713487 0.23816407 -0.1444203 -0.06724824 0.114742264 0.053908147
-0.06456522 0.082491614 0.105744235 -0.2644756 0.009367229 0.16917975 0.14285591 -0.207248
-0.23663604 -0.03360125 -0.19992344 0.07725317 0.19239518 -0.42852408 0.029965209 -0.083235584
-0.4441256 0.21694662 0.4564891 -0.06559855 -0.14398137 -0.1705829 -0.111940995 0.20329702
-0.31299913 -0.6173837 0.6668728 0.376362 -0.24609336 -0.1342024 -0.78686607 0.24558699
-0.60108894 -0.574383 0.6705386 -0.7406358 -0.47349375 0.2943695 -0.28450805 0.63978666
-0.22690539 0.022843536 0.041349795 0.74408036 0.13949347 0.06559708 0.10376826 0.34161383
0.23633647 0.5230596 -0.11175294 0.45433998 0.21406236 -0.41209242 -0.06832345 -0.23906991
0.45028815 -0.48628464 0.1601545 -0.31301925 -0.06050721 0.064415045 0.106079936 -0.4115583
0.05758814 0.46384287 -0.11622738 -0.5540362 -0.28100768 -0.49268425 0.43010888 -0.50573164
00000000: ce90 18be 94a6 f13e 7339 053e fcf1 1b3f
00000010: 5b17 2cbe 5e36 553d 4036 a2bd fd37 303f
00000020: 0f2d ce3d 0cb4 8ebe 3e0d 783e ba6b dd3e
00000030: c9ec 21be a2e8 a23e 4b77 1dbe 8fd8 a63e
00000040: 99d5 2f3d 225b c5be bf11 09be 8978 b9be
00000050: 3305 583e 7003 43be fa6e dfbd 0c5e b1be
00000060: 723f 90bd 7a38 193e 01b4 063d ad7d f1be
00000070: 0972 c23d 842d ae3d 4f65 15be a94f 0abf
00000080: 12ac f93d a703 38be 907a 173f 35a8 54be
00000090: ec46 39bd e933 973e cb98 513e de67 8c3e
000000a0: a4fb 8c3e 6bd5 ff3d 4321 c7bb daa4 62bb
000000b0: 94c0 90bd 7127 81be 7704 1ebd 947e f3be
000000c0: 2cc7 ae3e 0b84 ad3e 8e13 9c3d dfa5 dbbd
000000d0: ab4a 253e ad6c 073e 9e86 043f f9dc eabe
000000e0: 15a5 053d 62a0 81be ef76 74be 1f36 7c3e
000000f0: abe6 5dbe bf0c 9f3d 1570 013d e52c 123e
00000100: 37c1 533d 9d6b 11be 0156 b5bc 66df 033f
00000110: df5d 34be dc95 82bc c0ff f53e 59a0 923e
00000120: c14c 133e 9503 813e acb8 dcbe 6add a13e
00000130: f4a4 0cbe ed50 f53d d04c 87bd 8d3d d0be
00000140: 949f c2bd 1f2a 4d3e c7ff 363e e70b ddbd
00000150: 817e 8abd 89c2 803d 5e2b a6be 6598 133f
00000160: 3763 18be 3a0a 89be 3721 923e af86 d43e
00000170: e2bd ad3d b242 47be cec1 fabe f92a 2a3e
00000180: 80dd 033e 17f3 3dbd 258d 723e 5f1e 33bf
00000190: f69b aebd fa3c 303e 22d0 8ebe b297 303e
000001a0: 12d9 443e d0dc 993c 25f5 83be 54f4 983d
000001b0: 3b97 7c3e 89f0 46be 34c2 ac3e 8067 af3e
000001c0: 284e 913e f23f 693d 166b aa3d df36 52be
000001d0: 00e8 d63d c89d 83be b6c1 59be d11d c6be
000001e0: d6d0 74be e91d 4c3e f5f7 453c b280 d03e
000001f0: 5ca6 6bbc 7717 203e 302c 03be 7af0 f93e
00000200: 7190 c3bd f164 04bd dfa1 803c aeae 893e
00000210: 048e 07be 4dfc 813e 3086 f2be 912a bc3c
00000220: 05bf 953e 9a6c 80be 4472 9a3c b36b a5be
00000230: b4e9 773e 00c8 3ebe 7cf0 b93d 8358 eabd
00000240: 7a97 c83d 1a21 b2bc 5d82 d5bc 2287 d1bd
00000250: 0c48 e53d 08db bdbd b5e7 563e 066b 04bf
00000260: de64 4d3d 34e1 b1be d655 b83e d11e 50be
00000270: ab4a 5dbe 1407 383d 9c41 08be 83ac b23e
00000280: 5cbf 5e3e 4ba8 c6bd bb43 a23e fcad 6cbe
00000290: ce35 193e 2a08 2c3e bc0d 8dbe 3193 1ebf
000002a0: 27ae 65be 4a31 9bbd 8398 95bd ceb7 d8be
000002b0: ba3d 64be 24b2 d5be a8ca 5a3e 15ae 5cbe
000002c0: 1a62 5f3c afe0 4a3e e3f8 9d3d 48e1 733e
000002d0: eae2 13be 72b9 89bd fefd ea3d cace 5c3d
000002e0: c53a 84bd 5df1 a83d 6f90 d83d 5969 87be
000002f0: 0279 193c 753d 2d3e d248 123e d238 54be
00000300: b850 72be 77a1 09bd bbb8 4cbe e936 9e3d
00000310: 3e03 453e 8267 dbbe 9979 f53c 6b77 aabd
00000320: 6e64 e3be 4127 5e3e f0b8 e93e 8858 86bd
00000330: da6f 13be 49ad 2ebe 5241 e5bd 182d 503e
00000340: 6c41 a0be dc0c 1ebf 2db8 2a3f 85b2 c03e
00000350: e6ff 7bbe 5b6c 09be 0e70 49bf 287b 7b3e
00000360: f7e0 19bf c40a 13bf 6ba8 2b3f 4f9a 3dbf
00000370: c66d f2be 99b7 963e 0aab 91be 0fc9 233f
00000380: e359 68be 5e22 bb3c 675e 293d 0d7c 3e3f
00000390: 60d7 0e3e c357 863d 7484 d43d 02e8 ae3e
000003a0: 3002 723e 3ce7 053f bade e4bd 409f e83e
000003b0: 2a33 5b3e c7fd d2be 2aed 8bbd bece 74be
000003c0: 2b8c e63e 4dfa f8be 8bff 233e 0f44 a0be
000003d0: 69d6 77bd 09ec 833d 7040 d93d c5b7 d2be
000003e0: 8be1 6b3d d07c ed3e 9f08 eebd 51d5 0dbf
000003f0: 3de0 8fbe 1c41 fcbe 3b37 dc3e a177 01bf

net.2.bias f4 [20]
-0.2537315 -0.18279856 -0.053056303 -0.107722305 0.3234779 -0.009201929 -0.11526523 0.18709897
0.079689845 0.30881885 0.37434897 -0.38411307 0.13080712 0.03336402 -0.6086042 0.0014295343
-0.16368529 -0.1334422 0.26620552 -0.09419752
00000000: 18e9 81be 8c2f 3bbe 9151 59bd 839d dcbd
00000010: e59e a53e b0c3 16bc 2d10 ecbd df96 3f3e
00000020: 6e34 a33d 811d 9e3e abaa bf3e 78aa c4be
00000030: 4df2 053e b6a8 083d 7ccd 1bbf 365f bb3a
00000040: 1e9d 27be 12a5 08be 174c 883e a1ea c0bd

net.4.weight f4 [20, 20]
0.5822692 -0.17944139 -0.44638002 -0.016305896 0.17636971 0.24720518 0.5114123 -0.30992982
-0.21397248 -0.21488021 0.36263734 -0.19808835 0.18539242 0.30776095 -0.4214911 0.1616134
-0.081685275 0.08184833 -0.18444696 -0.062240105 -0.6080904 0.588532 0.23186156 -0.4446758
-0.15051413 -0.040176827 -0.20344211 0.32194358 0.15899947 0.44439825 -0.37757912 -0.0054096426
-0.30715573 -0.0015457921 0.5390503 -0.08187468 0.021113675 -0.37855625 0.07868018 -0.025040003
0.13520782 0.26243123 0.2589595 0.27144638 -0.06850884 0.224581 0.18604979 -0.02643811
-0.0589813 -0.5031672 -0.012522049 -0.19835542 0.11540108 0.11750371 0.026178665 -0.70023984
0.22371034 0.27048963 -0.052023035 -0.15391488 -0.2821001 0.15913779 0.30553705 -0.42741635
-0.08016679 0.0016165023 -0.2876289 0.13269562 0.3752657 0.4716753 -0.16532212 -0.3773014
0.57638997 0.15996361 0.23814996 -0.010113344 0.5721758 -0.16490202 0.0039616646 -0.15599594
0.54958206 -0.5081713 -0.6996807 0.5978585 0.6080082 -0.078071155 0.42571998 -0.45235455
-0.60704374 -0.22131272 0.47252363 -0.07871696 0.22841968 -0.1004627 -0.52780837 0.10596241
-0.2785459 0.23167828 -0.1599964 0.19405696 0.3537486 -0.05343858 0.27813295 0.22369526
-0.18780722 0.23607337 0.18805498 -0.06636712 0.053289227 -0.3792287 0.10337082 0.165081
-0.0142731005 0.013091822 0.14640646 0.113347135 -0.1175785 0.3139191 0.091280155 0.04133765
0.0293165 0.09424274 0.51278645 -0.17509851 0.07313342 0.24322283 0.10373907 -0.058467522
-0.07152958 -0.4173058 -0.21694733 0.11382655 -0.29023874 0.22994429 0.67851883 -0.54241246
-0.014190548 0.21553645 0.050275706 -0.025684202 -0.4662932 -0.002621416 -0.34051841 -0.026203193
0.17618473 -0.24381515 -0.36836964 0.19642521 0.064570546 0.23032294 0.05890136 -0.11047007
-0.38372317 0.04830425 0.08377381 -0.2857441 0.1267459 -0.18302515 0.15235163 -0.07180384
-0.5049142 0.08526099 -0.034911893 -0.10700154 0.12899286 -0.24486315 -0.37975568 0.16838199
0.21510819 0.27573493 -0.0036837773 0.17436713 -0.14010003 0.031518593 0.18315136 0.054853022
-0.19483416 -0.27089614 0.2585749 0.024697833 0.4346239 0.16463628 0.26447845 -0.07989778
-0.07561906 0.1634128 0.33223352 -0.19013374 -0.20013382 0.008828271 0.32151446 0.34161782
-0.22912969 -0.06916726 -0.034838628 -0.24036992 -0.024166046 0.1900061 -0.43097308 0.115724064
0.2010984 -0.8700857 -0.20084286 -0.0709362 0.66984713 -0.024840398 0.49181885 0.0025508695
-0.24505451 0.15253852 0.74130845 -0.24595976 -0.06507561 -0.52686346 -0.6105876 0.27956504
-0.16207498 -0.083164565 0.0072691953 0.046060357 0.026931569 -0.4370876 -0.206941 0.270805
-0.012426577 0.19009951 0.2745967 -0.0016872061 -0.12611276 -0.31137735 0.14201474 0.14930211
-0.47969922 -0.092143245 -0.22694667 -0.26244166 -0.25893843 0.25069275 -0.36309528 0.0076278113
-0.37294707 0.16333461 -0.16358972 -0.007908 -0.13230358 -0.1966125 -0.29922986 -0.123233154
0.10248934 0.17310224 -0.17097993 0.055528145 0.32590348 0.025576914 0.1721193 0.015966862
00000000: 980f 153f 7cbf 37be ec8b e4be f193 85bc
00000010: 439a 343e 5b23 7d3e ebeb 023f 1faf 9ebe
00000020: 9a1b 5bbe 8f09 5cbe 9aab b93e acd7 4abe
00000030: 83d7 3d3e d892 9d3e aecd d7be fc7d 253e
00000040: 9c4a a7bd 19a0 a73d aadf 3cbe 7bef 7ebd
00000050: d0ab 1bbf 08aa 163f 1e6d 6d3e 8cac e3be
00000060: 6020 1abe 7590 24bd 2153 50be cad5 a43e
00000070: c2d0 223e 2b88 e33e 0d52 c1be 5f43 b1bb
00000080: 8443 9dbe 2d9c caba 33ff 093f eaad a7bd
00000090: 96f6 ac3c 20d2 c1be 1323 a13d b120 cdbc
000000a0: eb73 0a3e 635d 863e 5796 843e 05fb 8a3e
000000b0: 5d4e 8cbd 90f8 653e d683 3e3e bc94 d8bc
000000c0: 6096 71bd 91cf 00bf 4829 4dbc af1d 4bbe
000000d0: 6757 ec3d c9a5 f03d a474 d63c eb42 33bf
000000e0: 5314 653e 9e7d 8a3e 1b16 55bd dd9b 1dbe
000000f0: 6d6f 90be 04f5 223e 5a6f 9c3e 51d6 dabe
00000100: 7c2e a4bd d1e0 d33a 1844 93be 5ce1 073e
00000110: d322 c03e 6d7f f13e 344a 29be a62d c1be
00000120: 4b8e 133f 80cd 233e 95dd 733e 70b2 25bc
00000130: 1d7a 123f 13dc 28be dad0 813b 66bd 1fbe
00000140: 69b1 0c3f 8417 02bf 461e 33bf 410d 193f
00000150: 6da6 1b3f c5e3 9fbd f8f7 d93e 049b e7be
00000160: 3867 1bbf cd9f 62be 9eee f13e 5c36 a1bd
00000170: d9e6 693e 63bf cdbd 731e 07bf d202 d93d
00000180: 919d 8ebe 123d 6d3e 19d6 23be deb6 463e
00000190: 891e b53e 6ae2 5abd 7167 8e3e 5f10 653e
000001a0: 8950 40be 38bd 713e 7c91 403e 7ceb 87bd
000001b0: ce45 5a3d 442a c2be 15b4 d33d fe0a 293e
000001c0: b9d9 69bc 157f 563c 93eb 153e 8b22 e83d
000001d0: ffcc f0bd 01ba a03e 17f1 ba3d ab51 293d
000001e0: 2829 f03c 5602 c13d f945 033f 064d 33be
000001f0: f9c6 953d 680f 793e 2675 d43d a47b 6fbd
00000200: 1a7e 92bd 1ba9 d5be 7127 5ebe e51d e93d
00000210: 2c9a 94be 8476 6b3e 69b3 2d3f 8bdb 0abf
00000220: 797f 68bc 96b5 5c3e e6ed 4d3d ad67 d2bc
00000230: fbbd eebe 10cc 2bbb 6e58 aebe 14a8 d6bc
00000240: c569 343e aeaa 79be f29a bcbe b123 493e
00000250: 903d 843d c7d9 6b3e 8d42 713d 223e e2bd
00000260: 5d77 c4be adda 453d 9a91 ab3d 0d4d 92be
00000270: adc9 013e f26a 3bbe 1102 1c3e e40d 93bd
00000280: 0f42 01bf 509d ae3d c6ff 0ebd a023 dbbd
00000290: b416 043e 68bd 7abe 566f c2be 546c 2c3e
000002a0: 5245 5c3e 212d 8d3e 876b 71bb 4c8d 323e
000002b0: 6276 0fbe a419 013d 088c 3b3e 90ad 603d
000002c0: 9b82 47be e6b2 8abe ee63 843e 1c53 ca3c
000002d0: 0687 de3e 6a96 283e b869 873e 73a1 a3bd
000002e0: 2ade 9abd af55 273e 831a aa3e 6bb2 42be
000002f0: e1ef 4cbe 74a4 103c 8b9d a43e 88e8 ae3e
00000300: f9a0 6abe 90a7 8dbd f3b2 0ebd 8823 76be
00000310: dff7 c5bc f690 423e 81a8 dcbe bd00 ed3d
00000320: bdec 4d3e f0bd 5ebf c0a9 4dbe 0047 91bd
00000330: 1a7b 2b3f 177e cbbc aecf fb3e 7d2c 273b
00000340: 92ef 7abe 0f33 1c3e 64c6 3d3f e0dc 7bbe
00000350: 5d46 85bd 86e0 06bf 784f 1cbf 2623 8f3e
00000360: fcf6 25be 2f52 aabd 6e32 ee3b c9a9 3c3d
00000370: 989f dc3c f2c9 dfbe 57e8 53be f4a6 8a3e
00000380: d798 4bbc 72a9 423e f097 8c3e 3e25 ddba
00000390: b423 01be da6c 9fbe 506c 113e a7e2 183e
000003a0: 239b f5be 99b5 bcbd b564 68be c15e 86be
000003b0: 9493 84be cd5a 803e a0e7 b9be b8f2 f93b
000003c0: ebf2 bebe 3041 273e 1084 27be 8e90 01bc
000003d0: 977a 07be ca54 49be a834 99be aa61 fcbd
000003e0: eee5 d13d b741 313e 5d15 2fbe 7b71 633d
000003f0: d2dc a63e ad86 d13c 0b40 303e f0cc 823c

net.4.bias f4 [20]
-0.22152439 0.3094521 -0.2085524 -0.11189688 -0.13919711 -0.1997184 0.1786646 0.21847552
0.27083957 0.0736837 0.21022084 -0.0020363203 0.053543966 -0.2343324 0.034071773 0.0669764
0.29674467 -0.0010540757 0.15266965 -0.14125487
00000000: 4ad7 62be 8170 9e3e c38e 55be 312a e5bd
00000010: b089 0ebe fb82 4cbe daf3 363e 0cb8 5f3e
00000020: 7cab 8a3e 7be7 963d 2244 573e c973 05bb
00000030: eb50 5b3d d5f4 6fbe d88e 0b3d ec2a 893d
00000040: ebee 973e e928 8aba 6f55 1c3e 1ea5 10be

net.6.weight f4 [20, 20]
0.18154208 -0.19999357 0.19436482 -0.15092173 0.036561057 0.12989122 -0.043657552 -0.08764377
-0.20333484 0.28432518 -0.045413118 0.17379694 -0.19898546 0.50258595 0.84797275 0.20169748
-0.09208211 -0.49149427 0.023255609 0.19941811 0.48362705 -0.5207278 0.15957473 0.16033609
0.20665945 0.28564683 -0.04913874 0.034686223 -0.12670551 -0.063068055 -0.5853508 0.25787258
-0.30765682 -0.377858 -0.1444441 0.66671425 -0.7742792 0.32203168 0.13931115 -0.35925916
0.52645725 -0.23842832 0.14565192 -0.5230189 0.26892665 0.6124726 0.278825 -0.3918317
-0.60245335 0.5226667 -0.088657156 0.25159153 -0.35369182 0.650094 0.83363205 0.1468374
-0.2329232 -0.5060095 0.4935477 0.2944852 0.2165064 0.023656392 0.09712507 -0.07169689
-0.038397484 0.15076378 -0.13301027 -0.056727752 0.085808076 -0.13831684 -0.15914139 0.12750226
-0.17073146 -0.13350783 0.10005628 0.20747246 -0.54570216 -0.041621268 0.15202536 -0.17956357
0.14076512 -0.441899 0.43336406 0.2242272 0.09419556 0.21178211 0.28127292 -0.021957269
-0.16621572 -0.15790124 0.06627291 0.23930062 0.08287396 -0.124721415 -0.03467061 0.14835718
-0.059976816 0.5116748 0.15840358 -0.30993253 -0.19894664 0.18702348 -0.072240904 0.016870447
-0.24253066 -0.22078069 -0.0345553 0.04709216 0.3627153 -0.119193986 0.3803085 0.10639599
0.1341723 0.37282294 0.038152978 -0.49086514 0.64813584 -0.55749446 -0.2440645 0.31015912
-0.0044367886 0.369612 -0.23687634 -0.26240012 -0.29265466 -0.14333417 -0.33874723 0.018934363
0.064359985 -0.065443896 0.017627344 -0.09897119 -0.11879742 0.35979965 0.03699274 -0.41081068
0.384496 -0.49201474 -0.1827277 0.29617763 0.06734976 0.021840414 -0.30416268 0.26913315
-0.17629352 -0.10926063 0.096619256 0.45920187 0.42425513 -0.27120653 0.16543537 -0.39820948
0.32138792 -0.53469163 -0.74718666 -0.07753209 0.23020345 0.45740303 -0.39891163 -0.27865916
-0.03075339 0.22033556 -0.40509343 -0.29411015 0.03654293 -0.023248475 -0.24370542 0.2418793
0.24791555 0.16302553 0.08835131 0.0077006794 0.06381226 0.3176054 -0.18860751 -0.03484732
0.21357705 -0.19241868 -0.15145528 0.26536962 -0.3276567 0.16905834 -0.13458867 -0.35559186
-0.026420081 -0.19889516 -0.33424178 -0.0066182446 0.18266848 0.2024237 0.44196427 0.16870375
-0.07063042 0.28511572 0.029068524 -0.2160551 0.64647746 -0.33163607 -0.38846093 0.6119189
0.02543682 -0.0913602 0.061960686 0.23726411 0.13407136 0.283068 -0.22742702 -0.10429348
-0.2711061 0.04583961 -0.28698033 -0.02826448 -0.15541537 -0.20157252 -0.05132003 0.3850283
-0.67180777 0.22720836 0.06456355 -0.52312875 -0.35563862 0.2313028 -0.13179862 -0.5382393
-0.60153216 0.042080577 0.056626074 -0.0053850375 0.19534855 0.09906689 0.5396869 0.36103767
-0.021559136 0.31654656 0.27776808 -0.6527228 0.35572612 -0.80435157 0.116904356 0.43309084
-0.2590402 0.2751705 -0.31001756 -0.18744448 -0.30769992 -0.28821883 -0.21879512 -0.0011006643
-0.008394406 0.2644971 0.107377425 0.03159574 0.18591711 0.29949486 0.15752183 -0.44976276
00000000: 2be6 393e 1dcb 4cbe 9207 473e 3a8b 1abe
00000010: 0cc1 153d 3402 053e 43d2 32bd 947e b3bd
00000020: 0237 50be 1293 913e 1b03 3abd d3f7 313e
00000030: d8c2 4bbe 79a9 003f be14 593f c989 4e3e
00000040: 8c95 bcbd 23a5 fbbe 8c82 be3c 4334 4c3e
00000050: f79d f73e 6b4e 05bf 8f67 233e 252f 243e
00000060: 899e 533e 4d40 923e b445 49bd 2413 0e3d
00000070: 17bf 01be d329 81bd 8dd9 15bf e007 843e
00000080: 3285 9dbe 9b76 c1be 27e9 13be c9ad 2a3f
00000090: 2937 46bf 56e1 a43e 95a7 0e3e d1f0 b7be
000000a0: e7c5 063f 8e26 74be c725 153e 91e4 05bf
000000b0: c1b0 893e 01cb 1c3f 27c2 8e3e 2a9e c8be
000000c0: 623a 1abf 7ccd 053f e291 b5bd 9bd0 803e
000000d0: 1817 b5be 8f6c 263f e968 553f 8b5c 163e
000000e0: 6b83 6ebe d789 01bf 49b2 fc3e c4c6 963e
000000f0: dbb3 5d3e 0dcb c13c 82e9 c63d d2d5 92bd
00000100: ae46 1dbd d261 1a3e d833 08be 5c5b 68bd
00000110: 25bc af3d eea2 0dbe f6f5 22be f48f 023e
00000120: 3ad4 2ebe 47b6 08be 4fea cc3d a973 543e
00000130: 23b3 0bbf 107b 2abd 89ac 1b3e 83df 37be
00000140: bb24 103e 9640 e2be e5e1 dd3e d19b 653e
00000150: 9ae9 c03d 69dd 583e 0103 903e bbdf b3bc
00000160: 7434 2abe ddb0 21be 17ba 873d 390b 753e
00000170: d3b9 a93d f16d ffbd c502 0ebd f2ea 173e
00000180: 40aa 75bd 1ffd 023f 8c34 223e 7aaf 9ebe
00000190: abb8 4bbe 1583 3f3e 0af3 93bd e433 8a3c
000001a0: f559 78be 5514 62be dc89 0dbd b5e3 403d
000001b0: d2b5 b93e fa1b f4bd ccb7 c23e 24e6 d93d
000001c0: 7764 093e a6e2 be3e 4c46 1c3d ad52 fbbe
000001d0: 3bec 253f f5b7 0ebf 0bec 79be 2dcd 9e3e
000001e0: 7b62 91bb c93d bd3e b68f 72be 4f59 86be
000001f0: d5d6 95be 31c6 12be 4770 adbe 3d1c 9b3c
00000200: 2bcf 833d 7307 86bd 3867 903c 68b1 cabd
00000210: 104c f3bd a937 b83e b385 173d c755 d2be
00000220: a9dc c43e 5be9 fbbe f81c 3bbe 98a4 973e
00000230: acee 893d abea b23c 36bb 9bbe d2cb 893e
00000240: 4a86 34be 0ac4 dfbd 51e0 c53d 821c eb3e
00000250: f837 d93e 95db 8abe e467 293e 1de2 cbbe
00000260: f58c a43e 8de1 08bf a047 3fbf 25c9 9ebd
00000270: 74ba 6b3e bb30 ea3e 253e ccbe 6aac 8ebe
00000280: 89ee fbbc a59f 613e 6868 cfbe 9b95 96be
00000290: 0aae 153d 9673 bebc ea8d 79be 35af 773e
000002a0: 93dd 7d3e 2af0 263e 88f1 b43d fb55 fc3b
000002b0: 01b0 823d 2d9d a23e 5422 41be 10bc 0ebd
000002c0: f1b3 5a3e 6709 45be 1817 1bbe 87de 873e
000002d0: 9ec2 a7be a11d 2d3e 9dd1 09be 2310 b6be
000002e0: ed6e d8bc 2cab 4bbe bd21 abbe dcdd d8bb
000002f0: 720d 3b3e 2948 4f3e 2449 e23e adc0 2c3e
00000300: afa6 90bd b0fa 913e 1d21 ee3c 8c3d 5dbe
00000310: 8c7f 253f 34cc a9be 5ae4 c6be b8a6 1c3f
00000320: e160 d03c 0e1b bbbd 7dca 7d3d 5df5 723e
00000330: 014a 093e 4aee 903e a1e2 68be d297 d5bd
00000340: 6bce 8abe 51c2 3b3d 16ef 92be e98a e7bc
00000350: 3525 1fbe 0769 4ebe f434 52bd 6e22 c53e
00000360: 98fb 2bbf 4fa9 683e e539 843d c4eb 05bf
00000370: 4416 b6be a4da 6c3e 38f6 06be 0dca 09bf
00000380: 03fe 19bf af5c 2c3d bef0 673d f874 b0bb
00000390: 7309 483e 95e3 ca3d ec28 0a3f eed9 b83e
000003a0: c99c b0bc 6412 a23e 9e37 8e3e d718 27bf
000003b0: bc21 b63e fce9 4dbf 8d6b ef3d 15be dd3e
000003c0: eba0 84be 26e3 8c3e 9fba 9ebe 72f1 3fbe
000003d0: d88a 9dbe 6b91 93be d40b 60be 2a44 90ba
000003e0: b188 09bc 2a6c 873e b2e8 db3d 896a 013d
000003f0: 0e61 3e3e 6457 993e 674d 213e 4e47 e6be

net.6.bias f4 [20]
-0.109058216 0.049305044 -0.18981123 0.14671366 0.091423474 -0.028081065 -0.050715197 0.09896494
-0.16241671 -0.07118551 -0.20341507 0.21205029 -0.07923479 -0.074211486 -0.120463155 -0.07051619
-0.18446165 -0.14474095 0.16918598 -0.011454244
00000000: ea59 dfbd 16f4 493d e05d 42be 1b3c 163e
00000010: 3b3c bb3d 430a e6bc bdba 4fbd 21ae ca3d
00000020: 9150 26be b5c9 91bd 0a4c 50be b623 593e
00000030: d945 a2bd 31fc 97bd 63b5 f6bd cb6a 90bd
00000040: 84e3 3cbe f936 14be 173f 2d3e 95aa 3bbc

net.8.weight f4 [1, 20]
-0.28583026 0.48292643 -0.33794782 0.16156463 0.29849038 -0.51789516 -0.4516217 0.3152276
-0.30315122 -0.5664263 0.50036067 -0.3469155 -0.7213533 -0.73303294 -0.24789122 0.83648247
0.47246087 -0.48181164 0.30667853 -0.5879317
00000000: 5858 92be 2242 f73e 7f07 adbe 3371 253e
00000010: bbd3 983e c794 04bf f63a e7be 8365 a13e
00000020: a336 9bbe 5001 11bf a317 003f e99e b1be
00000030: 9caa 38bf 0ca8 3bbf 32d7 7dbe b723 563f
00000040: 64e6 f13e 04b0 f6be f804 9d3e b182 16bf
