Code/Trained models/m_mu_500_norm_4001_test.pth (torch, 9624 bytes, 9 tensors)

net.0.weight f4 [20, 6]
00000000: 6c4d b93e a5b0 5c3c 55c4 b9bc 6096 5fbe
00000010: e90b 073e 8c26 bbbe 0f5f de3e 43f2 a6bd
00000020: c74e ad3d 8b1d ee3d 39eb 1dbe 085c a23e
00000030: 4818 86bc 40f9 183e 3b7b 993e 86c3 923e
00000040: 6658 7a3e 2979 5c3e 19a1 2a3f d693 34bd
00000050: 9e67 be3d f504 33bd f04d c43e 570d 853e
00000060: 3798 b93e f930 c5bd bce9 fdbb 5c28 6f3d
00000070: 9e63 003e 9319 2cbe 335b 033f 9bdd c53d
00000080: b899 9bbd f702 d3ba b816 91bd 7996 65be
00000090: 5895 b0bc c2f3 b2bd 934e 29be c045 57bd
000000a0: 41a8 65be ff42 f03e 9ea2 df3e 7a51 d33d
000000b0: 5050 e0ba e963 0a3e e61f 003e b5f6 e63d
000000c0: 7e2a 1fbf ae63 1fbd 39b0 92bc ff76 27bd
000000d0: 87a2 4d3e 50a2 e13d 1bec 1a3f 3e34 c43d
000000e0: ec0c c8bd 1e3e a2be fc09 94be c1e8 81be
000000f0: 6271 233f b765 fd3d bdc1 a93d 2079 87bd
00000100: 3bf2 c2bd 6597 6ebd c057 c5be f957 393e
00000110: adc7 9abd ac26 e23c 972e 303d 6b9a 243e
00000120: 94cd fdbe 2b92 98bc a37c cfbb 96c4 3fbc
00000130: 6ee6 62be c513 553e 0e70 a63e e089 54bd
00000140: 512d a8bd 87c2 9abd 548c a6be c571 913d
00000150: d79b 7dbe 898c 273e 00b7 b53d 4e64 203d
00000160: ed69 d63d 3664 a23e 4a42 0dbf a9b4 f73d
00000170: 4e0c d4bc 79c0 87bd 15e7 82bd 66d3 1ebd
00000180: 8c7f 00bd 6115 5fbd 72fe 8bbd a537 e83e
00000190: f26c febe 891c ac3e 0dde 33bf efb8 a6bc
000001a0: 48cb cebb 558c 063e 3bb5 353c a247 29bd
000001b0: 8f6c ee3e 6de5 f63c 5589 c93c 9210 c43d
000001c0: fb08 42be ee80 aebe cce3 2b3f e88c d9bc
000001d0: 60b1 ebbb c3b1 ff3c f626 a33e 2a35 fbbb
0.3619188 0.01346985 -0.022676626 -0.21834707 0.13188137 -0.36552846 0.434319 -0.081516765
0.08462291 0.116267286 -0.15421762 0.3171084 -0.016369 0.14938831 0.2997683 0.28664798
0.24447784 0.21530594 0.66652066 -0.0440863 0.09297107 -0.0437059 0.38340712 0.2598674
0.36248943 -0.096284814 -0.0077488106 0.0583881 0.12538001 -0.16806631 0.51311034 0.096614085
-0.07597679 -0.0016098906 -0.070844114 -0.22420682 -0.021555588 -0.08737899 -0.1653388 -0.052556753
-0.22427465 0.46926114 0.43678755 0.10318275 -0.0017113779 0.13514675 0.12512168 0.112775244
-0.6217421 -0.03891342 -0.017906295 -0.040884968 0.2008153 0.11017287 0.6051652 0.09580277
-0.0976809 -0.31688017 -0.28913867 -0.2537289 0.63844883 0.12372916 0.08288906 -0.066149
-0.09518858 -0.05824985 -0.3854351 0.18099965 -0.075576164 0.02760633 0.04301318 0.16074531
-0.49570906 -0.018624386 -0.0063319965 -0.011704585 -0.22158214 0.20808323 0.32507366 -0.0518893
-0.082117684 -0.075566344 -0.32528937 0.07101778 -0.2476648 0.16362204 0.08872795 0.039158158
0.104694225 0.3171708 -0.55179274 0.12095005 -0.025884774 -0.06628508 -0.06391732 -0.038775824
-0.03137164 -0.054463748 -0.06835641 0.45354953 -0.49692494 0.3361552 -0.702607 -0.020351855
-0.006310854 0.1313947 0.011090572 -0.04132808 0.465672 0.030138696 0.024601618 0.09573473
-0.18948738 -0.3408274 0.67144465 -0.026556447 -0.0071927756 0.031212693 0.31865662 -0.0076662498

net.0.bias f4 [20]
00000000: 6adc 91be 9bfb 0bbe 15a3 763e 4bc3 c43c
00000010: c3f8 8f3e c1aa 54bd d4c2 8a3e 4dd5 aebe
00000020: 1f37 e33d 35f9 353e 3b16 a73e 6ecf 66be
00000030: ee30 94bd 6184 9d3d 6f32 91be 5b13 f3bd
00000040: 1a7e 85be 0e4f 0bbe 4b19 493e f3df 3d3e
-0.28488475 -0.13670199 0.24085648 0.024018904 0.28119478 -0.051920656 0.27101767 -0.3414711
0.11094498 0.17770846 0.32634148 -0.22540066 -0.07235895 0.07691265 -0.2835879 -0.11868926
-0.2607277 -0.13604376 0.19638555 0.18542461

net.2.weight f4 [20, 20]
00000000: 9cf9 abbc 29cf 803e 21ce 99bd 2d26 443e
00000010: 1232 143e 0c42 3f3d e70a 7d3e 3a97 05be
00000020: c910 a2bd 059e 49be 0062 08bd 185a e5bd
00000030: fe88 18be 5b43 643d a363 223e a514 a8be
00000040: 22c5 353e c750 ccbe f4ee b03e 02fa bc3d
00000050: ad88 96bd 6d3c 9ebd e8d0 463e 18ff 93be
00000060: 6c79 d5be abfa babc 410f a0bd 2c15 143e
00000070: acc4 5c3e 36f8 b4bd c994 85be 62c3 653e
00000080: ddfd 573c 2e81 d23d 9693 3f3e ac84 a13e
00000090: 99be 0c3e a698 79bd 7fab 53bd 1236 4abe
000000a0: eda8 b1bd 48df 8e3d 4aaa db3d dfc1 ab3e
000000b0: 7c88 393e 9541 b83e 44c4 8bbe 1933 3a3e
000000c0: 85cf f4be 9dcd ae3e 69db 28bd f4a9 06be
000000d0: 051b 9ebd 6322 dd3e 9ff6 79be 3da5 54be
000000e0: a717 f03c ddfc 14be 8bf3 2c3e 2a3b 443e
000000f0: 6030 8dbe 198d 6b3e 2da4 653e cbb1 a1bd
00000100: 96a0 963e 4e77 2d3d 6e11 983e 0f10 90bc
00000110: c0a4 c4bd cb73 bb3d 349d 76bd a4db 773e
00000120: 2726 debd db49 b43e 9d54 093d 79b9 99be
00000130: 33ea 3f3e a30e 50be 863a 363e 9e57 963d
00000140: 966a a8bd c18b 5b3d 0df4 4bbe c5c9 35bf
00000150: 4d9f 18bf bf8a 74bd 2bb7 1c3e f797 07be
00000160: 8fb7 e53e c3aa cabe 1b70 8abe 3f0c 173f
00000170: 6966 f83e 3458 a5be 4c2d 4b3e 3e74 8b3e
00000180: 779f 163e c048 9e3e c176 f5be 7abb 30be
00000190: e2bd 32bd c247 743e 6134 55bd 0810 b13e
000001a0: 7b97 da3e 7612 c53e 8b6b 1d3e 27a1 c73e
000001b0: 6b72 a5be e342 353e a5f9 923e b42f c53d
000001c0: 1e3f 6bbe c96c f83e 5e93 44bd f972 4dbe
000001d0: 35fc 853e acb6 bfbe 5c6f 9c3e e595 063f
000001e0: 00f9 fdbd 2509 45be 01d6 85be 961a 94be
000001f0: 040e 84be f303 8bbe 86c3 203e 8b62 4cbd
00000200: c51f c53e 9272 ccbd 79e2 ccbb 49a3 f4bd
00000210: 88ba 743d 2732 7cbd 77f0 493e 5a64 fd3c
00000220: d94a e7bb 1f53 5b3d 1da3 b0be 06bd c7be
00000230: ff1d 1b3e 738d 00bb 01c1 26be a87d 3b3e
00000240: 515b b83d 9966 083e 09bf 523d ce4c 593e
00000250: d433 f1be 8bea 82bd dfdf 703d e27f 64be
00000260: b676 a8be 2f7b 853e 6596 92bc fc37 dcbd
00000270: 287b 61bd 9b55 9fbe 087c 973e fb5b e73d
00000280: 5dd8 25be 9ad9 02be a8ae 6e3e 4ef5 f6bd
00000290: 7b5a a1bd a6b8 14bf da6c 70bd 885a 133d
000002a0: 9f98 d13e ef96 a3be e3f0 983d df45 3fbe
000002b0: b098 453d 3219 323d 5439 8e3d 8769 473e
000002c0: 7896 353c 242a c03d ed6a 46be 5d09 993c
000002d0: 53f5 24bd 7fb7 07bd 3162 1cbd 9f14 e1bd
000002e0: 0d55 78bd fbfb 56be 595a 123d f5e4 a7be
000002f0: 3dc6 4e3e a710 333e 07f4 063e 7db5 e0bd
00000300: 62e6 213d 493d a6be d404 c83d e082 933d
00000310: 6bba 09be 3a29 383e 7b04 7b3d 8a33 a4be
00000320: 1e2b 07be e06d 753d 36eb 223e f043 a6be
00000330: 54aa 00bf 3ea3 c8bd 7d34 f63d 09c4 8a3d
00000340: 5347 413e b129 8abe 1898 453e da47 a6bd
00000350: b7f4 ac3e f474 eebd 35c4 de3d 5233 e03e
00000360: 3598 cbbd 0b9b 26ba a319 d1be 4a5f 97bc
00000370: f06b 0f3e 0725 38be 4136 d7bd fd38 6d3e
00000380: d6ce db3a 96ec 4c3c c4f8 963d 9660 cebd
00000390: e864 a03e 2bb3 3c3e 8dc9 b8bd d4ba fd3d
000003a0: e011 853e 19dd 2c3e 53ed b8be 47c2 e1bd
000003b0: f4f1 65be 5af7 a93d 7b93 0bbe 8051 623d
000003c0: 0fdc 233d f7ff b8be ebcb 5d3d b131 e5bd
000003d0: 0373 a1bd c24e 8bbe a94d 15be a7ec 8fbe
000003e0: d61d d33e b523 00be 1742 323e 2283 8a3d
000003f0: 863a a9bc 5193 7fbe c3a8 bcbd d3d2 293d
-0.020993046 0.2515805 -0.07510019 0.19155188 0.14472225 0.046693847 0.2471119 -0.1304597
-0.07913358 -0.19689186 -0.033296585 -0.11198825 -0.14896008 0.055728298 0.15858321 -0.3282825
0.17750981 -0.39905378 0.34557307 0.09227373 -0.073502876 -0.07726369 0.19415629 -0.2890556
-0.416942 -0.022824606 -0.078154095 0.14461201 0.215594 -0.08836405 -0.26090077 0.22437814
0.013183084 0.10278545 0.18708643 0.31546533 0.13744582 -0.060936593 -0.051677223 -0.19747189
-0.08674798 0.06976181 0.107258394 0.3354635 0.18118471 0.35987535 -0.27298176 0.18183555
-0.47814575 0.34141245 -0.04122487 -0.1315077 -0.07719997 0.43190297 -0.24410485 -0.20766158
0.029308153 -0.14549585 0.1688978 0.19163194 -0.2757597 0.23003043 0.2242591 -0.078952394
0.29419392 0.042350106 0.29700798 -0.017585782 -0.09601736 0.09152945 -0.060208514 0.2420488
-0.10847121 0.35212597 0.03352796 -0.30024317 0.18741684 -0.20318083 0.17795762 0.073409304
-0.08223455 0.053600077 -0.19917317 -0.71011 -0.59618074 -0.05970263 0.15304248 -0.13241564
0.44866607 -0.39583406 -0.27038655 0.5900306 0.48515633 -0.32293856 0.19841498 0.27237123
0.14709269 0.3091488 -0.47942165 -0.17259017 -0.043638118 0.23855498 -0.052051906 0.34582543
0.42693695 0.38490647 0.15373056 0.38990137 -0.32313856 0.17701297 0.2870609 0.09628239
-0.22973296 0.48520496 -0.047992103 -0.2006339 0.2616898 -0.37444055 0.3055371 0.5257247
-0.124010086 -0.1924177 -0.26139835 -0.28926533 -0.25791943 -0.2715145 0.15699586 -0.049898665
0.385008 -0.0998279 -0.0062525836 -0.11945207 0.059748203 -0.061571267 0.19720636 0.03093164
-0.007058483 0.053546067 -0.34499446 -0.390114 0.15148161 -0.001961556 -0.16284563 0.18309653
0.09001792 0.13320388 0.051451717 0.21220705 -0.47109854 -0.06392392 0.05880725 -0.22314408
-0.3290307 0.26070544 -0.01789398 -0.10752866 -0.05504909 -0.3112 0.29586816 0.11296841
-0.16195817 -0.12778321 0.23308814 -0.12058507 -0.07878586 -0.5809425 -0.05869756 0.03597501
0.40936753 -0.3195109 0.074678205 -0.18678997 0.048241317 0.04348106 0.06944528 0.19473849
0.011083238 0.09383038 -0.19376726 0.018681223 -0.040273022 -0.03313398 -0.03817958 -0.10990261
-0.060627986 -0.2099456 0.035730693 -0.32791868 0.2019281 0.17486821 0.13179027 -0.10972116
0.03952635 -0.32468632 0.09766546 0.07202697 -0.13450019 0.17984477 0.06128357 -0.3207057
-0.13200042 0.059919238 0.15910038 -0.32473707 -0.502599 -0.09796761 0.1202173 0.06775672
0.18874864 -0.26984933 0.192963 -0.08119173 0.33780453 -0.11643401 0.10877267 0.43789154
-0.099411406 -0.00063555007 -0.40839872 -0.018478055 0.14006019 -0.17982875 -0.10508395 0.2316627
0.0016770016 0.012507578 0.07371667 -0.10077016 0.31326985 0.18427722 -0.09022818 0.1238915
0.259902 0.16881217 -0.36118564 -0.110233836 -0.22455579 0.08299132 -0.13630478 0.055253506
0.040004786 -0.36132786 0.05414955 -0.111911185 -0.07883265 -0.27208525 -0.14580406 -0.2811024
0.412337 -0.12513621 0.17408024 0.06763293 -0.020657789 -0.2495854 -0.09211876 0.041460823

net.2.bias f4 [20]
00000000: 377b 723d a959 acbd 2009 18be 2370 463d
00000010: 2f4a 233e 3ee3 ba3d 8300 eb3c 4e28 733e
00000020: 0bee 1a3e 30b1 a2bd 1434 8c3a 698b 1f3d
00000030: 6e13 c5bd 7faf 4fbe da99 68be 00f7 b53d
00000040: d9f9 623e 2070 c83d 3d16 0ebe 81db 2ebe
0.059199538 -0.08415539 -0.14847231 0.048446786 0.15946268 0.09125374 0.028686767 0.23745844
0.15129869 -0.07943952 0.0010696673 0.03895131 -0.096228465 -0.2028179 -0.2271494 0.08885002
0.22165622 0.09787011 -0.1387567 -0.17075922

net.4.weight f4 [20, 20]
00000000: 4b15 603e 30da be3e b1b4 babe c271 613e
00000010: ca9c 683f f9ff 983e 127f 7b3e 77cf 8bbe
00000020: 67f3 de3e 2b14 62be d734 853e 895d 6cbe
00000030: f49c dfbe 94ed 67bd bc57 15bf 17fe 933e
00000040: 0e28 193e eb12 ccbd 2f0a b3be 1579 62be
00000050: c6d6 60be 8b9a 2c3e 5d1e b1be 60e7 c93c
00000060: f5a0 9a3e fa51 563e 6765 d13d bbfc bbbe
00000070: f01f bf3e f692 b73d 52b4 a73e eaa9 a6bd
00000080: d145 5b3e b644 b33d 497f d6be 17cb 023e
00000090: a4bd cabd 0a7c 07be b707 a5be a2cb fabe
000000a0: c437 2f3e 6099 1b3e 0168 493e a58b 693d
000000b0: 3639 05be c2d0 ca3e f7eb 95be e1cc e33e
000000c0: c262 3ebe b1b7 6bbe 38eb 9e3e 32fb 0abe
000000d0: 0d76 8abe e0ea dfbc 4f2c b03e 0dab 3cbe
000000e0: e4f7 d13e eea0 0d3e c046 8b3e ac21 783e
000000f0: b984 d13c 6c90 b33e 0d09 973d 4295 6c3e
00000100: 5e7d e73e 02f0 93bd 59c9 973e 76a3 6fbe
00000110: 5bd0 9d3e 7fde 043e 6561 c63e e187 4fbd
00000120: ee6a 32be bfa1 0c3e 3684 c0bd 32d4 8a3d
00000130: 8fa9 d33d f4f6 e7be 70a4 d0bc a511 24be
00000140: ed5d 453e 974e a73d dc29 5a3d 53b3 253e
00000150: 22a9 9c3e 7c0c 6a3d 4036 da3d 09ef 85be
00000160: 95f1 b93e 4120 e53d 5b72 d83d d76c 98be
00000170: 758d 983c ea8d 33be c706 be3e 1440 ce3d
00000180: 8b65 233e a080 87bd b0c9 73bd 6871 93bd
00000190: 76fc c4bd 3cdd 11bd cd65 cf3e f123 0c3e
000001a0: 4fd4 c93d 40b5 4c3e 2039 c4be ce30 0f3e
000001b0: d963 b23d 4cde b03c fc2d 793d ff33 7ebd
000001c0: 210a a9be 8c6e 00be 48ca 653e b0bb 8ebe
000001d0: 45d3 863e af33 123e 5f37 923d 14b1 893e
000001e0: c33f ecbd 9052 de3d c2d5 cf3d d49d debd
000001f0: aeae 22bd 3f2f 943e 5970 a2be 7b93 b13e
00000200: abb7 a3be 183c afbe 35fb 4c3d d741 38be
00000210: 6d58 55be 996b efbd fd31 873e 540d cdbe
00000220: 3dc6 7d3e db4e 6c3d 578b 763e 7772 bd3e
00000230: 4272 ed3d af25 f8be 88d7 63bc 034f 0ebe
00000240: e529 1fbf 7bde 183e 7fb1 50be 9e38 993e
00000250: 6550 51be f263 cbbd e1c9 7bbe f19c 133e
00000260: 3c8a 43bd 70fd 8a3e 362d 3abe e6ba 983d
00000270: ccce 3fbd d29e b13d 29b6 8c3d efa0 a23e
00000280: 9e33 123e 5d43 f43d 1a50 683d 33bc 5bbd
00000290: fc55 f7bd b73a 10be 1c93 29bd c3b3 433e
000002a0: 192d 253d 0e41 2fbe 6d37 6fbd 5e52 23be
000002b0: 7bef 003c 4de0 34be b74e e53e dbce 80be
000002c0: 4c22 913e 8961 0c3e 4b96 3d3d c4a2 fcbc
000002d0: b22a 933c 4c7a b9bd 2f05 6abc f239 3abe
000002e0: 2743 483c 8d7c a6be 87a4 af3c ab84 5cbe
000002f0: 075e 9c3d 3359 bf3a 4937 87be 0211 c3bd
00000300: 3fa6 75bd 6cb4 3bbe 3f27 a63d 7390 6a3d
00000310: f056 98bd ce38 96bd 988a 913d 494f 2ebe
00000320: d8cc 19be a63f 29bd 5ddc f63c 5cef ecbd
00000330: bec7 c53d 2385 90be 7f13 2b3e af1b dbbe
00000340: 2d43 4a3e 2e8b aa3e 61b7 35bd acf7 2e3e
00000350: 8262 a13e e878 113e 0b28 233c cd08 10be
00000360: 0c3c a2be 8471 cdbd 8bbf ed3c fdce 87be
00000370: 8168 44bd 8218 2abc 59a0 f4be d12e 1c3d
00000380: 9945 853e cbd9 acbe 9e45 bb3e 3787 b5be
00000390: 0521 553e fc91 b63e e223 b53e 823c 2ebe
000003a0: d8a6 c43c 2fde 5ebe d2e2 8abe 921a c03e
000003b0: 45a2 cabd cefc b3be ade6 06bf 6153 dbbe
000003c0: ec78 1dbe 5b0c a1bd cfa8 96be a92e a1be
000003d0: 23cf d2ba b2fe ddbe 11d2 a83d 4590 d1be
000003e0: ce2c e8bc f0be e03e 2803 88bd f9ba 743d
000003f0: 9e7a 943e 257d 3c3e 7867 f6bd a3a0 8abd
0.21883123 0.3727584 -0.36465982 0.22016051 0.9086424 0.29882792 0.24560192 -0.2730672
0.43545076 -0.22078006 0.26016876 -0.23082556 -0.43674433 -0.056623057 -0.58337 0.28904793
0.14956686 -0.09964546 -0.34968707 -0.22116502 -0.2195693 0.16855828 -0.34593478 0.024646461
0.30200925 0.20929709 0.10224419 -0.36716256 0.37329054 0.089635774 0.3275476 -0.08137877
0.21413352 0.0875334 -0.41893986 0.12772785 -0.09899452 -0.13230911 -0.32232448 -0.48983485
0.17111117 0.15195227 0.1966858 0.05701794 -0.13010105 0.39612395 -0.2928159 0.44492248
-0.1859236 -0.23019291 0.31038833 -0.13572386 -0.2704319 -0.027333677 0.34408805 -0.18424626
0.41009438 0.13830921 0.27202415 0.24231595 0.025575982 0.35071123 0.07374773 0.23103812
0.45212835 -0.07223512 0.29645804 -0.23402199 0.30823025 0.129755 0.3874618 -0.050666694
-0.17423603 0.13733576 -0.09400217 0.06778754 0.10335075 -0.45305598 -0.025469035 -0.16022356
0.19274111 0.08169287 0.053262576 0.16181688 0.30597788 0.057140812 0.106548786 -0.26158932
0.36317125 0.111877926 0.105686866 -0.29770538 0.01862214 -0.17534605 0.37114546 0.10070816
0.15956704 -0.0661633 -0.059518516 -0.07199365 -0.096184656 -0.035611376 0.40507355 0.13685586
0.09854948 0.19991016 -0.38324833 0.13983461 0.08710451 0.021590374 0.06083487 -0.062061306
-0.3301554 -0.1254217 0.22440445 -0.2787757 0.2633306 0.14277528 0.071394674 0.26892912
-0.11535599 0.10855591 0.10148193 -0.10869947 -0.03971737 0.28942296 -0.3172634 0.3468283
-0.31976065 -0.34225535 0.050044257 -0.17993866 -0.20834513 -0.116904445 0.26405326 -0.4004923
0.24782653 0.05769239 0.24076591 0.37001392 0.115940586 -0.4846625 -0.013906367 -0.13897328
-0.621733 0.1492862 -0.2038021 0.29926008 -0.20440824 -0.099311724 -0.2458873 0.14415337
-0.047739252 0.27146482 -0.18181309 0.07457523 -0.046828076 0.08672871 0.06870682 0.31763408
0.14277503 0.11926911 0.056717016 -0.053646278 -0.12076947 -0.14084898 -0.04140006 0.19111542
0.04032621 -0.1711466 -0.058402468 -0.1594939 0.007869597 -0.17663689 0.44786617 -0.25157818
0.2834648 0.13709082 0.04628591 -0.030839331 0.017964695 -0.090565294 -0.014283462 -0.18186167
0.012223042 -0.325169 0.021440757 -0.21534984 0.07635122 0.0014598727 -0.26409367 -0.09524728
-0.059972998 -0.18330544 0.08112954 0.057266664 -0.07438457 -0.073350534 0.07106513 -0.17022432
-0.15019548 -0.041320466 0.030134374 -0.11569092 0.096572384 -0.28226575 0.16706656 -0.42794558
0.19752188 0.3330931 -0.044364337 0.17086667 0.31520468 0.14206278 0.009958277 -0.14065857
-0.31686437 -0.10031417 0.029021999 -0.26525107 -0.047951225 -0.01038182 -0.47778586 0.038130585
0.2602966 -0.33759913 0.3657655 -0.35454723 0.20813377 0.35658252 0.3537894 -0.1701527
0.024005339 -0.21764444 -0.27126175 0.37520272 -0.09894232 -0.35153812 -0.52695733 -0.4283705
-0.1537816 -0.07863685 -0.29425666 -0.3148091 -0.001608346 -0.4335838 0.08243192 -0.4093038
-0.028341677 0.43895674 -0.06641227 0.059748624 0.289998 0.18407114 -0.12031454 -0.0676892

net.4.bias f4 [20]
00000000: 8208 d83e 9646 ac3d 14d0 b03e ac02 813e
00000010: cfa6 993d 5fc4 b0bd 63b4 b93e fe47 74be
00000020: 4a0d 193e 87d6 74be 9631 bbbd a697 19be
00000030: 5171 58be e704 483e 8141 a5bd 1a68 77be
00000040: 3739 753e ef72 a13d ef0e dcbd 3019 4cbe
0.4219399 0.08411901 0.3453375 0.2519735 0.07502519 -0.08631205 0.36270437 -0.23855588
0.14946476 -0.2390996 -0.09140317 -0.14999256 -0.21136977 0.1953312 -0.080691345 -0.24160805
0.23947607 0.0788325 -0.10745036 -0.19931483

net.6.weight f4 [20, 20]
00000000: 3d1a 19bc fa6c 70be ffa6 94bd 0141 b43c
00000010: 6c01 69bd 9101 aebe 0c64 a1be 1724 dc3d
00000020: 8d70 e53d 3a9a ff3d 2398 1b3d 0c70 b83e
00000030: b879 803e 7428 a5be ebad 49bd 3c98 41be
00000040: aa3f 4a3e d385 463e 1649 e13d 71e8 36bd
00000050: 8dab c53e a04e fe3e 18cc 233e 5c40 adbe
00000060: 37c4 efbe 860b e3ba 5aba 823d 4a04 833e
00000070: 7e25 8cbe f0cd 4d3d c03e 4fbe 5a43 8c3d
00000080: b349 97be 595a df3e 9895 fd3e ab79 aa3e
00000090: e2da 523e b4c9 143d 9117 1a3f 3908 633e
000000a0: 5326 813e ed22 f7be de9b 9abe 607c d03e
000000b0: 90a9 a53d 78b8 673e d39b f5bd ab40 99be
000000c0: dd02 a43e faa3 083e 1fa9 1dba 40d2 46be
000000d0: 76dc 813d d0b1 9ebe 9682 813d cc2c ffbd
000000e0: 3bdb 9cbc 8435 003e fe43 19be 7683 4bbe
000000f0: 218f 803e 302d 043f 3fe0 bd3d 9048 0dbc
00000100: 479e 94bd 41e4 cbba a4ba 983d 5273 c03d
00000110: 2e7b c2be 6f00 3f3e 6022 453e 00a5 a1bd
00000120: ce7a 433d 88b4 3d3e 8da0 533e 3ad8 0a3e
00000130: 39d8 fd3d 58c9 813d 14f0 b53e fde2 e03d
00000140: fbd1 64be da32 763e 1abb b8bb 5e6f 6e3d
00000150: cbff aabd 4f7e 30bd e9bf 24be dc9b 423e
00000160: 2523 513d 09d7 233d e7f9 513d 1acb 673e
00000170: ea12 c13d 2cca 223d 7dc0 bc3d 4759 4fbe
00000180: 7ad9 dfbb 807e 02be ddae 17be 8659 7f3c
00000190: f8b7 a53e 0ae2 22be da51 a43d 7133 6d3e
000001a0: ef24 be3c 9386 bbbd c202 f8bd b1dd 9abe
000001b0: a96c 8d3e 885a 0dbe 37f3 e8bd 64ed ad3c
000001c0: 7d18 753e bfe0 f7bd f54b 143e 089d 0c3d
000001d0: 8bec 993e 3c9b 333e 0141 ff3c 573c 95bd
000001e0: e928 57be 5e42 edbe 68ac 923c 9c46 af3e
000001f0: b3b0 883d 9423 7a3e fbb2 51bc 6b28 1bbe
00000200: 2acd 373e e7bb 17be 8e7c fb3d 9bf2 9ebd
00000210: 5a4b 083e 48d4 95be c322 88be f387 54be
00000220: 70f6 1b3d 1c17 5d3d 7379 61be aac9 abbe
00000230: 85d8 cabd a0a8 833e 507d 69bd 130a 33be
00000240: 15b7 85be 4927 563e 65c0 61b8 93f1 6b3e
00000250: 442d 27bc df86 e6bd 13ff 023e 1857 2d3d
00000260: 559b 1d3d 1773 cf3e 6812 253d e5a8 1a3e
00000270: b5f4 843e 00ea a33c 6864 943e 4aa9 853e
00000280: 6ca1 96be b398 923e b974 8c3e 2ab9 22be
00000290: 5622 89be 3be9 393d df0e 80bd ca4a 833d
000002a0: 7cac 663c 8234 523c 972c 88bd a8b1 cd3d
000002b0: bdc9 ba3c d17b d93c 847e 9cbd 5c73 42bd
000002c0: 7c99 493d e7bb 00be 4b34 7b3e 1add 023d
000002d0: a6a1 c2be 802a 513e d4e6 b63c 92d2 cbbe
000002e0: fb65 d3bd 8c2b c4bd 9f1a f5bb db40 ba3e
000002f0: 981b 48bd dd37 b3bd 0a01 7dbd 3018 0e3e
00000300: 673c a8be e9c0 0b3e ee97 1abe 4ab5 663d
00000310: 8896 c5bd 906c 79be 3a7f ad3e f972 ffbd
00000320: f204 5e3e 2da0 cabe ffb4 81be 038b 3d3d
00000330: 0317 1fbe d737 1b3d 08c0 bfbe 8026 4a3c
00000340: 3fb3 63be 4544 403e 20c3 b03e 22c3 ac3e
00000350: ec2c 7d3e e1f5 b7be 1581 7a3e 58f3 2dbe
00000360: ca1f 4c3e bf48 76b8 97e0 2cbe fb4a 2ebe
00000370: 21f1 063f 7846 ef3e f723 cbbc 70bc 66bd
00000380: 549f 85be 2fc1 67bc 39cf 433e 615b 683d
00000390: df1b 3bbe 55c7 42bd 3d66 f83d cbc7 52be
000003a0: 957a 1dbc 82f2 c83e 8046 fa3e 4179 b33e
000003b0: 6d55 d23e 590d 783e 7aff cb3e 10d1 5a3e
000003c0: fb23 263f 2f2d ddbd a0a5 143e fec8 b13e
000003d0: 1ae3 a23e 9311 b6bd 81d4 4b3b 61d2 25bf
000003e0: c9fe 823e 5e6a 45be b8eb d5bb 2d93 253d
000003f0: aceb b5bd 2d6c 643c c21b ce3d a072 acbe
-0.009344635 -0.23479071 -0.072584145 0.022003653 -0.05688612 -0.3398557 -0.31521642 0.10749071
0.11203108 0.12480588 0.037986886 0.36022985 0.25092864 -0.32257426 -0.049238127 -0.18905729
0.19750848 0.19386987 0.11000268 -0.044655267 0.38607445 0.4966936 0.15995824 -0.33838165
-0.46829388 -0.001732216 0.063832 0.2558921 -0.27372354 0.050245225 -0.20238781 0.06848784
-0.29548416 0.43623617 0.49528193 0.3329595 0.2059131 0.03632517 0.6019221 0.22171105
0.25224552 -0.48268834 -0.30197042 0.4071989 0.08088982 0.22628963 -0.11992612 -0.2993215
0.32033435 0.13343802 -0.0006014276 -0.19416142 0.06340878 -0.30995035 0.063237354 -0.12459716
-0.019147506 0.12520415 -0.14967343 -0.19874367 0.251092 0.5163145 0.09271287 -0.008623257
-0.072567515 -0.0015555696 0.07457474 0.093969956 -0.37984604 0.18652509 0.19251394 -0.078927994
0.047724538 0.18525898 0.20666714 0.13559046 0.12394757 0.063372314 0.35534728 0.109807946
-0.22345726 0.24042836 -0.0056375386 0.058211677 -0.0834957 -0.043089207 -0.16088833 0.19004768
0.051058907 0.039999995 0.051263716 0.22636071 0.09427436 0.039743587 0.09216402 -0.202489
-0.006831345 -0.12743568 -0.14812799 0.015585309 0.3236692 -0.1590654 0.080234244 0.23164155
0.02321097 -0.09156527 -0.12109901 -0.30247262 0.27621964 -0.13804066 -0.113745145 0.02123136
0.23935123 -0.12103414 0.144821 0.034329444 0.3006328 0.17539686 0.031158926 -0.072868995
-0.210117 -0.46339697 0.017904475 0.34233558 0.06674328 0.24427634 -0.01279902 -0.15152137
0.17949358 -0.14817773 0.12279616 -0.07761117 0.13309994 -0.2926352 -0.2658902 -0.20754986
0.038076818 0.053977117 -0.22018985 -0.33552295 -0.09904579 0.25714588 -0.057004273 -0.17484312
-0.26116243 0.20913424 -5.382336e-05 0.23041372 -0.010203663 -0.11256193 0.12792616 0.042319387
0.038478214 0.40517494 0.040300757 0.1510349 0.25967947 0.02000904 0.28982854 0.2610572
-0.2942003 0.28632125 0.27432802 -0.15890947 -0.2678401 0.04538844 -0.062528364 0.06410749
0.014079209 0.012829902 -0.0664913 0.10043651 0.022801274 0.026548298 -0.076413184 -0.047473297
0.04921864 -0.12571679 0.24531667 0.03194914 -0.38013953 0.20426369 0.022326864 -0.3980909
-0.103221856 -0.095786184 -0.00747998 0.36377606 -0.04885444 -0.087508895 -0.06176857 0.13876414
-0.32858583 0.13647808 -0.15097019 0.056325234 -0.09647852 -0.2435782 0.3388613 -0.12473101
0.21681574 -0.3957533 -0.25333402 0.04627515 -0.15536122 0.03789505 -0.37451196 0.012338281
-0.22236346 0.18776043 0.3452387 0.33742625 0.24724168 -0.35929778 0.24463303 -0.1698736
0.19934002 -5.871872e-05 -0.16882549 -0.1702079 0.52711684 0.4673345 -0.024797423 -0.05633205
-0.2609812 -0.01414518 0.19122018 0.05672777 -0.1827235 -0.04755338 0.121288754 -0.20584027
-0.009611745 0.3924752 0.48881912 0.35053447 0.410808 0.24223842 0.3984335 0.21368814
0.6489865 -0.10799634 0.14516306 0.34723657 0.3181389 -0.08890071 0.0031102004 -0.6477414
0.2558501 -0.19278857 -0.006528344 0.04042356 -0.088828415 0.013941807 0.10063888 -0.33681202

net.6.bias f4 [20]
00000000: 4972 8ebd 962c 9ebe bdec 2bbe 43d9 80be
00000010: 6d7c dbbd bc04 8d3e 0ef3 e73d 9c99 89be
00000020: a288 34be c5b6 7c3a 94fb a8bd ea3c 26be
00000030: 5a4b 053e 58a0 bebd 496a 6e3d 5544 8abd
00000040: a764 4d3e cc64 0f3e 6d6a 233e ea92 a8bd
-0.06955392 -0.3089339 -0.16789527 -0.25165758 -0.10717092 0.27542675 0.11325656 -0.26875007
-0.17630246 0.0009640272 -0.0825111 -0.16234174 0.13017026 -0.09307927 0.05820683 -0.067513146
0.20057927 0.14003295 0.15958567 -0.08231147

net.8.weight f4 [1, 20]
00000000: f5a4 7abe 3fd7 793e 9536 d5be e32c 9f3e
00000010: fddc 0e3d 55a9 8abe 373a cdbe 372b ab3e
00000020: 08a5 873e 6c9c 083f ca55 43be 6eea f23e
00000030: f28d b8be 6b4a 98be 47d4 b4be abc3 e33e
00000040: 3690 b6be 20f7 953e db94 933e cef7 963e
-0.24476989 0.24398516 -0.41643205 0.31088933 0.03487872 -0.27082315 -0.40083477 0.33431408
0.26493096 0.5336368 -0.19075695 0.4744448 -0.36045796 -0.29744276 -0.35318205 0.4448522
-0.356569 0.29290104 0.28824505 0.29485935
