Code/Trained models/m_mu_k_500_norm_4001.pth (torch, 9518 bytes, 9 tensors)

net.0.weight f4 [20, 6]
000000 66 c5 80 bf 7e 61 0c bd c0 7b 02 3d 3e ad b0 bd
       -1.0060241 -0.034272663 0.0318563 -0.08626793
000010 4b 9c d5 bc 42 6c 90 be 38 bc af be 5c 9a b5 3c
       -0.026075503 -0.28207594 -0.34323287 0.02216833
000020 1b a9 3e 3c 13 be 03 be f2 19 0e 3e 69 71 fc bd
       0.011636998 -0.12865476 0.13877085 -0.12326319
000030 2d a0 1e bf ae 53 10 be 03 05 6c 3c 28 88 24 bc
       -0.6196316 -0.14094421 0.014405492 -0.010042228
000040 28 25 d0 3e f1 81 86 be 46 16 34 3d 71 2a fa 3d
       0.40653348 -0.26271012 0.043966554 0.12215126
000050 b8 d4 28 3d 80 6d a3 3d 49 30 9b 3e db a4 85 be
       0.04121849 0.0797987 0.30310276 -0.26102337
000060 2c b1 06 3f b2 e8 0d bd de 4d 81 bd f7 fe 59 bd
       0.5261409 -0.034645744 -0.0631368 -0.05322167
000070 f4 04 19 3e f9 ed 04 3d 5e 79 13 3f 8d 5b 1d 3d
       0.14943296 0.03245351 0.57607067 0.038417388
000080 fd 9f 0f bd 23 ca 00 3d f1 ba 2f be f0 68 54 be
       -0.035064686 0.031442773 -0.17161156 -0.20743155
000090 35 0d d6 be 3e 94 d7 bc 39 d0 8b 3c b1 0a 5d bc
       -0.4180695 -0.026315805 0.017067062 -0.013491319
0000a0 d1 0b 8b 3e d6 10 08 bf b7 53 4e bf 78 6f 62 bc
       0.27157453 -0.5315069 -0.8059649 -0.0138205215
0000b0 c2 d4 41 bc f7 86 d2 3d c5 8a 38 3e dc bb 8e 3e
       -0.011830511 0.10279649 0.18021686 0.278777
0000c0 a9 3d 08 3f 69 4b 37 bc ef 0f 90 bc 5e f6 61 3d
       0.53219086 -0.011187413 -0.017585723 0.055166595
0000d0 b8 a8 e1 3c b5 8d 7b be 38 c5 69 be 11 8e 80 3d
       0.027546272 -0.24565776 -0.22829139 0.06277097
0000e0 3c 5e 26 3e 0d f3 34 3e 00 01 7b bd ae 36 16 bf
       0.16246885 0.17670842 -0.06128025 -0.58677185
0000f0 df 56 a2 3e 00 2f ac 3c a9 ce 69 3d 0c a3 9f bd
       0.31706902 0.021018505 0.057081852 -0.077947706
000100 69 77 4e 3e 7a 08 0d 3e 8e 36 04 3f 90 b6 10 be
       0.20162739 0.13772765 0.51645744 -0.14132142
000110 37 8b 6c 3d 8a d9 e1 bb c6 d1 82 bc 67 34 68 3c
       0.057749953 -0.0068923878 -0.015969168 0.01417265
000120 69 d4 3e bf de 37 42 3d a3 99 9f bb 09 fa 2b 3d
       -0.7454286 0.04741656 -0.00487061 0.0419865
000130 27 9a 24 3e d6 b2 7d 3d c8 46 e9 3e dc a6 75 bd
       0.1607443 0.06193813 0.45561814 -0.059973583
000140 05 c7 59 bd 1b 70 bf 3d b4 da a4 3d f6 3d 72 be
       -0.053168315 0.09347554 0.08049527 -0.23656449
000150 21 cc 85 be e3 91 33 3e 95 85 05 be 6e 22 2f be
       -0.261323 0.1753612 -0.13039239 -0.17102978
000160 e3 46 b0 3e 0a ba 90 be de a1 f1 3e af ae b6 3a
       0.34429082 -0.28266937 0.47193807 0.0013937558
000170 ae 13 97 3d 11 4d 8c 3d 85 21 aa be 64 ee 94 bd
       0.073768005 0.06850637 -0.33228698 -0.07272032
000180 4d 1f 01 3f 02 f6 04 3d fc 3c fe bc 2f 2e 8f bd
       0.50438386 0.032461174 -0.031034939 -0.06991231
000190 3c 16 af 3e d7 fc 3c bc 8b 72 f1 be 1e 2a f3 bb
       0.3419665 -0.011534891 -0.47157702 -0.0074207922
0001a0 d2 bd 81 bb 29 df 7e bd 21 c4 09 3d cf bb 9c 3e
       -0.003959396 -0.06222454 0.03363431 0.30612037
0001b0 5f 9b 06 bf 36 c4 1b 3d 80 4d 90 3d 94 d9 24 bd
       -0.5258083 0.03802892 0.07046032 -0.04024656
0001c0 08 ef 80 be 5c 13 9d 3e 59 20 38 3f 70 ea a6 3b
       -0.25182366 0.30678833 0.7192436 0.005093865
0001d0 d7 dc 48 3d fe 62 f7 bc cf 4b ed 3d ab ec 10 3e
       0.049038734 -0.03019857 0.11586725 0.14152782

net.0.bias f4 [20]
000000 e4 f8 0b 3e 09 a5 cb 3c f7 2b 8f 3e ed 29 b5 3e
       0.13669163 0.024858968 0.2796323 0.3538355
000010 3a 60 cc 3d c1 6b 84 3d 19 d3 01 3e 1a f4 d8 be
       0.09979291 0.06465865 0.12678184 -0.42373735
000020 a3 f3 d7 3e 17 8d 0d 3d a3 ca be 3e a6 da 60 be
       0.42178068 0.034558382 0.37263975 -0.21958408
000030 62 97 8d be e0 2e 19 3e a5 f3 89 be ee 63 6e 3e
       -0.27654558 0.14959288 -0.269437 0.23280308
000040 c8 dc 70 3e b7 5c d9 be f4 2b 4a 3e 2e ed 14 be
       0.23521721 -0.42453548 0.1974333 -0.14543602

net.2.weight f4 [20, 20]
000000 0f 7a 2f 3e b6 82 7b be 07 12 4d 3d 49 a5 ad 3d
       0.17136405 -0.24561581 0.05006602 0.08478791
000010 43 90 d8 3d 20 a9 57 3e 92 56 21 bc 24 97 b4 be
       0.10574391 0.2106061 -0.0098473 -0.3527156
000020 ea bb 8c 3e 1e 03 6b 3c 7d a9 92 3d 8b 64 22 be
       0.27487117 0.014344005 0.071612336 -0.15858667
000030 78 a4 55 be db 1b 78 bd 18 02 64 3e 1c 35 25 3e
       -0.20863521 -0.06057344 0.22266424 0.16133541
000040 83 2c a3 3e a4 dd 7e 3d 70 40 41 3d 25 87 be 3d
       0.31869897 0.06222309 0.047180593 0.093031205
000050 1c cf 51 bd 0e 6b ae be 72 8b 13 bd d7 3f df 3d
       -0.051222906 -0.3406605 -0.036021657 0.10900848
000060 9a d4 98 3e 36 54 9a 3e 72 2e 7b be a3 1c ba be
       0.29849702 0.30142373 -0.24529436 -0.36349973
000070 c6 9d ea 3e 48 58 40 3e 3f 39 39 3e f5 13 82 bc
       0.45823497 0.18783677 0.18088244 -0.015878657
000080 bd e7 fa be 5e 8c d0 3d 6d 33 85 bc a8 b6 bc 3d
       -0.49004927 0.10183023 -0.016259873 0.092145264
000090 aa ff c3 3e 68 e9 2a be ec 1c 4c be df b4 d6 3e
       0.38280994 -0.166906 -0.19932908 0.4193487
0000a0 3a 9d 7b be bf 61 69 3e 6e ea 4b be 0b d7 71 be
       -0.24571696 0.22791193 -0.19913647 -0.23617189
0000b0 ff f1 25 be a7 2d 8f be ec 30 7f be 6f 4b 66 3f
       -0.16205595 -0.27964517 -0.24921006 0.8995885
0000c0 b1 be 23 bf 76 e5 c3 be 71 14 f9 be fb fe d4 be
       -0.63962847 -0.38261002 -0.48648408 -0.41600785
0000d0 ec 79 ca 3e f0 df 99 be 13 01 43 3e 97 2f 08 bf
       0.39546144 -0.30053663 0.19043379 -0.53197616
0000e0 a2 31 5e be 76 4c e6 3e 77 34 11 3f 93 30 52 be
       -0.21698621 0.4498021 0.5672068 -0.20526342
0000f0 a6 64 9b 3e f3 1f a2 be 7c 68 ef bd bb 4c 18 bc
       0.30350226 -0.31665 -0.11689851 -0.009295638
000100 3a 0d 93 bd 7d b9 38 3e 84 81 a0 3d 3c 26 b7 bd
       -0.07180257 0.18039508 0.07837203 -0.089428395
000110 c7 d7 8d 3e a7 23 8c 3c 3a 48 1d 3d 2c 25 7a 3e
       0.27703688 0.017106844 0.03839896 0.24428242
000120 47 6d 65 be 49 90 68 3e 26 bc 92 be 2d dc c2 3e
       -0.22404967 0.2271129 -0.2865917 0.38058606
000130 db 29 84 3d 67 b2 a7 be e3 f0 aa be 53 c8 8d 3e
       0.06453296 -0.32753298 -0.33386907 0.27691898
000140 09 31 53 3e 55 b1 9b 3e 92 7c ec 3d 57 5a 91 3d
       0.20624174 0.3040873 0.115471974 0.07097309
000150 77 45 b0 be 1d 0d 89 be 50 f5 17 3e 17 2a ff 3e
       -0.34427997 -0.26767817 0.14839673 0.498368
000160 76 33 16 be b9 73 84 bd e8 f1 53 be de 50 47 be
       -0.14668068 -0.06467385 -0.20697749 -0.19464442
000170 bf 31 75 3e 01 7b 9d be 4f 03 f1 3c 71 fd 0d be
       0.23944758 -0.30757907 0.029420523 -0.13866211
000180 c3 2a c9 bd dd 3f d8 3e da 3f a5 bd 97 30 f5 be
       -0.09822609 0.42236224 -0.08068819 -0.47888634
000190 92 0f b0 bb 67 3f c8 3d 1c 43 34 3e d4 f9 a2 bd
       -0.00537295 0.09777718 0.17603725 -0.07957807
0001a0 18 f1 85 bd 4f 2d d5 be 90 69 d2 3a 6f 3e 5c 3e
       -0.065401256 -0.4163613 0.0016053189 0.21508192
0001b0 4c 5c 42 be 46 73 69 3d 57 08 ac be 9d 33 6a be
       -0.18980521 0.0569947 -0.33600113 -0.22871251
0001c0 11 a9 4c 3e 6e d5 cd be 3e 25 33 3d b9 87 19 3d
       0.19986369 -0.40201896 0.04373669 0.03748295
0001d0 5f de ad be af c0 37 3e 53 31 b1 3d 72 41 fe be
       -0.33958718 0.17944597 0.08651986 -0.49659306
0001e0 78 2e 1a be 4a b0 38 3e 67 b3 b4 3e 7e 57 94 bd
       -0.15056789 0.18035999 0.35293123 -0.0724325
0001f0 b8 28 a8 bd 6b 11 b0 be d2 e0 9a 3c ee 74 c3 3d
       -0.082108915 -0.3438829 0.01890603 0.09543787
000200 3c 0a dd bd 0e e0 32 3e d8 35 87 be 3f 7c 02 3e
       -0.10792968 0.17468283 -0.26408267 0.12742709
000210 b8 8c f1 3e cd 7f 8d 3d 6b 77 56 3d a7 da 83 be
       0.47177672 0.06909142 0.05235998 -0.25752756
000220 dd 18 07 bf 32 b2 c5 3c 33 8d 2a 3e 0a d4 ff be
       -0.52772313 0.024132822 0.16655426 -0.4996646
000230 30 93 c5 bd 13 17 95 be 51 bc 71 be 1f da 7c 3d
       -0.096472144 -0.29119167 -0.23606993 0.061731454
000240 13 f1 f9 3d 6a 4c b9 3d 7c 65 06 3e 6e fc b6 be
       0.122041844 0.09047778 0.1312465 -0.35739464
000250 55 ee 4d 3e 02 ff 2f 3e 65 9f 03 3e 34 a0 73 3c
       0.20110448 0.17187122 0.12853773 0.014869738
000260 49 dc b2 be 9a 88 ee bd 34 3c d7 bd 4b d7 37 3e
       -0.3493369 -0.116471484 -0.1050953 0.17953221
000270 52 98 9e 3e b7 cf 94 be 16 76 e4 be a8 95 5b bd
       0.30975586 -0.29064724 -0.44621342 -0.05360952
000280 4c 5f b0 bd 8e 77 48 3e a4 1c c0 3d 88 dd 18 be
       -0.086119264 0.19576856 0.09380463 -0.14928257
000290 e1 9e 48 be 80 ba d3 be 77 ee 9b bd d1 57 f7 3d
       -0.19591857 -0.41353226 -0.07613843 0.120772965
0002a0 a4 10 b2 be 07 20 5f 3e 3e 70 58 bd a5 b3 1a bd
       -0.3477832 0.21789561 -0.052841417 -0.03776898
0002b0 1d be 9b 3e f7 6e 2c bc 0e f4 53 3c dc 2a 4b be
       0.30418482 -0.010524503 0.012936605 -0.19840568
0002c0 18 19 ee be 10 04 55 3d 06 bf 39 3e 47 f5 f3 be
       -0.4650352 0.052005827 0.18139276 -0.4764807
0002d0 8e b9 6b 3e 20 b2 0d bf fb d8 db 3e c7 64 3c 3e
       0.23020002 -0.5534992 0.4293898 0.18397819
0002e0 ac ab 86 3e c9 8b 0d 3e 93 01 3b 3e 11 52 d9 be
       0.2630285 0.13822855 0.1826232 -0.42445424
0002f0 83 22 86 3e 6b 1f f7 3d cf 1d b8 3e 27 a5 bc 3e
       0.26198205 0.120665394 0.35960242 0.3684475
000300 b7 89 23 bf 00 62 3b 3f de e8 ae 3d 4f 76 80 3e
       -0.6388201 0.7319641 0.0854051 0.25090262
000310 5d f2 09 3e 4a 64 8a be 3a 43 1b bf 02 9b d5 3e
       0.1347136 -0.2702964 -0.60649455 0.41719824
000320 1d ee 82 bc b0 a2 d8 bd 80 bf 9d be a3 ad 8f be
       -0.015982682 -0.10577905 -0.30810165 -0.28062162
000330 ce ff b2 3e 1e 3e 09 3e 04 65 3c be f4 ea 89 be
       0.34960788 0.13402602 -0.1839791 -0.26937068
000340 b1 09 20 be 17 4c 4f be 31 b0 47 3e 74 d1 61 3d
       -0.15628697 -0.2024387 0.19500805 0.05513139
000350 05 c5 6e bd cd ec 79 3c 55 7b 6d 3e 57 59 42 be
       -0.05829336 0.015254212 0.23191579 -0.18979393
000360 a5 2c b3 3e 6a b9 0f 3e 75 f7 4f 3e a0 fd 86 3e
       0.34995 0.14035574 0.20309241 0.26365376
000370 08 ce 6d 3d ef 27 18 bf 04 71 33 3d 46 dd 6b bc
       0.058057815 -0.59435934 0.043808952 -0.014396017
000380 fc 43 9e 3e d8 7d 9a 3e c8 21 d3 3c b1 68 b9 bd
       0.30911243 0.30174136 0.025772944 -0.090531714
000390 29 a3 2a 3e 09 99 e7 3c 5c c7 11 3f 2a 10 bb 3e
       0.16663803 0.028271215 0.56944823 0.3653577
0003a0 cd 5b 03 bf af 55 9d 3d f2 87 d5 bd 0f df d4 3e
       -0.5131195 0.076823585 -0.1042632 0.4157643
0003b0 88 94 93 3c 2f 11 6e bd 43 5a 96 be 53 00 94 3e
       0.018015161 -0.058121856 -0.2936574 0.28906497
0003c0 6f c2 c4 bd 92 2e 9a 3e cd 4f 24 be a8 24 49 3d
       -0.09607398 0.30113655 -0.16046067 0.049107224
0003d0 f3 f5 b5 bd 5f 4a fd bd 9b 3a 7f 3e e1 6a 9a bd
       -0.08884802 -0.12367701 0.249247 -0.07539917
0003e0 e8 39 66 be 56 ca 83 bc f7 3a 9b be 38 8e eb 3d
       -0.22483027 -0.016087692 -0.30318424 0.115017354
0003f0 c0 04 1a 3e 3a 0d 3e bf 47 6a d5 be 7b 10 69 3c
       0.15040874 -0.7423893 -0.41682646 0.014225121

net.2.bias f4 [20]
000000 04 77 78 3e 26 02 04 3e f3 19 49 bb 76 21 70 3d
       0.24264151 0.12891445 -0.0030685633 0.05862566
000010 1e 54 db bc 59 8e c8 bd 91 d1 32 be f8 29 45 bd
       -0.026773509 -0.09792776 -0.17462756 -0.048135728
000020 e7 69 85 be e0 6c e4 bd f9 1b d4 3e 61 57 87 bd
       -0.2605736 -0.11153579 0.4142759 -0.06608463
000030 dc 77 1c 3e eb 9c 43 bd 18 48 30 3e 96 c0 4f be
       0.15280098 -0.04775707 0.17215002 -0.2028831
000040 31 48 38 be e8 55 7e 3e 6d 7c c5 bd 54 dd da 3e
       -0.17996289 0.24837458 -0.09642873 0.42746985

net.4.weight f4 [20, 20]
000000 10 af 57 3e b9 09 05 3f fe d4 30 3e 7b ea 81 3e
       0.21062875 0.5196796 0.1726875 0.25374207
000010 d6 a5 e4 be 69 c7 5c be bd a7 9b be 90 dc cf 3e
       -0.44657773 -0.21560444 -0.30401412 0.40597963
000020 8f 75 83 be 7a b7 34 3e 76 10 5e 3e 4c a1 56 3e
       -0.25675628 0.17648116 0.21685967 0.20959967
000030 5e 33 9a bd 73 ea fd 39 04 43 15 3f 6a 85 d6 be
       -0.07529329 0.000484306 0.5830538 -0.41898662
000040 27 51 d9 bd f4 32 5a be 62 f4 cc be d8 bb 9a 3c
       -0.10611182 -0.213085 -0.400302 0.018888399
000050 3f c4 31 3c 7c 2f d6 3d 71 a0 47 3e 1e 35 3b 3b
       0.010850011 0.10458276 0.19494797 0.0028565596
000060 46 f8 5a be ef e8 2f bd 19 91 49 3d ca dd 24 bc
       -0.21383771 -0.042946752 0.04921064 -0.010062644
000070 1f 9b 84 3e 16 4c 4c be 71 80 2f be 4a c0 63 bd
       0.25899598 -0.199509 -0.1713884 -0.055603303
000080 b7 11 44 3e 17 22 fa 3d fa a0 67 3e 61 7c 2a bd
       0.19147383 0.12213533 0.22620001 -0.041622523
000090 53 c2 85 3e 7e 48 96 3e 5f c4 6c 3e 45 bc 95 3d
       0.2612482 0.29352182 0.23121785 0.073113
0000a0 fd 3b 04 bf e0 a7 c7 be 2a 74 54 3d a7 21 04 3e
       -0.51654035 -0.38995266 0.051868595 0.12903462
0000b0 f6 b9 ee 3d 32 60 de 3e 87 ea 6b 3e e5 59 76 be
       0.11656563 0.43432766 0.23038684 -0.2405773
0000c0 4b a9 06 3e fc 1f 2a be a8 db f1 3d 49 a6 13 3e
       0.13150518 -0.16613764 0.11809474 0.14418902
0000d0 a9 11 68 bd 81 94 8b 3c 6d 7d 4f be aa b1 85 3e
       -0.056657467 0.017038586 -0.2026269 0.2611211
0000e0 52 d9 60 3e d8 38 22 3e 4b 86 9d 3d 91 7a 36 be
       0.21957901 0.15841997 0.0769163 -0.17820193
0000f0 34 21 73 3e 25 22 12 3d ea ad 88 be eb 8c 20 3e
       0.23743135 0.035677094 -0.26695186 0.15678756
000100 b1 1b b0 be cf f4 85 bd fe 78 ae be a4 b2 96 3e
       -0.34396127 -0.06540834 -0.34076685 0.29433167
000110 2d 8c 91 bd dc 32 d2 bd 09 e5 fb 3d cd 2b 8d 3d
       -0.071068145 -0.10263607 0.12299544 0.0689312
000120 9a 31 93 3e ba 56 88 bd ab dc 41 bc 20 18 a6 be
       0.2874878 -0.06657167 -0.0118323965 -0.3244028
000130 0a bf 77 3e 52 49 d4 bd bf 0c 0e be e4 48 2f 3e
       0.2419397 -0.10365547 -0.1387205 0.1711765
000140 49 c4 b2 3d 3b 67 0e 3e 0b 13 9e be a7 f2 04 3f
       0.08728845 0.13906567 -0.30873904 0.5193276
000150 88 a0 9c be 79 9f 7c be c6 bf 11 be 46 76 46 3e
       -0.30591226 -0.24670209 -0.14233312 0.19381055
000160 b9 90 dc bd f4 b3 11 3f 7e 2d cd be 94 ef 51 3f
       -0.10769791 0.5691521 -0.4007377 0.8200619
000170 14 30 d5 be 99 5c 0d bf 3e f6 98 be 6d ab 08 bf
       -0.41638243 -0.5521942 -0.29875368 -0.53386575
000180 17 83 f5 3e 8b 21 1c bf bd d8 11 3d 98 03 00 bf
       0.47951576 -0.6098868 0.03560709 -0.50005484
000190 c1 87 3b 3d 8d d9 83 3e 3d bc 09 bf 23 f9 75 3e
       0.045783762 0.25751916 -0.53802854 0.2402082
0001a0 10 a4 9d be 76 ce 06 bf 9c d2 ed be 90 ec fc 3e
       -0.30789232 -0.52658784 -0.46449745 0.49399233
0001b0 e9 4a 8d be 60 d0 2f 3e ec b4 e4 bd 6b b7 1a 3f
       -0.27596214 0.17169333 -0.111673206 0.60436124
0001c0 5d 47 cc be 49 cd 01 bf b9 80 2e 3d b9 9d a8 be
       -0.39898196 -0.50703865 0.04260323 -0.32932833
0001d0 d8 7f 02 3e 35 bc d9 be 2f f0 10 be d6 8c c9 be
       0.12744081 -0.42526403 -0.14154123 -0.39365262
0001e0 52 91 d8 3e cd 8d 95 3d 71 f4 04 bd 3b a0 66 3e
       0.4229837 0.07302437 -0.03245968 0.2252206
0001f0 fa 98 b1 be 6e 81 bc bb b4 d5 aa be ce e5 cd 3d
       -0.34687024 -0.005752734 -0.33366168 0.100535974
000200 5d f3 b6 be 33 a3 e2 3d 69 3d 97 3e bb a7 64 3e
       -0.35732546 0.11066284 0.2953904 0.22329609
000210 3e e0 22 3d 3c d4 83 be 71 8d d3 3e 6b 3e 43 be
       0.039764635 -0.2574786 0.4131885 -0.1906678
000220 2d 25 c7 3c bb c0 44 be ec 2c 6f be 72 13 50 be
       0.024309719 -0.19214146 -0.2335698 -0.20319918
000230 ee e3 7c 3e d6 c0 8f bd 72 8c 39 be f0 31 3d be
       0.24696323 -0.070192024 -0.18119982 -0.18476081
000240 1d 56 dc 3c 13 a7 df 3d d3 cf ca 3e de e3 d2 be
       0.02689653 0.10920539 0.39611682 -0.41189474
000250 ec f2 b0 3e d2 fa 94 be a9 b3 bf bd 07 c0 c7 be
       0.34560335 -0.2909761 -0.09360439 -0.39013693
000260 a0 7d a1 3e d1 51 09 3f 46 24 8d 3c 15 16 36 3e
       0.31541157 0.53640467 0.01722921 0.17781861
000270 e0 91 9a 3e 5c 25 05 3f 2d 4a 8c 3e 27 9d 6a 3e
       0.3018942 0.5201013 0.27400342 0.22911511
000280 07 8a 44 3d e4 b2 be 3e c7 2f fe 3e ff 80 fa be
       0.047983196 0.37245858 0.49645826 -0.4892654
000290 ec 4d d9 bd ce ed 24 be 2c 7f e6 3d 48 2b 9a be
       -0.106105655 -0.1610634 0.11254725 -0.30111146
0002a0 a5 d4 a8 3d c6 d9 fc be 1e 6e 4c 3b 41 f5 44 be
       0.08243684 -0.49384898 0.0031193565 -0.19234182
0002b0 9c e8 06 bd 82 3d 43 3e 58 db 54 3e 01 09 8c be
       -0.032936677 0.19066432 0.20786798 -0.2735062
0002c0 07 20 a8 3e e4 5c 0c 3f da ae 48 3e 15 aa 59 3f
       0.32836935 0.5482924 0.1959795 0.8502515
0002d0 a0 73 8f 3e cd 12 b3 3b cf ef cf be f1 ba e8 3e
       0.28017902 0.0054648877 -0.40612647 0.45455125
0002e0 63 3c 96 bd 1f d0 ff bd 47 1c 90 be 1c b3 ff 3e
       -0.073357366 -0.12490868 -0.28146574 0.49941337
0002f0 9c 8c bf be 18 58 2e 3f e3 ae 03 3e ae 9a 19 3f
       -0.37411964 0.6810317 0.12859683 0.6000165
000300 72 1b 8e be 69 b0 51 be 43 3c b7 3d ad 5e dc be
       -0.27755314 -0.20477451 0.08947041 -0.43040982
000310 2f 2f e2 3e 10 b4 d8 be 0c e5 79 3d ab 73 c8 be
       0.44176623 -0.42324877 0.06100945 -0.39150748
000320 0a ca d9 3e 5d f7 ee 3e eb ef 87 be c0 17 f2 3e
       0.42536956 0.46673098 -0.2655023 0.47283745
000330 92 13 dd be 84 ee de be 45 57 c4 be 8b f3 90 3e
       -0.43178993 -0.43541348 -0.3834783 0.2831081
000340 78 69 c0 be ec 29 b9 3d d7 c2 ec bc 47 b5 03 3e
       -0.37580466 0.09041199 -0.0289015 0.1286212
000350 7b 67 62 be 8e 00 c2 be b9 81 2d 3e f9 cd 81 be
       -0.22109787 -0.37891048 0.16944017 -0.25352457
000360 2b 0f 68 bd 68 7f ce bd e4 4a 96 be 63 28 97 be
       -0.05665509 -0.100828946 -0.29354012 -0.29523
000370 38 61 d2 bd 36 04 3c be 38 62 3f be a6 0f 0f 3f
       -0.10272449 -0.18360981 -0.18689811 0.5588325
000380 6e 2b 92 3c 81 6f 16 3f 69 f4 84 bd ae 4a 0c 3f
       0.017842975 0.5876389 -0.0649193 0.5480145
000390 ea e3 0b 3e 5c 60 1e 3e 29 c5 1c be 49 3b 2f 3e
       0.13661161 0.15466446 -0.15309586 0.17112459
0003a0 c3 ba b5 3d 5f 71 1b be 10 5b 31 3e 68 33 93 bc
       0.088735126 -0.15179966 0.17319894 -0.017968848
0003b0 9f 0d 21 3e 75 c8 d8 bc c4 a7 9d 3e b0 87 48 bf
       0.15727852 -0.026462773 0.30792058 -0.7833204
0003c0 31 2e 0b 3e 4d 3e a4 3e 96 23 26 3f e2 62 12 bf
       0.1359184 0.32078782 0.6489805 -0.57182133
0003d0 9b 9a fc bd c9 7a a8 be 75 f4 20 be fe d2 91 be
       -0.12334176 -0.32906178 -0.15718253 -0.28481287
0003e0 7c f8 a9 3d cf 07 d8 bd 6a e9 f6 3d 85 dc e5 be
       0.08299348 -0.10548364 0.12056239 -0.44894806
0003f0 82 a4 f8 be 72 e7 fd 3d e4 25 47 bd 09 21 09 be
       -0.4856301 0.1239766 -0.04862012 -0.13391508

net.4.bias f4 [20]
000000 fd 3c 0e 3e 5c 92 4b be 06 21 90 3d 6e 0b 4a 3e
       0.13890453 -0.1988005 0.07037549 0.19730923
000010 8d 4f 9a be 37 53 9e be 2b 8c d5 3d c1 64 8f be
       -0.30138817 -0.30922863 0.104271255 -0.28006557
000020 a4 4e 89 be fd 31 38 be 67 33 32 3e 3a 8b aa bd
       -0.2681781 -0.17987819 0.17402421 -0.083273366
000030 29 6d d2 bc a0 22 03 3d f4 77 82 be 9e f3 12 be
       -0.025686817 0.032015443 -0.25482142 -0.14350745
000040 df c4 ed bc d1 ba ad bd 50 10 94 bc 07 7c 12 3e
       -0.02902454 -0.08482898 -0.018074185 0.14305125

net.6.weight f4 [20, 20]
000000 e0 f7 ba bd e4 fa a7 bd c0 f0 05 3d c1 3b 5a 3e
       -0.0912931 -0.082021505 0.0327003 0.21311857
000010 a4 87 c0 be 25 19 b1 3e 4a 22 96 3d ab 37 7b be
       -0.37603486 0.34589496 0.07330759 -0.24532954
000020 f2 f7 dd be 02 05 03 bf e1 45 d3 be 0c 58 07 be
       -0.4335323 -0.51179516 -0.4126425 -0.13217181
000030 8a 55 08 3e 63 e7 ee bd 5b 2f f5 bd 0c 2e c3 bd
       0.1331388 -0.11665227 -0.11971923 -0.09530267
000040 60 a6 0c be b1 22 10 3e 85 fb 41 be 09 c7 9e 3e
       -0.13735342 0.14075734 -0.18943603 0.31011227
000050 05 2a bb bd cb fe a2 3d 13 b8 37 3e 10 5a 9e be
       -0.09138874 0.07958754 0.17941312 -0.30928087
000060 06 cf aa bd b6 a6 dc bd 94 2d 7a be 73 83 68 3e
       -0.08340268 -0.10773985 -0.24431449 0.22706394
000070 bc 33 22 be 6d d0 5c be 52 b2 e4 be 82 09 3c 3e
       -0.15840048 -0.21563883 -0.44667298 0.18363002
000080 57 89 fe bc b0 37 9d 3e e3 b2 c1 3c 26 67 e6 3c
       -0.031071348 0.3070655 0.02364487 0.028125357
000090 87 d7 79 3e d1 44 61 3e 48 6a 12 3e 5a 2f 38 3d
       0.24398623 0.21998908 0.14298356 0.044967033
0000a0 6f c0 43 3d ce 37 82 3d 71 fe 59 3e a6 65 7f be
       0.04779094 0.063583 0.21288468 -0.2494112
0000b0 37 24 96 3e 42 5f 84 be 47 26 1f 3e 95 66 4e 3e
       0.29324505 -0.25853926 0.15541945 0.2015632
0000c0 79 a7 9b 3d 10 0b a0 3e fc 9f d2 3e c0 15 20 3e
       0.07600302 0.3125844 0.41137683 0.15633297
0000d0 d1 af c2 bd ba d9 2c bd f8 b3 7a 3e bc c0 45 be
       -0.095061906 -0.042199828 0.24482715 -0.19311804
0000e0 a3 27 01 be 95 c3 1b 3e d9 d4 84 be e8 4b 70 be
       -0.12612776 0.15211327 -0.2594364 -0.23466456
0000f0 71 a7 8f be cd fc 19 be b4 c0 07 be 6c 07 2c 3e
       -0.28057435 -0.15037842 -0.13257104 0.16799706
000100 94 c3 c6 be 1e 77 a9 3e 1e 6f 3a 3e e5 d1 d2 bd
       -0.3882109 0.33098692 0.1820645 -0.102939405
000110 d2 86 f2 be 53 4f 00 bf 11 5e 03 be d9 59 93 3d
       -0.47368485 -0.5012104 -0.12828852 0.071948715
000120 34 fa 8f 3e 07 f8 9d bd ac a9 8d bd 4d 30 96 3e
       0.28120577 -0.07713323 -0.06917128 0.29333726
000130 75 bc d2 3c 1c 04 fd bd 04 58 0a be c8 5e b0 3e
       0.025724629 -0.123542994 -0.13510138 0.34447312
000140 fe 53 a8 3e 38 43 76 3e 10 75 76 bd 57 fd 82 bc
       0.3287658 0.2404908 -0.060170233 -0.015989942
000150 a0 76 cc 3c 36 98 84 be d2 86 20 3e d9 08 53 bd
       0.024958909 -0.25897378 0.1567643 -0.05152211
000160 ef c5 b0 3e 72 0c e9 3e 0f c4 aa 3d 14 cd 8e 3e
       0.3452601 0.45517308 0.083381765 0.27890837
000170 9a 8f 85 be 0a 8a 0d 3e 8a fe 16 3e 67 e2 91 be
       -0.26086122 0.13822189 0.14745536 -0.28493044
000180 58 1c da bb ba 20 39 3e 6b c8 4b be bf 0e 5d be
       -0.006656211 0.1807889 -0.19900672 -0.21587656
000190 50 a7 89 3e fb 1a a3 3d ae 07 12 3d 3c ee ab be
       0.26885462 0.079641305 0.035651855 -0.33580196
0001a0 d8 d4 9b be bd 31 46 be c0 ee 29 3e 6c 9b ab 3e
       -0.30435824 -0.19354911 0.16594982 0.33517015
0001b0 6d e0 10 3d 54 85 a0 3d 36 f9 bb 3e 16 fe 71 3d
       0.03537028 0.0783793 0.3671357 0.059080206
0001c0 a9 b6 91 be d4 05 8f 3e ee be 2b 3e a4 70 82 bd
       -0.2845967 0.27934134 0.16772053 -0.06369141
0001d0 ab 26 4c be ff 2f 69 3e 0a 3c 01 bf bf ec 95 3d
       -0.19936626 0.22772215 -0.5048224 0.07320546
0001e0 f5 d3 83 3e 60 74 c0 3e f3 00 bd 39 71 89 be be
       0.25747648 0.37588787 0.00036049596 -0.37214234
0001f0 36 fa 85 bc d8 1a 22 be 90 20 9d bd ee 03 09 3f
       -0.016354661 -0.15830553 -0.076722264 0.5352162
000200 f9 4f 5e 3d a8 75 c7 bd bc 7f 08 3e a8 d4 a4 3e
       0.054275487 -0.09739238 0.13329977 0.32193494
000210 91 9c b9 be 74 a0 07 3f ad 11 e7 bd 87 26 b8 bd
       -0.36252263 0.5297921 -0.11282668 -0.089917235
000220 df ad 1b be bf e0 d6 3e 8b 36 bf be 89 83 90 be
       -0.15203045 0.41968343 -0.373463 -0.28225353
000230 66 17 73 be 19 5b a4 be f8 55 1e be 34 e3 94 3e
       -0.23739395 -0.32100752 -0.15462482 0.29079592
000240 41 6e 86 3e 77 45 84 3e 0d e5 91 bc 1b 2e c8 be
       0.26255992 0.25834247 -0.017809415 -0.39097676
000250 25 3a 6d bd 53 b4 19 3e 27 39 6e be f2 80 de bd
       -0.05791678 0.15010194 -0.2326399 -0.10864438
000260 da 0c f8 3e b5 c1 16 bf 11 f7 d0 bb b8 04 04 be
       0.48447305 -0.58889323 -0.006377109 -0.12892425
000270 9d 6a 8d bc 1d 65 9e be 76 32 cb 3e 72 8c 11 3e
       -0.017262751 -0.30936518 0.39686936 0.14213732
000280 0e e7 21 3e fb 61 7d bd 11 fd 28 be ce 30 2a be
       0.15810797 -0.06186102 -0.16502787 -0.1662018
000290 86 f8 6a 3e f7 cd ae be 01 88 a9 3e 31 55 72 3c
       0.22946367 -0.34141514 0.33111575 0.014790819
0002a0 07 ff c5 3e c9 ff a2 3e 47 c8 96 3e 3f d4 9c 3e
       0.38671133 0.31835774 0.29449674 0.3063068
0002b0 d6 87 e1 be b4 55 a4 3e 96 ca 6f 3e a9 9a 55 3c
       -0.44048947 0.32096636 0.23417124 0.013037362
0002c0 5c 39 05 be 01 ce 58 3e ba 62 2b bd c4 8a a8 be
       -0.13010162 0.21172334 -0.0418422 -0.3291837
0002d0 9c b1 b8 be 33 b9 1d 3b 68 dc 44 be 91 51 54 3e
       -0.36073005 0.0024066686 -0.19224703 0.2073424
0002e0 f3 d1 69 be 7a 79 af 3e 2b 3a 91 be 4d 03 6f be
       -0.22833996 0.34272367 -0.2836469 -0.23341103
0002f0 a2 d3 e4 bd 0d 33 b3 be 4a fd a5 bd 37 eb ca 3c
       -0.11173178 -0.34999886 -0.08104952 0.024770362
000300 17 49 ce 3e bd 16 a9 be 86 3e 18 be b4 c7 ea 3d
       0.40290138 -0.3302516 -0.14867601 0.114638716
000310 24 81 f3 3d bf 3e 6d be a7 b9 65 3e 8d 38 25 3e
       0.11889866 -0.23168467 0.22434102 0.16134854
000320 a8 c2 cb be 0a 03 ff bd 4c 9a c2 3e bd a4 ad be
       -0.39796948 -0.124517515 0.38008344 -0.33914748
000330 3d 07 67 bd f1 13 6c bd 66 28 24 be f4 58 85 3c
       -0.056403387 -0.057636205 -0.16031036 0.016277768
000340 82 ce d0 bd b9 8f 82 be 72 de 05 bf ee aa 88 3e
       -0.10195638 -0.25500277 -0.5229255 0.2669291
000350 ee 41 b4 be 3d aa 95 3e e1 70 14 be 72 11 eb 3e
       -0.3520655 0.29231444 -0.14496185 0.45911747
000360 0d 33 ec 3e b2 e7 f4 bb 99 93 4d 3d d8 a7 db bd
       0.461327 -0.0074739093 0.05018959 -0.10725373
000370 5a ac 88 3d b4 9f 89 3e a1 ea 4e 3e 9c b8 a1 3c
       0.066734985 0.26879656 0.20206691 0.019741349
000380 8f 3e 50 be a4 1c 95 bc 8d a2 7a 3e db 87 e4 3e
       -0.20336364 -0.018202133 0.2447607 0.446349
000390 41 75 60 3e 23 88 be 3c 82 13 ca 3e 50 8a c3 3e
       0.21919729 0.023258274 0.39468008 0.38191462
0003a0 be 1e 96 be a4 2a d6 3d 60 13 6b 3e 78 19 33 3d
       -0.2932033 0.10457352 0.2295661 0.04372546
0003b0 b2 79 05 3e ef ff a5 3e 7b ff c4 be a2 be be bd
       0.13034704 0.32421824 -0.38476166 -0.09313704
0003c0 4d 3c a7 be 54 18 e1 3d 05 45 c0 3d dd 05 60 be
       -0.32663193 0.10990968 0.093881644 -0.21877237
0003d0 e4 3a 13 be b2 25 68 be b0 8b be be 93 a5 9c 3e
       -0.14377934 -0.2267063 -0.37215948 0.30595073
0003e0 6d 8a 66 be 28 6e 64 3d 25 a4 82 be f6 8e 41 bd
       -0.22513743 0.055769116 -0.25515857 -0.04725548
0003f0 b9 43 27 3d 7b ed 8d 3e b5 e9 56 bd 6c 1d cf 3e
       0.04083607 0.27720246 -0.052468974 0.40452135

net.6.bias f4 [20]
000000 03 d1 43 3e bf 84 ab bd 99 f6 9c bb f4 8c 6f 3e
       0.191227 -0.08374929 -0.004790139 0.23393613
000010 24 f1 70 be 01 e7 15 be a2 04 dd bd 8d 2b 00 3e
       -0.23529488 -0.14638902 -0.10791899 0.12516613
000020 52 e7 8b be da 62 e0 bd e3 dd ce ba 1b 18 af bd
       -0.2732492 -0.109563544 -0.001578268 -0.0854952
000030 6f 9f 00 3d d7 9c 6c 3c 69 28 16 3e bc 4a dd bd
       0.031402048 0.01444169 0.14663853 -0.1080527
000040 fd 82 bc bd 54 38 76 3d 19 a7 1f 3e e0 1c 5a 3e
       -0.092046715 0.060112312 0.15591086 0.21300077

net.8.weight f4 [1, 20]
000000 1b a0 03 bf a8 6b 42 be 20 29 c2 3e bb 51 1c bf
       -0.51416177 -0.1898638 0.37922 -0.6106221
000010 f9 df f7 3e 00 4f b9 3e ba ec 75 3e ba 29 c2 be
       0.48413065 0.36193085 0.24016085 -0.3792246
000020 cf 69 b0 3e f0 5b f0 be db 35 ec be 46 cb c6 3e
       0.34455726 -0.46945143 -0.46134838 0.3882696
000030 08 74 d4 be 3c 75 c5 be 26 ff aa be 53 b6 ec 3e
       -0.41494775 -0.38566005 -0.33397788 0.46232852
000040 14 a1 d8 3e 52 a8 d5 be e1 ab ff be 98 95 af be
       0.42310393 -0.4172998 -0.4993582 -0.34293818
