Code/Trained models/m_mu_v0_500_4001.pth (torch, 9462 bytes, 9 tensors)

net.0.weight f4 [20, 6]
0	0x3f068fb8	0.5256305
1	0x3e68b73d	0.2272615
2	0x3d842483	0.064522766
3	0x3e51146b	0.20417945
4	0xbe559011	-0.20855738
5	0xbe1e2f09	-0.1544763
6	0x3ed13088	0.4085734
7	0x3e711b8c	0.23545665
8	0xbe1f74ac	-0.1557185
9	0xbe9904b9	-0.29886416
10	0xbd8e0a70	-0.069355845
11	0x3e45ad09	0.19304289
12	0xbe425292	-0.1897681
13	0xbebf7c37	-0.37399456
14	0xbd95e096	-0.07318227
15	0xbe34fa5f	-0.17673634
16	0x3dfcf738	0.12351841
17	0x3eaaf1a2	0.33387476
18	0x3ecc7fb6	0.39941186
19	0xbef157fa	-0.47137433
20	0x3e1c9f42	0.15295127
21	0xbcc87c90	-0.024473459
22	0x3da985a0	0.0827744
23	0xbe6fa64c	-0.23403281
24	0xbf0805c0	-0.53133774
25	0xbeaf4fc6	-0.3424055
26	0xbe16bfcf	-0.14721607
27	0x3c80b439	0.015710937
28	0xbe1a4987	-0.15067111
29	0xbbe66f2b	-0.007032295
30	0x3f074a29	0.52847534
31	0xbe4c38ca	-0.19943538
32	0xbe641714	-0.22274429
33	0x3e338865	0.17532499
34	0xbeadfe49	-0.33983067
35	0xbd542349	-0.051791463
36	0xbf11d378	-0.569633
37	0x3e9bcc59	0.30429342
38	0x3e536a42	0.20646003
39	0x3e8e4551	0.2778726
40	0x3dc9d905	0.09855846
41	0xbd7c98cb	-0.061669152
42	0x3f25b76d	0.6473301
43	0xbed0c04a	-0.40771705
44	0xbc2347a1	-0.009965808
45	0xbc9419a7	-0.018078638
46	0xbe3dc637	-0.18532644
47	0x3dab5cf7	0.08367341
48	0x3eb57003	0.3543702
49	0xbf32a2cb	-0.6977965
50	0xbe02196c	-0.1270501
51	0xbd663852	-0.056206055
52	0x3e118905	0.14212425
53	0x3d1bbd36	0.038022242
54	0x3f01454f	0.5049638
55	0x3e935708	0.28777337
56	0x3db59f8e	0.08868323
57	0x3d4ca16d	0.049958635
58	0xbc4a65f6	-0.012353411
59	0x3ed971df	0.4246969
60	0x3d618611	0.055059496
61	0xbf0a34e2	-0.5398694
62	0x3ea8737d	0.3290061
63	0xbed630e0	-0.41834164
64	0xbe868c31	-0.26278833
65	0x3eebe13f	0.46070287
66	0xbe4e700c	-0.2015993
67	0x3de1e7bb	0.11030527
68	0xbe272530	-0.1632278
69	0x3ed00ed9	0.40636328
70	0xbeb005e3	-0.3437949
71	0x3eb286ef	0.3486857
72	0x3f07555d	0.5286463
73	0xbe8abdf4	-0.27098048
74	0x3cfc4460	0.030794322
75	0x3c487094	0.012233872
76	0xbe3f5029	-0.18682922
77	0xbe58cd83	-0.21172146
78	0x3d07ba65	0.033136744
79	0xbddca79e	-0.10774158
80	0xbd22f5e4	-0.03978528
81	0x3e5ad950	0.2137196
82	0x3e06560d	0.13118763
83	0xbef62ee0	-0.48082638
84	0xbda03704	-0.078229934
85	0x3e8a5742	0.27019697
86	0x3d054b7d	0.032542694
87	0xbebf881e	-0.37408537
88	0xbea3717c	-0.3192252
89	0xbdf016e3	-0.11723115
90	0x3e4d75e9	0.2006451
91	0xbd476a95	-0.04868563
92	0xbec04cee	-0.37558693
93	0x3ebeb0ef	0.37244365
94	0xbe8d9391	-0.27651647
95	0x3d818f6e	0.06326185
96	0xbede1417	-0.43374702
97	0xbe03f38d	-0.12885876
98	0xbe287278	-0.16449916
99	0xbe600b79	-0.21879376
100	0x3dd782e5	0.10523013
101	0x3e2f370f	0.17110847
102	0xbea43d05	-0.32077804
103	0x3e9373e8	0.28799367
104	0x3e15b420	0.14619493
105	0x3e1546fb	0.14577858
106	0xbee78e17	-0.45225593
107	0xbddbabd5	-0.10726134
108	0xbf01b10d	-0.50660783
109	0xbe603e54	-0.21898776
110	0xbe9b26ec	-0.30303133
111	0xbd027720	-0.031851888
112	0x3e2ad754	0.16683704
113	0x3c47f706	0.012204891
114	0x3f0fd783	0.5618822
115	0xbe5b0640	-0.21389103
116	0xbd6a41f2	-0.057191797
117	0xbdb3bb2b	-0.08775934
118	0xbec7b6cd	-0.39006653
119	0xbdbc3cda	-0.09191294

net.0.bias f4 [20]
0	0x3e10ad23	0.14128546
1	0x3e197abb	0.14988224
2	0x3bdeed81	0.006803215
3	0x3e949cc6	0.2902586
4	0x3d9559ce	0.072925195
5	0x3ed354cb	0.4127563
6	0x3e875711	0.26433614
7	0xbe13f22d	-0.14447851
8	0xbdebb0e0	-0.115083456
9	0x3ea75e57	0.32689163
10	0x3d0de4ba	0.03464196
11	0x3f0666ed	0.525008
12	0x3dc65af0	0.09685314
13	0xbe642016	-0.22277865
14	0xbeb36358	-0.3503673
15	0x3e2551d7	0.161445
16	0x3db1d760	0.08683658
17	0x3f049a36	0.5179781
18	0x3e4f8ecd	0.20269318
19	0x3ee9955c	0.45621765

net.2.weight f4 [20, 20]
0	0xbe511df8	-0.20421588
1	0x3dc5defd	0.09661672
2	0xbcec0193	-0.028809344
3	0x3e0cde68	0.13756716
4	0xbe9559eb	-0.29170164
5	0xbe9165a1	-0.2839785
6	0x3de62141	0.112368114
7	0xbe612817	-0.2198795
8	0xbd3dee2d	-0.04636972
9	0xbd2ea73b	-0.042639952
10	0xbdb70a53	-0.08937516
11	0x3e0ecec3	0.13946061
12	0xbe186138	-0.14880836
13	0x3cb6d994	0.022320546
14	0xbdbe69ce	-0.092975244
15	0x3e3e1c88	0.18565571
16	0xbe5b3f14	-0.21410781
17	0xbda23be2	-0.07921578
18	0xbc6fac49	-0.014628478
19	0x3e8f3601	0.2797089
20	0x3d3f80cc	0.04675369
21	0xbe15c2b5	-0.14625056
22	0x3e2c5ba8	0.16831839
23	0xbf2255c3	-0.6341211
24	0xbdf50e33	-0.11965599
25	0x3d334a85	0.04377224
26	0x3e35168f	0.17684387
27	0xbe72fcfd	-0.2372932
28	0xbf1a8f87	-0.60375255
29	0x3e2bc0bd	0.16772743
30	0xbe8c1729	-0.2736142
31	0x3d96d8ad	0.073655464
32	0x3ebe9a3b	0.37227044
33	0xbc9c8e6d	-0.019110883
34	0xbb829c90	-0.003985949
35	0x3d1f9273	0.038958024
36	0x3d9240f9	0.07141299
37	0x3ea9697c	0.3308829
38	0xbe2e8cf0	-0.17045951
39	0x3d920fa7	0.07131892
40	0x3e306fa5	0.17230089
41	0x3e5bb283	0.21454816
42	0xbdbcc4b7	-0.09217208
43	0x3e77ecd6	0.2421144
44	0x3c1c4066	0.009536838
45	0x3dae3add	0.08507321
46	0x3e0d2081	0.1378193
47	0x3e940bd1	0.28915265
48	0x3e17f857	0.14840828
49	0x3e45d0a5	0.19317873
50	0xbd010fc6	-0.031509183
51	0x3e26a697	0.16274486
52	0xbda9e320	-0.08295274
53	0x3e901275	0.28139082
54	0x3e2355da	0.15950719
55	0x3e2f6376	0.17127785
56	0xbe9dcd59	-0.3082073
57	0xbb92c392	-0.00447888
58	0xbe18a82e	-0.14907905
59	0xbe61e110	-0.22058511
60	0x3db1703b	0.086639844
61	0xbed8e200	-0.42359924
62	0xbe0cd132	-0.13751677
63	0x3e25e0df	0.16199063
64	0x3e00264d	0.1251461
65	0xbe3184a5	-0.17335756
66	0x3ea96ef3	0.3309246
67	0xbec2e801	-0.3806763
68	0xbed9a8fb	-0.42511734
69	0x3e3ec141	0.18628408
70	0x3dbc6caa	0.092004135
71	0xbce9c972	-0.02853844
72	0x3cda5824	0.026653357
73	0x3da9b4d4	0.08286443
74	0xbe4c09be	-0.19925591
75	0xbb938b2a	-0.0045026736
76	0x3dfaab10	0.12239659
77	0x3e4665b8	0.1937474
78	0x3e785f70	0.24255157
79	0xbea9ff98	-0.33202815
80	0xbeac275b	-0.33623776
81	0xbed9f92a	-0.4257291
82	0xbd56c1fd	-0.052431095
83	0xbe232a69	-0.15934147
84	0x3ed3c9e9	0.41364983
85	0xbeb16771	-0.34649232
86	0xbda2eeb4	-0.07955685
87	0xbe9067ca	-0.28204185
88	0xbdaa188d	-0.08305464
89	0x3e1b4f45	0.15166958
90	0xbc337923	-0.010954174
91	0x3e58af5b	0.21160643
92	0xbd321a00	-0.043481827
93	0x3e05bf0e	0.13061163
94	0xbd3b4cfc	-0.045727715
95	0xbde67005	-0.11251835
96	0x3e230594	0.15920097
97	0x3e491adc	0.19639152
98	0x3ea70cb6	0.32626885
99	0xbebd4072	-0.3696323
100	0x3e1dedc4	0.15422732
101	0x3e80f0ff	0.25183865
102	0xbd43dd5c	-0.047818527
103	0x3e3848cc	0.1799652
104	0xbe38c7c6	-0.18044958
105	0x3db5a3fc	0.08869168
106	0x3dac5d2b	0.08416208
107	0x3e9529f7	0.2913358
108	0x3e8e9ed8	0.27855563
109	0xbe18e740	-0.14931965
110	0xbd8704cf	-0.06592714
111	0xbd9cb7d7	-0.07652252
112	0xbe7dd4ca	-0.24788204
113	0xbd89ab57	-0.067221336
114	0xbcb2f7cf	-0.02184668
115	0xbbc3ee2b	-0.0059793196
116	0xbd9d2d9e	-0.076747164
117	0xbe39a819	-0.1813053
118	0xbdca1721	-0.09867693
119	0x3d6b00d9	0.057373855
120	0x3e9b06c3	0.30278596
121	0x3e90a475	0.2825047
122	0xbe851f54	-0.26000464
123	0xbd0aba9a	-0.033869363
124	0x3e424ef2	0.18975428
125	0x3e967352	0.29384857
126	0x3dd99c5a	0.10625525
127	0x3caaca1d	0.020848328
128	0x3e94b6a7	0.29045603
129	0xbe8737a8	-0.2640965
130	0xbe595146	-0.2122241
131	0x3bef83fa	0.007309434
132	0x3dab174b	0.08354052
133	0xbdf7eb1a	-0.12105389
134	0x3d79b74b	0.060965817
135	0xbcc061ac	-0.023484074
136	0xbe4599bf	-0.1929693
137	0xbddc767c	-0.107647866
138	0xbe6f7e9b	-0.2338814
139	0xbddd739f	-0.108130686
140	0x3e32394b	0.17404668
141	0x3e86f10c	0.2635578
142	0xbcbbb829	-0.022914963
143	0x3ec863c5	0.39138618
144	0x3d56ff23	0.05248941
145	0xbd15a9d0	-0.0365389
146	0xbe80ed77	-0.2518117
147	0x3e8fbf62	0.280757
148	0x3e492a6c	0.19645089
149	0xbd9fbab8	-0.07799286
150	0xba69d738	-0.0008920315
151	0x3d802259	0.06256551
152	0xbc1f09ce	-0.009706927
153	0xbd89d534	-0.067301184
154	0x3e59758f	0.21236251
155	0xbe13980b	-0.14413469
156	0x3d514f1a	0.051100828
157	0xbdda42f7	-0.10657304
158	0xbe0cd138	-0.13751686
159	0xbe31eaf6	-0.17374787
160	0x3e066518	0.13124502
161	0xbcbfc7bb	-0.023410669
162	0x3d3139fc	0.04326819
163	0xbf2021dd	-0.6255167
164	0xbe1576f1	-0.14596154
165	0x3e96bffe	0.29443353
166	0xbe25cc97	-0.16191326
167	0x3e41b0bb	0.18915074
168	0xbe9ad4ab	-0.30240378
169	0x3b6cdf01	0.0036143663
170	0xbda88a4b	-0.08229502
171	0xbddbc912	-0.107317105
172	0xbc44f04c	-0.012020182
173	0x3e013727	0.12618695
174	0x3d0b1f8b	0.03396563
175	0x3e11dea9	0.14245094
176	0xbe080030	-0.13281322
177	0x3e8a1663	0.26970205
178	0x3e497aa8	0.19675696
179	0xbe80829e	-0.25099653
180	0xbdb1b117	-0.08676355
181	0x3d4813b9	0.048846934
182	0x3dc12e51	0.09432662
183	0x3eeb4a68	0.45955205
184	0xbeb19bc0	-0.3468914
185	0x3e6adfcc	0.22936934
186	0xbf2f53b3	-0.6848709
187	0x3db5b46e	0.08872305
188	0x3f25b5c6	0.6473049
189	0x3d9cbee2	0.076535955
190	0x3e0c64e7	0.13710366
191	0xbd9299d7	-0.07158249
192	0x3ed9ade5	0.42515483
193	0xbe0f6eed	-0.14007159
194	0x3dafb4b8	0.08579391
195	0xbe5a69ba	-0.21329394
196	0xbe0e5cdc	-0.1390261
197	0xbe357df9	-0.17723836
198	0x3c3fa1d3	0.011696297
199	0xbdbc0d30	-0.09182203
200	0x3d17fde2	0.037107356
201	0x3bbd8bb8	0.005784478
202	0x3e14116b	0.1445977
203	0xbe28f5ec	-0.16500062
204	0xbe8d8e57	-0.2764766
205	0xbe2deb1d	-0.1698422
206	0xbe6c54f6	-0.23079285
207	0xbe59e77c	-0.2127971
208	0x3e59bbdc	0.21263069
209	0x3dd92f53	0.106047295
210	0xbd215ddd	-0.039396156
211	0x3dbfb9fd	0.09361646
212	0xbde68433	-0.11255684
213	0xbe144777	-0.14480387
214	0x3df7eb88	0.12105471
215	0x3d943be7	0.07237988
216	0xbd8ace5c	-0.06777641
217	0xbe4982fd	-0.19678874
218	0x3cd1f49a	0.02562933
219	0x3ea73084	0.32654202
220	0x3ec83608	0.39103723
221	0x3ea6181d	0.32440272
222	0xbe8a60d5	-0.27027002
223	0x3e8b2a0d	0.2718052
224	0x3dba681e	0.0910189
225	0xbd3d0250	-0.046144783
226	0x3cb7b69e	0.022425946
227	0xbd4e9670	-0.050436437
228	0x3e4b83d7	0.19874512
229	0xbe08f1d2	-0.13373497
230	0xbe3dc035	-0.18530352
231	0x3d144dc1	0.036206964
232	0x3dc76663	0.097363256
233	0x3e2f9f23	0.1715055
234	0xbe0d95c5	-0.13826664
235	0x3e0b8358	0.13624322
236	0xbc9f7289	-0.019463794
237	0xbe242997	-0.1603149
238	0xbe2e6f02	-0.17034534
239	0xbe8d1c96	-0.27560872
240	0xbe6c47de	-0.2307429
241	0xbd9b0e9a	-0.075711444
242	0xbe44a85f	-0.19204853
243	0x3ed327bf	0.4124126
244	0xbe93194b	-0.28730235
245	0x3a9108f1	0.0011065287
246	0xbea4e8b9	-0.32208803
247	0xbdedbc77	-0.116082124
248	0x3e887f4b	0.26659617
249	0x3dc62cb2	0.09676494
250	0xbd724ecc	-0.059157178
251	0x3dae97be	0.08525036
252	0x3e487752	0.19576767
253	0xbe62166f	-0.2207887
254	0xbe979148	-0.29603028
255	0xbdf53e0b	-0.119747244

net.2.bias f4 [20]
0	0x3e55f3fb	0.20893852
1	0x3c8111b2	0.015755508
2	0x3dbd7c3b	0.09252211
3	0x3e71d256	0.23615393
4	0xbd0c51cb	-0.03425769
5	0xbdc9ce6b	-0.09853824
6	0x3e1aaa95	0.15104134
7	0x3e144313	0.14478712
8	0xbd16d332	-0.036822505
9	0xbc0a95c8	-0.008458562
10	0x3e16226e	0.14661571
11	0xbd0b5bb0	-0.034022987
12	0x3ea14845	0.3150045
13	0xbe8273e9	-0.25479057
14	0x3bb34218	0.0054705255
15	0x3e5ce4da	0.21571675
16	0xbe6a427d	-0.22876926
17	0xbc110947	-0.00885231
18	0x3e685c3c	0.22691435
19	0x3e569d9b	0.20958559

net.4.weight f4 [20, 20]
0	0xbe56a9fc	-0.20963281
1	0x3e8cb816	0.27484196
2	0x3e7e8cea	0.24858442
3	0x3ea88c0f	0.32919356
4	0xbe1ac85c	-0.15115494
5	0xbdfb208c	-0.12262067
6	0x3d0d604d	0.034515668
7	0x3e17b1f8	0.14813983
8	0x3e042734	0.1290558
9	0x3e0e279c	0.13882297
10	0xbe78bd96	-0.24291071
11	0x3ea48d86	0.32139224
12	0xbd53f045	-0.05174281
13	0x3e180789	0.14846624
14	0xbe11a221	-0.14222004
15	0x3c78d63f	0.015187799
16	0xbe61a3de	-0.22035167
17	0x3dc8e4a1	0.098092325
18	0x3e1de1a8	0.15418112
19	0xbe99900a	-0.29992706
20	0xbcbd9d5e	-0.023146328
21	0xbd5c5e43	-0.053800832
22	0xbe5affdf	-0.2138667
23	0xbe0534cf	-0.13008426
24	0x3ec1cf79	0.37853602
25	0xbe988822	-0.2979136
26	0x3d712cd4	0.058880642
27	0xbd9930aa	-0.07479985
28	0xbe5c3f23	-0.2150846
29	0xbe9689b0	-0.29401922
30	0x3da0f454	0.07859102
31	0xbea20f22	-0.3165217
32	0x3de7211e	0.112856135
33	0xbdfb1269	-0.12259371
34	0xbeb21afd	-0.34786215
35	0x3e95ca7b	0.29256043
36	0xbc102184	-0.008797053
37	0x3d9fcb09	0.07802398
38	0xbe27d6ca	-0.1639053
39	0x3c13aca7	0.0090133315
40	0x3cd2f294	0.025750436
41	0x3dd8c446	0.10584311
42	0xbe99acb8	-0.30014586
43	0x3e49c5c9	0.19704355
44	0x3e92fe87	0.28709814
45	0xbe0e174b	-0.13876073
46	0xbeb184cd	-0.3467163
47	0xbe9f2942	-0.31086165
48	0xbd191848	-0.037376672
49	0x3e39fa91	0.1816199
50	0x3d671e88	0.0564256
51	0xbe960dd4	-0.29307425
52	0x3e35c610	0.17751336
53	0x3d5fc9e1	0.054635886
54	0xbde06bb3	-0.10958042
55	0x3deedb67	0.116629414
56	0xbe8c3b1b	-0.27388844
57	0x3e646c1a	0.22306862
58	0xbd4a62cd	-0.04941063
59	0xbdcee119	-0.10101528
60	0x3e9d4c1a	0.30722123
61	0xbe52a26f	-0.20569776
62	0x3d9245d1	0.07142223
63	0xbe09bfb1	-0.1345203
64	0x3e8934c3	0.26798066
65	0xbdeed266	-0.11661224
66	0xbde72fda	-0.11288424
67	0xbd22a831	-0.03971118
68	0xbe1038ea	-0.14084211
69	0xbe1535b2	-0.14571264
70	0x3e62ee92	0.2216132
71	0xbe18d9be	-0.14926812
72	0x3dad0e9a	0.08450051
73	0xbd98ba1e	-0.07457374
74	0x3da3b0d5	0.079927124
75	0xbe4cb3c0	-0.19990444
76	0x3e01095b	0.12601225
77	0x3e841782	0.25799185
78	0xbda26da5	-0.07931069
79	0xbc8282c3	-0.015931493
80	0x3e1d236f	0.15345548
81	0xbc83ff27	-0.016112877
82	0xbe629e57	-0.22130714
83	0x3e83b057	0.25720474
84	0x3e4c332b	0.19941394
85	0xbe289200	-0.16461945
86	0x3dcdc872	0.100479975
87	0xbe1013d9	-0.14070071
88	0xbddd9e8a	-0.108212546
89	0xbe278289	-0.16358389
90	0xbd91cd7b	-0.071192704
91	0xbd93b965	-0.072130956
92	0x3e959ac4	0.2921964
93	0xbe933e30	-0.28758383
94	0xbd31a96c	-0.043374464
95	0x3d781203	0.060564052
96	0x3eaeceec	0.34142244
97	0xbe4f2780	-0.20229912
98	0x3e03e4c6	0.12880239
99	0x3e98e32b	0.29860815
100	0xbdf4eabd	-0.11958835
101	0x3e5b446b	0.21412818
102	0x3ddd1b50	0.10796225
103	0x3eb9ecf1	0.36313584
104	0xbe77ebd4	-0.24211055
105	0x3c324ee2	0.010883065
106	0xbdede7e4	-0.11616495
107	0x3e1f6ed7	0.15569626
108	0x3e6a59d2	0.22885826
109	0xbdade7e6	-0.08491497
110	0x3dcc5b8f	0.09978401
111	0x3e55097b	0.20804398
112	0xbd8489c5	-0.0647159
113	0x3e9636e5	0.29338756
114	0x3d16f749	0.036856923
115	0xbd2680f9	-0.04065034
116	0xbe841691	-0.25798467
117	0x3e0f35f1	0.13985421
118	0xbe7e5219	-0.24836005
119	0xbe7b2e82	-0.2452946
120	0x3ea70387	0.3261988
121	0x3d84db8f	0.0648719
122	0x3dd0d0c7	0.10196071
123	0x3c46a68b	0.012124668
124	0x3e277aff	0.16355513
125	0x3da5c927	0.080950074
126	0xbe3fcd0a	-0.1873056
127	0x3ceadde2	0.028670255
128	0xbe973440	-0.2953205
129	0xbe09cc68	-0.13456881
130	0x3cae9ab6	0.021314006
131	0xbe137704	-0.1440087
132	0x3e31c7d3	0.17361383
133	0xbe4820a4	-0.19543701
134	0xbe2ec89f	-0.17068718
135	0xbaa3b290	-0.0012489129
136	0x3e99ddf7	0.30052158
137	0xbd1d4ef0	-0.03840536
138	0x3e5c80dd	0.21533532
139	0x3e8090dd	0.25110522
140	0xbe3b7bc8	-0.18308938
141	0x3e763cf9	0.24046697
142	0x3c51f0cd	0.012813759
143	0x3ebd072f	0.36919543
144	0xbdf8ac1d	-0.12142203
145	0x3e36f0ba	0.17865267
146	0x3e7573b3	0.23969917
147	0x3e14c685	0.14528854
148	0x3e811bcf	0.2521653
149	0x3e0ea8f2	0.13931635
150	0xbe8d4e38	-0.2759874
151	0x3ce5c05b	0.028045824
152	0xbc856983	-0.016285663
153	0x3eaf6f45	0.3426458
154	0x3e3eab97	0.18620144
155	0xbcf46241	-0.029832007
156	0xbddf4e8b	-0.10903653
157	0xbe54be85	-0.20775802
158	0xbd1c5610	-0.038168013
159	0xbe889ed7	-0.26683685
160	0xbe1df11b	-0.15424006
161	0xbd8093a4	-0.0627816
162	0x3e8e4e32	0.27794033
163	0xbe2d3c14	-0.16917449
164	0xbeaf1339	-0.34194353
165	0x3e1c9d22	0.15294316
166	0x3eaa1062	0.33215624
167	0x3e88ee10	0.26744127
168	0x3e858522	0.26078135
169	0xbdd6b72f	-0.10484158
170	0xbd866749	-0.06562669
171	0x3d19e6c3	0.037573587
172	0xbdfcf608	-0.12351614
173	0x3e9785c1	0.29594234
174	0x3eaf265e	0.3420896
175	0x3dbad221	0.0912211
176	0x3e09d7f9	0.13461293
177	0xbe1064f4	-0.1410101
178	0x3d17ac38	0.037029475
179	0xbe6ccd3d	-0.23125167
180	0xbe980a4c	-0.29695356
181	0xbdba6a21	-0.09102274
182	0x3e5f1f43	0.21789269
183	0x3e500fa9	0.20318474
184	0xbeabe16e	-0.33570427
185	0x3e21b092	0.15790012
186	0xbe0935ce	-0.13399431
187	0x3d28a23a	0.041170336
188	0xbc4b8980	-0.012422919
189	0x3e99bc3a	0.30026418
190	0xbe46e315	-0.19422562
191	0xbe2507a8	-0.16116202
192	0xbd4aee56	-0.0495437
193	0x3da9de3f	0.08294343
194	0x3e86c89f	0.26324937
195	0x3ec12ff4	0.37731898
196	0x3d22c5a2	0.03973926
197	0xbdb31eac	-0.087460846
198	0xbd9288b8	-0.07154983
199	0xbea58b7e	-0.32332987
200	0xbe877db4	-0.2646309
201	0xbe618624	-0.22023827
202	0x3e8c4d2f	0.27402636
203	0xbd57fbdb	-0.052730422
204	0xbea9bacf	-0.33150336
205	0x3eeab6bf	0.4584255
206	0x3cdf943d	0.027292365
207	0x3eb84eb6	0.35997552
208	0x3eb22491	0.34793523
209	0x3e39047a	0.18068114
210	0xbe679af3	-0.22617702
211	0x3e0b4862	0.1360183
212	0xbe1fb390	-0.15595841
213	0x3c7ca410	0.015419975
214	0x3b15c46d	0.0022852675
215	0xbe706d9e	-0.23479316
216	0x3d0a871e	0.033820264
217	0x3ca06ecd	0.019584084
218	0x3d160900	0.036629677
219	0x3c8d1bd6	0.017225187
220	0xbe3bf115	-0.18353684
221	0xbe03a6db	-0.12856619
222	0x3e9cce49	0.30626133
223	0xbe794a1a	-0.24344674
224	0xbeb92135	-0.36158147
225	0x3ed92595	0.42411485
226	0x3e7a64db	0.24452536
227	0x3e13ac1c	0.14421123
228	0x3e3e2250	0.18567777
229	0xbd61fb0d	-0.05517106
230	0xbbb7efba	-0.0056132944
231	0x3e2aff9f	0.16699074
232	0xbe35226c	-0.17688912
233	0x3e26b1db	0.16278784
234	0x3c80f050	0.01573959
235	0xbe430d87	-0.19048129
236	0x3e95984a	0.2921775
237	0xbe40b17b	-0.18817703
238	0xbe13e3cb	-0.14442365
239	0x3d015f39	0.031584952
240	0x3ea9c138	0.33155227
241	0x3d99a687	0.07502466
242	0xbe7670e0	-0.24066496
243	0xbd023805	-0.031791706
244	0x3d6b07cc	0.057380483
245	0x3d98cd6d	0.07461057
246	0x3d85e146	0.06537108
247	0x3dc1a6b8	0.09455627
248	0xbe6f012d	-0.23340292
249	0x3d2405fe	0.040044777
250	0x3e05881e	0.13040206
251	0xbd9144ca	-0.070931986
252	0x3ed92d64	0.42417443
253	0xbe8167ad	-0.2527441
254	0xbe174761	-0.14773323
255	0x3dba557c	0.09098336

net.4.bias f4 [20]
0	0xbdaf531b	-0.08560773
1	0xbcae2ac9	-0.021260636
2	0x3e288321	0.16456272
3	0x3e913f00	0.28368378
4	0x3b4a92f5	0.0030910347
5	0xbdfd63bb	-0.12372538
6	0x3c524af6	0.012835255
7	0x3d42996f	0.047509607
8	0x3d3a1b5e	0.045436256
9	0xbc5df56d	-0.013547284
10	0x3dc9dae2	0.09856202
11	0x3d80ea5e	0.06294702
12	0x3e719c82	0.23594859
13	0xbbaeea0c	-0.005337959
14	0x3d336410	0.0437966
15	0x3d82c2ec	0.06384835
16	0xbbd0354c	-0.0063540097
17	0xbd9fdcdc	-0.078057975
18	0xbde9cb11	-0.11415685
19	0x3e1ad7d2	0.15121391

net.6.weight f4 [20, 20]
0	0xbe8df9d1	-0.27729657
1	0x3ea3ff9f	0.3203096
2	0x3e72f3f1	0.23725869
3	0x3d5eb656	0.054373108
4	0x3e11d9b2	0.142432
5	0xbd5b17f1	-0.05348963
6	0xbdc3b587	-0.09556108
7	0xbe143a4f	-0.14475368
8	0xbe4d71fe	-0.20063016
9	0xbe3f8da1	-0.18706371
10	0xbe8ca6a5	-0.2747089
11	0xbe61d093	-0.22052221
12	0x3e52790f	0.20553993
13	0xbdbcd3ad	-0.092200615
14	0xbd11ec7a	-0.035625912
15	0xbdce1720	-0.100630045
16	0x3e57f5ec	0.21089906
17	0xbe925fc0	-0.28588676
18	0x3dce95b6	0.10087149
19	0xbcf13640	-0.029444814
20	0x3ee0dfda	0.43920785
21	0xbd88dfe8	-0.06683332
22	0xbe865009	-0.26232937
23	0xbeb4e3e9	-0.35330132
24	0xbd945bc6	-0.07244067
25	0x3e1a3991	0.15061022
26	0xbd5d2bb3	-0.053996753
27	0x3eb5f3da	0.35537606
28	0x3cb9b399	0.022668647
29	0x3e2b5799	0.16732635
30	0x3e0c990e	0.1373026
31	0xbd597b03	-0.05309583
32	0xbd07fd8a	-0.033200778
33	0x3e7ea379	0.24867047
34	0xbf01d466	-0.5071472
35	0x3ebe666f	0.37187526
36	0xbd3d68a1	-0.04624236
37	0x3eaab017	0.3333747
38	0xbdc7caba	-0.09755464
39	0xbe2a496c	-0.1662957
40	0x3e936e5f	0.28795144
41	0x3b90d4af	0.004419885
42	0xbe9b687c	-0.30353153
43	0x3e0985a5	0.13429888
44	0xbe7be10d	-0.24597569
45	0xbd01545b	-0.03157459
46	0xbe97043b	-0.29495415
47	0x3c606288	0.013695367
48	0x3e776f3d	0.24163528
49	0x3d0d23f8	0.03445813
50	0x3eb55a8b	0.3542064
51	0x3eb2f7da	0.3495472
52	0x3dbea245	0.09308294
53	0x3e237c69	0.15965427
54	0xbe400d72	-0.18755129
55	0xbc87354b	-0.016504904
56	0x3d16a76f	0.03678077
57	0x3e26c824	0.16287285
58	0x3e08c25a	0.13355389
59	0x3dc4b841	0.09605456
60	0x399ceb1a	0.00029929803
61	0xbe345593	-0.17610769
62	0xbe5638a1	-0.2092004
63	0xbdbd8e91	-0.09255708
64	0xbe3e7e84	-0.1860295
65	0x3dd891cb	0.10574683
66	0x3dca9090	0.09890854
67	0x3dd1f635	0.102520384
68	0x3caaa8fa	0.020832527
69	0x3ec71b28	0.38887906
70	0x3e1ba3e6	0.15199241
71	0x3e369deb	0.17833678
72	0xbd8a3450	-0.06748259
73	0xbd4c51ac	-0.049882576
74	0xbc802937	-0.015644653
75	0xbd126b16	-0.035746656
76	0xbeaf2612	-0.34208733
77	0x3ed78357	0.42092392
78	0x3e64367f	0.22286414
79	0xbdf8752d	-0.121317245
80	0x3dca2cf1	0.09871853
81	0x3df8dd8c	0.12151632
82	0xbbb8589e	-0.0056257984
83	0xbe99c380	-0.30031967
84	0xbeceb0fb	-0.403694
85	0x3e2c7924	0.16843086
86	0xbea0b4f1	-0.31388047
87	0x3eb1e1bc	0.34742534
88	0x3e1a2c40	0.15055943
89	0xbcf392f8	-0.029733166
90	0x3e6e0f12	0.23247936
91	0x3e5afd35	0.21385653
92	0xbeb1a5a4	-0.34696686
93	0x3ed4e0f8	0.41577888
94	0xbedc77a9	-0.43060043
95	0x3e89247d	0.2678565
96	0x3dc191ff	0.09451675
97	0x3ecb7f00	0.3974533
98	0x3ea98a91	0.3311353
99	0x3ccfb678	0.025355563
100	0x3e7aaba0	0.24479532
101	0xbea38e60	-0.3194456
102	0xbe8cb153	-0.27479038
103	0x3de61874	0.11235133
104	0xbec40d3f	-0.38291356
105	0x3e7f14ee	0.24910328
106	0xbe78eae3	-0.24308352
107	0x3e5f6aac	0.21818036
108	0x3e938a14	0.28816283
109	0x3dbf5457	0.093422584
110	0x3e08b84e	0.13351557
111	0xbd07ad7c	-0.033124432
112	0x3de1f6d3	0.11033406
113	0xbd61e1d3	-0.055147003
114	0xbd11ae6b	-0.03556673
115	0x3e798d42	0.24370292
116	0xbeb3fa60	-0.35151958
117	0xbce00b61	-0.027349176
118	0xbde13c93	-0.10997882
119	0xbe07d791	-0.13265826
120	0xbdd54842	-0.10414173
121	0x3bd8c17c	0.006614862
122	0xbc334ba2	-0.010943325
123	0x3ecbcf20	0.3980646
124	0x3eb63a27	0.35591242
125	0xbe097054	-0.13421756
126	0x3ebd406e	0.36963218
127	0xbeed586e	-0.4635653
128	0xbe97d9d3	-0.29658374
129	0xbe017fc1	-0.1264639
130	0xbe8d8d77	-0.27646992
131	0xbe1c6b2e	-0.15275261
132	0x3e95ff87	0.29296514
133	0xbc752ec2	-0.014964761
134	0x3e84883d	0.25885192
135	0xbeada34b	-0.33913645
136	0x3bc9f4d2	0.006163218
137	0x3c8bbdba	0.017058242
138	0xbe4e8077	-0.20166193
139	0xbe567c68	-0.20945895
140	0x3e360f8d	0.1777937
141	0xbe751f70	-0.23937774
142	0xbe225c6d	-0.1585557
143	0xbeb38efb	-0.35070023
144	0xbe8b500b	-0.27209505
145	0x3eeff76b	0.46868452
146	0xbe8501bd	-0.2597789
147	0x3eb278d7	0.34857818
148	0x3e86e034	0.26342928
149	0xbd424eb1	-0.047438327
150	0x3c9b1dda	0.018935133
151	0x3dc99bbe	0.098441586
152	0x3d409431	0.047016326
153	0x3e9ead39	0.30991533
154	0xbeb711ab	-0.35755667
155	0x3de952fd	0.11392782
156	0xbd1c7b41	-0.03820348
157	0x3e139e16	0.14415774
158	0x3dc2776e	0.09495436
159	0xbd0f9c6c	-0.035061285
160	0xbe311fa2	-0.17297223
161	0x3ea9c214	0.33155882
162	0xbd91f746	-0.07127242
163	0x3dfce7a8	0.123488724
164	0x3e3190b3	0.17340355
165	0xbea74e79	-0.32677057
166	0x3af7c6c6	0.0018903844
167	0xbe7981bd	-0.24365897
168	0xbe99e0c1	-0.30054286
169	0xbb3668c1	-0.0027833434
170	0xbe97e65c	-0.29667938
171	0x3cd6c268	0.026215747
172	0x3e9da5db	0.307906
173	0xbe76535a	-0.24055234
174	0x3ef3eadc	0.4764012
175	0x3d07b09f	0.033127423
176	0xbcd33f93	-0.02578715
177	0xbdd64ae5	-0.10463504
178	0xbdc72648	-0.097240984
179	0x3e3d7078	0.18499935
180	0xbef4e3a3	-0.47829923
181	0x3ebf3418	0.37344432
182	0x3e33d802	0.17562869
183	0x3e91d459	0.2848232
184	0x3d927507	0.071512274
185	0xbd91453f	-0.07093286
186	0x3e0ff94d	0.14059944
187	0xbcb1c919	-0.021702336
188	0xbe031824	-0.12802178
189	0xbd1f4c46	-0.0388911
190	0xbe94f38f	-0.2909207
191	0xbeaf71df	-0.34266564
192	0x3e5b40b2	0.21411398
193	0xbd56c6ee	-0.052435808
194	0x3e99675d	0.29961672
195	0xbdb14957	-0.086565666
196	0x3ea70d63	0.326274
197	0xbeac07e0	-0.33599758
198	0xbd0ea277	-0.034822907
199	0x3e7e4732	0.24831846
200	0xbebd69b6	-0.36994714
201	0x3d313045	0.043258924
202	0xbd969bb5	-0.073539175
203	0x3e84282f	0.25811908
204	0x3e269cdf	0.16270779
205	0xbe09f5e4	-0.13472706
206	0xbcf78dc7	-0.030218972
207	0xbecde393	-0.40212688
208	0x3bded108	0.006799821
209	0x3bcf39ac	0.0063240137
210	0xbd89b156	-0.06723277
211	0x3cd77aed	0.026303733
212	0x3e878666	0.26469725
213	0xbd4d78a5	-0.050163884
214	0x3ee0ae52	0.43882996
215	0xbe302f08	-0.17205441
216	0x3e6a7e12	0.22899655
217	0xbed473fe	-0.41494745
218	0xbe47929c	-0.19489521
219	0x3c26a97b	0.010172243
220	0x3e838a3b	0.256914
221	0x3dbdf59f	0.09275364
222	0x3d7b011f	0.061280366
223	0xbddb2fd4	-0.10702482
224	0x3cf13a9c	0.029446892
225	0x3deedcf1	0.11663235
226	0xbdc6ee30	-0.097133994
227	0x3e0bc6e9	0.13650097
228	0xbcefacf0	-0.029257268
229	0x3e8e7538	0.27823806
230	0x3e74ab8c	0.23893565
231	0x3dfe8828	0.124283135
232	0xbe8001ae	-0.25001281
233	0x3ecb6b11	0.39730123
234	0xbeb767c6	-0.3582136
235	0x3ea7015f	0.32618234
236	0xbe9cdec8	-0.3063872
237	0x3ecd1663	0.40056142
238	0x3ddffe9c	0.10937235
239	0xbd31ac43	-0.043377172
240	0xbe674c5f	-0.22587727
241	0xbd9f4276	-0.07776348
242	0x3d6dbf1f	0.058043595
243	0x3da3bf9a	0.079955295
244	0x3d02efec	0.03196709
245	0xbd891c8a	-0.066948965
246	0x3eaa1ab7	0.33223507
247	0x3dd714f2	0.10502042
248	0xbe85c201	-0.26124576
249	0xbe94de49	-0.2907584
250	0xbebb4109	-0.36573055
251	0xbe885030	-0.26623678
252	0x3e6cc817	0.23123203
253	0xbcb5d3cd	-0.022195721
254	0x3d913a66	0.07091217
255	0xbdd1393c	-0.10215995

net.6.bias f4 [20]
0	0x3e000a61	0.12503959
1	0xbe7377c4	-0.23776156
2	0xbe09cf41	-0.13457967
3	0xbe355ade	-0.17710444
4	0x3cb6f0b2	0.02233157
5	0xbe80d0a8	-0.25159192
6	0xbdac50fa	-0.084138826
7	0xbe832256	-0.25612134
8	0x3b9735d6	0.004614572
9	0xbda9d1a8	-0.08291942
10	0xbc893ec0	-0.016753554
11	0xbe2ff10b	-0.17181794
12	0x3e300f16	0.17193255
13	0x3e870e20	0.26377964
14	0x3d12288e	0.035683207
15	0xbcaecca4	-0.021337815
16	0x3c341fbd	0.010993895
17	0xbdfb3697	-0.122662716
18	0xbd190894	-0.037361696
19	0xbdd40c23	-0.103538774

net.8.weight f4 [1, 20]
0	0xbee030d4	-0.43787253
1	0x3ef28b82	0.4737206
2	0x3ee7a524	0.4524318
3	0x3ece7b7b	0.40328583
4	0x3ec554a2	0.38541132
5	0x3f016076	0.5053781
6	0xbeab0427	-0.33401605
7	0x3ea5cb94	0.3238188
8	0xbedcdb92	-0.4313627
9	0xbe6ea733	-0.23305969
10	0xbed77cec	-0.42087495
11	0x3ece0cb3	0.40244064
12	0xbeb9240e	-0.3616032
13	0xbeba566f	-0.3639407
14	0x3eeee45d	0.46658602
15	0xbed5a1f3	-0.4172512
16	0x3e8b61f9	0.27223185
17	0xbf11f209	-0.5700994
18	0xbef29aa4	-0.47383606
19	0x3ef006b6	0.4688012
