Code/Trained models/m_mu_v0_500_norm_16001.pth (torch, 9610 bytes, 9 tensors)

net.0.weight f4 [20, 6]
0	0xbfd28709	-1.644746
1	0xbdcff0bd	-0.10153339
2	0xbe10f086	-0.14154252
3	0xbe51e2b9	-0.20496644
4	0x3c61e8eb	0.013788442
5	0xbe6a82e7	-0.22901498
6	0xbf4de5cb	-0.8042876
7	0x3d3bfd1d	0.045895685
8	0xbd738d02	-0.059460647
9	0xbd86d8d9	-0.06584329
10	0x3d0daa4c	0.034586236
11	0xbcd9f28a	-0.02660491
12	0xbeff3041	-0.49841502
13	0xbed687db	-0.41900524
14	0x3d93d7d4	0.072189
15	0xbecd9382	-0.40151602
16	0x3eb59c31	0.35470727
17	0x3edd071c	0.43169487
18	0x3e7f3913	0.24924116
19	0x3cd8a3fe	0.026445385
20	0x3e0ea709	0.13930906
21	0xbc7beca5	-0.015376245
22	0x3e838ea3	0.2569476
23	0xbe623968	-0.22092211
24	0x3f6b7bf3	0.91986006
25	0xbdc2f728	-0.095197976
26	0xbd9561b7	-0.07294028
27	0xbe2ebf9a	-0.17065278
28	0x3dee745d	0.11643288
29	0x3e359a2a	0.1773459
30	0x3f8dfbb9	1.1092445
31	0x3d331607	0.04372218
32	0xbd4c0329	-0.0498077
33	0xbd8bc9cc	-0.06825599
34	0xbe454428	-0.19264281
35	0xbd8e3ced	-0.069452144
36	0xbf38ff3e	-0.7226447
37	0xbe2551bf	-0.16144465
38	0x3d465288	0.04841855
39	0x3e729662	0.23690179
40	0x3dac9c83	0.0842829
41	0xbea0173b	-0.31267723
42	0xbea81ea8	-0.3283589
43	0xbe324fe0	-0.17413282
44	0xbdbaa6f2	-0.091138735
45	0xbd86554c	-0.06559238
46	0x3e195f59	0.14977778
47	0x3e7b2350	0.2452519
48	0x3f90e3d1	1.1319524
49	0xbb1ba052	-0.0023746681
50	0x3c2e54dc	0.010640349
51	0x3e2e85f5	0.17043288
52	0x3e302bdf	0.17204235
53	0xbe11f00e	-0.1425173
54	0xbf5a1f38	-0.85203886
55	0xbb86a386	-0.004108849
56	0x3d16a3ff	0.036777493
57	0x3e161c68	0.14659274
58	0xbe439594	-0.19100028
59	0xbe1c8237	-0.15284048
60	0x3f5d3184	0.8640368
61	0x3c5dd9d3	0.013540703
62	0x3b9476b7	0.0045307535
63	0xbdc7d1d5	-0.09756819
64	0x3e98467d	0.29741278
65	0x3de66cc2	0.11251213
66	0x3fa0b565	1.2555357
67	0xbea0eb57	-0.3142955
68	0x3e33ba53	0.17551546
69	0xbe0d18cc	-0.1377899
70	0xbc9167d6	-0.017749708
71	0x3defe73a	0.11714025
72	0xbf8e0a67	-1.1096925
73	0x3d78b633	0.060720634
74	0x3c584b45	0.013201539
75	0x3d03bf80	0.03216505
76	0x3e48c029	0.19604553
77	0x3d02230e	0.031771712
78	0x3e9b8a08	0.30378747
79	0x3e96192a	0.29316074
80	0xbe3df3ee	-0.18550083
81	0x3d9b07f8	0.07569879
82	0x3e087131	0.13324429
83	0xbe87882d	-0.2647108
84	0x3f35729c	0.70878005
85	0x3d74f2d3	0.059801888
86	0xbd6846c5	-0.056708116
87	0xbe8057d4	-0.25067008
88	0x3e6a645d	0.22889848
89	0xbe4c2d56	-0.1993917
90	0x3f80b701	1.0055848
91	0xbb55564a	-0.0032552653
92	0x3d792efc	0.060835823
93	0x3e3e682f	0.1859443
94	0xbda68278	-0.08130354
95	0xbe342f67	-0.17596208
96	0x3f7b8cd0	0.9826174
97	0x3ba651eb	0.0050756834
98	0xbca2ac56	-0.019857567
99	0xbe37aeab	-0.17937724
100	0x3e2aab2c	0.1666686
101	0x3db6eb12	0.08931555
102	0xbf0705b5	-0.52743083
103	0xbd20a6c8	-0.039221555
104	0xbd3ef340	-0.0466187
105	0x3e6b53a3	0.22981124
106	0xbd270205	-0.04077341
107	0x3e80ed2c	0.25180948
108	0xbc80874f	-0.01568952
109	0x3da01b1f	0.07817673
110	0x3ea1cbfe	0.31600946
111	0xbd45aa97	-0.04825839
112	0xbd335c08	-0.04378894
113	0xbd4952e1	-0.049151305
114	0x3f877836	1.058356
115	0x3d226934	0.03965111
116	0x3d637454	0.05553086
117	0x3e1c5640	0.15267277
118	0x3e68cbae	0.22733948
119	0xbd9e6144	-0.07733396

net.0.bias f4 [20]
0	0x3dc64d44	0.09682706
1	0x3e042403	0.12904362
2	0x3ea9b507	0.33145925
3	0x3ecccb81	0.3999901
4	0x3e07fa78	0.1327914
5	0x3daf7e89	0.085690565
6	0x3ea0ce38	0.31407332
7	0xbec95e44	-0.3932973
8	0x3e8df88d	0.27728692
9	0x3e2838c8	0.1642791
10	0x3e8dbfba	0.27685338
11	0xbe5f07fd	-0.21780391
12	0xbe9faa36	-0.31184548
13	0x3dc653af	0.0968393
14	0xbe1dbe13	-0.15404539
15	0xbc94f08c	-0.018181108
16	0x3ed22f26	0.41051596
17	0xbeb3441a	-0.35012895
18	0xbc2db2fe	-0.010601757
19	0xbe838959	-0.25690725

net.2.weight f4 [20, 20]
0	0x3dc3adf2	0.09554662
1	0xbe952f5c	-0.29137695
2	0x3ba320cd	0.0049782754
3	0x3d9256c8	0.071454585
4	0x3eafc59e	0.34330457
5	0x3f10bf3e	0.5654181
6	0x3e066414	0.13124114
7	0xbe98cf71	-0.29845765
8	0x3ed3273a	0.41240865
9	0xbe6e156c	-0.2325036
10	0x3d598b27	0.05311122
11	0xbe2961b5	-0.16541179
12	0xbf0251d6	-0.5090612
13	0xbc7cc3cd	-0.015427542
14	0x3e86c252	0.2632013
15	0x3ec7a7d1	0.3899522
16	0x3eca8937	0.39557812
17	0x3e64f79d	0.22360082
18	0xbd5c229a	-0.053743936
19	0x3e3e4250	0.18579984
20	0xbe427d10	-0.1899302
21	0xbeccef62	-0.40026385
22	0x3dd8c823	0.10585048
23	0x3db6c115	0.08923546
24	0x3f153d5f	0.5829677
25	0x3ee2107c	0.44153202
26	0xbe9882a4	-0.2978717
27	0xbe1c2906	-0.15250024
28	0x3eceb0a7	0.4036915
29	0xbe84be33	-0.2592636
30	0x3e773aab	0.24143474
31	0x3dce27ed	0.10066209
32	0xbf2cc404	-0.67486596
33	0xbc0dd214	-0.008656044
34	0x3e10c852	0.14138916
35	0x3e10d181	0.1414242
36	0x3eeed042	0.46643263
37	0x3c2e8561	0.010651917
38	0xbcd87c36	-0.026426416
39	0x3edb62c5	0.42848793
40	0x3d7c77c3	0.06163765
41	0x3eba0473	0.3633152
42	0x3d155994	0.03646238
43	0xbe166d48	-0.14690125
44	0xbe0698fd	-0.13144298
45	0xbe846337	-0.25856945
46	0x3e4f7561	0.2025962
47	0x3ed96954	0.4246317
48	0xbef38c78	-0.47568107
49	0x3db834b1	0.08994425
50	0xbec5ff50	-0.3867135
51	0xbda7db51	-0.08196128
52	0x3eead1ff	0.4586334
53	0xbe70c968	-0.2351433
54	0x3bf0c2e1	0.00734745
55	0xbf00e32b	-0.5034663
56	0xbea69614	-0.32536376
57	0xbd904c91	-0.07045854
58	0x3de25869	0.11052019
59	0xbe5c62c7	-0.21522056
60	0x3e8c4320	0.27394962
61	0xbd854d7c	-0.065089196
62	0x3cb01b93	0.021497523
63	0x3eb6e86e	0.35724205
64	0x3dfb5f2d	0.12274013
65	0x3f03fee6	0.5156082
66	0x3d95a605	0.07307056
67	0xbd7795f6	-0.06044575
68	0x3d75525b	0.059892993
69	0xbeb506ef	-0.35356852
70	0xbe79cbf2	-0.24394205
71	0x3e6868df	0.22696255
72	0xbebbf278	-0.36708426
73	0x3e7b100a	0.24517837
74	0x3df660a1	0.12030149
75	0x3e85ea4d	0.2615532
76	0xbd842301	-0.06451989
77	0xbf530343	-0.8242685
78	0xbbf843a5	-0.007576423
79	0x3ed67bb9	0.41891268
80	0x3e71c6b4	0.23610955
81	0xbe64ae82	-0.22332194
82	0x3cfe016c	0.031006537
83	0x3b3b4580	0.002857536
84	0x3e9184ff	0.2842178
85	0x3e185d15	0.14879258
86	0xbdeebe4e	-0.116573915
87	0x3e2b9083	0.16754346
88	0x3e65071d	0.22365995
89	0xbf148286	-0.5801166
90	0x3e64a5fb	0.22328942
91	0x3ce71daf	0.028212396
92	0xbcf6c623	-0.030123776
93	0xbe70ff64	-0.23534924
94	0xbdc3a38e	-0.0955268
95	0xbdc7ffc3	-0.097655796
96	0x3ee5cd51	0.44883206
97	0x3d3b740c	0.045764968
98	0xbea2d6a2	-0.31804377
99	0x3ce894e2	0.028391305
100	0x3d8e99ce	0.0696293
101	0x3e308c0f	0.17240928
102	0x3db3cead	0.08779655
103	0xbd999c0f	-0.07500469
104	0xbdd811fc	-0.10550305
105	0xbf0321e7	-0.51223606
106	0x3cb3bbce	0.021940138
107	0x3def3d73	0.116816424
108	0xbd29b909	-0.04143623
109	0x3eb44300	0.35207367
110	0xbed061a2	-0.40699488
111	0xbe7c4937	-0.24637304
112	0x3da2879b	0.07936021
113	0xbe739f93	-0.23791341
114	0x3b9b47e1	0.0047387932
115	0xbdd1b3e9	-0.10239393
116	0xbebc9e1c	-0.36839378
117	0xbdc06eca	-0.09396131
118	0xbd3f8893	-0.046761107
119	0xbef89d85	-0.48557678
120	0xbda3387a	-0.079697564
121	0x3e90fd3f	0.2831821
122	0x3e2beeb7	0.16790281
123	0xbe11b961	-0.14230873
124	0xbe13bc5d	-0.14427324
125	0xbe6a79b1	-0.22897984
126	0x3dc5e504	0.09662822
127	0xbe2406a4	-0.16018158
128	0x3d3cacf6	0.046063386
129	0x3f176ee5	0.59153587
130	0xbe8320c9	-0.2561095
131	0x3c5a3a50	0.013319567
132	0x3ea75e67	0.3268921
133	0x3de480e9	0.111574
134	0x3b92aab6	0.0044759167
135	0xbeb0c88c	-0.34528005
136	0xbf08ec27	-0.5348534
137	0xbcc2febe	-0.023803111
138	0x3dec47e8	0.115371525
139	0xbed322fe	-0.41237634
140	0xbd8996f1	-0.06718243
141	0xbea5a37b	-0.32351288
142	0xbe58f6a0	-0.2118783
143	0x3d7d5bad	0.061855007
144	0x3f12c6a6	0.57334363
145	0x3e9c84f8	0.30570197
146	0x3eb96209	0.36207607
147	0xbd88d332	-0.06680907
148	0xbdbaa9e5	-0.09114436
149	0xbe8aa13d	-0.2707614
150	0x3e8b6b6a	0.27230388
151	0x3ea9c1a0	0.33155537
152	0xbe8bad71	-0.27280763
153	0xbe9761ca	-0.29566795
154	0x3da51b86	0.0806189
155	0x3e9028bd	0.2815608
156	0x3ef04743	0.46929368
157	0xbe89b11a	-0.2689293
158	0xbdf1af0f	-0.11800968
159	0xbde60137	-0.112307005
160	0x3d4f060f	0.050542887
161	0x3e309b0e	0.17246649
162	0xbcaf7fc5	-0.02142323
163	0xbd4bd4a2	-0.04976333
164	0xbe923c7d	-0.28561774
165	0xbf253862	-0.6453916
166	0xbd583b06	-0.052790664
167	0x3cc7ac40	0.024374127
168	0xbe9771f6	-0.29579133
169	0x3f0f820e	0.5605782
170	0x3ccd88cf	0.02508965
171	0xbd6df045	-0.058090467
172	0x3e47189d	0.19442983
173	0xbd3798a2	-0.044823296
174	0xbe802dd3	-0.2503496
175	0xbed91c23	-0.4240428
176	0xbee988a2	-0.45612055
177	0xbdafe089	-0.085877486
178	0x3c91dd17	0.01780562
179	0xbf0d8ddf	-0.55294603
180	0xbdbd5d68	-0.092463315
181	0xbe4f7519	-0.20259513
182	0x3e296c2a	0.16545168
183	0x3d3b4ca4	0.045727387
184	0x3ed47cb8	0.41501403
185	0x3eddeba5	0.43343845
186	0x3c0279e6	0.007963633
187	0xbdd50fa8	-0.10403377
188	0xbd259e36	-0.040434085
189	0xbef058c1	-0.46942714
190	0x3deb5b60	0.11492038
191	0x3d4738f5	0.048638303
192	0xbf159011	-0.5842295
193	0x3e2785d2	0.16359642
194	0x3d71afa9	0.059005413
195	0xb9b1ada5	-0.00033889446
196	0x3ed4d293	0.41566905
197	0x3cdcc756	0.02695052
198	0xbe35ae8c	-0.17742366
199	0x3e8f2b2d	0.27962628
200	0x3e27c575	0.16383918
201	0x3e58eefb	0.21184914
202	0xbe85bc12	-0.2612005
203	0x3d1e4ec3	0.03864933
204	0x3dfa7ba3	0.12230613
205	0x3e2fa56e	0.1715295
206	0x3eac1827	0.33612177
207	0x3dc47370	0.095923305
208	0xbd23fd0f	-0.040036257
209	0x3e4cb04a	0.19989124
210	0xbeeebee9	-0.46630028
211	0x3e9c8e00	0.30577087
212	0xbe4087d3	-0.18801813
213	0x3ee3bb61	0.44478896
214	0xbd25ac4c	-0.04044752
215	0xbdcfd079	-0.10147185
216	0xbdc6e45b	-0.09711524
217	0x3dd641dd	0.10461781
218	0xbddd58fa	-0.108079866
219	0xbdc58c5d	-0.09645913
220	0xbc9d43a3	-0.01919729
221	0xbe913188	-0.28358102
222	0x3e921fe0	0.28539944
223	0x3cf0679a	0.029346276
224	0x3f0e78bd	0.5565298
225	0xbe14a612	-0.14516476
226	0xbe70c4fb	-0.23512642
227	0xbe7fedb6	-0.24993023
228	0xbeccc398	-0.39992976
229	0x3c3e16ef	0.0116021475
230	0x3e801195	0.25013414
231	0xbedef65c	-0.43547332
232	0xbe772cc3	-0.24138169
233	0x3d813a71	0.06309975
234	0x3e203b5d	0.15647645
235	0xbda2e52c	-0.07953867
236	0xbe0d3167	-0.13788377
237	0xbe55d232	-0.20880964
238	0xbe6f1810	-0.23349023
239	0xbe2e101f	-0.16998337
240	0xbebadcb3	-0.36496505
241	0xbe0c8afa	-0.1372489
242	0xbd9c2f05	-0.07626156
243	0xbe873b99	-0.26412657
244	0x3e8b3651	0.27189878
245	0xbee4b8a2	-0.44672114
246	0x3e035f0d	0.12829228
247	0x3e8a7299	0.27040556
248	0xbeaa1df9	-0.33225992
249	0xbea3c02f	-0.31982562
250	0x3e86c213	0.26319942
251	0xbd02d5ff	-0.031942364
252	0xbe9435bd	-0.2894725
253	0xbe69f1b4	-0.22846109
254	0xbf485c99	-0.7826629
255	0xbf1a1b29	-0.60197693

net.2.bias f4 [20]
0	0x3e811ffa	0.2521971
1	0x3e2f12f0	0.17097068
2	0xbe4c0521	-0.19923832
3	0xbd6d6781	-0.057960037
4	0x3c8ccca4	0.017187424
5	0xbaa2051f	-0.0012361145
6	0xbdc464df	-0.09589552
7	0xbe57e801	-0.21084596
8	0xbe7d8236	-0.24756703
9	0x3e06766e	0.13131115
10	0x3e7b3107	0.24530421
11	0xbec46858	-0.38360858
12	0x3de6884b	0.112564646
13	0xbdbeb40f	-0.09311687
14	0x3d83912c	0.06424174
15	0xbe78dc4a	-0.24302784
16	0x3cdd78bd	0.027035112
17	0x3ed335dd	0.41252032
18	0x3c221d83	0.009894731
19	0x3ca88224	0.020569868

net.4.weight f4 [20, 20]
0	0x3cb276f5	0.021785239
1	0x3f4f912b	0.81080884
2	0xbd9b2d89	-0.075770445
3	0x3ea3dd8c	0.32004964
4	0xbe0573a4	-0.13032395
5	0xbea78512	-0.32718712
6	0x3d5c3c05	0.053768177
7	0x3f015760	0.5052395
8	0xbe84f461	-0.25967696
9	0x3e88d744	0.26726735
10	0x3e6cf0d3	0.23138742
11	0x3d9975dd	0.07493184
12	0x3ebe6041	0.3718281
13	0x3eb83267	0.35975954
14	0x3de94e00	0.113918304
15	0xbebce0d4	-0.3689028
16	0xbf333e39	-0.7001682
17	0xbf16cd86	-0.58907354
18	0xbea844c0	-0.32864952
19	0xbf1b032c	-0.60551715
20	0xbe11b43d	-0.14228912
21	0xbe88a2bd	-0.2668666
22	0x3f097565	0.53694755
23	0xbf231e33	-0.63717955
24	0xbea76e30	-0.32701254
25	0x3f088d64	0.53340745
26	0x3ea6a2da	0.3254612
27	0xbec4761c	-0.3837136
28	0x3ec301a3	0.38087186
29	0xbee05fcd	-0.4382309
30	0x3e218eaa	0.15777078
31	0x3e244675	0.16042502
32	0xbde9824d	-0.11401806
33	0x3e1142a3	0.14185576
34	0xbf1bccb1	-0.6085921
35	0x3e5515c7	0.20809089
36	0x3ed908e6	0.423896
37	0xbe35df5c	-0.17760986
38	0x3dd3e8f7	0.10347169
39	0x3f0a0025	0.5390647
40	0xbefbf670	-0.49211454
41	0xbea12ca2	-0.31479365
42	0x3ec10327	0.37697718
43	0x3dfda2a5	0.123845376
44	0xbe24da88	-0.16098988
45	0x3eccb6db	0.39983258
46	0x3e9a190a	0.30097228
47	0xbe1f21b3	-0.15540199
48	0x3efa51ba	0.48890477
49	0xbd34755a	-0.044057228
50	0x3d85ded3	0.06536641
51	0x3e03258b	0.1280729
52	0xbc9dba42	-0.019253854
53	0xbdecc218	-0.11560458
54	0xbee4c199	-0.44678953
55	0x3ea01fac	0.31274164
56	0x3ecc17aa	0.39861804
57	0x3e8d00ee	0.27539772
58	0x3c55ddd1	0.013053373
59	0xbd8a6b54	-0.067587525
60	0x3d82c4de	0.06385206
61	0xbe0523df	-0.13001965
62	0xbe9890e8	-0.29798055
63	0x3eefa285	0.4680368
64	0xbe26155f	-0.1621909
65	0x3e5b0afa	0.21390906
66	0x3d5eb6c5	0.05437352
67	0x3f27a689	0.6548849
68	0x3d613469	0.054981623
69	0x3bdf4310	0.0068134144
70	0x3e5c9a8e	0.21543333
71	0xbd8e9984	-0.069628745
72	0x3e7392f5	0.23786528
73	0x3e5e78a7	0.21725713
74	0xbcea18e4	-0.028576322
75	0xbe2db605	-0.16963966
76	0x3e06337d	0.13105579
77	0xbe41c1d2	-0.18921593
78	0x3f153386	0.58281744
79	0x3e007dd9	0.12548007
80	0xbc90d51f	-0.017679749
81	0xbe686524	-0.22694832
82	0x3eda4aca	0.42635185
83	0x3e1f766e	0.15572521
84	0xbeb4887e	-0.35260385
85	0x3f0761ff	0.52883905
86	0x3ce41fdc	0.027847223
87	0x3d23edb4	0.040021613
88	0x3dbde10b	0.09271439
89	0xbe8d46b5	-0.27593008
90	0xbe3f5090	-0.18683076
91	0x3e9c660d	0.3054661
92	0x3cb993bb	0.022653451
93	0x3ea5692b	0.323068
94	0xbeaa3786	-0.33245486
95	0xbe228f9f	-0.158751
96	0xbd76cc1f	-0.06025326
97	0xbef1de33	-0.47239837
98	0xbda4c557	-0.08045452
99	0x3ddf2e2a	0.10897477
100	0xbe22bdf4	-0.15892774
101	0x3e333b6f	0.17503141
102	0xbd1bed25	-0.038067956
103	0x3ea7b501	0.32755283
104	0x3e9e4e59	0.3091915
105	0xbe9b1059	-0.3028591
106	0xbf1c6e21	-0.61105543
107	0x3f38b009	0.7214361
108	0xbe3b2517	-0.18275867
109	0x3d8956e6	0.06706028
110	0xbf059956	-0.521871
111	0x3eebc03f	0.4604511
112	0xbf2edaca	-0.68302596
113	0xbed5077f	-0.41607282
114	0xbdd5cd3b	-0.10439535
115	0x3dd00846	0.10157828
116	0xbeb94c3b	-0.36190972
117	0xbec7883b	-0.38971123
118	0x3e972c2d	0.2952589
119	0xbedd0b51	-0.43172696
120	0x3ef6f3dc	0.48232925
121	0x3d418cf0	0.04725355
122	0xbe0eb454	-0.13935977
123	0x3ed9bf55	0.42528787
124	0x3c9c7e4a	0.019103188
125	0xbd888621	-0.06666208
126	0xbeb9e722	-0.36309153
127	0x3d9afe64	0.075680524
128	0xbf14b5b8	-0.5808978
129	0x3e0ecc9d	0.13945241
130	0x3e976523	0.2956935
131	0x3e3b5fbf	0.18298243
132	0x3e09580f	0.13412498
133	0xbe04501b	-0.12921183
134	0x3e6e10d2	0.23248604
135	0xbda1d247	-0.07901435
136	0xbd94923d	-0.07254455
137	0xbe6c76f5	-0.23092254
138	0xbcead9d2	-0.028668318
139	0xbe88c9e2	-0.26716524
140	0x3e57f361	0.21088935
141	0x3d95cee7	0.07314854
142	0x3c7c6fef	0.015407546
143	0xbeab0f8e	-0.33410305
144	0xbddea9b5	-0.10872213
145	0x3dd07472	0.1017846
146	0x3e798e05	0.24370582
147	0xbec0f4a5	-0.3768665
148	0x3c8a9f34	0.016921617
149	0xbeb4ecdc	-0.3533696
150	0x3df98e91	0.121853955
151	0xbe115fd2	-0.14196709
152	0xbe3e5209	-0.18585981
153	0x3f1456d3	0.57944983
154	0x3ca5e280	0.020249605
155	0x3e1c21c8	0.15247262
156	0x3e8bd432	0.2731033
157	0x3ea3be6a	0.31981212
158	0xbe02d2c4	-0.12775713
159	0x3eb2f215	0.3495032
160	0x3eb7b36e	0.3587908
161	0x3ed5844b	0.41702494
162	0xbdb3e739	-0.087843366
163	0xbf29bc20	-0.6630268
164	0xbf295c01	-0.6615601
165	0x3e2cd3df	0.16877697
166	0x3e1b4241	0.15161993
167	0xbef1a71a	-0.471978
168	0xbe87abe2	-0.26498324
169	0xbf127627	-0.57211536
170	0x3eaa4bca	0.33260947
171	0xbedc012d	-0.42969647
172	0x3f11a66c	0.56894565
173	0x3f08ee51	0.5348864
174	0x3e99a639	0.3000963
175	0xbf074249	-0.5283552
176	0x3f0930a0	0.5358982
177	0x3f1a1a4b	0.6019637
178	0xbf051d10	-0.5199747
179	0x3e8e1c43	0.27755937
180	0x3ef7e320	0.4841547
181	0x3e6322c7	0.22181235
182	0xbe91b1c8	-0.2845595
183	0x3ec8a6a9	0.39189652
184	0x3e5dc492	0.21657017
185	0xbf1f78e6	-0.6229385
186	0xbef22b1a	-0.4729851
187	0x3e8330eb	0.2562326
188	0xbf30b60b	-0.69027776
189	0x3f0f846a	0.5606142
190	0x3ec46f3c	0.38366115
191	0x3dcbcd04	0.09951213
192	0xbca423c0	-0.020036578
193	0x3e7885da	0.2426981
194	0x3e996691	0.29961064
195	0xbe9f2fdb	-0.31091198
196	0xbc9cd602	-0.019145016
197	0xbd3e70b5	-0.046494205
198	0xbe36b413	-0.1784213
199	0xbef4891e	-0.47760862
200	0x3e7c35e8	0.24629939
201	0x3edf8e1b	0.43663105
202	0xbdd51ecc	-0.10406265
203	0x3e90519e	0.2818727
204	0x3cd7de0f	0.026351003
205	0xbf2383a7	-0.6387276
206	0xbef291b1	-0.4737678
207	0x3e5c86eb	0.21535842
208	0xbedf7760	-0.43645763
209	0x3d409f3d	0.04702686
210	0xbdeb2cdc	-0.114831656
211	0x3dfa94b7	0.12235396
212	0x3e6dde9b	0.23229448
213	0xbee65ff0	-0.4499507
214	0x3da02c93	0.07821002
215	0x3c036255	0.00801905
216	0xbe7fbd49	-0.2497455
217	0x3de9adba	0.11410089
218	0x3e24d88c	0.16098231
219	0xbee490f4	-0.4464184
220	0xbf59c6ac	-0.85068774
221	0xbfa2aab4	-1.2708344
222	0x3f50de01	0.8158875
223	0xbf1b84d5	-0.6074956
224	0xbea1a200	-0.3156891
225	0x3f982fa5	1.188954
226	0x3ee60457	0.44925186
227	0xbec28bf1	-0.37997392
228	0x3f858cf3	1.0433639
229	0xbf809d61	-1.0048028
230	0xbe99152f	-0.29898974
231	0xbd3fb07e	-0.046799175
232	0xbd97dd74	-0.07415286
233	0x3e89542e	0.26822037
234	0xbf54a0aa	-0.83057654
235	0x3f53612a	0.82570136
236	0x3f992510	1.1964436
237	0x3eceba0b	0.40376315
238	0xbe9d83ad	-0.30764523
239	0x3f2875d7	0.6580481
240	0x3eb435dd	0.35197344
241	0x3f293772	0.6610023
242	0xbe0b4a3e	-0.1360254
243	0x3ce73c5f	0.02822703
244	0xbd61b9b6	-0.05510875
245	0xbf54ec73	-0.8317329
246	0xbe2c1740	-0.16805744
247	0x3e0980d6	0.13428053
248	0xbddd9b2f	-0.108206145
249	0x3e3ad710	0.18246102
250	0x3e3f7ccc	0.1869995
251	0xbed2c124	-0.4116298
252	0xbea4b119	-0.32166365
253	0xbb9edc37	-0.004848029
254	0x3e8933e8	0.26797414
255	0xbeca083e	-0.39459413

net.4.bias f4 [20]
0	0xbd239838	-0.03994009
1	0xbe03690b	-0.1283304
2	0x3be17309	0.0068801683
3	0x3e95b207	0.29237387
4	0xbe87d8f9	-0.26532724
5	0xbed489c8	-0.4151137
6	0x3d23f27f	0.040026184
7	0xbe57c3ab	-0.21070735
8	0x3ce1572c	0.027507387
9	0xbda21bc4	-0.07915452
10	0x3de4a81d	0.111648776
11	0xbdcb4ca3	-0.09926727
12	0x3d4062e2	0.046969302
13	0xbe0d9ef8	-0.13830173
14	0xbe968a08	-0.29402184
15	0xbe71e935	-0.23624118
16	0x3e828785	0.25494018
17	0xbc4353a0	-0.011921793
18	0x3f0650eb	0.5246722
19	0x3e0df64b	0.13863485

net.6.weight f4 [20, 20]
0	0x3d81280b	0.06306466
1	0x3dc106df	0.09425139
2	0x3e31ca26	0.1736227
3	0xbe6f4cdd	-0.23369165
4	0xbea132b0	-0.31483984
5	0x3ef686cb	0.48149714
6	0xbd13c31f	-0.036074754
7	0xbe8795e0	-0.26481533
8	0x3ec89189	0.39173535
9	0xbe8a0ed4	-0.26964438
10	0xbee1ead7	-0.4412448
11	0xbdbc7301	-0.09201623
12	0xbdaceb70	-0.08443344
13	0x3e8e311b	0.2777184
14	0xbe0d4087	-0.13794146
15	0x3e6b47ef	0.22976659
16	0xbf245dc0	-0.6420555
17	0x3e21fbfd	0.15818782
18	0xbf07ee98	-0.5309844
19	0x3d2503c4	0.040286794
20	0x3ebba490	0.3664899
21	0x3f0357e3	0.5130598
22	0x3ea8b86d	0.32953206
23	0x3e025e96	0.12731394
24	0xbddd785d	-0.10813973
25	0xbe177ae1	-0.14792968
26	0xbe646930	-0.22305751
27	0x3ef29985	0.4738275
28	0xbdc48ade	-0.09596799
29	0xbeb73d1c	-0.3578881
30	0xbf2c7a0f	-0.67373747
31	0x3f1e3b8d	0.6180962
32	0xbc49c446	-0.012314862
33	0x3f12e9ec	0.57388186
34	0xbd7d3216	-0.061815344
35	0x3dcb9bee	0.099418506
36	0x3e8da2e9	0.27663353
37	0x3dfc29ad	0.123126365
38	0x3eb29992	0.3488279
39	0x3de75214	0.11294952
40	0xbec8ac26	-0.3919384
41	0xbe2de645	-0.16982372
42	0x3e3104bf	0.17286967
43	0xbe12752d	-0.14302512
44	0x3d2d245c	0.042271003
45	0x3d1de749	0.03855065
46	0x3f10d8bb	0.56580704
47	0xbde18a04	-0.110126525
48	0xbe279239	-0.16364373
49	0x3eec9280	0.4620552
50	0x3e766c38	0.2406472
51	0x3c872e87	0.016501678
52	0xbd59a97d	-0.053140152
53	0xbeec3abe	-0.46138567
54	0x3e7f4208	0.24927533
55	0xbead21e6	-0.33814925
56	0xbe83ee2d	-0.2576765
57	0x3f11d377	0.56963295
58	0xbe8ef46d	-0.27920857
59	0xbe2099d4	-0.15683681
60	0xbde1b9f6	-0.11021797
61	0xbe3ad8c3	-0.1824675
62	0xbe3a473e	-0.18191239
63	0x3e0593f2	0.13044718
64	0xbf0efc89	-0.5585409
65	0x3e8fb66e	0.2806887
66	0x3e6804bd	0.22658058
67	0xbe96f03f	-0.29480168
68	0x3d480cb4	0.04884024
69	0xbe11e163	-0.14246134
70	0xbcddd07e	-0.027076956
71	0x3c50f0c5	0.012752716
72	0x3e98d9ad	0.29853573
73	0x3ea86414	0.32888854
74	0xbd922e8a	-0.07137783
75	0x3f04edeb	0.51925534
76	0xbe403426	-0.18769893
77	0xbdaf408b	-0.085572325
78	0xbf03f3bf	-0.515438
79	0x3e8935da	0.26798898
80	0x3d74dae4	0.059779063
81	0x3e904134	0.28174746
82	0x3c3c6bf9	0.011500352
83	0x3e1c637f	0.1527233
84	0x3e95e41d	0.292756
85	0xbe25a1fa	-0.1617507
86	0x3db9357f	0.09043407
87	0xbc20d1fa	-0.009815687
88	0xbb86a9c6	-0.004109594
89	0xbbb9b424	-0.0056672264
90	0x3d863307	0.065527014
91	0x3ea4e7c5	0.32208076
92	0xbe016ee8	-0.12639964
93	0xbe1deeec	-0.15423173
94	0x3e2dd9da	0.16977635
95	0xbeabcf5a	-0.33556634
96	0x3d69d266	0.057085417
97	0x3e8d7fba	0.2763651
98	0x3dd35d4a	0.10320528
99	0xbe816aba	-0.25276738
100	0x3b8af0a2	0.0042401114
101	0x3e1bab16	0.15201983
102	0x3d58cb2a	0.052928127
103	0xbe8f7e2d	-0.28025952
104	0x3e026c1e	0.12736556
105	0xbe72112e	-0.23639366
106	0x3d1e07b0	0.03858155
107	0x3ecd5125	0.4010097
108	0xbe8abc54	-0.27096808
109	0xbc8a437d	-0.016877884
110	0x3eb45669	0.35222176
111	0x3d585f02	0.05282498
112	0xbe340cbb	-0.17582981
113	0xbd9d0b50	-0.07668173
114	0x3ec99dc9	0.39378193
115	0xbdf265dc	-0.118358344
116	0x3d84be29	0.06481583
117	0x3e64f78d	0.22360058
118	0x3cab4e96	0.020911496
119	0xbd62131e	-0.055194013
120	0xbf20e28d	-0.6284569
121	0x3ee0a194	0.43873274
122	0x3b8ea2d1	0.0043529053
123	0xbe18c12a	-0.14917436
124	0x3f1ab73e	0.60435855
125	0xbc813c4c	-0.015775822
126	0xbe733bc4	-0.23753268
127	0x3ec990c7	0.3936827
128	0x3d117607	0.03551295
129	0xbf040e21	-0.5158406
130	0xbc9c0c2c	-0.019048773
131	0x3ed867d5	0.42266718
132	0xbe93ea30	-0.28889608
133	0x3cdbf026	0.02684791
134	0xbc95c17a	-0.018280733
135	0xbe3710f4	-0.17877561
136	0xbceee4dc	-0.029161863
137	0x3e08bb60	0.13352728
138	0x3dfbf0e8	0.123018086
139	0xbf32f1cc	-0.699002
140	0x3c6ebe5b	0.0145717515
141	0xbdd21cf6	-0.1025943
142	0xbcb21cbb	-0.021742215
143	0xbe136eb7	-0.14397703
144	0xbe712ea6	-0.23552951
145	0xbd530096	-0.05151423
146	0xbd6e33c9	-0.058154855
147	0xbe57707f	-0.21039008
148	0x3eb1e565	0.34745327
149	0x3e881550	0.2657876
150	0xbe3a1e96	-0.1817573
151	0x3afc35f4	0.0019242154
152	0x3e946c2e	0.28988785
153	0x3d908751	0.070570596
154	0xbe8df1e1	-0.277236
155	0x3d815c62	0.06316449
156	0x3e62a56d	0.22133417
157	0xbde769fe	-0.11299513
158	0xbc5bde29	-0.013419666
159	0x3e3856d2	0.1800187
160	0xbe76abbf	-0.24088953
161	0xbb91c59f	-0.004448607
162	0xbec65152	-0.38733917
163	0xbe9d7532	-0.30753475
164	0x3ee4deff	0.44701383
165	0xbe92540c	-0.28579748
166	0x3ecfc446	0.40579432
167	0x3d720c11	0.05909354
168	0xbe9f6543	-0.31131944
169	0xbda8d153	-0.082430504
170	0x3ec17144	0.37781727
171	0x3ef58d8f	0.47959563
172	0xbe8f820f	-0.28028914
173	0xbe3f95c7	-0.1870948
174	0x3eba7340	0.36416054
175	0xbdafe3d7	-0.08588379
176	0x3f095f72	0.53661263
177	0x3df7ff9c	0.121093005
178	0x3f08d06c	0.53443027
179	0xbeb7cca0	-0.35898304
180	0xbda10db1	-0.078639396
181	0x3acb59ae	0.0015514398
182	0xbe8268d7	-0.2547061
183	0x3edd5cb8	0.432348
184	0xbee4967e	-0.44646066
185	0x3ec2db0e	0.3805775
186	0xbe1cff57	-0.1533178
187	0xbe9b18c5	-0.30292335
188	0x3ea4fd92	0.3222471
189	0xbd0d0f46	-0.034438394
190	0x3d98e57c	0.07465646
191	0x3ced340e	0.028955486
192	0x3e8b0999	0.2715576
193	0xbdacc209	-0.08435447
194	0xbd7c6b12	-0.061625548
195	0x3dd501b9	0.10400719
196	0xbe359ae2	-0.17734864
197	0xbe473ec9	-0.19457544
198	0xbd120cf0	-0.03565687
199	0x3e164825	0.14675958
200	0xbed8cfb0	-0.42345953
201	0x3d3eb734	0.046561435
202	0x3f04ce66	0.5187744
203	0xbe43e13e	-0.19128892
204	0x3e7df917	0.24802051
205	0x3c313586	0.010815984
206	0xbe8fda5f	-0.2809629
207	0x3d4b1271	0.049578134
208	0xbe14ddf3	-0.14537792
209	0xbec58abb	-0.38582405
210	0xbecfc655	-0.40581003
211	0x3f021745	0.50816756
212	0xbf0fa2bf	-0.56107706
213	0x3eea5817	0.45770332
214	0xbb107e5f	-0.002204798
215	0x3f08ea6e	0.5348271
216	0x3e9774f8	0.29581428
217	0xbd9fb526	-0.07798223
218	0x3e8c144c	0.27359235
219	0xbe93514d	-0.28772965
220	0xbe3c403d	-0.1838388
221	0x3e640e45	0.22271068
222	0x3e468a9f	0.19388817
223	0x3dd155e1	0.10221458
224	0xbafa0107	-0.0019073793
225	0xbd67028e	-0.05639892
226	0x3e384f20	0.17998934
227	0x3f0e06e2	0.5547925
228	0x3e6c6572	0.23085573
229	0xbe14ca0c	-0.145302
230	0x3e620684	0.22072798
231	0x3eb46fcf	0.35241553
232	0xbe1937f4	-0.1496275
233	0xbe593a26	-0.21213588
234	0x3e1d6be9	0.15373196
235	0xbc984c4f	-0.018591074
236	0x3ef0caa2	0.47029597
237	0x3e9bb8f2	0.3041454
238	0x3e3bf856	0.18356451
239	0xbe379a7a	-0.17930022
240	0xbee3b958	-0.44477344
241	0x3eb5d4fa	0.3551405
242	0x3ede59ac	0.4342779
243	0xbe763f81	-0.24047662
244	0xbcdd6419	-0.02702527
245	0xbe849168	-0.25892186
246	0xbefe0fea	-0.49621516
247	0x3ea1209b	0.31470188
248	0xbe66d3eb	-0.22541778
249	0xbe001de8	-0.12511408
250	0xbea4792a	-0.3212369
251	0x3e4e12b8	0.20124328
252	0xbe5a96b7	-0.21346556
253	0x3eb74ff0	0.35803175
254	0x3cced4b3	0.025247907
255	0x3ef6b1c5	0.48182502

net.6.bias f4 [20]
0	0x3e2c80f7	0.16846071
1	0xbc721650	-0.0147758275
2	0x3d850a68	0.064961255
3	0x3e8ae075	0.27124372
4	0xbeb23942	-0.3480931
5	0xbea54caf	-0.32285067
6	0xbdee6997	-0.116412334
7	0x3e9af877	0.3026769
8	0xbee97f19	-0.4560478
9	0xbc4aea7a	-0.012385005
10	0xbd960254	-0.07324663
11	0xbcd1e2da	-0.025620867
12	0x3cfc1a6c	0.030774318
13	0x3e0cefd6	0.13763365
14	0x3df5dde9	0.12005217
15	0xbe3ebf6a	-0.18627706
16	0x3ddeb926	0.10875158
17	0x3e2d16d9	0.16903247
18	0x3eab7f8a	0.33495742
19	0x3e88383a	0.26605397

net.8.weight f4 [1, 20]
0	0xbf11793e	-0.56825626
1	0xbe688b0c	-0.22709292
2	0x3ec418b0	0.38300085
3	0xbf0253e0	-0.50909233
4	0x3ebd1ef6	0.36937684
5	0x3edffa60	0.43745708
6	0x3ea7e4c0	0.3279171
7	0xbec31a68	-0.38106084
8	0x3e7054c7	0.2346984
9	0xbeaa3cad	-0.33249417
10	0xbeaf1ff6	-0.34204072
11	0x3ed758ef	0.42060038
12	0xbec874c0	-0.39151573
13	0xbf74d360	-0.9563503
14	0xbf2392c6	-0.63895833
15	0xbe937fac	-0.28808343
16	0x3eae15fb	0.34001145
17	0xbed69de5	-0.4191734
18	0xbee52066	-0.4475128
19	0xbf00591f	-0.5013599
