Code/Trained models/m_mu_500_norm_8001.pth (torch, 9490 bytes, 9 tensors)

net.0.weight f4 [20, 6]
0.9834268 -0.18615271 -0.14220434 -0.2294468 0.14298216 -0.37662888 0.6283484 -0.025201526
0.054539714 0.035525523 -0.0734757 0.23636612 -0.79169893 0.009599172 0.12764297 -0.07918216
0.6103056 -0.15052332 0.69942254 -0.024688132 0.08240583 -0.08476984 0.42447135 0.21880254
0.4453406 -0.14150015 0.014862784 0.03166723 0.15210046 -0.19478734 0.70736563 0.031941075
-0.02781018 0.019010795 -0.091464706 -0.20358638 0.47853655 0.03150862 -0.11978435 0.010263794
-0.2870948 0.53208 0.5792652 0.12246443 0.009297484 0.11936936 0.1408988 0.09699788
-0.7545512 -0.01494201 -0.01893539 -0.031743888 0.19167474 0.1193139 0.54992634 0.0068180547
-0.1285704 -0.2935911 -0.31242806 -0.23044036 1.034168 0.15909734 0.042768493 -0.12735283
-0.033984162 -0.11945416 -0.15605474 -0.034549955 -0.11080969 0.1389045 -0.06828452 0.27204353
-0.17812088 -0.07519752 0.07885541 -0.022028336 -0.21125792 0.1977592 0.4065512 -0.03916097
-0.07278059 -0.102797374 -0.29805717 0.043786578 -0.9535727 0.24748762 0.004746624 0.10629055
0.037562296 0.38430148 -0.5699137 0.1032766 -0.054173224 -0.091373496 -0.038828596 -0.06386471
-0.012366162 -0.10279237 -0.14655563 0.3783933 -0.42176962 0.26099896 -0.7608837 -0.012728774
0.019807177 0.15729286 -0.014807298 -0.015430198 0.56038785 0.05585523 0.025963534 0.10432901
-0.19808227 -0.33223364 0.79370564 -0.009413336 0.0035101946 0.008200485 0.34166697 -0.03067843
00000000: dcc1 7b3f d19e 3ebe 049e 11be 1af4 6abe
00000010: ea69 123e 80d5 c0be 71db 203f 6e73 cebc
00000020: 0965 5f3d 3683 113d 6e7a 96bd f609 723e
00000030: c8ac 4abf d845 1d3c d7b4 023e 422a a2bd
00000040: fd3c 1c3f c922 1abe 5b0d 333f c43e cabc
00000050: 63c4 a83d cf9b adbd 4f54 d93e c60d 603e
00000060: af03 e43e 6ae5 10be 0983 733c 7fb5 013d
00000070: 39c0 1b3e 5576 47be ea15 353f a5d4 023d
00000080: 2dd2 e3bc 87bc 9b3c d951 bbbd f378 50be
00000090: be02 f53e 2f0f 013d 7f51 f5bd 7929 283c
000000a0: 17fe 92be 6536 083f b94a 143f a2ce fa3d
000000b0: 7954 183c ec77 f43d c647 103e d3a6 c63d
000000c0: 442a 41bf 55cf 74bc 641e 9bbc e105 02bd
000000d0: 6246 443e d95a f43d f9c7 0c3f fd69 df3b
000000e0: f5a7 03be 9351 96be 92f6 9fbe 8ff8 6bbe
000000f0: 9e5f 843f 6aea 223e 042e 2f3d c868 02be
00000100: fa32 0bbd 62a4 f4bd d0cc 1fbe 4184 0dbd
00000110: 31f0 e2bd fb3c 0e3e c1d8 8bbd 4a49 8b3e
00000120: 5265 36be 2801 9abd f27e a13d c574 b4bc
00000130: ff53 58be 6381 4a3e 7b27 d03e 4167 20bd
00000140: fd0d 95bd 6e87 d2bd f39a 98be 8e59 333d
00000150: 571d 74bf 656d 7d3e 9189 9b3b dcae d93d
00000160: ecda 193d 2ac3 c43e dde5 11bf af82 d33d
00000170: bee4 5dbd 0722 bbbd bc0a 1fbd 80cb 82bd
00000180: 719b 4abc ce84 d2bd ae12 16be c4bc c13e
00000190: 30f2 d7be a8a1 853e 46c9 42bf 598c 50bc
000001a0: a942 a23c 6111 213e 4f9a 72bc f1ce 7cbc
000001b0: 9475 0f3f 74c8 643d 7ab1 d43c 73aa d53d
000001c0: 14d6 4abe 871a aabe 4b30 4b3f 653a 1abc
000001d0: 4b0b 663b 545b 063c f9ee ae3e 5551 fbbc

net.0.bias f4 [20]
-0.29598534 -0.2174446 -0.12497281 -0.017045401 0.2544749 -0.031299897 0.33383846 -0.35725093
0.120086126 0.20099698 0.26513728 -0.11410247 -0.08268305 0.049681373 -0.21645628 -0.14377838
-0.33588368 -0.11014561 0.20498043 0.16241202
00000000: 648b 97be cca9 5ebe bff1 ffbd cca2 8bbc
00000010: 894a 823e 5234 00bd e0ec aa3e 98e9 b6be
00000020: b7ef f53d 27d2 4d3e 13c0 873e 8eae e9bd
00000030: bb55 a9bd b27e 4b3d b7a6 5dbe a43a 13be
00000040: f2f8 abbe 0694 e1bd 64e6 513e 564f 263e

net.2.weight f4 [20, 20]
0.08489612 0.20046628 -0.19380091 0.3845343 0.26925442 0.049509875 0.13127787 -0.18675496
-0.23377968 -0.049649093 0.061680496 -0.20453857 0.25879258 0.12759621 0.07739466 -0.41725734
0.07096311 -0.4341927 0.39586192 0.16674225 0.009973588 -0.14145502 0.22738804 -0.11406465
-0.5747521 0.0063013337 -0.1655499 0.18762912 0.39144757 -0.11486693 -0.013900439 0.057900745
-0.0882302 -0.2515873 0.12072589 0.34569937 0.07906381 -0.1717235 0.025122698 -0.3646871
-0.03160238 0.2405189 0.14742184 0.5582009 0.55675703 0.4542865 -0.27877492 0.26582104
-0.64455986 0.34580916 0.054776963 -0.22381915 -0.09261207 0.68061996 -0.20759293 -0.40426767
0.00043715286 -0.24396303 0.4275124 0.30821237 -0.6231475 0.24028204 0.27942964 -0.3177414
-0.5032026 -0.30074948 0.3628486 0.07094539 0.2906589 0.0059563797 -0.41666424 0.28461877
0.23289445 -0.3185089 0.6252161 -0.05186915 0.205863 0.4941654 -0.07094617 -0.2809946
-0.12570308 0.22972736 -0.13737404 -0.07074104 -0.016849395 0.38208282 0.28876963 0.0932807
-0.22502206 -0.16740851 -0.11760708 0.33406252 -0.19324215 0.011500843 0.15669753 0.06666424
0.20341744 -0.17045744 0.033479728 0.26734224 -0.021238314 0.27494976 -0.11286304 0.3590612
0.46938643 0.50281334 0.17727095 0.47190046 -0.38968045 0.1506934 0.25456202 0.10124057
-0.19458485 0.44504535 -0.0060322993 -0.19553374 0.24453855 -0.4407546 0.3708204 0.6017372
-0.41235644 -0.21471795 -0.40709895 -0.49488896 -0.52725977 -0.5639014 0.31859592 -0.031642955
0.6220257 -0.5141376 -0.32311165 0.20783149 0.21962829 -0.3293129 0.5451362 -0.024187583
0.18948397 0.36701277 -0.70059425 -0.53074914 0.16277924 0.13534878 -0.23362385 0.20873283
0.23396583 0.13681193 0.100014664 0.21965967 -0.5662658 -0.056127574 -0.056362964 -0.23893651
-0.20019113 0.38807234 -0.046065602 -0.24611093 -0.048118364 -0.33823586 0.26685467 0.24361233
-0.03512543 -0.32760593 0.19026864 -0.08098103 -0.15164323 -0.26895663 -0.201019 -0.08550398
0.55572176 -0.097843 0.117812954 -0.2566068 -0.026426107 0.07337219 -0.051450018 0.3394451
-0.11872391 0.04501276 -0.222271 -0.1848212 -0.12509039 0.013730199 0.14279681 0.24598569
-0.027943572 -0.22660954 0.06563036 -0.28131783 0.14287923 0.04629419 0.27891698 -0.08882555
0.1338068 -0.39080834 0.05377496 -0.012146307 -0.049223617 0.19480443 0.21061896 -0.3503139
-0.068047635 0.053910818 0.06553154 -0.3987458 -0.50192595 0.031333163 0.0984157 -0.0012088794
0.09246876 0.009354303 -0.0596806 -0.15550327 -0.03818848 0.13742638 0.21845546 0.3152287
-0.18150224 -0.09520604 -0.35024074 0.19899417 -0.030237755 -0.18946739 0.015149622 0.72669846
-0.11979273 0.012998386 0.28585848 -0.064329356 0.18987471 -0.236192 -0.019042546 0.3150563
0.6715377 -0.023309901 -0.503042 -0.13774598 -0.035578135 0.18630421 -0.04238527 -0.059819605
0.021321887 -0.47467548 0.16226184 -0.13513798 -0.16659783 -0.38750827 -0.2097921 -0.3657226
0.4734429 -0.082265615 0.22357048 0.04371967 0.062314536 -0.2892914 -0.104723476 0.13018674
00000000: 04de ad3d 0847 4d3e bf73 46be aee1 c43e
00000010: b7db 893e deca 4a3d b56d 063e b13c 3fbe
00000020: f163 6fbe d95c 4bbd b0a4 7c3d 8f72 51be
00000030: 7680 843e 95a8 023e 1781 9e3d c1a2 d5be
00000040: 1b55 913d 814e debe 6aae ca3e 7bbe 2a3e
00000050: 4368 233c 96d9 10be 69d8 683e ba9a e9bd
00000060: f422 13bf 6b7b ce3b ea85 29be d921 403e
00000070: d16b c83e 5a3f ebbd abbe 63bc 5529 6d3d
00000080: 09b2 b4bd 0dd0 80be 233f f73d 82ff b03e
00000090: 35ec a13d 49d8 2fbe 1ece cd3c 44b8 babe
000000a0: 7f71 01bd 964a 763e c0f5 163e 41e6 0e3f
000000b0: a187 0e3f 3d98 e83e 96bb 8ebe b219 883e
000000c0: e001 25bf e60d b13e cf5d 603d d930 65be
000000d0: 66ab bdbd 1c3d 2e3f 3e93 54be 2cfc cebe
000000e0: aa31 e539 72d1 79be e8e2 da3e 03ce 9d3e
000000f0: 9886 1fbf 7f0c 763e 6711 8f3e 00af a2be
00000100: e3d1 00bf d6fb 99be 4bc7 b93e d14b 913d
00000110: 3ed1 943e bc2d c33b 0455 d5be 8db9 913e
00000120: e27b 6e3e 9913 a3be 2a0e 203f bf74 54bd
00000130: c0cd 523e 3f03 fd3e 3a4c 91bd 86de 8fbe
00000140: 4fb8 00be a63d 6b3e c8ab 0cbe aee0 90bd
00000150: be07 8abc 5ca0 c33e 9dd9 933e f409 bf3d
00000160: 2f6c 66be 236d 2bbe fbdb f0bd 3e0a ab3e
00000170: 45e1 45be 086e 3c3c 5175 203e 4387 883d
00000180: a94c 503e 658c 2ebe 0a22 093d 15e1 883e
00000190: f9fb adbc 37c6 8c3e bd24 e7bd dfd6 b73e
000001a0: 6b53 f03e 60b8 003f 8486 353e f09c f13e
000001b0: 3284 c7be 5f4f 1a3e f455 823e 3757 cf3d
000001c0: 4041 47be fcdc e33e 98aa c5bb ff39 48be
000001d0: 5068 7a3e 96aa e1be 2cdc bd3e 730b 1a3f
000001e0: 6220 d3be 06df 5bbe 466f d0be 1662 fdbe
000001f0: 7ffa 06bf d85b 10bf 011f a33e 0b9c 01bd
00000200: 143d 1f3f 869e 03bf e46e a5be c7d1 543e
00000210: 3de6 603e b39b a8be 0c8e 0b3f 0a25 c6bc
00000220: 1608 423e 19e9 bb3e 255a 33bf 2ddf 07bf
00000230: 9aaf 263e df98 0a3e 173b 6fbe 0fbe 553e
00000240: bd94 6f3e 6d18 0c3e 7dd4 cc3d 77ee 603e
00000250: ccf6 10bf 07e6 65bd dadc 66bd c6ab 74be
00000260: e7fe 4cbe 6bb1 c63e 49af 3cbd 8104 7cbe
00000270: c317 45bd 402d adbe 2da1 883e 8375 793e
00000280: afdf 0fbd f7bb a7be c8d5 423e 62d9 a5bd
00000290: 5d48 1bbe afb4 89be edd7 4dbe b61c afbd
000002a0: c843 0e3f e961 c8bd eb47 f13d f761 83be
000002b0: 907b d8bc 2944 963d 41bd 52bd c0cb ad3e
000002c0: 8525 f3bd 4d5f 383d 029b 63be c541 3dbe
000002d0: b217 00be a1f4 603c 5439 123e ace3 7b3e
000002e0: ebe9 e4bc 550c 68be 3669 863d e408 90be
000002f0: ef4e 123e fa9e 3d3d 35ce 8e3e 2cea b5bd
00000300: a604 093e 0818 c8be 2243 5c3d 4e01 47bc
00000310: b49e 49bd d07a 473e 7fac 573e 585c b3be
00000320: 8f5c 8bbd 97d1 5c3d 6635 863d 6928 ccbe
00000330: 387e 00bf 3457 003d 2c8e c93d 4373 9eba
00000340: 4360 bd3d ca42 193c a573 74bd 403c 1fbe
00000350: 866b 1cbd 80b9 0c3e cab2 5f3e a865 a13e
00000360: b9db 39be 62fb c2bd c152 b3be 21c5 4b3e
00000370: 2bb5 f7bc bd03 42be 1f36 783c e908 3a3f
00000380: e455 f5bd 2ff7 543c 0b5c 923e 1cbf 83bd
00000390: 846e 423e 51dc 71be 1dff 9bbc 0f4f a13e
000003a0: e5e9 2b3f 68f4 bebc 5cc7 00bf 480d 0dbe
000003b0: 61ba 11bd 88c6 3e3e 2d9c 2dbd 6705 75bd
000003c0: 3dab ae3c aa08 f3be f827 263e 9c61 0abe
000003d0: 9f98 2abe 7c67 c6be bed3 56be fe3f bbbe
000003e0: 1c67 f23e e07a a8bd a9ef 643e 6613 333d
000003f0: 873d 7f3d 011e 94be 4379 d6bd ac4f 053e

net.2.bias f4 [20]
-0.054136172 -0.14880686 -0.19723566 0.073756665 0.21738976 0.0743885 0.21298745 0.24606684
0.022190312 0.0011593679 -0.06909921 0.22196382 -0.08478981 -0.24814919 -0.26050138 0.046228353
0.21990325 0.049399592 -0.1584387 -0.0466954
00000000: e4bd 5dbd d360 18be 25f8 49be bc0d 973d
00000010: 6c9b 5e3e ff58 983d 6219 5a3e f2f8 7b3e
00000020: 75c8 b53c eef5 973a e383 8dbd 7c4a 633e
00000030: 48a6 adbd d21a 7ebe 7060 85be f159 3d3d
00000040: 512e 613e 3a57 4a3d c13d 22be ad43 3fbd

net.4.weight f4 [20, 20]
-0.639507 0.40721676 -0.49590343 -0.010344013 0.26590413 -0.048349384 0.6892906 -0.78398055
0.44121692 0.2998143 0.104904465 0.5400952 -0.023273598 0.17616811 -0.5758447 0.48166898
-0.19389658 -0.028425708 -0.46551988 -0.10215635 -0.14681427 0.24645099 -0.32672098 -0.0206491
0.038602304 0.055992868 0.15215036 -0.604098 0.42204905 0.17577147 0.12517807 0.1377419
0.35938054 0.13733143 -0.4129694 0.19456223 -0.13041674 0.07477106 -0.33477125 -0.45200753
0.152785 -0.07107853 0.22499251 0.060346838 0.14091298 0.4419704 -0.29311755 0.51472425
-0.25312853 -0.11806873 0.0021331895 -0.115985386 -0.2784806 -0.031411875 0.3932382 -0.25916258
0.3993015 0.061779432 0.32974792 0.29468942 -0.07471082 0.20279995 0.15653284 0.3381843
0.24276207 -0.04755814 0.42266884 -0.18724668 0.08372162 0.19632715 0.13982841 -0.18378365
-0.23818676 0.061227895 -0.08340726 -0.049569864 0.16819286 -0.57068217 -0.54726404 -0.041470654
0.14000499 0.047734413 0.24258466 0.13772142 0.111834936 -0.008037405 0.08626107 -0.19317526
0.18005075 0.12342446 -0.046822112 -0.39307946 -0.015899118 -0.12430086 0.35136548 0.018587723
0.1762917 0.051670235 -0.11610953 -0.10525943 -0.10095795 -0.056027245 0.43358564 0.22743928
0.32242575 0.31293666 -0.46714932 0.23557854 -0.045767777 0.060942866 -0.03676722 -0.15989861
-0.42951444 -0.23960568 0.28046915 -0.33579275 0.35908893 -0.023222717 0.13545391 0.3518422
-0.0835153 0.15509829 0.15194833 -0.04243118 0.2542566 0.35828346 -0.36663204 0.4047723
-0.4348086 -0.25770786 -0.2164136 -0.17324609 -0.28695762 -0.17664208 0.3099095 -0.44643107
0.25994763 -0.1437847 0.25224125 0.4402665 0.20106415 -0.48141092 -0.1875778 -0.19777976
-0.3117571 0.04237373 -0.08782767 0.20248531 0.10056028 -0.24063234 0.084524125 0.19941431
0.09089161 0.30539107 -0.27107325 0.28081536 -0.2132224 0.06097768 0.023128148 0.08835449
0.28699532 -0.123223186 0.39962575 -0.08227044 -0.07490844 0.105448335 -0.41560075 0.763374
-0.20566447 -0.4495664 -0.20309433 -0.38050944 -0.5020158 -0.1363671 0.5233533 -0.6503325
0.5866337 0.11399401 0.3589343 0.14841382 0.43477345 -0.34519547 0.7781558 -0.17247003
0.016764252 -0.2717808 -0.712179 0.06873184 0.035570193 -0.0698357 -0.46798813 0.0074571418
-0.10876329 -0.20933959 0.5916231 -0.058834165 0.008471132 -0.0061647473 0.5905957 -0.108946666
0.40598488 -0.28294614 1.0173557 -0.0852341 0.10850301 -0.18973698 -1.077793 -0.057752695
0.11809743 0.21649145 -0.2528085 0.1496377 0.17530473 0.10641894 0.7328711 -0.307271
-0.18989936 -0.036812413 0.3879051 -0.14733525 -0.0148030175 -0.4024719 -0.42183992 -0.19795471
-0.26635894 -0.42788428 0.37574586 -0.31562635 0.13975781 0.14674293 0.34476727 0.017206764
0.11218009 0.046320375 -0.18172096 0.34858617 -0.18475436 0.059183747 -0.4435202 -0.44585648
0.058125384 -0.30947942 -0.30851603 -0.27098638 -0.16054426 -0.3567452 0.056784518 -0.31742197
0.05020211 0.33158803 0.033676967 0.03404405 0.25568023 0.15959822 -0.14967549 -0.11716273
00000000: bbb6 23bf b77e d03e 0ee7 fdbe ef79 29bc
00000010: 9624 883e 010a 46bd 5975 303f f3b2 48bf
00000020: 2fe7 e13e 4381 993e 27d8 d63d ae43 0a3f
00000030: 46a8 bebc 6a65 343e 8f6a 13bf 519d f63e
00000040: d38c 46be 08dd e8bc 9f58 eebe 5937 d1bd
00000050: 7b56 16be a65d 7c3e f947 a7be 4d28 a9bc
00000060: 731d 1e3d c758 653d 4ecd 1b3e 2ba6 1abf
00000070: d016 d83e 70fd 333e ae2e 003e 360c 0d3e
00000080: ba00 b83e 9ca0 0c3e ba70 d3be 523b 473e
00000090: f78b 05be 9221 993d 2367 abbe 886d e7be
000000a0: ac73 1c3e 9f91 91bd 7064 663e 3f2e 773d
000000b0: 7e4b 103e f249 e23e 8113 96be f8c4 033f
000000c0: 109a 81be 05ce f1bd fbcc 0b3b bf89 edbd
000000d0: 0295 8ebe bda9 00bd 8456 c93e f5b0 84be
000000e0: 3f71 cc3e 6e0c 7d3d b8d4 a83e 88e1 963e
000000f0: fd01 99bd caaa 4f3e 254a 203e 7e26 ad3e
00000100: 9f96 783e 53cc 42bd 0d68 d83e 98bd 3fbe
00000110: 3e76 ab3d fc09 493e 2e2f 0f3e c831 3cbe
00000120: 3be7 73be 1aca 7a3d 6dd1 aabd c509 4bbd
00000130: c03a 2c3e 3a18 12bf 7f19 0cbf 22dd 29bd
00000140: 785d 0f3e 2985 433d 1d68 783e d806 0d3e
00000150: b709 e53d 52af 03bc a5a9 b03d bccf 45be
00000160: 395f 383e f7c5 fc3d 8bc8 3fbd b641 c9be
00000170: de3e 82bc 7391 febd 2de6 b33e 4845 983c
00000180: d085 343e 2ba4 533d d5ca edbd 4292 d7bd
00000190: 0bc3 cebd d37c 65bd f0fe dd3e d8e5 683e
000001a0: fd14 a53e 3c39 a03e 322e efbe 803b 713e
000001b0: fe76 3bbd 3a9f 793d 3999 16bd 76bc 23be
000001c0: 51e9 dbbe 315b 75be a799 8f3e 07ed abbe
000001d0: 81da b73e 913d bebc 6eb4 0a3e a924 b43e
000001e0: 120a abbd 16d2 1e3e 5898 1b3e 51cc 2dbd
000001f0: ec2d 823e ee70 b73e 32b7 bbbe 513e cf3e
00000200: 3c9f debe 49f2 83be 879b 5dbe 6c67 31be
00000210: 1cec 92be a9e1 34be 75ac 9e3e 9d92 e4be
00000220: db17 853e 4c3c 13be c425 813e 9c6a e13e
00000230: c3e3 4d3e 7e7b f6be 6514 40be c786 4abe
00000240: a09e 9fbe 1490 2d3d fede b3bd 4f58 4f3e
00000250: 8cf2 cd3d 5368 76be fc1a ad3d 4433 4c3e
00000260: 6125 ba3d 385c 9c3e 1dca 8abe 08c7 8f3e
00000270: f956 5abe bbc3 793d 3e77 bd3c 33f3 b43d
00000280: 0df1 923e 705c fcbd bf9b cc3e 687d a8bd
00000290: 9969 99bd 4cf5 d73d 9fc9 d4be 7a6c 433f
000002a0: b599 52be 912d e6be f6f7 4fbe 22d2 c2be
000002b0: 1c84 00bf d1a3 0bbe 7bfa 053f 317c 26bf
000002c0: a02d 163f b175 e93d 3dc6 b73e cbf9 173e
000002d0: a09a de3e 76bd b0be 3835 473f fc9b 30be
000002e0: 2f55 893c da26 8bbe 5d51 36bf 47c3 8c3d
000002f0: 0db2 113d 0506 8fbd 249c efbe 0a5b f43b
00000300: 4abf debd 1e5d 56be 9d74 173f 18fc 70bd
00000310: 81ca 0a3c a601 cabb 4831 173f 6e1f dfbd
00000320: 40dd cf3e 51de 90be b638 823f 378f aebd
00000330: d336 de3d 694a 42be 1ff5 89bf 178e 6cbd
00000340: 11dd f13d efaf 5d3e 1e70 81be a03a 193e
00000350: 1583 333e 2cf2 d93d 719d 3b3f a052 9dbe
00000360: fa74 42be 9dc8 16bd 7f9b c63e 0ddf 16be
00000370: 5b88 72bc cc10 cebe 67fb d7be a4b4 4abe
00000380: 3360 88be a613 dbbe c361 c03e c799 a1be
00000390: ac1c 0f3e c743 163e 5685 b03e 33f5 8c3c
000003a0: adbe e53d 6fba 3d3d 0f15 3abe e379 b23e
000003b0: 3f30 3dbe a86a 723d 1415 e3be 4d47 e4be
000003c0: e214 6e3d 1674 9ebe d0f5 9dbe babe 8abe
000003d0: b765 24be 4fa7 b6be e296 683d 2285 a2be
000003e0: baa0 4d3d e8c5 a93e dcf0 093d c671 0b3d
000003f0: 85e8 823e b76d 233e 8844 19be 03f3 efbd

net.4.bias f4 [20]
0.2379026 0.03841466 0.288372 0.28896776 0.026275208 0.033020005 0.34409055 -0.2268125
0.07042897 -0.22186963 -0.065423936 -0.35147372 -0.13727604 0.23361562 -0.12869152 -0.08228659
0.34009802 0.1901143 -0.07909387 -0.18863729
00000000: bd9c 733e b158 1d3d 7fa5 933e 95f3 933e
00000010: 1b3f d73c fc3f 073d a32c b03e 8941 68be
00000020: 103d 903d cb31 63be fcfc 85bd 5df4 b3be
00000030: 1792 0cbe ef38 6f3e b6c7 03be df85 a8bd
00000040: 5421 ae3e 53ad 423e f8fb a1bd 222a 41be

net.6.weight f4 [20, 20]
-0.053674072 -0.071521886 -0.14374883 -0.1183558 -0.17750402 -0.42900115 -0.44447923 0.23694508
0.08275693 0.10726421 -0.033888083 0.47396827 0.3825624 -0.40430284 -0.01793307 -0.40283766
0.09470246 0.23283681 0.2920367 0.05111621 0.48625708 0.8238774 0.03352573 -0.3165374
-0.33819482 0.12126795 0.031376787 0.17626755 -0.42814162 -0.32148612 -0.29995868 0.017829075
0.0404836 0.3859398 0.68304193 -0.033329226 0.07710788 0.3513288 0.8094138 0.07625903
0.3689941 -0.41383687 -0.27918184 0.44424313 0.08614451 0.117065705 -0.16835576 -0.21169326
0.47823498 0.4424936 0.32237533 -0.08596254 -0.025418738 -0.39145088 0.087714896 -0.04453756
0.35689604 0.077395625 -0.07797034 -0.32753688 0.27426055 0.49159926 -0.092483 -0.05830932
-0.05472922 -0.027249647 0.0500291 0.12733026 -0.5652069 0.056015935 0.04591758 -0.04446593
0.2568102 0.13780549 0.14335927 -0.16789098 -0.06820281 0.23216644 0.35438833 0.11617696
-0.80618745 -0.4334417 0.11385406 0.04864899 -0.03377783 0.034414064 -0.08987178 0.22914512
0.16771697 0.51198304 0.2676573 0.11540665 0.02006129 0.09830286 -0.20438634 -0.21928462
-0.5218256 -0.2608909 -0.44572395 0.092723444 0.451102 -0.094657466 0.039836522 -0.0715874
-0.12673181 -0.19741128 -0.22230338 -0.034313414 0.36378226 -0.23585597 -0.10496522 0.13076773
0.24332447 -0.24792334 0.20448594 -0.12241105 0.6877539 0.17575139 0.15789214 -0.039263234
0.0023099794 -0.35677233 -0.08627305 0.41524422 -0.056329783 0.06450037 -0.1596383 -0.10918504
0.25770548 0.09479524 0.42134577 0.07723398 0.107016265 -0.45386624 -0.14108802 -0.04126653
0.49337575 0.07368548 -0.074842826 -0.38562685 -0.22366822 0.086774506 -0.07518412 -0.29330838
-0.14219822 0.29338732 0.020243244 0.21158004 -0.11338621 -0.28187215 -0.08171899 -0.07784181
0.15212163 0.46287507 -0.041749176 -0.040454946 -0.17184427 0.03887974 0.11163956 0.37582693
-0.4077902 0.1763534 0.22104277 -0.21988021 -0.2627074 0.096871346 -0.087686405 0.038058773
-0.05904263 -0.29054958 -0.43372 0.01965685 0.085691765 0.028930577 -0.08742523 -0.17729281
-0.3588433 -0.1335097 0.18883303 0.13681659 -0.40531164 0.088772334 -0.01565475 -0.3935168
-0.14032087 -0.10471139 -0.018841082 0.30084893 -0.16824554 -0.40538788 -0.3486946 0.12639767
-0.18061963 0.12344261 -0.086659424 0.059318975 -0.34836626 -0.17940053 0.32615948 -0.01005352
0.20954312 -0.16783485 -0.33059686 0.043594204 -0.17246057 -0.0215807 -0.43586677 -0.002800041
-0.19976178 0.046758328 0.16938761 0.35893685 0.21156637 -0.4423368 0.30689025 -0.2774104
0.122277275 -0.029897507 -0.064686425 -0.15301727 0.49985918 0.50527865 -0.29313886 -0.227285
-0.28342938 -0.04912478 0.051618394 0.08841376 -0.36542448 -0.1425634 -0.059469815 -0.08725239
0.17767745 0.29804394 0.6179671 -0.0034456067 0.26190567 0.5051164 0.33287528 0.2554027
0.4133852 0.0014179031 0.061930344 0.25582087 0.34901136 -0.18680853 -0.10763026 -0.43900362
0.359474 0.2543631 0.6618133 0.15821376 -0.124069385 -0.12619098 0.01457745 -0.25607207
00000000: 58d9 5bbd 117a 92bd e532 13be 8764 f2bd
00000010: 9dc3 35be 0aa6 dbbe c892 e3be bba1 723e
00000020: 777c a93d 57ad db3d 3bce 0abd f8ab f23e
00000030: 38df c33e c800 cfbe 60e8 92bc bd40 cebe
00000040: 5df3 c13d c66c 6e3e d685 953e 3b5f 513d
00000050: b0f6 f83e a1e9 523f 4752 093d 3111 a2be
00000060: df27 adbe 555b f83d f284 003d 7b7f 343e
00000070: 6135 dbbe d499 a4be 2f94 99be 480e 923c
00000080: 22d2 253d e799 c53e d6db 2e3f 3a84 08bd
00000090: bcea 9d3d 5ee1 b33e be35 4f3f b22d 9c3d
000000a0: cbec bc3e 6de2 d3be ecf0 8ebe d673 e33e
000000b0: 886c b03d 25c0 ef3d 7465 2cbe 1ec6 58be
000000c0: 37db f43e 858e e23e 610e a53e 210d b0bd
000000d0: f53a d0bc 406c c8be dea3 b33d 046d 36bd
000000e0: 14bb b63e 9981 9e3d eaae 9fbd eab2 a7be
000000f0: e16b 8c3e e6b2 fb3e ba67 bdbd c1d5 6ebd
00000100: bf2b 60bd a73a dfbc 50eb 4c3d dd62 023e
00000110: 66b1 10bf f770 653d 1314 3c3d e821 36bd
00000120: a07c 833e e21c 0d3e c6cc 123e 9deb 2bbe
00000130: eaad 8bbd 0abd 6d3e 6372 b53e 30ee ed3d
00000140: 4d62 4ebf 12ec ddbe 512c e93d 2a44 473d
00000150: 9f5a 0abd c3f5 0c3d b20e b8bd 05a5 6a3e
00000160: ffbd 2b3e 5211 033f 610a 893e 525a ec3d
00000170: 9357 a43c 0353 c93d a74a 51be 268c 60be
00000180: 5d96 05bf 7e93 85be ee35 e4be cae5 bd3d
00000190: d7f6 e63e c6db c1bd 9f2b 233d 6a9c 92bd
000001a0: fcc5 01be 2f26 4abe 7fa3 63be 398c 0cbd
000001b0: ab41 ba3e 3a84 71be 01f8 d6bd fae7 053e
000001c0: 0d2a 793e 9edf 7dbe c364 513e a5b2 fabd
000001d0: a410 303f 2cf8 333e 7aae 213e 7cd2 20bd
000001e0: 0663 173b ddaa b6be edaf b0bd e49a d43e
000001f0: 0fba 66bd c518 843d 3978 23be 689c dfbd
00000200: f9f1 833e 0224 c23d a2ba d73e d92c 9e3d
00000210: 582b db3d 2861 e8be 6179 10be 1807 29bd
00000220: bf9b fc3e 6ae8 963d 3247 99bd e270 c5be
00000230: 4809 65be d5b6 b13d 22fa 99bd 842c 96be
00000240: 699c 11be dd36 963e 29d5 a53c 70a8 583e
00000250: 0737 e8bd 8c51 90be 495c a7bd 876b 9fbd
00000260: c6c5 1b3e f6fd ec3e 2f01 2bbd 16b4 25bd
00000270: f2f7 2fbe 5d40 1f3d 48a3 e43d 636c c03e
00000280: e1c9 d0be fc95 343e 0959 623e 4728 61be
00000290: 9681 86be 7c64 c63d ee94 b3bd 84e3 1b3d
000002a0: afd6 71bd eac2 94be 8c10 debe 6707 a13c
000002b0: 2a7f af3d d1ff ec3c 000c b3bd 3f8c 35be
000002c0: 4fba b7be c4b6 08be 725d 413e a619 0c3e
000002d0: 0285 cfbe 45ce b53d 643e 80bc 097b c9be
000002e0: 46b0 0fbe ed72 d6bd 9d58 9abc df08 9a3e
000002f0: 8f48 2cbe 008f cfbe 1988 b2be 646e 013e
00000300: 5af4 38be 7bcf fc3d 7f7a b1bd 74f8 723d
00000310: 105d b2be c6b4 37be 60fe a63e 85b7 24bc
00000320: 7992 563e e6dc 2bbe fe43 a9be d68f 323d
00000330: 8199 30be 02ca b0bc ee29 dfbe e580 37bb
00000340: 5a8e 4cbe a985 3f3d f273 2d3e 92c6 b73e
00000350: dba4 583e f879 e2be b820 9d3e bc08 8ebe
00000360: 826c fa3d 9eeb f4bc 517a 84bd 8fb0 1cbe
00000370: 8bed ff3e f159 013f 4c16 96be 66bd 68be
00000380: a81d 91be 1137 49bd cf6d 533d 4612 b53d
00000390: eb18 bbbe 24fc 11be 9f96 73bd 62b1 b2bd
000003a0: 14f1 353e 3799 983e 1833 1e3f b0cf 61bb
000003b0: 8018 863e 4f4f 013f a16e aa3e 25c4 823e
000003c0: 3aa7 d33e efd8 b93a acaa 7d3d f4fa 823e
000003d0: 9eb1 b23e bc4a 3fbe 416d dcbd 15c5 e0be
000003e0: fa0c b83e e13b 823e 996c 293f ca02 223e
000003f0: 1718 febd 3538 01be 42d6 6e3c e11b 83be

net.6.bias f4 [20]
-0.099802315 -0.26628304 -0.1536706 -0.24022107 -0.12889363 0.2286816 0.09562057 -0.2692223
-0.19463846 -0.015140926 -0.09037646 -0.13382256 0.09777925 -0.08346168 0.017422467 -0.048512325
0.22117878 0.1875602 0.17511094 0.023626091
00000000: 2865 ccbd 4056 88be d35b 1dbe 83fc 75be
00000010: b1fc 03be 822b 6a3e b8d4 c33d 81d7 89be
00000020: 4e4f 47be a611 78bc 4b17 b9bd c808 09be
00000030: 7d40 c83d f5ed aabd 90b9 8e3c dcb4 46bd
00000040: b17c 623e c80f 403e 4850 333e 818b c13c

net.8.weight f4 [1, 20]
-0.27616632 0.33419517 -0.7805538 0.36735994 0.18170634 -0.3064611 -0.56744593 0.41249016
0.49927834 0.6259046 -0.15669978 0.59756213 -0.51579654 -0.25915992 -0.40415224 0.50749195
-0.58839244 0.29805943 0.29129982 0.27851316
00000000: ac65 8dbe a11b ab3e 60d2 47bf 9a16 bc3e
00000010: 3a11 3a3e 78e8 9cbe 2344 11bf e931 d33e
00000020: 69a1 ff3e 493b 203f e875 20be d5f9 183f
00000030: 3e0b 04bf 9cb0 84be 0bed cebe feea 013f
00000040: e3a0 16bf 3f9b 983e 4025 953e 4799 8e3e
