Code/Trained models/m_mu_1000_norm_4001_vanilla_newstds.pth (torch, 9792 bytes, 9 tensors)

net.0.weight f4 [20, 6]
0	0xbe53ab51	-0.20670821
1	0x3e8d5347	0.27602598
2	0x3e14d5b8	0.14534652
3	0xbe9f6a37	-0.31135723
4	0xbc026ac9	-0.00796003
5	0xbdaa1483	-0.083046935
6	0xbeefe43a	-0.4685381
7	0x3e8a566d	0.27019063
8	0xbd94c016	-0.072632
9	0xbe700dd2	-0.23442772
10	0xbec575cd	-0.38566437
11	0x3ea1a4a7	0.31570932
12	0x3e653ee9	0.2238728
13	0x3e79c441	0.24391271
14	0xbe207224	-0.15668541
15	0xbeb670b3	-0.35632858
16	0x3d9d721a	0.07687779
17	0x3ecb9e23	0.39769086
18	0x3f19df84	0.6010668
19	0x3dc48eef	0.09597575
20	0xbe2a9471	-0.16658188
21	0xbdf6ccc2	-0.12050773
22	0x3e1c957f	0.15291403
23	0xbe18412e	-0.14868614
24	0x3f10107c	0.56275153
25	0xbd0dd5b3	-0.034627628
26	0x3d8ec21a	0.06970616
27	0x3b95a8b2	0.004567229
28	0xbe93de3c	-0.2888049
29	0xbe3d5045	-0.18487652
30	0x3f70a089	0.9399496
31	0xbd59d1d1	-0.053178612
32	0xbdf2391b	-0.11827298
33	0xbe48288d	-0.19546719
34	0x3ea01903	0.31269082
35	0xbd9d7c1e	-0.07689689
36	0xbf0cf958	-0.5506797
37	0x3cecb339	0.028894054
38	0xbd2ccf8a	-0.042190112
39	0xbd94acba	-0.072595075
40	0xbe197987	-0.14987765
41	0x3d8b9370	0.06815231
42	0xbfb39b1e	-1.4031713
43	0x3f2d7f53	0.67772406
44	0xbbab2711	-0.005223163
45	0x3e9dcb84	0.30819333
46	0x3ea460b3	0.32105026
47	0x3dfd32fe	0.123632416
48	0xbea0c9cd	-0.31403962
49	0xbeab03b1	-0.33401254
50	0x3e4036dc	0.18770927
51	0x3da38b3d	0.07985542
52	0x3f1a8a91	0.60367686
53	0xbe5f7d4e	-0.21825144
54	0x3f0baf36	0.54564226
55	0x3dae306e	0.08505331
56	0xbcd6f336	-0.026239019
57	0xbe726baf	-0.2367389
58	0xbeb226e3	-0.34795293
59	0x3e0e2c81	0.13884164
60	0x3f171ffc	0.5903318
61	0x3d883db3	0.06652393
62	0xbbd220c4	-0.0064125974
63	0x3da4114d	0.08011112
64	0xbd232490	-0.03982979
65	0xbe496d04	-0.19670492
66	0x3f22f051	0.63647944
67	0xbe0b4f4b	-0.13604467
68	0x3e34e250	0.17664456
69	0x3d6c5b1f	0.057704087
70	0xbde23805	-0.11045841
71	0x3d9bf785	0.0761557
72	0xbf1156c4	-0.5677302
73	0x3d4d555b	0.05013023
74	0xbcc4245d	-0.02394312
75	0xbe8d83c5	-0.27639595
76	0xbe2994c8	-0.16560662
77	0x3ea52108	0.32251763
78	0xbeec4ab8	-0.46150756
79	0x3b409b2e	0.002938937
80	0x3cbaad22	0.022787634
81	0x3e17de0a	0.14830795
82	0xbe403875	-0.18771537
83	0xbe789be7	-0.24278222
84	0xbf80e766	-1.0070617
85	0xbd5ac169	-0.053407107
86	0x3e675062	0.22589257
87	0x3ec13e6d	0.3774294
88	0xbbdf1a8f	-0.006808586
89	0x3e246895	0.1605552
90	0x3f19c751	0.6006976
91	0xbdc4331c	-0.09580061
92	0xbd3f50c0	-0.04670787
93	0x3dd7019d	0.104983546
94	0x3eea8d8f	0.45811126
95	0xbd8d7580	-0.06907177
96	0x3d75f37d	0.06004666
97	0x3ec303af	0.38088748
98	0xbee79dfa	-0.45237714
99	0x3ee3e6a6	0.44511908
100	0xbe454c8f	-0.19267486
101	0x3ebef19a	0.37293702
102	0xbe733e55	-0.23754247
103	0xbdd0da4a	-0.10197885
104	0x3b90cade	0.004418715
105	0x3edf1235	0.43568578
106	0xbe740e93	-0.23833685
107	0x3ef895c8	0.48551774
108	0xbef03cf9	-0.46921518
109	0xbe07c318	-0.13258016
110	0xbc8b87d0	-0.017032534
111	0xbcdda1e1	-0.027054729
112	0xbca4aa00	-0.020100594
113	0x3e149e35	0.14513476
114	0xbe3d01a4	-0.18457657
115	0xbdbc127f	-0.09183215
116	0xbcbdb00e	-0.023155238
117	0x3ef4b637	0.4779527
118	0xbe62daf0	-0.2215383
119	0xbe355b12	-0.17710522

net.0.bias f4 [20]
0	0x3d273015	0.04081734
1	0x3d6a4de0	0.057203174
2	0x3e0ccef3	0.1375082
3	0x3da2c791	0.079482205
4	0x3e704cf7	0.2346686
5	0xbe057d5f	-0.13036107
6	0xbcfbc567	-0.030733777
7	0xbd213a1c	-0.039362058
8	0xbe3a2205	-0.1817704
9	0x3e932c47	0.28744718
10	0xbde9865f	-0.114025824
11	0x3e3a5008	0.18194592
12	0x3ee35706	0.4440233
13	0xbe0e1381	-0.13874628
14	0xbca9815d	-0.020691568
15	0xbeb790ed	-0.35852757
16	0x3ed25f79	0.41088465
17	0xbcb4c51b	-0.022066643
18	0x3d939d4f	0.072077386
19	0x3e2d2bb5	0.16911204

net.2.weight f4 [20, 20]
0	0x3e250db1	0.16118504
1	0xbf85cbdb	-1.0452837
2	0x3e901a83	0.28145227
3	0x3eb69f1f	0.35668275
4	0x3f8aa2be	1.0830915
5	0x3ea583e1	0.32327178
6	0xbf0b90d7	-0.54517883
7	0xbf05447d	-0.5205763
8	0x3d55388b	0.052055877
9	0x3f069e1c	0.52585006
10	0x3f18a560	0.5962734
11	0x3f315b96	0.69280374
12	0xbf7e6d84	-0.9938586
13	0xbe9f55ec	-0.3112024
14	0xbf0c667b	-0.5484387
15	0x3f634d76	0.8879007
16	0xbea8e228	-0.32985044
17	0xbe2eb4a2	-0.17061093
18	0xbf05af42	-0.5222055
19	0xbec5bd48	-0.38620973
20	0x3cc062c9	0.023484604
21	0xbe308c7c	-0.1724109
22	0xbeb917ad	-0.36150876
23	0x3e2bc81f	0.16775559
24	0xbd5d3e8c	-0.054014727
25	0x3ea76c26	0.32699698
26	0xbe461cf5	-0.19346984
27	0xbe5b67a7	-0.21426259
28	0x3e01d6c2	0.1267958
29	0xbdba17ea	-0.090865925
30	0x3e5f055d	0.2177939
31	0x3e407bb2	0.18797186
32	0x3e09a236	0.13440785
33	0xbe78852d	-0.24269553
34	0xbdd5947b	-0.10428711
35	0xbc84d302	-0.016213898
36	0xbcd0bdb5	-0.025481084
37	0xbe8018c0	-0.25018883
38	0x3d8a9f42	0.06768657
39	0xbdd57e37	-0.10424464
40	0xbe6bf3bf	-0.230422
41	0xbed6b3c4	-0.41934025
42	0x3e95ff81	0.29296497
43	0x3dc8ade0	0.09798789
44	0x3efebc1c	0.4975289
45	0xbd43f1de	-0.047838084
46	0xbe3e322f	-0.18573831
47	0x3ce744c8	0.02823104
48	0xbea1cb85	-0.31600586
49	0x3dfb174f	0.12260305
50	0xbb481412	-0.003052954
51	0x3eb85348	0.3600104
52	0xbec9bf53	-0.3940378
53	0xbd64c298	-0.05584964
54	0xbce72702	-0.028216843
55	0x3ed1751c	0.4090966
56	0x3e95aa11	0.29231313
57	0xbd1c4170	-0.038148344
58	0x3e00c306	0.12574396
59	0x3de99d83	0.11406996
60	0xbe25b053	-0.16180544
61	0xbe8a500e	-0.27014202
62	0x3e85045a	0.25979882
63	0x3ee7c408	0.45266747
64	0x3e1d2cb2	0.15349081
65	0x3e7a0cf5	0.24419005
66	0xbdece29f	-0.11566662
67	0x3da253f7	0.07926171
68	0xbc402136	-0.011726668
69	0x3e17d864	0.1482864
70	0x3ed40b2c	0.41414773
71	0x3ed9a0b0	0.42505407
72	0xbebe666d	-0.3718752
73	0xbe24227e	-0.16028783
74	0x3da3efc2	0.080047145
75	0x3eea4026	0.45752066
76	0x3e08eaf4	0.13370878
77	0x3e1d844b	0.15382497
78	0xbe8de863	-0.2771636
79	0xbd804647	-0.06263404
80	0xbdd2ca20	-0.102924585
81	0xbdb6bde2	-0.08922936
82	0x3e8b9690	0.27263308
83	0xbbd13385	-0.0063843154
84	0x3e6daaa0	0.2320962
85	0xbe4d3b7a	-0.2004222
86	0xbebbecff	-0.3670425
87	0x3e801e7e	0.25023264
88	0xbe4e49d2	-0.20145348
89	0x3eaded61	0.33970168
90	0x3e1a3460	0.15059042
91	0x3c0d5574	0.008626331
92	0xbe30ab9f	-0.17252968
93	0x3daccae6	0.08437137
94	0xbd4aa153	-0.049470257
95	0x3eace021	0.33764747
96	0x3e11434b	0.14185826
97	0x3e23ddcd	0.16002579
98	0xbec71b05	-0.38887802
99	0xbda1a90d	-0.07893572
100	0xbe6f8472	-0.23390368
101	0xbeea28d1	-0.45734265
102	0x3e4680b7	0.19385038
103	0x3eb8ba79	0.36079767
104	0x3effbf55	0.49950662
105	0x3dca77c7	0.09886127
106	0xbef7e805	-0.48419204
107	0xbe92b1b3	-0.286512
108	0x3e1857c5	0.14877231
109	0x3eb9ae9c	0.3626603
110	0x3ec2c9a6	0.3804447
111	0x3dec48d5	0.11537329
112	0xbeb4d1c0	-0.35316277
113	0xbe7332e3	-0.2374988
114	0xbe08615c	-0.1331839
115	0x3f02f781	0.5115891
116	0x3e3ac4a9	0.18239082
117	0xbd8781f5	-0.06616584
118	0xbe9967c7	-0.29961988
119	0x3ab7e3d9	0.0014029696
120	0xbb82af81	-0.003988207
121	0x3dd456b9	0.103681035
122	0x3e84e4e2	0.25955874
123	0xbde8038b	-0.11328801
124	0xbee9252b	-0.4553617
125	0xbe1eb722	-0.15499547
126	0x3e2ce5d3	0.16884546
127	0x3e2d4358	0.16920221
128	0xbd58183d	-0.05275749
129	0xbc9ab3a0	-0.01888448
130	0xbea3c3bc	-0.3198527
131	0x3d04e121	0.032441262
132	0x3d04eebf	0.03245425
133	0xbc6a43a2	-0.0142983515
134	0xbe594db4	-0.21221048
135	0xbe60a78f	-0.21938919
136	0xbe278209	-0.16358198
137	0x3e02aa39	0.12760247
138	0x3e795ae9	0.24351086
139	0x3dfe6f0e	0.12423526
140	0x3d4cf255	0.050035793
141	0xbe124bbe	-0.14286706
142	0x3edeb325	0.4349605
143	0x3f00a2bb	0.50248307
144	0x3ca3b98d	0.019985938
145	0x3e9130fe	0.2835769
146	0xbd33ff43	-0.04394461
147	0x3e8d2106	0.27564257
148	0x3e957e69	0.29198006
149	0x3e66f9ff	0.22556303
150	0x3ce2e9b1	0.027699323
151	0x3cc290c7	0.023750676
152	0xbc0ce3e4	-0.008599255
153	0x3cd2d283	0.025735145
154	0xbea369d0	-0.31916666
155	0x3e90b72d	0.28264752
156	0xbea25273	-0.3170353
157	0xbd611556	-0.05495199
158	0xbd368542	-0.04456068
159	0xbea52ee6	-0.32262343
160	0xbe0eb9b4	-0.13938028
161	0x3e329dd2	0.17443016
162	0xbe466dc1	-0.19377805
163	0xbec87066	-0.39148253
164	0xbecf7ca0	-0.4052477
165	0xbd7f251f	-0.06229126
166	0x3e104212	0.14087704
167	0x3c9cd2c4	0.01914347
168	0x3d0fdf71	0.0351252
169	0xbe196299	-0.14979018
170	0xbd73fa4a	-0.059564866
171	0xbea0d46a	-0.3141206
172	0x3ed45390	0.41470003
173	0x3e476fd0	0.19476247
174	0x3c082b6f	0.008311137
175	0xbecf40cf	-0.40479133
176	0x3db16e80	0.08663654
177	0x3da169e9	0.07881529
178	0x3dd5ce9e	0.104398
179	0xbdd14efd	-0.10220144
180	0xbd88d761	-0.06681705
181	0x3e5b837b	0.21436875
182	0x3d91d2bf	0.07120275
183	0xbd964aab	-0.073384605
184	0xbd36b9da	-0.044610836
185	0xbe90205b	-0.28149685
186	0xbe34ebd6	-0.1766809
187	0xbca0e372	-0.019639704
188	0x3e826047	0.2546408
189	0xbd6d2e5e	-0.057905547
190	0x3e9bd972	0.30439335
191	0xbdb7b0ba	-0.08969255
192	0xbd789ebd	-0.06069826
193	0xbe0881cb	-0.13330762
194	0x3d9b234f	0.07575094
195	0x3d5ae742	0.0534432
196	0x3ea1b305	0.31581894
197	0x3d26f2fe	0.04075908
198	0xbe8b08c5	-0.27155128
199	0x3e9cb477	0.30606434
200	0xbcf5cec0	-0.030005813
201	0x3ef4bf53	0.4780222
202	0x3e590bc5	0.21195896
203	0xbd94b734	-0.07261506
204	0xbee9ef24	-0.45690262
205	0x3d936b28	0.07198173
206	0x3e0fadbf	0.14031123
207	0xbd98ab9e	-0.074546084
208	0xbd974f9a	-0.0738823
209	0xbe4b4c1c	-0.19853252
210	0x3e0a8cda	0.13530293
211	0xbdfb43b5	-0.122687735
212	0x3ec047d7	0.3755481
213	0x3e1cad14	0.15300399
214	0xbe687625	-0.22701319
215	0xbcd29ea3	-0.02571041
216	0xbd0d856d	-0.034551073
217	0xbd7b371e	-0.06133186
218	0x3e67a6df	0.2262225
219	0xbd817b7a	-0.063223794
220	0x3e17d059	0.14825572
221	0xbedaba15	-0.42720094
222	0xbd319852	-0.043358155
223	0x3dd61eed	0.104551174
224	0x3b41135c	0.0029461002
225	0x3e81fc5f	0.25387856
226	0xbb3204ac	-0.002716343
227	0xbe6eb6b9	-0.2331189
228	0x3df52e17	0.119716816
229	0x3e4d72de	0.2006335
230	0x3e1f376a	0.15548483
231	0xbddf1c56	-0.108940765
232	0xbe586276	-0.2113131
233	0xbe18f22c	-0.14936131
234	0xbd083dc2	-0.03326202
235	0x3ddb7857	0.107163124
236	0xbe70098b	-0.2344114
237	0x3dca7eba	0.098874524
238	0xbe049c93	-0.12950353
239	0xbe38fdaa	-0.18065515
240	0x3e7154d3	0.23567514
241	0x3e6b69f3	0.22989635
242	0xbea11425	-0.31460682
243	0xbda565f6	-0.08076088
244	0xbf228e4e	-0.6349839
245	0xbcd6164a	-0.026133675
246	0x3ec908e2	0.3926459
247	0x3d023774	0.031791165
248	0x3d17ab0c	0.037028357
249	0xbefda246	-0.49537867
250	0xbeb6188a	-0.35565597
251	0xbedf3ba1	-0.4360018
252	0x3ecdd1b3	0.4019905
253	0x3eb0aa06	0.34504718
254	0x3c0f8eb5	0.008762051
255	0xbea4934e	-0.32143635

net.2.bias f4 [20]
0	0xbe70d6ba	-0.23519412
1	0xbdc30a42	-0.09523441
2	0x3e9d3f73	0.3071247
3	0x3df9c8b1	0.12196482
4	0xbd3aaa5d	-0.045572627
5	0xbde12ca2	-0.10994841
6	0x3d6a1653	0.057150196
7	0xbead12de	-0.33803457
8	0x3b9860c5	0.0046502077
9	0x3e745d82	0.23863795
10	0x3dd798ff	0.105272286
11	0xbe23138d	-0.15925427
12	0xbe89d16a	-0.26917583
13	0xbe440830	-0.19143748
14	0xbe96de81	-0.29466632
15	0x3dc71f90	0.09722817
16	0xbda09c2f	-0.0784229
17	0xbd6d6718	-0.057959646
18	0xbe5f1924	-0.21786934
19	0xbe2ab691	-0.16671206

net.4.weight f4 [20, 20]
0	0x3e268fd2	0.162658
1	0x3ea825c9	0.32841328
2	0xbd23908c	-0.039932773
3	0x3c7901bd	0.015198168
4	0xbed370b8	-0.41296935
5	0xbec58029	-0.3857434
6	0xbe4976a4	-0.19674164
7	0x3c945742	0.018108014
8	0x3ea98bdb	0.33114514
9	0xbd82c289	-0.06384761
10	0xbd87ef05	-0.06637386
11	0x3d524284	0.051332965
12	0x3f0a9bb7	0.5414385
13	0xbda35ed8	-0.079770744
14	0x3d3b088a	0.04566244
15	0xbd927624	-0.0715144
16	0xbf08d581	-0.5345078
17	0x3e582a9b	0.21110003
18	0x3e81df05	0.25365463
19	0x3ef854ef	0.485023
20	0xbed6fc13	-0.41989192
21	0xbed30ef5	-0.4122235
22	0xbd71bc90	-0.059017718
23	0x3da23253	0.07919755
24	0xbe3a4f74	-0.18194371
25	0xbe9a3f58	-0.30126452
26	0xbe5f4ecd	-0.21807404
27	0xbf015150	-0.505147
28	0x3eff0e16	0.49815434
29	0x3e8f5c34	0.28000033
30	0xbdfd11bc	-0.12356898
31	0xbec8658a	-0.39139968
32	0x3eac0058	0.33594012
33	0xbed5810e	-0.41700023
34	0x3cbd932c	0.023141466
35	0xbee4e673	-0.4470707
36	0xbeb48984	-0.35261166
37	0x3e86f1eb	0.26356444
38	0xbe897a32	-0.2685104
39	0x3d8b1b12	0.067922726
40	0x3eb35ce9	0.35031822
41	0xbe54eb02	-0.20792773
42	0x3e0f62ee	0.14002582
43	0xbe025fa2	-0.12731794
44	0xbc9691a5	-0.018379996
45	0xbe048d29	-0.12944473
46	0x3efb6efa	0.49108106
47	0x3e8cbf16	0.27489537
48	0xb912fe49	-0.00014018374
49	0x3d5d6786	0.054053806
50	0xbe070dda	-0.13188878
51	0xbe3bbb6c	-0.18333215
52	0xbd9c4e68	-0.07632142
53	0xbe6e773f	-0.23287676
54	0xbd0d2c11	-0.034465853
55	0x3dd13862	0.10215832
56	0xbdbc945f	-0.09207987
57	0x3d27b12a	0.04094044
58	0xbe5f1566	-0.21785507
59	0x3e3439d4	0.17600185
60	0xbe866262	-0.26246935
61	0x3ea4af77	0.3216512
62	0x3d51a3ca	0.051181592
63	0x3d08b030	0.03337115
64	0x3db795a6	0.0896409
65	0x3d0570ac	0.032578155
66	0xbf6421b3	-0.8911392
67	0xbe4add7f	-0.19811057
68	0xbed03824	-0.40667832
69	0xbd50b152	-0.050950356
70	0x3ca07e16	0.019591372
71	0x3da56876	0.08076565
72	0x3db38a44	0.087666065
73	0x3e89b4e5	0.26895824
74	0x3e633e20	0.22191668
75	0xbd331f45	-0.043730993
76	0x3e226461	0.15858604
77	0x3e54cac5	0.20780475
78	0x3ed98ac9	0.42488697
79	0x3e4bc2b5	0.19898494
80	0x3c97675c	0.018481903
81	0x3de3ab19	0.11116619
82	0xbea96226	-0.33082694
83	0xbe0c8ac4	-0.1372481
84	0xbdd37e13	-0.10326781
85	0xbdc05a4d	-0.093922235
86	0x39d4364c	0.00040476245
87	0x3c4b8639	0.012422138
88	0x3eae1502	0.34000403
89	0xbd54d0a4	-0.051956788
90	0x3ea07eef	0.31346843
91	0x398e4cf0	0.00027141673
92	0x3ea4d6dd	0.32195178
93	0xbd01c32b	-0.031680267
94	0x3e91cfd3	0.2847887
95	0xbcd6bb8b	-0.026212474
96	0xbd884ff8	-0.06655878
97	0xbe143359	-0.14472713
98	0x3e73f087	0.23822223
99	0x3db72156	0.08941905
100	0x3f292806	0.66076696
101	0xbe168a3d	-0.14701171
102	0xbe3fa3bf	-0.18714808
103	0xbc56c329	-0.013108053
104	0xbe06440b	-0.13111894
105	0x3ebd89cf	0.37019202
106	0xbe825f21	-0.25463203
107	0x3e3eaad2	0.1861985
108	0xbea5797e	-0.32319254
109	0x3e347c05	0.17625435
110	0xbf1f203a	-0.6215855
111	0xbe37c9a1	-0.17948009
112	0x3db41e7a	0.087948754
113	0xbe675ef6	-0.22594818
114	0x3d19fdd7	0.037595596
115	0xbca1ee72	-0.01976702
116	0x3b1ea167	0.002420509
117	0xbde79243	-0.11307194
118	0x3e731bb2	0.23741034
119	0xbc1385c2	-0.009004058
120	0x3c312a28	0.0108132735
121	0x3d10570d	0.035239268
122	0x3ea33b1d	0.31881037
123	0x3ea82df2	0.32847553
124	0x3b320f1b	0.0027169648
125	0x3ea4158b	0.32047686
126	0xbc7938cb	-0.015211294
127	0x3ead4241	0.3383961
128	0xbeb63074	-0.35583842
129	0xbe8247c1	-0.2544537
130	0xbd65eea4	-0.05613579
131	0x3e43f2fd	0.19135661
132	0xbefe648c	-0.49686086
133	0xbd4201c5	-0.04736497
134	0xbded2ab4	-0.115804106
135	0x3ec56f58	0.3856151
136	0xbd212876	-0.039345227
137	0xbe66b652	-0.22530487
138	0x3c0556c0	0.008138359
139	0xbee16db4	-0.4402901
140	0xbe16d8ae	-0.14731094
141	0x3eae11bf	0.33997914
142	0xbcaf5ddd	-0.021407062
143	0xbeb58a2a	-0.35456973
144	0xbe3354d1	-0.17512824
145	0xbf002fd6	-0.5007299
146	0x3dfdf650	0.12400496
147	0xbea44578	-0.3208425
148	0x3e168058	0.14697397
149	0xbe809a24	-0.251176
150	0x3da09e71	0.0784272
151	0x3e7f9081	0.24957468
152	0x3e203ae1	0.1564746
153	0x3d5a3fbb	0.053283434
154	0x3ecaaa39	0.39582995
155	0xbe70149e	-0.23445365
156	0xbe97e939	-0.29670122
157	0x3e8eee48	0.2791617
158	0x3df60d3a	0.120142415
159	0x3eed66d5	0.46367517
160	0x3d2f18ff	0.042748448
161	0xbe9e1f09	-0.30883053
162	0x3ee75c2f	0.45187518
163	0x3e93c3f5	0.2886044
164	0x3e6924a6	0.22767887
165	0x3ef750f1	0.4830394
166	0x3ac19a9b	0.0014770807
167	0x3e8f149a	0.27945405
168	0xbedec794	-0.4351164
169	0x3ed47484	0.41495144
170	0x3e553286	0.20820054
171	0xbe909c39	-0.28244188
172	0xbee9720e	-0.4559483
173	0xbe479b58	-0.19492853
174	0xbec74d31	-0.3892608
175	0x3e150f91	0.1455672
176	0x3ed7b118	0.421273
177	0xbe950039	-0.29101732
178	0xbd689b65	-0.05678882
179	0xbe942b8c	-0.28939474
180	0xbed2a6c0	-0.41142845
181	0xbe2ffcad	-0.17186232
182	0xbdbf4311	-0.09338964
183	0xbe9a59a9	-0.3014653
184	0xbd449cab	-0.048000973
185	0xbf075a72	-0.52872384
186	0xbd345dbc	-0.044034705
187	0xbe3bf32a	-0.18354478
188	0x3f072ac8	0.52799654
189	0x3da0172a	0.07816918
190	0xbd14f801	-0.036369327
191	0xbe33ed01	-0.17570879
192	0x3e4afdf3	0.19823436
193	0xbeff15a2	-0.49821192
194	0xbda06179	-0.078310914
195	0xbe4427d3	-0.19155817
196	0xbec88f86	-0.39172
197	0xbd874682	-0.06605245
198	0x3d0e040b	0.034671824
199	0x3ebf056a	0.37308818
200	0xbe1232d6	-0.14277205
201	0xbed295cf	-0.4112992
202	0x3e9780dc	0.295905
203	0x3e798cb8	0.24370086
204	0x3ed38870	0.4131503
205	0x3e950528	0.29105496
206	0x3dbff1df	0.09372305
207	0xbd9436f9	-0.07237048
208	0xbc91517c	-0.01773905
209	0x3dad5d49	0.08465058
210	0xbd01fcc9	-0.031735215
211	0x3d47ba09	0.0487614
212	0xbe89c464	-0.26907647
213	0xbcc49aeb	-0.023999652
214	0xbede496f	-0.434154
215	0x3e9f2ea1	0.31090263
216	0x3f0a1b43	0.5394785
217	0xbe520bd9	-0.20512332
218	0xbcea2d70	-0.02858612
219	0xbedc4de7	-0.43028185
220	0xbd18f571	-0.037343446
221	0x3e85b5a2	0.26115137
222	0x3c8687ef	0.01642224
223	0xbe411bd3	-0.1885827
224	0x3cc35da9	0.023848372
225	0xbe80cfe6	-0.25158614
226	0xbcbbbe2f	-0.022917835
227	0xbd7108f8	-0.058846444
228	0xbd5d0970	-0.05396408
229	0xbec68c29	-0.3877881
230	0xbc505f51	-0.012718038
231	0x3e66f840	0.22555637
232	0x3e873729	0.2640927
233	0x3d0b6759	0.034034107
234	0xbdbc36a6	-0.09190111
235	0xbe4312bd	-0.19050117
236	0x3d11d917	0.035607424
237	0xbda113e2	-0.078651205
238	0x3e29d3bb	0.16584675
239	0x3eb38b0e	0.35067028
240	0x3d9ad348	0.0755983
241	0xbe903ebf	-0.2817287
242	0xbe81c4fe	-0.25345606
243	0xbe8674d8	-0.2626102
244	0x3e06f2f2	0.13178614
245	0xbf046556	-0.51717126
246	0x3e1a6450	0.15077329
247	0xbe83c5b1	-0.25736764
248	0x3edf0d27	0.43564722
249	0x3e44a66a	0.19204107
250	0xbdb2515c	-0.08706924
251	0x3d2896b8	0.04115936
252	0x3ddaab1f	0.1067717
253	0xbe8780fa	-0.2646559
254	0xbd5854c8	-0.05281523
255	0xbdc48685	-0.0959597

net.4.bias f4 [20]
0	0xbd96f6c2	-0.07371284
1	0xbd78aa0d	-0.060709048
2	0x3bf40fef	0.0074481885
3	0xbe028c88	-0.12748921
4	0xbdfde11f	-0.12396454
5	0x3e6c6b53	0.23087816
6	0x3c938f14	0.01801256
7	0x3d0a2dcc	0.03373508
8	0x3c8356ef	0.016032664
9	0x3d1edc6b	0.038784426
10	0x3e4a8d5a	0.19780484
11	0x3d9bb2cf	0.076024644
12	0xbd5175f8	-0.051137894
13	0xbc7832c1	-0.015148819
14	0xbe2c8ec7	-0.1685134
15	0x3da4b2b7	0.080419
16	0x3e02aafd	0.1276054
17	0x3dbea5df	0.09308981
18	0x3e1b0955	0.15140279
19	0x3e319470	0.1734178

net.6.weight f4 [20, 20]
0	0x3f09ca6a	0.53824484
1	0x3db45733	0.088056944
2	0x3d44bddd	0.04803263
3	0x3e0adf15	0.13561662
4	0xbda03cd7	-0.07824104
5	0xbc7b00f6	-0.015320053
6	0xbd006c39	-0.03135321
7	0x3e4ab965	0.19797285
8	0xbec8c848	-0.39215302
9	0xbe02858f	-0.12746261
10	0xbeac6fc0	-0.33679008
11	0x3e5ed583	0.21761136
12	0x3e5aa2b9	0.21351136
13	0x3d8f24df	0.069894545
14	0x3e19c778	0.15017498
15	0xbe17592b	-0.14780109
16	0x3d82b69f	0.063824885
17	0xba36fe1d	-0.0006980615
18	0xbe8a20ca	-0.2697814
19	0xbeb01075	-0.34387556
20	0x3dec570b	0.1154004
21	0xbe00895e	-0.12552401
22	0xbcc1bbea	-0.023649175
23	0xbdd5118c	-0.104037374
24	0xbed34126	-0.41260642
25	0x3dbd1bca	0.09233816
26	0x3ee66526	0.44999045
27	0x3d2b71b6	0.04185649
28	0xbdaea26c	-0.08527073
29	0xbec2e944	-0.38068593
30	0xbc88fd4d	-0.016722346
31	0xbd5037c9	-0.05083445
32	0xbeeb810b	-0.4599689
33	0xbeb220b0	-0.34790564
34	0x3cd8f9d6	0.026486319
35	0x3ebafcfb	0.36521134
36	0xbd8a08e0	-0.06739974
37	0xbed68f11	-0.41906026
38	0x3eb6c085	0.35693756
39	0x3e8fd6c6	0.28093547
40	0x3d51a655	0.051184017
41	0x3ef02874	0.46905863
42	0x3d539524	0.051655903
43	0xbc9af165	-0.018913934
44	0xbe989151	-0.29798368
45	0x3f2bd1a9	0.6711679
46	0x3e9ecd13	0.31015834
47	0x3e179d4f	0.14806102
48	0xbeb4f553	-0.35343418
49	0x3eabf8c3	0.33588228
50	0xbe3867e4	-0.18008381
51	0xbd158a46	-0.03650882
52	0x3dfc407c	0.12316987
53	0xbe99f105	-0.30066696
54	0xbf138848	-0.57629824
55	0x3ebd83aa	0.37014514
56	0xbd853d02	-0.06505777
57	0xbe2f2d9f	-0.17107247
58	0x3e8ab6d7	0.2709262
59	0x3dac70c4	0.08419946
60	0xbc9bf955	-0.01903979
61	0x3ef6dc01	0.48214725
62	0x3e7dcb9b	0.247847
63	0xbc0dfe52	-0.008666592
64	0x3e1d8613	0.15383177
65	0x3f10d737	0.5657839
66	0x3d02ad54	0.03190358
67	0x3d725152	0.059159584
68	0xbdd2cbba	-0.10292764
69	0x3e6aecc6	0.22941884
70	0x3d43ce3e	0.04780411
71	0x3e03c412	0.12867764
72	0xbe497d7c	-0.19676775
73	0x3c127ab5	0.008940388
74	0xbf3295f8	-0.69760084
75	0x3e93e3fc	0.28884876
76	0x3d1e1ce1	0.03860176
77	0xbe7fd588	-0.249838
78	0x3b3bffe3	0.0028686456
79	0x3e2add03	0.16685872
80	0x3ddd01c3	0.10791352
81	0x3eec491a	0.46149522
82	0x3ec4a4f7	0.38407108
83	0xbd663cd7	-0.056210365
84	0x3d00ff41	0.03149343
85	0x3e5c4a86	0.21512803
86	0x3ea70525	0.32621112
87	0x3dc950ad	0.09829841
88	0xbe07fa7b	-0.13279144
89	0x3e63fe71	0.2226503
90	0xbd89e350	-0.067328095
91	0x3dbe6f31	0.09298552
92	0xbe82ae6f	-0.25523707
93	0xbc9ea1e6	-0.019364309
94	0xbedeb655	-0.43498483
95	0x3e113bef	0.14183019
96	0x3c77479d	0.0150927575
97	0xbebc5ec7	-0.3679106
98	0xbd85335c	-0.06503937
99	0x3e5ac879	0.21365537
100	0x3e1d050c	0.15333956
101	0xbf691c50	-0.91058826
102	0xbf15fa74	-0.58585286
103	0x3ea85c1d	0.32882777
104	0x3e9d53ca	0.30727988
105	0xbf4d9d95	-0.80318576
106	0xbe1b2b26	-0.15153179
107	0xbe2e94c0	-0.17048931
108	0xbcdd1faa	-0.026992638
109	0xbef42265	-0.4768249
110	0xbe4d25eb	-0.20033996
111	0x3e5bc8d6	0.21463332
112	0xbea68899	-0.3252609
113	0x3dd6b577	0.104838304
114	0x3f2333b8	0.6375079
115	0xbe14019a	-0.14453736
116	0xbe65c400	-0.2243805
117	0x3e0de0a7	0.1385523
118	0x3e141092	0.14459446
119	0x3cf6c770	0.030124396
120	0xbe1ec6b1	-0.15505482
121	0xbd8be9ee	-0.06831728
122	0xbeceb8e7	-0.40375444
123	0x3e59e3e8	0.21278346
124	0x3d5a5c66	0.053310774
125	0xbeb4aa33	-0.35286102
126	0xbea185ee	-0.31547493
127	0xbed5c300	-0.41750336
128	0x3eade219	0.3396156
129	0xbe9a49be	-0.30134386
130	0x3bff035b	0.0077823824
131	0x3ea0d1b5	0.31409994
132	0xbc5af8e1	-0.013365001
133	0x3e31bdeb	0.17357604
134	0x3ea048c2	0.3130551
135	0xbd9e8ea4	-0.0774205
136	0x3e0c57cc	0.13705367
137	0x3e635bd8	0.22203004
138	0x3b1929df	0.0023370904
139	0xbe08a1dc	-0.13342994
140	0x3d781add	0.060572494
141	0xbebe19f3	-0.37129173
142	0xbece92ce	-0.40346378
143	0x3e0a703b	0.13519375
144	0x3cc5af06	0.02413131
145	0xbf11555d	-0.5677088
146	0xbde85bf2	-0.11345662
147	0xbea1ab38	-0.31575942
148	0x3e2d4295	0.1691993
149	0xbe9b58d7	-0.30341217
150	0x3c62858b	0.013825784
151	0xbd9177db	-0.07102939
152	0x3d68058f	0.056645926
153	0x3e802539	0.250284
154	0x3eafc2cd	0.3432831
155	0xbe93db89	-0.2887843
156	0xbe070647	-0.13185988
157	0x3dc31131	0.095247634
158	0x3cc6c6e3	0.024264758
159	0xbe3d9ecb	-0.18517606
160	0x3e4f800f	0.20263694
161	0xbeef33cf	-0.46719214
162	0x3eac3051	0.33630612
163	0xbde133a3	-0.10996177
164	0xbe495715	-0.19662125
165	0xbcbfa6b2	-0.023394916
166	0x3ecdde7a	0.402088
167	0x3ebaf912	0.3651815
168	0xbed7de60	-0.42161846
169	0xbead8b87	-0.33895513
170	0x3d99e06c	0.07513508
171	0xbe40baf8	-0.18821323
172	0xbf0b9c9d	-0.5453585
173	0xbe91b950	-0.28461695
174	0xbeba5133	-0.36390075
175	0x3e8ae63a	0.27128774
176	0xbeb3b3ce	-0.35098118
177	0xbee1351d	-0.43985835
178	0x3e4636cf	0.19356845
179	0x3ea1b6e7	0.31584856
180	0xbce020b4	-0.027359344
181	0xbd0455a5	-0.03230824
182	0x3d94aaec	0.07259163
183	0xbe8f3c51	-0.27975705
184	0x3dc6b819	0.097030826
185	0x3e87d4fd	0.26529685
186	0x3e2f49aa	0.17117944
187	0xbeefd2ec	-0.46840608
188	0x3ef01f72	0.4689899
189	0xbe61e5c2	-0.22060302
190	0x3e136640	0.14394474
191	0xbdf5c615	-0.12000672
192	0xbe7e5f32	-0.24841002
193	0xbe6369ce	-0.2220833
194	0xbe11bb8c	-0.142317
195	0x3e2e19ee	0.17002079
196	0xbda5d648	-0.080975115
197	0x3db959f1	0.09050358
198	0x3d996388	0.07489687
199	0x3ed8e13f	0.4235935
200	0x3e226e1a	0.15862313
201	0x3f0562b2	0.5210372
202	0x3eea2a8a	0.4573558
203	0xbe866f26	-0.26256675
204	0xbe53aef9	-0.20672216
205	0x3f018ccb	0.5060546
206	0x3eb4fc56	0.35348767
207	0x3d7d8d14	0.06190212
208	0xbe7bcb33	-0.24589233
209	0x3d986dd5	0.07442824
210	0x3dcf7cc2	0.101312175
211	0x3e2399c1	0.15976621
212	0x3dccf5fc	0.10007855
213	0x3d9fea79	0.07808394
214	0xbf0876cc	-0.5330627
215	0x3ecb4dc7	0.39707777
216	0xbe00481c	-0.12527508
217	0xbda75819	-0.081711
218	0xbd74c4ae	-0.05975788
219	0xbdfac7f7	-0.122451715
220	0x3e951268	0.29115605
221	0x3d921eb2	0.07134761
222	0xbd2ef579	-0.04271457
223	0x3cb01c3b	0.021497836
224	0xbc9b83b6	-0.018983703
225	0xbc418de2	-0.011813613
226	0xbe40def1	-0.18835045
227	0x3f0edb2f	0.558032
228	0xbf0a7721	-0.54088026
229	0x3c057c90	0.008147374
230	0xbeca1074	-0.39465678
231	0xbdcacc77	-0.0990228
232	0xbb2d2175	-0.0026417647
233	0x3e9f6c46	0.31137294
234	0x3ec357ee	0.38153023
235	0xbd131766	-0.035910986
236	0x3e72340c	0.23652667
237	0xbe2952ac	-0.16535443
238	0xbd708b9f	-0.058726903
239	0xbe5f3712	-0.21798351
240	0xbf13265d	-0.5748041
241	0xbe15c009	-0.14624037
242	0x3dcdfe0e	0.10058223
243	0xbda638de	-0.08116315
244	0xbe0d9182	-0.13825038
245	0xbd79a82f	-0.060951408
246	0x3e626850	0.22110105
247	0xbebc79d7	-0.36811706
248	0x3ea824a0	0.32840443
249	0xbe471e61	-0.19445182
250	0x3ec322f4	0.38112605
251	0xbe4b5680	-0.19857216
252	0x3d6ef88d	0.058342505
253	0xbe0c6500	-0.13710403
254	0xbe0e4fe0	-0.13897657
255	0x3e7d98a1	0.24765255

net.6.bias f4 [20]
0	0x3d3a43aa	0.045474686
1	0x3ddbe1e6	0.10736446
2	0xbd01bbbc	-0.031673178
3	0x3e10bd61	0.14134742
4	0x3e22d0c7	0.15899955
5	0xbe96a72a	-0.2942441
6	0xbd489dde	-0.04897868
7	0xbe0c59a2	-0.13706067
8	0xbb03ea7a	-0.0020128773
9	0x3e078fc5	0.13238437
10	0x3cacaa95	0.021077434
11	0xbe2432eb	-0.16035049
12	0x3e3acf2a	0.1824309
13	0xbe84d661	-0.25944808
14	0xbe0c4c85	-0.13701065
15	0x3d5c0635	0.053716857
16	0x3dfe3228	0.1241191
17	0x3e8080a9	0.2509816
18	0xbdda1f31	-0.106504805
19	0x3e4ae0ee	0.19812366

net.8.weight f4 [1, 20]
0	0xbeae8190	-0.34083223
1	0xbe9599f9	-0.29219034
2	0xbed27e97	-0.41112205
3	0xbed3e2bc	-0.41383922
4	0xbee9bdaf	-0.4565253
5	0x3e980d61	0.29697707
6	0x3ef73c70	0.48288298
7	0x3edb4089	0.42822674
8	0xbeb10039	-0.34570482
9	0x3e9e42d8	0.30910373
10	0xbf1100ac	-0.5664165
11	0xbe41db7c	-0.18931383
12	0x3e4f5eda	0.20251027
13	0x3efb6065	0.4909698
14	0x3ee73d24	0.45163834
15	0xbebad8da	-0.3649357
16	0x3ea3d805	0.32000747
17	0xbf0cda5a	-0.5502068
18	0xbea3b9b0	-0.31977606
19	0xbedaebf3	-0.4275814
