Code/Trained models/m_mu_v0_500_norm_8001.pth (torch, 9532 bytes, 9 tensors)

net.0.weight f4 [20, 6]
0	0xbf87cf62	-1.0610163
1	0xbe380220	-0.1796956
2	0xbdc2c161	-0.0950954
3	0xbe2b3cbd	-0.16722389
4	0xbcc43a2e	-0.023953523
5	0xbe9c6ad2	-0.30550247
6	0xbf214033	-0.62988585
7	0x3d54054d	0.051762868
8	0xbd9559ef	-0.07292544
9	0xbd8bb190	-0.06820977
10	0x3d175b9b	0.036952596
11	0xbc957132	-0.018242452
12	0xbf73720d	-0.950959
13	0xbeac75cd	-0.33683625
14	0xbc5f0713	-0.0136125265
15	0xbed0a34d	-0.4074959
16	0x3eb8abf6	0.36068696
17	0x3ea796ec	0.32732332
18	0x3e226347	0.15858184
19	0xbd052295	-0.032503683
20	0x3dd1f7dc	0.102523535
21	0xbd3f4f1b	-0.0467063
22	0x3e939941	0.2882786
23	0xbe4a8053	-0.19775514
24	0x3f5b5cfc	0.8568876
25	0xbd7943fd	-0.060855854
26	0xbdb33deb	-0.08752044
27	0xbe2f0c56	-0.1709455
28	0x3def0e6b	0.11672672
29	0x3e177057	0.14788948
30	0x3f726ec2	0.94700253
31	0x3d278089	0.040894065
32	0xbd7b31bb	-0.061326724
33	0xbd814cf5	-0.063135065
34	0xbe4a82ad	-0.19776411
35	0xbd95b4b7	-0.07309859
36	0xbf498885	-0.7872394
37	0xbe34c409	-0.17652906
38	0x3d8af50c	0.0678502
39	0x3e826bf7	0.25472996
40	0x3d881913	0.066454075
41	0xbe86f13d	-0.26355925
42	0xbef89db9	-0.48557833
43	0xbe1805d1	-0.14845969
44	0xbde293dd	-0.11063359
45	0xbd83b475	-0.06430904
46	0x3e180f33	0.14849548
47	0x3e72b10f	0.23700355
48	0x3f55b6a4	0.8348181
49	0xbb8e7970	-0.0043479726
50	0x3bd712a7	0.006563503
51	0x3e2de318	0.1698116
52	0x3e30cebe	0.17266366
53	0xbe0ff19e	-0.14057013
54	0xbf5246ba	-0.8213917
55	0xbb532a74	-0.003222135
56	0x3ce4629e	0.027879056
57	0x3e152dd6	0.14568266
58	0xbe42a700	-0.19009018
59	0xbe27d52a	-0.1638991
60	0x3f3615b7	0.71126884
61	0x3bd91a5c	0.0066254567
62	0x3cc16db2	0.023611877
63	0xbdda8760	-0.10670352
64	0x3e9cf3c6	0.30654734
65	0x3dfe4d6d	0.124171115
66	0x3f381aff	0.7191619
67	0xbe83f3d6	-0.2577197
68	0x3e8824c5	0.26590553
69	0xbdb616e7	-0.08891087
70	0xbd887495	-0.06662861
71	0x3dde25ec	0.10847077
72	0xbf668f47	-0.90062374
73	0x3d6cde85	0.0578294
74	0x3c1d9193	0.009617227
75	0x3cc2804a	0.023742814
76	0x3e515fe6	0.20446739
77	0x3cc82841	0.024433257
78	0x3ec911f7	0.3927152
79	0x3e8923c4	0.267851
80	0xbe682555	-0.22670491
81	0x3d897097	0.06710928
82	0x3e113cbf	0.14183329
83	0xbe8bc3c6	-0.272978
84	0x3f307ccf	0.6894044
85	0x3d9c0372	0.07617845
86	0xbd304048	-0.043030053
87	0xbe841505	-0.25797287
88	0x3e71df28	0.23620284
89	0xbe61ba27	-0.22043668
90	0x3f416996	0.75551736
91	0xbc7e1d02	-0.015509846
92	0x3d77b859	0.060478542
93	0x3e4059d2	0.18784264
94	0xbdaa65f9	-0.08320231
95	0xbe3096aa	-0.17244974
96	0x3f5f9da4	0.87349916
97	0x3c5f67a4	0.01363555
98	0xbc9a812c	-0.018860422
99	0xbe3996ea	-0.18123975
100	0x3e2c936c	0.16853112
101	0x3dc12d6e	0.09432493
102	0xbf387ab4	-0.7206223
103	0xbcab3bb4	-0.020902492
104	0xbd1e1e5c	-0.03860317
105	0x3e80fecb	0.25194392
106	0xbd80d44a	-0.06290491
107	0x3e8683bb	0.26272377
108	0x3e8b3a90	0.27193117
109	0x3c70d186	0.014698392
110	0x3f083cf7	0.53218025
111	0xbd17bb93	-0.03704412
112	0xbd614ab1	-0.055002872
113	0xbcd2c5a5	-0.02572901
114	0x3f61765a	0.88071215
115	0x3cfb8c19	0.030706452
116	0x3d83ba15	0.06431977
117	0x3e20b600	0.15694427
118	0x3e646be6	0.22306785
119	0xbd9f3853	-0.07774415

net.0.bias f4 [20]
0	0x3e09cc8e	0.13456938
1	0x3e01b7cf	0.12667774
2	0x3ea6a53c	0.3254794
3	0x3ebcc0f1	0.36865953
4	0x3e07adc5	0.13249882
5	0x3db9fb55	0.09081141
6	0x3ea9ef36	0.33190316
7	0xbec8b64f	-0.3920159
8	0x3e8da6f8	0.2766645
9	0x3e274a35	0.16336901
10	0x3e89126f	0.26771876
11	0xbe2cfa96	-0.16892466
12	0xbea3fa0e	-0.32026714
13	0x3db4bc4f	0.088249795
14	0xbe2538d7	-0.16134964
15	0xbc8562cf	-0.016282467
16	0x3ed13aed	0.4086527
17	0xbea7ef3e	-0.32799715
18	0x3a2093b2	0.0006125524
19	0xbe8159ac	-0.25263727

net.2.weight f4 [20, 20]
0	0x3dc5780a	0.09642036
1	0xbe94b05b	-0.290408
2	0x3cf584fb	0.029970637
3	0x3d97235b	0.073797904
4	0x3ea077c0	0.31341362
5	0x3f1378f0	0.5760641
6	0x3dc01ea6	0.09380846
7	0xbea4b798	-0.3217132
8	0x3ecfb7d2	0.4056993
9	0xbe65caf7	-0.22440706
10	0x3c96214a	0.01832642
11	0xbe29cb6f	-0.1658151
12	0xbed452ad	-0.41469327
13	0xbd7625d2	-0.060094662
14	0x3e8436e0	0.25823116
15	0x3ec60732	0.38677365
16	0x3ebecdd6	0.37266415
17	0x3e70a2e8	0.23499644
18	0xbd1c7d10	-0.038205206
19	0x3e3451e0	0.17609358
20	0xbe37727c	-0.17914766
21	0xbee9daba	-0.45674688
22	0x3de73767	0.11289864
23	0x3ddcfdf1	0.10790623
24	0x3f0ae67d	0.5425795
25	0x3eb4b5f7	0.35295078
26	0xbe9a1c0e	-0.3009953
27	0xbe490dd5	-0.19634183
28	0x3ecbf754	0.39837134
29	0xbe7f8d31	-0.24956204
30	0x3e72b812	0.2370303
31	0x3dbe52d4	0.09293142
32	0xbf1ebf98	-0.620111
33	0xbc496438	-0.01229196
34	0x3e2a1609	0.16609968
35	0x3e2ec230	0.17066264
36	0x3ee4507e	0.4459266
37	0xbbd9e199	-0.006649208
38	0xbbcc09ec	-0.0062267687
39	0x3ef78b96	0.48348683
40	0x3d681b0a	0.05666641
41	0x3e7443e8	0.23854029
42	0x3d16ca0c	0.03681378
43	0xbe0053e7	-0.12532006
44	0xbe29a592	-0.16567066
45	0xbea4acfd	-0.3216323
46	0x3e0bf175	0.13666327
47	0x3ec4e790	0.38457918
48	0xbef8ae61	-0.4857054
49	0x3d990e90	0.07473481
50	0xbe942d6b	-0.289409
51	0xbd4522f4	-0.048129037
52	0x3eb2f68a	0.3495372
53	0xbe636544	-0.22206599
54	0x3c7c4e79	0.015399569
55	0xbef2f550	-0.47452784
56	0xbe97f385	-0.29677978
57	0xbda46bda	-0.080283836
58	0x3e1344a1	0.14381649
59	0xbe1ee184	-0.15515715
60	0x3e8d7b9d	0.27633372
61	0xbe48fd7a	-0.19627944
62	0xbd18d1aa	-0.037309326
63	0x3e9a007a	0.3007849
64	0x3dc8d130	0.09805524
65	0x3f0b4a94	0.5441067
66	0x3dc6d4e0	0.097085714
67	0xbd3854b4	-0.045002654
68	0x3dc2959b	0.09501191
69	0xbe9ac6bc	-0.30229747
70	0xbe81d942	-0.25361067
71	0x3e829223	0.25502118
72	0xbed918c1	-0.42401698
73	0x3eaffdf6	0.34373444
74	0x3e048d89	0.12944616
75	0x3e886895	0.2664229
76	0xbd89f11b	-0.0673544
77	0xbf2f55d1	-0.6849032
78	0x3d445a04	0.047937408
79	0x3ed62862	0.41827685
80	0x3e6c4a77	0.23075281
81	0xbe60b0a1	-0.21942379
82	0x3bc4fa56	0.0060112877
83	0x3d2de89a	0.042458154
84	0x3e425259	0.18976726
85	0x3e84677d	0.25860205
86	0xbe20e405	-0.15711983
87	0x3e559475	0.20857413
88	0x3e85f10c	0.26160467
89	0xbf0fab59	-0.5612083
90	0x3e8a263b	0.26982293
91	0x3ccc251d	0.02492004
92	0xbe33699f	-0.1752076
93	0xbe24c3ad	-0.1609027
94	0xbd2faa31	-0.042886917
95	0xbc975b7a	-0.018476237
96	0x3f0b4a54	0.5441029
97	0x3ae180fe	0.001720458
98	0xbe8e5543	-0.27799425
99	0x3d41d034	0.0473177
100	0x3da704d9	0.081552215
101	0x3e35ba72	0.17746904
102	0x3d642350	0.05569774
103	0xbd6e1869	-0.058128748
104	0xbe285814	-0.16439849
105	0xbef34d32	-0.47519833
106	0xbd1d7081	-0.03843737
107	0x3d187ef6	0.037230454
108	0xbd35cb00	-0.04438305
109	0x3ebb5fbc	0.36596477
110	0xbec34cad	-0.38144436
111	0xbe6e8277	-0.23291956
112	0x3e0ec536	0.13942418
113	0xbe807bb4	-0.25094378
114	0xbc68f785	-0.0142191695
115	0xbdecda62	-0.11565091
116	0xbebbdb39	-0.3669069
117	0xbda060a9	-0.078309365
118	0xbd59af09	-0.053145442
119	0xbf0015ac	-0.5003307
120	0xbdfad87a	-0.12248321
121	0x3e3578ab	0.17721812
122	0x3e25bc38	0.16185081
123	0xbdf3f27b	-0.11911484
124	0xbe274669	-0.16335453
125	0xbeb44b01	-0.35213473
126	0x3e18f18f	0.14935897
127	0xbdef893e	-0.11696099
128	0x3d27393b	0.040826064
129	0x3f1a7c25	0.6034568
130	0xbe4c7dbb	-0.19969837
131	0x3c558448	0.013032027
132	0x3ea3d61d	0.31999293
133	0x3daaa1db	0.08331653
134	0xbd646c9a	-0.055767633
135	0xbeb2da62	-0.34932238
136	0xbf06fdcc	-0.52731013
137	0xbc4fd0d5	-0.012684067
138	0x3da28884	0.079361945
139	0xbeef5a97	-0.46748802
140	0xbe073017	-0.13201939
141	0xbea07923	-0.3134242
142	0xbdecbca5	-0.115594186
143	0x3dadb9e8	0.084827244
144	0x3f0ba8bd	0.5455435
145	0x3e11101e	0.14166304
146	0x3ea2a8b5	0.31769338
147	0xbbf01e31	-0.007327818
148	0xbd71bbc3	-0.059016954
149	0xbe60d448	-0.21955979
150	0x3eaee3ea	0.3415826
151	0x3e8b399e	0.27192396
152	0xbeeb07fa	-0.45904523
153	0xbe74f684	-0.23922163
154	0x3db6aac6	0.08919291
155	0x3e3a584f	0.1819775
156	0x3ed72f9b	0.42028508
157	0xbe947d03	-0.29001626
158	0xbe126b98	-0.14298856
159	0xbdef9fc2	-0.11700393
160	0x3cc4b751	0.024013193
161	0x3e488c5a	0.1958479
162	0xbcfb60f9	-0.030685889
163	0xbd48cb71	-0.04902214
164	0xbe96547b	-0.29361328
165	0xbf1a4ba3	-0.6027166
166	0xbc471c7f	-0.01215279
167	0x3c23516f	0.009968146
168	0xbe96c03a	-0.29443532
169	0x3f0f99f9	0.5609432
170	0x3c7e3e80	0.015517831
171	0xbd748c81	-0.059704307
172	0x3ea0637f	0.3132591
173	0xbd15b96c	-0.036553785
174	0xbe72f580	-0.23726463
175	0xbed75272	-0.42055088
176	0xbee846cc	-0.45366514
177	0xbde3d109	-0.11123855
178	0x3cc6ec19	0.024282502
179	0xbf078355	-0.5293477
180	0xbddff120	-0.10934663
181	0xbe8a6e20	-0.27037144
182	0x3e44e379	0.19227399
183	0x3dd93bb2	0.10607089
184	0x3ecbd3ea	0.39810115
185	0x3ed13abb	0.4086512
186	0x3d428b5c	0.047496185
187	0xbd9b228c	-0.07574949
188	0xbd0a7019	-0.03379831
189	0xbee4413e	-0.44581026
190	0x3da45166	0.08023338
191	0x3d5ad57a	0.053426243
192	0xbf127151	-0.5720416
193	0x3e488d5f	0.19585179
194	0x3d9b9c1f	0.07598137
195	0x3d1175ac	0.03551261
196	0x3ec4e59c	0.38456428
197	0xbcaa3fec	-0.020782433
198	0xbe154cdd	-0.14580102
199	0x3e9cb026	0.3060314
200	0x3e3d0f5e	0.18462893
201	0x3e4972c5	0.19672687
202	0xbe80c39d	-0.2514924
203	0x3d271d7b	0.0407996
204	0x3e0e2069	0.13879551
205	0x3e152058	0.1456312
206	0x3e958069	0.29199532
207	0x3d1ed684	0.038778797
208	0xbcbff0c0	-0.023430228
209	0x3e257293	0.16156988
210	0xbed7b9d3	-0.4213396
211	0x3e6fa25e	0.23401782
212	0xbe1ccc66	-0.15312347
213	0x3ee2d9b4	0.4430672
214	0xbd66f270	-0.05638355
215	0xbd437678	-0.047720402
216	0xbd8998f9	-0.0671863
217	0x3df2f4db	0.11863109
218	0xbdb01c78	-0.0859918
219	0xbcf37b7b	-0.029721966
220	0x3aa61f06	0.0012674041
221	0xbe8fe7dd	-0.28106585
222	0x3e89e0d1	0.26929334
223	0x3d3f9e6c	0.046781942
224	0x3f11a9eb	0.568999
225	0x3d1115a4	0.03542103
226	0xbd720ec2	-0.059096105
227	0xbde5867b	-0.11207291
228	0xbec5a20c	-0.38600194
229	0xbcf3affd	-0.029747004
230	0x3eb01d26	0.34397238
231	0xbe90e827	-0.28302118
232	0xbe6432ec	-0.2228505
233	0x3de4be5f	0.11169123
234	0x3e2f1a1c	0.17099804
235	0xbe3e6f90	-0.18597245
236	0xbd12ada2	-0.03581012
237	0xbe53e4d6	-0.20692763
238	0xbe929692	-0.286305
239	0xbdebbd68	-0.11510736
240	0xbea0c385	-0.3139917
241	0xbe04802a	-0.12939516
242	0xbdc375a6	-0.09543924
243	0xbe114045	-0.14184673
244	0x3e805a74	0.2506901
245	0xbede19da	-0.43379098
246	0x3c164722	0.009172233
247	0x3e3f958e	0.18709394
248	0xbea0d7c1	-0.31414607
249	0xbeaf0038	-0.34179854
250	0x3e97978b	0.29607806
251	0x3ca54409	0.020174043
252	0xbe25a4a5	-0.16176088
253	0xbe846c01	-0.2586365
254	0xbf437e42	-0.7636453
255	0xbf171891	-0.5902186

net.2.bias f4 [20]
0	0x3e82647b	0.25467286
1	0x3e2f439f	0.17115639
2	0xbe5e7971	-0.21726014
3	0xbc099fbb	-0.008399899
4	0x3cd5fb75	0.02612088
5	0xbbe9d45b	-0.0071359104
6	0xbdce7c52	-0.10082306
7	0xbe2411a7	-0.16022359
8	0xbe82ac92	-0.25522286
9	0x3dff7790	0.124739766
10	0x3e78000e	0.24218771
11	0xbeb1bc32	-0.34713894
12	0x3e0e9211	0.13922907
13	0xbda35c1c	-0.07976553
14	0x3d80b792	0.06285013
15	0xbe7ae320	-0.24500704
16	0x3c5afc12	0.013365762
17	0x3e9336b2	0.28752667
18	0x3c22ea76	0.009943595
19	0x3b0d4dae	0.0021561193

net.4.weight f4 [20, 20]
0	0x3d489628	0.048971325
1	0x3f4c4769	0.79796463
2	0xbdd105e1	-0.102061994
3	0x3e9a596a	0.30146343
4	0xbe0dbf34	-0.1384247
5	0xbeba7d18	-0.36423564
6	0xbc0bd212	-0.008533971
7	0x3ef24bf9	0.47323588
8	0xbe7a1444	-0.24421793
9	0x3ea2e7c4	0.31817448
10	0x3e78802b	0.24267642
11	0x3d8ea071	0.069641955
12	0x3ed45582	0.41471487
13	0x3e824b73	0.25448188
14	0x3e03c7f4	0.12869245
15	0xbecab2be	-0.39589494
16	0xbf23e112	-0.64015305
17	0xbf13c506	-0.5772251
18	0xbebefab1	-0.37300637
19	0xbf1aba85	-0.60440856
20	0xbe0072f1	-0.12543847
21	0xbe5d4af8	-0.2161063
22	0x3ef9d204	0.48793042
23	0xbf1ea752	-0.6197406
24	0xbec04477	-0.37552235
25	0x3ef75155	0.4830424
26	0x3ea5b30f	0.32363173
27	0xbed035a1	-0.40665916
28	0x3ed35438	0.4127519
29	0xbee66ff7	-0.45007297
30	0x3e0c2c1d	0.13688703
31	0x3dacf4b4	0.08445111
32	0x3db78754	0.08961359
33	0x3ee19ee6	0.44066542
34	0xbed6e34a	-0.41970283
35	0x3e3879d1	0.1801522
36	0x3ef47175	0.4774281
37	0xbe37f42a	-0.17964235
38	0x3ddec722	0.10877825
39	0x3ee50881	0.4473305
40	0xbf019e0b	-0.5063178
41	0xbeb7a2dd	-0.35866442
42	0x3ec5dccc	0.38645017
43	0x3e099ea3	0.13439421
44	0xbe211505	-0.15730675
45	0x3ed02756	0.4065501
46	0x3e9c8d52	0.3057657
47	0xbe201448	-0.15632737
48	0x3eef1611	0.46696523
49	0xbd67da9c	-0.056604967
50	0x3d910270	0.07080543
51	0x3e09f24d	0.13471337
52	0x3c1579d1	0.009123282
53	0xbda83186	-0.08212571
54	0xbed647aa	-0.4185155
55	0x3ea69c74	0.3254124
56	0x3ecc3488	0.39883828
57	0x3e8dfe33	0.27733
58	0x3d9e6bf6	0.07735436
59	0xbd9aed88	-0.07564837
60	0x3cbb90d3	0.022896206
61	0xbdc90977	-0.098162584
62	0xbe82689e	-0.25470442
63	0x3f159584	0.5843127
64	0xbd671e76	-0.056425534
65	0x3e0b8102	0.13623431
66	0xbdbb40cd	-0.09143219
67	0x3f39e3a7	0.72612995
68	0x3db1e9a2	0.0868714
69	0xba3cb094	-0.0007197943
70	0x3dc43286	0.09579949
71	0x3c62b17a	0.013836259
72	0x3d6c982c	0.05776231
73	0x3d9d7320	0.07687974
74	0xbd98de6b	-0.07464298
75	0xbdecbfcc	-0.1156002
76	0x3d8be6db	0.068311416
77	0xbe872055	-0.26391855
78	0x3f1fcf0d	0.6242531
79	0x3e1ecfa9	0.15508904
80	0xbd0a31ff	-0.033739086
81	0xbe403fdb	-0.18774359
82	0x3eb5a409	0.3547671
83	0x3e10d3ab	0.14143245
84	0xbec03238	-0.37538314
85	0x3ee2b70c	0.4428028
86	0x3ceebdea	0.029143292
87	0xbd1e2f57	-0.038619366
88	0x3e1042a4	0.14087921
89	0xbe9abb16	-0.3022086
90	0xbe91c59c	-0.28471076
91	0x3e88fe37	0.2675645
92	0x3d83f1f4	0.06442633
93	0x3e528586	0.20558748
94	0xbeb62d59	-0.35581473
95	0xbe22053c	-0.1582231
96	0x3daf2858	0.08552617
97	0xbf0602c9	-0.52348
98	0xbe041ac1	-0.12900831
99	0x3e234f57	0.15948234
100	0xbe1303a5	-0.14356859
101	0x3e35c817	0.1775211
102	0xbd8f15b0	-0.069865584
103	0x3e88a9ac	0.2669195
104	0x3eb3f25a	0.35145837
105	0xbebefc8b	-0.3730205
106	0xbf154169	-0.5830293
107	0x3f2e9ed5	0.6821111
108	0xbe5f1b84	-0.2178784
109	0x3cad98cb	0.021191021
110	0xbf088689	-0.53330284
111	0x3ed39c09	0.41329983
112	0xbf5c9475	-0.8616403
113	0xbf025a5f	-0.50919145
114	0xbdaf6754	-0.0856463
115	0x3db7be65	0.08971862
116	0xbeb87245	-0.3602468
117	0xbecae525	-0.39627948
118	0x3eafb630	0.34318686
119	0xbeb9b34e	-0.3626961
120	0x3eecd8eb	0.46259245
121	0x3d94e4f9	0.072702356
122	0xbdf2d1ca	-0.1185642
123	0x3e965bc9	0.29366902
124	0x3c439166	0.011936521
125	0xbcfcfbd3	-0.030881798
126	0xbed29c95	-0.41135088
127	0x3d9bc4c2	0.07605888
128	0xbf0c9111	-0.54908854
129	0x3e3978d1	0.18112494
130	0x3e9dcd45	0.3082067
131	0x3e33ccde	0.1755862
132	0x3c16829c	0.009186413
133	0xbe2c0701	-0.16799547
134	0x3e74a906	0.23892602
135	0xbd87dd2d	-0.06633983
136	0xbd6637b1	-0.056205455
137	0xbe75aec5	-0.2399245
138	0xbd90a99a	-0.07063599
139	0xbe933f15	-0.28759065
140	0x3e4f256c	0.20229119
141	0x3ccc318d	0.024925971
142	0x39799dd0	0.0002380528
143	0xbe981326	-0.2970211
144	0xbe4ee439	-0.20204248
145	0x3e4c822b	0.1997153
146	0x3e932592	0.287396
147	0xbec90456	-0.3926112
148	0x3d173fd0	0.03692609
149	0xbeb94679	-0.3618658
150	0x3db3c5fe	0.087779984
151	0xbe06da88	-0.131693
152	0xbe3c6312	-0.18397167
153	0x3f20d912	0.62831223
154	0x3d73169a	0.059347726
155	0x3e1947b7	0.14968763
156	0x3e9ea420	0.30984592
157	0x3e9d307d	0.30701056
158	0xbd360a29	-0.044443283
159	0x3ec4b859	0.38421896
160	0x3eba7698	0.36418605
161	0x3ed25282	0.41078573
162	0xbdc1a010	-0.094543576
163	0xbf26d751	-0.65172297
164	0xbf12fa2a	-0.5741297
165	0x3e31b370	0.17353606
166	0x3e23177d	0.15926929
167	0xbed8c339	-0.42336443
168	0xbe8a4168	-0.27003026
169	0xbf116d6f	-0.5680761
170	0x3e9f9c3b	0.31173882
171	0xbea1a570	-0.3157153
172	0x3ebadd76	0.36497086
173	0x3f070c55	0.5275319
174	0x3e9e9f04	0.30980694
175	0xbf06d444	-0.5266764
176	0x3f0aa5f5	0.5415948
177	0x3f0c09f1	0.5470267
178	0xbf048de2	-0.51778996
179	0x3e94609a	0.2897995
180	0x3ec38b9c	0.3819245
181	0x3e829df6	0.2551114
182	0xbe85243f	-0.26004216
183	0x3e93a117	0.2883384
184	0x3e3db548	0.18526185
185	0xbeef8d89	-0.4678767
186	0xbeee9b5d	-0.46602908
187	0x3e9b1fbe	0.30297655
188	0xbf0f2793	-0.5591976
189	0x3ed713f7	0.4200742
190	0x3e99a808	0.3001101
191	0x3d10a798	0.03531608
192	0xbba20db1	-0.00494548
193	0xbd79d9c5	-0.060998697
194	0x3eb94aae	0.3618979
195	0xbe85fd35	-0.26169744
196	0xbb66edc5	-0.0035236937
197	0xbd10fdfc	-0.03539847
198	0xbda3a0e2	-0.0798967
199	0xbef5e5af	-0.48026797
200	0x3e9912bf	0.29897115
201	0x3effe627	0.4998028
202	0xbdebf9e0	-0.11522269
203	0x3e9bbf0f	0.30419204
204	0x3d90e1e5	0.07074336
205	0xbf09d04f	-0.5383348
206	0xbf04c774	-0.5186684
207	0x3e642ead	0.2228343
208	0xbefbd5c3	-0.49186525
209	0x3dda7b8e	0.106680974
210	0xbde97a29	-0.11400253
211	0x3dd9da0b	0.106372915
212	0x3dbf2a07	0.09334188
213	0xbebc87b9	-0.36822298
214	0x3dfa9a62	0.122364774
215	0x3c64a260	0.013954729
216	0xbe97ddeb	-0.29661497
217	0x3e1d8904	0.15384299
218	0x3daa0c01	0.08303071
219	0xbefaeefc	-0.49010456
220	0xbf4cff21	-0.80076796
221	0xbf9bc0e4	-1.216824
222	0x3f47e2e9	0.7808061
223	0xbf10a8f4	-0.565078
224	0xbe99ac26	-0.3001415
225	0x3f935d1f	1.1512793
226	0x3ec93cb7	0.39304134
227	0xbebf1db3	-0.37327346
228	0x3f646d40	0.892292
229	0xbf6975df	-0.9119548
230	0xbe779ff2	-0.24182108
231	0xbd74b135	-0.05973931
232	0xbd745820	-0.059654355
233	0x3e865b25	0.26241413
234	0xbf3b6aa1	-0.7320958
235	0x3f445233	0.76687926
236	0x3f95833f	1.1680678
237	0x3ecc1cc8	0.39865708
238	0xbeb3f82a	-0.35150272
239	0x3f132a1f	0.57486147
240	0x3ec25e23	0.37962446
241	0x3f222b1f	0.6334705
242	0xbe13c641	-0.14431097
243	0x3cea4680	0.02859807
244	0xbdcdea52	-0.10054459
245	0xbf59f722	-0.8514272
246	0xbe2cee63	-0.16887812
247	0x3de211c1	0.110385425
248	0xbe16afbd	-0.14715476
249	0x3e1615f6	0.14656815
250	0x3e5e0600	0.21681976
251	0xbeda5429	-0.42642334
252	0xbecb1c12	-0.39669853
253	0xbe050977	-0.12991892
254	0x3eac142a	0.33609134
255	0xbec8458e	-0.39115566

net.4.bias f4 [20]
0	0xbca0397f	-0.019558666
1	0xbdfe654b	-0.12421664
2	0xbb221e55	-0.0024737318
3	0x3e8a5a75	0.27022138
4	0xbe6c437e	-0.23072621
5	0xbec69523	-0.38785657
6	0x3cd9434c	0.026521347
7	0xbe4f81f9	-0.20264424
8	0x3d1516ea	0.036398806
9	0xbd3ee3cd	-0.046603967
10	0x3e0b647b	0.13612549
11	0xbdc52f7e	-0.09628199
12	0x3d736c1e	0.05942928
13	0xbe0bb557	-0.13643394
14	0xbe9c1a49	-0.30488804
15	0xbe5fad90	-0.21843553
16	0x3e828182	0.25489432
17	0xbd0457a7	-0.032310154
18	0x3efb484f	0.49078605
19	0x3e2a83bf	0.1665182

net.6.weight f4 [20, 20]
0	0x3daff251	0.0859114
1	0x3d716851	0.058937375
2	0x3e0cac14	0.13737518
3	0xbcd9aac3	-0.026570683
4	0xbea77f53	-0.32714328
5	0x3ec632c8	0.38710618
6	0xbcc826a2	-0.024432484
7	0xbe6ab947	-0.2292224
8	0x3eb13930	0.34613943
9	0xbe789fe9	-0.24279751
10	0xbed5e1ff	-0.41773984
11	0xbdd60166	-0.104494855
12	0xbced6860	-0.028980434
13	0x3e775af9	0.24155797
14	0xbdcab3ea	-0.09897597
15	0x3e31f6b6	0.17379269
16	0xbf253354	-0.64531446
17	0x3e2b59e7	0.16733514
18	0xbef61ae3	-0.48067388
19	0x3d8810f3	0.06643858
20	0x3ed2d6c3	0.41179475
21	0x3f02d8c8	0.5111203
22	0x3eaa5fce	0.33276218
23	0x3d309c14	0.043117598
24	0xbdcf9789	-0.10136325
25	0xbe348451	-0.176286
26	0xbe8cfa81	-0.2753487
27	0x3effcf36	0.49962777
28	0xbd8cad3e	-0.06868981
29	0xbec7e548	-0.39042115
30	0xbf28c8ef	-0.659316
31	0x3f20cdde	0.6281413
32	0xbc74d3a2	-0.014943035
33	0x3f225247	0.63406795
34	0xbdbd8148	-0.09253174
35	0x3dc70081	0.09716893
36	0x3e9bd161	0.3043318
37	0xbd8e0a0c	-0.0693551
38	0x3ec3725d	0.3817319
39	0x3e6d02c1	0.23145582
40	0xbeadf9c0	-0.33979607
41	0xbe54391a	-0.20724908
42	0x3e33db9f	0.17564248
43	0xbe7249e1	-0.23660995
44	0x3d8e6769	0.06953318
45	0x3d92c173	0.07165804
46	0x3ecccff6	0.40002412
47	0xbdb274c3	-0.08713677
48	0xbe421901	-0.1895485
49	0x3ec51d2d	0.38498822
50	0x3ed6c07d	0.41943732
51	0x3d50a751	0.050940815
52	0xbb08c6bf	-0.0020870415
53	0xbefb55d6	-0.49088925
54	0x3e912db8	0.28355193
55	0xbea6d416	-0.32583684
56	0xbe93fb0a	-0.28902465
57	0x3eee9117	0.4659507
58	0xbe9c4131	-0.30518487
59	0xbdf58649	-0.119885035
60	0x3d209a6d	0.039209772
61	0xbe155066	-0.14581451
62	0xbe383e32	-0.17992476
63	0x3e15ae1d	0.146172
64	0xbf0be47c	-0.54645514
65	0x3e9b9582	0.30387503
66	0x3e5dceaa	0.21660867
67	0xbea89492	-0.3292585
68	0x3ccd6570	0.025072783
69	0xbe19edfd	-0.15032192
70	0xbd89c7b6	-0.06727545
71	0x3d288666	0.041143797
72	0x3ea13862	0.3148833
73	0x3eba1348	0.36342835
74	0xbd9628a8	-0.07331973
75	0x3f02c3fb	0.5108029
76	0xbe345880	-0.17611885
77	0xbdb8ca1c	-0.09022924
78	0xbf0afb07	-0.5428929
79	0x3e9b168f	0.30290648
80	0x3c9c9542	0.01911414
81	0x3ea59c8d	0.32346
82	0x3d3f24e7	0.046666052
83	0x3dc59bf2	0.09648885
84	0x3e927715	0.28606477
85	0xbe3085d3	-0.1723855
86	0x3d9f9857	0.077927284
87	0xbccd3b39	-0.025052654
88	0x3c77e441	0.015130104
89	0xbd11a13c	-0.035554156
90	0x3d14a19b	0.03628693
91	0x3ea9f4bb	0.33194527
92	0xbe690d45	-0.22758968
93	0xbe2452d2	-0.16047218
94	0x3e2340be	0.15942666
95	0xbe9ed768	-0.31023717
96	0x3d7ca66a	0.061682142
97	0x3e65de03	0.22447972
98	0x3de90468	0.113777936
99	0xbe88e894	-0.26739943
100	0xbcfbea9f	-0.030751524
101	0x3e23d1ca	0.15997997
102	0x3d5a221d	0.05325519
103	0xbe909728	-0.28240323
104	0x3de1dce3	0.11028459
105	0xbe50b3fb	-0.20381157
106	0x3d3dca62	0.046335585
107	0x3ec2bbf1	0.38034013
108	0xbe9c736f	-0.3055682
109	0xbc72658c	-0.0147947185
110	0x3eb11901	0.3458939
111	0x3d77a226	0.06045737
112	0xbe4737e9	-0.19454922
113	0xbd903c24	-0.07042721
114	0x3ed11d12	0.4084249
115	0xbde20c04	-0.11037448
116	0x3cd92ecf	0.026511578
117	0x3e15f305	0.14643486
118	0xbc522974	-0.012827266
119	0xbd655484	-0.055988804
120	0xbf029066	-0.51001585
121	0x3ef08618	0.46977305
122	0xbc37f6a4	-0.011228237
123	0xbe5add7b	-0.2137355
124	0x3f1cfdf7	0.6132502
125	0xbb5fb10c	-0.0034132628
126	0xbe9e5859	-0.3092678
127	0x3ecae9b3	0.39631423
128	0x3c9dc290	0.019257814
129	0xbf00c04a	-0.5029341
130	0xbccdd074	-0.025123812
131	0x3ec607cb	0.3867782
132	0xbe99365d	-0.29924288
133	0xbc1919fb	-0.009344573
134	0x3bf48b96	0.007462929
135	0xbe38d1ab	-0.18048732
136	0xbd3d98d1	-0.046288315
137	0x3dbe233a	0.09284063
138	0x3df9831b	0.121832095
139	0xbf37fbcc	-0.71868587
140	0x3d13af5c	0.036055908
141	0xbde92e5a	-0.11385794
142	0xbc359648	-0.011083193
143	0xbc787994	-0.015165705
144	0xbe39670b	-0.18105714
145	0xbd3e0e63	-0.04640044
146	0xbd899c7c	-0.067193
147	0xbe4caca4	-0.19987732
148	0x3ebd9bc5	0.37032905
149	0x3e8a727b	0.27040467
150	0xbe3a5aee	-0.1819875
151	0x3b77c513	0.0037806674
152	0x3e99829b	0.29982457
153	0x3daed7a1	0.08537222
154	0xbe8e96d4	-0.27849448
155	0x3d9944ad	0.07483802
156	0x3d2fbf50	0.04290706
157	0xbdb8379d	-0.089949824
158	0xbc1b95ca	-0.009496162
159	0x3e37e71c	0.17959255
160	0xbe8d7f6f	-0.27636287
161	0xbd619491	-0.055073325
162	0xbed1a3e2	-0.40945345
163	0xbe293b5a	-0.16526547
164	0x3ed25114	0.41077483
165	0xbe8e8bf3	-0.27841148
166	0x3eeff900	0.4686966
167	0x3d46508e	0.048416667
168	0xbea0cd99	-0.3140686
169	0xbcf3613c	-0.02970945
170	0x3ed1d8a7	0.40985605
171	0x3ee4374e	0.44573444
172	0xbe87a0c6	-0.26489848
173	0xbe6f24fa	-0.23353949
174	0x3edb9709	0.42888668
175	0xbdc54b00	-0.09633446
176	0x3efacc22	0.48983866
177	0x3e18d82f	0.14926217
178	0x3f026b94	0.509454
179	0xbeb78bdf	-0.358489
180	0x3b6fcc38	0.003659023
181	0x3c41a361	0.011818738
182	0xbe78b2a4	-0.24286896
183	0x3e563b9d	0.20921178
184	0xbed972e7	-0.42470476
185	0x3eacf897	0.3378341
186	0xbe359273	-0.17731647
187	0xbe8cd106	-0.27503222
188	0x3ea76e5f	0.32701394
189	0xbd6087a2	-0.05481685
190	0x3d9574b3	0.07297649
191	0x3cf249fe	0.029576298
192	0x3e9a95b7	0.30192348
193	0xbd5bd26e	-0.05366748
194	0xbdb9e526	-0.0907691
195	0x3ddeeeac	0.10885367
196	0xbe10bd06	-0.14134607
197	0xbe10304c	-0.14080924
198	0xbca8621a	-0.020554591
199	0x3e21f0d6	0.15814528
200	0xbedfe8f7	-0.43732426
201	0x3cb6efa1	0.02233106
202	0x3f076a63	0.5289671
203	0xbe1502a8	-0.14551795
204	0x3e7ffebe	0.2499952
205	0x3cae037e	0.0212419
206	0xbe7c1dfc	-0.24620813
207	0x3d29e9f6	0.04148289
208	0xbe1ed979	-0.15512647
209	0xbeb8c76b	-0.36089644
210	0xbedc63ed	-0.43044987
211	0x3eef979d	0.4679536
212	0xbf0c48f2	-0.54798806
213	0x3ee3bdf5	0.44480863
214	0x3b98aea0	0.004659489
215	0x3f0c0950	0.5470171
216	0x3e927a73	0.28609046
217	0xbd4ef4f7	-0.050526585
218	0x3e859892	0.26092964
219	0xbea30f5e	-0.31847662
220	0xbe97a1fc	-0.29615772
221	0x3e773aaf	0.2414348
222	0x3e6fdb16	0.23423418
223	0x3dff4e6d	0.124661304
224	0x3b8e1c95	0.0043369033
225	0xbca40c03	-0.020025259
226	0x3e156109	0.14587797
227	0x3f0cb879	0.5496898
228	0x3e600a6e	0.21878979
229	0xbe4e1a4a	-0.20127216
230	0x3e6465da	0.22304478
231	0x3ec4dd40	0.3845005
232	0xbe4123cd	-0.18861313
233	0xbe568451	-0.20948912
234	0x3e312867	0.17300569
235	0x3b96dce0	0.004603967
236	0x3ed42a3b	0.4143847
237	0x3e8e6348	0.2781012
238	0x3e1f6c8a	0.15568748
239	0xbe5f41f9	-0.2180251
240	0xbed7ce4f	-0.42149588
241	0x3e92297a	0.2854727
242	0x3ee74113	0.45166835
243	0xbe702501	-0.23451616
244	0xbc82a88c	-0.01594951
245	0xbe7a9a1b	-0.24472849
246	0xbf0394c8	-0.513989
247	0x3e9351d1	0.28773358
248	0xbe74c8f7	-0.23904787
249	0xbe008e90	-0.12554383
250	0xbea16dcf	-0.3152909
251	0x3e3a1637	0.18172537
252	0xbe67ae17	-0.22625004
253	0x3ecd1d95	0.40061632
254	0x3ceeaf4c	0.029136322
255	0x3f05e866	0.52307737

net.6.bias f4 [20]
0	0x3e19ed00	0.15031815
1	0x3c46a3d3	0.01212402
2	0x3d144bef	0.03620523
3	0x3e83f5e9	0.25773552
4	0xbea75c25	-0.32687488
5	0xbe8eaf22	-0.2786799
6	0xbe053186	-0.13007173
7	0x3e4dea3f	0.20108889
8	0xbed6a673	-0.41923866
9	0xbd0fdee6	-0.035124682
10	0xbdac2146	-0.08404784
11	0xbd5a6dd6	-0.053327404
12	0x3c82c82e	0.015964594
13	0x3df37e13	0.11889281
14	0x3dee2e5c	0.11629936
15	0xbdbba53a	-0.09162374
16	0x3e13d6c1	0.14437391
17	0x3e14bb4e	0.14524576
18	0x3e92f008	0.28698754
19	0x3e730c11	0.23735072

net.8.weight f4 [1, 20]
0	0xbefd29cc	-0.4944595
1	0xbe8d5b76	-0.27608842
2	0x3ece9b8a	0.40353042
3	0xbefb439f	-0.49075028
4	0x3eb4ba1e	0.35298246
5	0x3ec8b19d	0.39198008
6	0x3ea2f1d3	0.31825122
7	0xbebcb5fb	-0.3685759
8	0x3e5c4573	0.21510868
9	0xbe957a85	-0.29195037
10	0xbec95312	-0.3932119
11	0x3eda3d0b	0.42624697
12	0xbed7fa4f	-0.42183158
13	0xbf50f2d6	-0.8162054
14	0xbed18d2c	-0.40928018
15	0xbe86b68f	-0.26311156
16	0x3ebad13e	0.36487764
17	0xbed08aa5	-0.40730777
18	0xbebfcaba	-0.37459356
19	0xbec391df	-0.38197228
