Code/Trained models/m_mu_k_y0_v0_500_4001_P2INN.pth (torch, 70744 bytes, 17 tensors)

param_encoder.0.weight f4 [32, 3]
0.48317018 0.35729742 0.12869641 -0.7358865 0.27825716 -0.050819136 -0.27870277 0.37018463
-0.21020015 -0.47154477 -0.6057149 0.28682214 -0.1086734 0.7487586 0.10699872 -0.13753234
0.32757 0.7664352 0.4322307 0.18912797 -0.45133564 -0.16826771 0.30929354 -0.3718309
0.07968589 0.096856415 0.2130042 0.109390914 -0.554544 -0.19852944 0.50883603 0.08159945
0.34071338 -0.36981717 0.4814957 -0.1390509 -0.39887494 0.59382254 -0.038389727 -0.2276547
-0.13228181 -0.031969193 -0.5730528 0.19802776 -0.64692956 0.32115895 0.59022814 0.119989164
-0.2153393 -0.55559903 0.25950435 0.60169107 0.38050213 -0.051765054 0.26496044 0.5238885
0.036730662 -0.32435286 -0.6682809 0.23862176 0.39952946 0.63012 -0.23274831 0.67374057
-0.2485045 -0.26803982 0.36406374 -0.4774561 0.42258552 0.15941283 -0.32218957 0.32372257
-0.07777334 -0.028012298 -0.15249337 -0.6471526 -0.05532047 0.25236058 -0.31643787 -0.26827663
-0.016606757 0.4097903 -0.0014851559 -0.38394532 -0.28804868 -0.045510627 0.22459245 0.61339635
0.24498487 0.3966896 0.3989244 -0.34662342 -0.16891594 0.5174636 0.2510414 0.031977553
00000000: 1562 f73e b0ef b63e fec8 033e 0f63 3cbf
00000010: b977 8e3e ba27 50bd 21b2 8ebe d788 bd3e
00000020: b53e 57be 516e f1be 2210 1bbf 5ada 923e
00000030: 2990 debd a5ae 3f3f 2522 db3d 47d5 0cbe
00000040: 41b7 a73e 1935 443f 584d dd3e c3aa 413e
00000050: 7715 e7be 5f4e 2cbe b95b 9e3e 9f60 bebe
00000060: 5b32 a33d a85c c63d c61d 5a3e 5808 e03d
00000070: 98f6 0dbf 4d4b 4bbe 1443 023f 9d1d a73d
00000080: fc71 ae3e ad58 bdbe 9b86 f63e 5c63 0ebe
00000090: 5639 ccbe c104 183f 8c3e 1dbd 501e 69be
000000a0: e274 07be 21f2 02bd 97b3 12bf cac7 4a3e
000000b0: 2d9d 25bf f26e a43e 3119 173f e1bc f53d
000000c0: e881 5cbe bd3b 0ebf c1dd 843e 6d08 1a3f
000000d0: 2dd1 c23e 9807 54bd e5a8 873e 8f1d 063f
000000e0: e472 163d 9411 a6be 7514 2bbf 4359 743e
000000f0: 208f cc3e 8b4f 213f 9355 6ebe 437a 2c3f
00000100: f777 7ebe 843c 89be 9066 ba3e 2075 f4be
00000110: 215d d83e 1e3d 233e 08f6 a4be f7be a53e
00000120: a147 9fbd 0c7a e5bc 3927 1cbe cbab 25bf
00000130: b897 62bd 6835 813e 2504 a2be 8e5b 89be
00000140: e50a 88bc 09d0 d13e 90a9 c2ba 7b94 c4be
00000150: 1e7b 93be 5a69 3abd 90fb 653e 8b07 1d3f
00000160: 50dd 7a3e e61a cb3e d23f cc3e a078 b1be
00000170: 4df8 2cbe 7f78 043f 8088 803e e5fa 023d

param_encoder.0.bias f4 [32]
-0.52798676 0.5381429 -0.5506185 0.2536039 0.06345649 0.50254035 -0.50866336 -0.089535154
0.28125858 0.5073327 -0.11917301 0.5371237 -0.026328165 -0.34235874 -0.43384302 0.07372812
-0.16342987 0.13732865 -0.4124132 -0.19849326 -0.4709461 0.15253867 -0.05831737 -0.43011087
-0.020216435 -0.034158465 0.16901016 0.2533178 0.37477767 0.026760235 -0.15202683 -0.29461175
00000000: 242a 07bf bcc3 093f 56f5 0cbf 5fd8 813e
00000010: 7af5 813d 7ca6 003f c337 02bf 355e b7bd
00000020: 2001 903e 8ee0 013f fb10 f4bd f080 093f
00000030: 2aae d7bc a549 afbe ac20 debe c5fe 963d
00000040: 295a 27be e29f 0c3e d327 d3be d141 4bbe
00000050: d91f f1be 1933 1c3e 32de 6ebd 7e37 dcbe
00000060: f09c a5bc bfe9 0bbd 0011 2d3e dfb2 813e
00000070: dce2 bf3e 4838 db3c ecac 1bbe 5ad7 96be

param_encoder.2.weight f4 [32, 32]
0.039023288 0.12521207 -0.037610292 0.17911439 0.164085 -0.059397478 -0.046712253 -0.11047418
0.10017392 -0.08180783 0.0790167 -0.0051092086 -0.14662167 -0.1398173 -0.20218468 -0.079014875
0.09069739 0.023500388 0.12898925 -0.07583294 -0.047874417 -0.40670642 0.02716429 0.08889302
-0.18499888 0.23959391 -0.021029131 0.1333923 0.012763586 0.1272474 0.109958544 -0.05660163
-0.04700811 0.11050736 -0.13846712 0.11831452 -0.10307085 0.15628135 -0.114766985 -0.064362906
0.12576637 -0.105322234 0.14109819 0.14122722 0.17344372 -0.15686953 0.016053824 -0.06660317
0.05416602 -0.14935713 0.08616909 0.021019934 -0.08538926 -0.6213542 0.08421159 -0.06132434
0.13207434 0.08389368 0.099594444 -0.0365945 -0.015954146 -0.07199219 -0.1785429 0.10227696
-0.15136838 0.15395655 -0.04869272 0.12291294 0.139921 -0.1145 0.14660347 0.011135618
-0.14620903 0.076833494 0.08991311 0.21892026 -0.15044053 0.18552361 0.14035629 0.1506051
0.105767116 -0.13059612 0.047835693 0.24703741 -0.07999172 -0.50781953 0.13144985 0.1278334
0.13105574 0.20725892 0.1895398 -0.037410334 -0.061834075 0.07867853 0.025378732 -0.1849536
-0.021698741 -0.15242139 -0.16820884 0.14236271 -0.09835368 0.076987125 -0.032000244 -0.0341747
-0.0022626312 0.15752609 -0.024348376 0.14170411 0.106805265 0.11850526 -0.16118966 -0.08289722
-0.15964071 -0.029169992 -0.042091433 0.0033696569 0.169956 0.4942712 -0.12374214 -0.11561813
0.1392799 -0.015917946 0.0056644124 -0.076407366 -0.033993486 0.05154141 -0.09567804 0.118691675
0.10976147 -0.1497537 -0.072488606 -0.06720505 0.01831721 -0.075696975 0.1836276 -0.16480352
-0.103263855 -0.09567138 0.042785756 -0.035129193 -0.060644563 0.14210099 -0.1457577 0.06455656
-0.11034427 -0.0111381775 -0.12015325 -0.17258528 -0.12968674 0.23294951 -0.07243551 0.09163675
-0.09498452 -0.09146972 -0.18758003 0.17101723 -0.065058894 0.09686879 0.076075375 0.13997024
0.16360173 -0.01067553 -0.0788626 -0.06124525 0.05090857 0.10790347 -0.010507211 0.07365775
-0.08765238 0.13950829 -0.0031090206 -0.25190905 -0.115722604 -0.17844169 0.021556932 -0.072711736
-0.050178487 0.06151801 -0.033512764 -0.083392 -0.022486353 0.73311764 0.14322734 -0.07962095
0.07772205 -0.14681737 -0.46859995 -0.0605112 0.02644449 0.061806556 0.06375259 -0.021123858
0.060088992 0.058795996 -0.15375093 -0.03886247 -0.06092005 -0.09563137 -0.08544681 -0.1290541
0.15613006 -0.15417996 0.14586587 -0.099415936 -0.023443375 -0.046219368 -0.077108234 0.037922084
0.09677502 -0.14852396 -0.11817937 0.10811423 -0.010123246 -0.20591123 0.07787893 -0.08024711
-0.07929795 0.09125228 0.0857644 -0.11383676 -0.09730158 -0.1037944 0.17502946 0.0023448311
0.08283897 0.019289179 -0.11313054 0.1227705 -0.027750047 -0.046670463 0.149268 -0.08279039
0.032621864 -0.15353209 0.08654083 0.063762136 -0.14350517 0.09748616 0.024804085 -0.08894464
0.14299785 0.08046388 0.07952535 -0.08374614 -0.09093687 -0.02284179 0.0590202 0.042434726
-0.105130106 0.14154108 0.020374527 -0.060084376 0.08543069 -0.07709606 0.061942976 0.15481459
00000000: e2d6 1f3d 9837 003e 400d 1abd c369 373e
00000010: e605 283e c54a 73bd 5955 3fbd 4940 e2bd
00000020: fc27 cd3d dd8a a7bd 82d3 a13d 266b a7bb
00000030: fe23 16be 442c 0fbe 8009 4fbe 8dd2 a1bd
00000040: 8ebf b93d e383 c03c c215 043e 4d4e 9bbd
00000050: f717 44bd d33b d0be a587 de3c 8b0d b63d
00000060: 5970 3dbe 1b58 753e 4945 acbc fe97 083e
00000070: 5c1e 513c 244d 023e f231 e13d 1cd7 67bd
00000080: 938b 40bd af51 e23d 53ca 0dbe e24e f23d
00000090: cf16 d3bd 3808 203e f40a ebbd b3d0 83bd
000000a0: e6c8 003e 2fb3 d7bd 0b7c 103e de9d 103e
000000b0: 3b9b 313e 68a2 20be 4f83 833c 3e67 88bd
000000c0: 30dd 5d3d 13f1 18be 6b79 b03d ff31 ac3c
000000d0: 90e0 aebd 1211 1fbf 2077 ac3d 3b2f 7bbd
000000e0: 7f3e 073e 73d0 ab3d 2cf8 cb3d 1de4 15bd
000000f0: 45b2 82bc a470 93bd f3d3 36be 9576 d13d
00000100: 5000 1bbe c9a6 1d3e 0472 47bd c8b9 fb3d
00000110: 7347 0f3e fa7e eabd 381f 163e 2b72 363c
00000120: d2b7 15be e15a 9d3d 5d24 b83d a22c 603e
00000130: 150d 1abe e7f9 3d3e 8fb9 0f3e 3938 1a3e
00000140: 6e9c d83d fdba 05be 5cef 433d 60f7 7c3e
00000150: b3d2 a3bd 7600 02bf ca9a 063e c2e6 023e
00000160: 7a33 063e af3b 543e b916 423e 943b 19bd
00000170: ba45 7dbd 3622 a13d 0fe7 cf3c 7a64 3dbe
00000180: 8fc1 b1bc 5a14 1cbe f03e 2cbe 88c7 113e
00000190: a76d c9bd 6dab 9d3d b012 03bd c5fa 0bbd
000001a0: a748 14bb 854e 213e 3f76 c7bc e21a 113e
000001b0: b8bc da3d e3b2 f23d e70e 25be 05c6 a9bd
000001c0: db78 23be e8f5 eebc 1168 2cbd 76d5 5c3b
000001d0: f208 2e3e 1d11 fd3e 856c fdbd 33c9 ecbd
000001e0: 649f 0e3e 5a66 82bc 899c b93b 777b 9cbd
000001f0: c13c 0bbd 161d 533d d9f2 c3bd 9f14 f33d
00000200: 9fca e03d 0959 19be e874 94bd cda2 89bd
00000210: f90d 963c 0407 9bbd e008 3c3e 41c2 28be
00000220: 007c d3bd 5bef c3bd 1e40 2f3d a1e3 0fbd
00000230: 6f66 78bd ec82 113e 8241 15be 3b36 843d
00000240: 2dfc e1bd e77c 36bc e812 f6bd 32ba 30be
00000250: 9acc 04be 518a 6e3e 1259 94bd 0cac bb3d
00000260: 3e87 c2bd 7a54 bbbd fb14 40be 241f 2f3e
00000270: 993d 85bd 2563 c63d 68cd 9b3d 5c54 0f3e
00000280: 3687 273e 6be8 2ebc b782 a1bd 4ddc 7abd
00000290: 8185 503d 7ffc dc3d 7026 2cbc e0d9 963d
000002a0: 1783 b3bd 43db 0e3e b6c0 4bbb 39fa 80be
000002b0: f9ff ecbd 6bb9 36be 2a98 b03c e4e9 94bd
000002c0: f587 4dbd 4ffa 7b3d ae44 09bd 6dc9 aabd
000002d0: 4d35 b8bc 99ad 3b3f 30aa 123e 4f10 a3bd
000002e0: bd2c 9f3d 4b57 16be 55ec efbe 98da 77bd
000002f0: 1da2 d83c df28 7d3d b890 823d f10b adbc
00000300: e01f 763d 12d4 703d e270 1dbe 412e 1fbd
00000310: 4d87 79bd 61da c3bd bdfe aebd c226 04be
00000320: 8fe0 1f3e 5ae1 1dbe dd5d 153e 959a cbbd
00000330: 520c c0bc 8550 3dbd ecea 9dbd 3054 1b3d
00000340: fb31 c63d aa16 18be 0708 f2bd fe6a dd3d
00000350: f9db 25bc 65da 52be fd7e 9f3d 9958 a4bd
00000360: f766 a2bd 7ae2 ba3d 3fa5 af3d 3f23 e9bd
00000370: 0d46 c7bd 2992 d4bd ec3a 333e bdab 193b
00000380: 7aa7 a93d 5704 9e3c fcb0 e7bd 1a6f fb3d
00000390: 1154 e3bc 8729 3fbd b6d9 183e 028e a9bd
000003a0: 819e 053d 8437 1dbe 523c b13d b995 823d
000003b0: 05f3 12be d3a6 c73d f031 cb3c 9b28 b6bd
000003c0: 076e 123e 3fca a43d 30de a23d 1983 abbd
000003d0: 1c3d babd b51e bbbc 2abf 713d 09d0 2d3d
000003e0: 744e d7bd 25f0 103e 7be8 a63c 091b 76bd
000003f0: 49f6 ae3d 8ae4 9dbd ebb7 7d3d b787 1e3e

param_encoder.2.bias f4 [32]
-0.09995161 -0.071895115 -0.00047874945 -0.031800635 -0.12736943 -0.09597871 0.029992683 0.115972154
0.13604502 -0.026207145 0.08539622 -0.12918326 0.09737921 0.1613778 0.122625075 -0.062974684
0.14534365 -0.17340843 -0.03464375 -0.033445064 -0.20862608 -0.06767158 -0.13911697 0.031930674
-0.013402232 0.0886476 -0.037054647 0.17496094 0.0146117145 0.12435747 0.14368129 -0.109088615
00000000: 6eb3 ccbd bf3d 93bd aa00 fbb9 6241 02bd
00000010: 226d 02be 7c90 c4bd 37b3 f53c cf82 ed3d
00000020: 634f 0b3e 5eb0 d6bc 37e4 ae3d 9e48 04be
00000030: c06e c73d 3940 253e db22 fb3d dff8 80bd
00000040: f7d4 143e fb91 31be 9be6 0dbd b1fd 08bd
00000050: 13a2 55be 6697 8abd ae74 0ebe bdc9 023d
00000060: 0995 5bbc df8c b53d 9dc6 17bd f628 333e
00000070: f965 6f3c 21af fe3d 3021 133e da69 dfbd

param_encoder.4.weight f4 [32, 32]
-0.13331318 0.10876089 0.26557088 -0.13075972 -0.13415635 -0.0885614 0.15646212 0.13569073
0.13539703 0.056805268 -0.015273489 0.22968927 -0.07974358 0.0013890077 -0.026995488 -0.14481248
-0.101783276 0.06437249 -0.030942924 -0.09629163 -0.03309269 0.013218612 -0.13219662 0.13627099
-0.13581641 -0.04389085 -0.18018337 -0.17539251 -0.0019033329 0.13167544 0.14941397 0.05307649
0.14010036 -0.09646142 0.20939603 0.058234118 -0.26630175 -0.25457335 0.077541426 0.011833476
-0.1270785 -0.1887443 0.17067973 0.09544183 -0.009867648 -0.15287913 0.16160306 -0.14105588
0.09732919 0.0038706032 0.078876376 0.10161021 -0.034574263 -0.052995816 0.16217145 -0.123568304
0.0816748 -0.053664252 -0.08358713 0.11444345 0.052020818 -0.18945676 0.17857103 -0.12746355
0.27791744 0.10241781 0.4765455 -0.43484008 -0.30309886 -0.37045196 0.06330004 -0.0056989705
-0.024437876 0.10423532 0.16677563 0.56056947 -0.2796872 0.035356507 -0.1942122 0.12838206
0.236944 0.16175094 -0.14220417 -0.044676095 -0.06793994 0.15270884 -0.13132496 -0.0049081766
-0.05999587 -0.1505375 -0.07614189 -0.022138063 0.16033772 -0.026400775 0.20346224 0.098278634
0.059695445 -0.1619814 -0.07944604 0.031309977 0.22182599 0.09372701 -0.007533078 0.16118063
0.048611287 0.10427619 -0.101886354 0.036049165 0.049558762 -0.039378688 0.033316635 -0.11599825
-0.032590155 0.03711418 -0.17936243 -0.105750315 0.11969888 0.0075607467 0.03253995 0.012228957
-0.0867739 0.18358853 0.008718655 -0.05898681 0.07915338 -0.14266828 -0.041297648 0.015851425
-0.032235447 0.08204405 -0.2621622 0.08213868 0.01103347 0.1681707 0.039630435 -0.13741568
0.09749657 0.07845977 0.14386614 -0.012018583 -0.103270635 0.09433127 -0.08436325 -0.034412403
0.1525514 0.10648801 -0.080642454 -0.22091271 -0.12712952 0.17727451 -0.1581181 -0.15844382
-0.113704145 -0.22266068 -0.100729205 0.05071287 0.053453397 0.29690343 0.16863185 0.06736391
0.09996326 0.10443502 -0.19779961 0.0046094637 -0.10369917 0.13901561 -0.0709065 0.04208234
-0.0077916756 0.10442516 0.020802815 -0.12142138 0.0637455 0.11765647 -0.08798777 -0.10595722
-0.1416853 -0.06041601 -0.010165106 0.007171137 0.0063282573 -0.046129007 0.110620044 0.005431086
-0.104608804 -0.02806979 -0.08994673 -0.06092651 -0.16684838 0.03643248 -0.14848213 0.07426641
0.14455694 -0.114193596 -0.16922437 -0.17250676 0.11081829 -0.012653602 -0.07207916 0.12578237
0.051958933 -0.13252732 0.007629246 -0.087462656 -0.054966293 0.11181041 -0.04449351 -0.106136695
0.19117199 -0.17153502 -0.05056869 0.042225085 0.17319128 0.1970665 -0.059038337 0.02964404
-0.18281017 -0.012470308 -0.026045121 0.07340455 -0.1429824 0.06881491 0.1280333 0.13725379
-0.025146293 0.17548008 -0.09046325 -0.011877663 0.017172521 0.02188056 0.086422235 -0.11306197
0.10136913 -0.18060498 -0.1288504 0.020988403 -0.17972295 -0.16582915 -0.16457531 0.14326529
0.05567256 -0.049917135 -0.015798157 -0.15404613 -0.16514176 -0.11886279 -0.20317228 0.11729873
-0.060919978 -0.04755498 -0.15819955 0.033403527 -0.017059164 -0.12128197 0.12720987 0.1312048
00000000: 4083 08be 08be de3d e8f8 873e e0e5 05be
00000010: 4860 09be ae5f b5bd 9b37 203e 83f2 0a3e
00000020: 85a5 0a3e a4ac 683d a83d 7abc aa33 6b3e
00000030: 9a50 a3bd 5d0f b63a a425 ddbc b949 14be
00000040: c073 d0bd b9d5 833d 047c fdbc 8c34 c5bd
00000050: 338c 07bd e192 583c 8d5e 07be 9f8a 0b3e
00000060: 7513 0bbe e4c6 33bd fd81 38be 189a 33be
00000070: 4179 f9ba edd5 063e faff 183e bc66 593d
00000080: 7876 0f3e 918d c5bd ea6b 563e e686 6e3d
00000090: b458 88be 7057 82be 0ace 9e3d 32e1 413c
000000a0: de20 02be 3046 41be abc6 2e3e 0277 c33d
000000b0: eaab 21bc 598c 1cbe 467b 253e f470 10be
000000c0: 8754 c73d f2a9 7d3b f089 a13d 0419 d03d
000000d0: be9d 0dbd 2412 59bd 4610 263e 6111 fdbd
000000e0: 1e45 a73d 0ccf 5bbd bb2f abbd 5461 ea3d
000000f0: c813 553d f400 42be 53db 363e ce85 02be
00000100: 324b 8e3e 6ec0 d13d c6fd f33e 5ca3 debe
00000110: c62f 9bbe e1ab bdbe 74a3 813d 6ebe babb
00000120: f131 c8bc 5479 d53d 3bc7 2a3e 7b81 0f3f
00000130: 2933 8fbe fcd1 103d 90df 46be 9676 033e
00000140: 73a1 723e 0aa2 253e f89d 11be 48fe 36bd
00000150: 1824 8bbd b55f 1c3e 0d7a 06be c5d4 a0bb
00000160: 3bbe 75bd 8126 1abe 47f0 9bbd e25a b5bc
00000170: 922f 243e 7046 d8bc 6858 503e 4f46 c93d
00000180: 3683 743d 74de 25be 9bb4 a2bd e43e 003d
00000190: 5a26 633e f2f3 bf3d 0ad8 f6bb 890c 253e
000001a0: a11c 473d c18e d53d cba9 d0bd 4aa8 133d
000001b0: 21fe 4a3d 8c4b 21bd 0677 083d 7e90 edbd
000001c0: 417d 05bd 0a05 183d c9aa 37be 9f93 d8bd
000001d0: b024 f53d 24c0 f73b 9c48 053d f75b 483c
000001e0: 84b6 b1bd a2fe 3b3e b1d8 0e3c 279c 71bd
000001f0: 2b1b a23d a217 12be b927 29bd d9da 813c
00000200: 5109 04bd b606 a83d 203a 86be 5338 a83d
00000210: bac5 343c f134 2c3e 8653 223d b2b6 0cbe
00000220: 48ac c73d 84af a03d a551 133e 97e9 44bc
00000230: 8e7f d3bd c130 c13d a4c6 acbd 05f4 0cbd
00000240: 6f36 1c3e 6316 da3d df27 a5bd f136 62be
00000250: 3e2e 02be 7387 353e b6e9 21be 193f 22be
00000260: b8dd e8bd 2901 64be 1d4b cebd 4cb8 4f3d
00000270: f3f1 5a3d ba03 983e d4ad 2c3e 17f6 893d
00000280: 8ab9 cc3d 07e2 d53d fb8b 4abe fc0a 973b
00000290: 3b60 d4bd 1c5a 0e3e 6d37 91bd 885e 2c3d
000002a0: 5051 ffbb dcdc d53d aa6a aa3c c6ab f8bd
000002b0: 008d 823d e0f5 f03d ef32 b4bd 1900 d9bd
000002c0: f415 11be c776 77bd 8b8b 26bc dbfb ea3b
000002d0: 455d cf3b c5f1 3cbd c38c e23d 40f7 b13b
000002e0: 243d d6bd 9ef2 e5bc fe35 b8bd 138e 79bd
000002f0: 4dda 2abe 393a 153d b30b 18be fd18 983d
00000300: bc06 143e 55de e9bd 2749 2dbe 9da5 30be
00000310: b3f4 e23d 0e51 4fbc 3d9e 93bd 18cd 003e
00000320: e4d2 543d 3eb5 07be c1fe f93b 9f1f b3bd
00000330: 5624 61bd dbfc e43d d43e 36bd 325e d9bd
00000340: 97c2 433e e0a6 2fbe 1d21 4fbd 36f4 2c3d
00000350: 0e59 313e cdcb 493e 2fd2 71bd 0fd8 f23c
00000360: 9732 3bbe 4350 4cbc 945c d5bc 2055 963d
00000370: fa69 12be d5ee 8c3d 291b 033e 428c 0c3e
00000380: 99ff cdbc 0db1 333e cc44 b9bd 889a 42bc
00000390: 63ad 8c3c dc3e b33c 24fe b03d 098d e7bd
000003a0: 9e9a cf3d 83f0 38be 5cf1 03be dfef ab3c
000003b0: 4b09 38be 1ecf 29be 6e86 28be 23b4 123e
000003c0: e908 643d e975 4cbd 236b 81bc 45be 1dbe
000003d0: ec1a 29be 566e f3bd 650c 50be 513a f03d
000003e0: 3a87 79bd 03c9 42bd 10ff 21be 23d2 083d
000003f0: a9bf 8bbc ae62 f8bd 4e43 023e 8d5a 063e

param_encoder.4.bias f4 [32]
-0.18173628 -0.04255164 0.19222483 -0.008761532 0.19481474 -0.15918788 0.09546779 0.15646514
0.16934898 -0.07538175 -0.15283573 -0.07347214 0.12513267 0.04565163 0.17031565 -0.13447754
-0.122531734 0.13334839 0.057000052 -0.10790028 0.16136698 -0.06338181 -0.16826387 0.03386748
-0.10359898 -0.09190908 -0.044666722 0.045539305 0.09284685 0.12960394 -0.07176434 -0.04224683
00000000: 1319 3abe a14a 2ebd 96d6 443e 878c 0fbc
00000010: 847d 473e 2602 23be 9e84 c33d 6638 203e
00000020: d269 2d3e bf61 9abd f880 1cbe 9078 96bd
00000030: c722 003e 34fd 3a3d 3a67 2e3e 7bb4 09be
00000040: ebf1 fabd 7b8c 083e e378 693d d2fa dcbd
00000050: 633d 253e 53ce 81bd 5d4d 2cbe a0b8 0a3d
00000060: b42b d4bd d43a bcbd 74f4 36bd 6c87 3a3d
00000070: 7d26 be3d e5b6 043e 2ff9 92bd 030b 2dbd

coord_encoder.0.weight f4 [32, 3]
0.6771199 -0.22923881 -0.11370223 -0.06507378 -0.55617887 -0.3787802 0.7940997 0.29625124
0.0061382805 0.33478484 0.5579291 0.262715 0.3697728 0.7249843 0.17519432 0.47634438
-0.021272378 0.041492123 -0.38202125 -0.41671324 0.4497089 -0.70357543 -1.1128505 -0.6568416
-0.37778714 0.23701842 0.29363143 -0.6711552 0.21917017 -0.3031301 0.14262941 0.29206124
-0.18784232 -0.35973844 0.47296256 -0.29405048 -0.13800642 -0.4480012 0.43226004 0.4162482
-0.22885029 0.42367965 0.6843242 0.31169462 -0.26959938 -0.114111476 0.5305439 0.38222995
-0.24148254 0.46611905 -0.2782463 0.22588857 0.507421 0.044734508 -0.5240126 0.17057937
0.2347658 0.44698268 -0.26018673 -0.06203874 -0.057807323 -0.15019624 -0.12919472 -0.29034728
0.21547015 0.17844918 -0.08630246 0.5503459 -0.022892281 0.23622622 0.013057866 -0.09840082
-0.033995397 -0.049577184 0.1917555 -0.32157895 -0.18740304 -0.513531 -0.20466228 0.051210467
0.5017307 -0.7941195 -0.16456567 0.23847863 -0.29861644 0.32564583 0.010130481 -0.6891559
-0.0803772 -0.15030345 0.0021290674 -0.5783267 0.44048947 -0.337585 0.4212757 -0.3060802
00000000: bb57 2d3f 94bd 6abe b7dc e8bd 6745 85bd
00000010: bd61 0ebf 7aef c1be 1e4a 4b3f 3eae 973e
00000020: a123 c93b eb68 ab3e 71d4 0e3f 9582 863e
00000030: dc52 bd3e 9298 393f 2466 333e 69e3 f33e
00000040: 6943 aebc a5f3 293d 4a98 c3be 705b d5be
00000050: 3f40 e63e 851d 34bf e371 8ebf c526 28bf
00000060: 516d c1be f5b4 723e dc56 963e d4d0 2bbf
00000070: 256e 603e de33 9bbe 720d 123e 0d89 953e
00000080: bd59 40be a32f b8be 2628 f23e c98d 96be
00000090: 8e51 0dbe 6a60 e5be 3051 dd3e 7c1e d53e
000000a0: bb57 6abe 8aec d83e df2f 2f3f 7096 9f3e
000000b0: ee08 8abe 47b3 e9bd bad1 073f a5b3 c33e
000000c0: 3347 77be 28a7 ee3e 4d76 8ebe 554f 673e
000000d0: 58e6 013f 883b 373d b125 06bf 5cac 2e3e
000000e0: 7266 703e eada e43e 3237 85be 551c 7ebd
000000f0: 5fc7 6cbd 0bcd 19be 9f4b 04be 66a8 94be
00000100: 35a4 5c3e 62bb 363e 58bf b0bd 78e3 0c3f
00000110: 9888 bbbc 49e5 713e a9f0 553c 5e86 c9bd
00000120: c23e 0bbd 7211 4bbd 8e5b 443e ffa5 a4be
00000130: 95e6 3fbe c576 03bf fd92 51be 11c2 513d
00000140: 6c71 003f 6a4b 4bbf e783 28be be33 743e
00000150: 41e4 98be 0dbb a63e 51fa 253c 856c 30bf
00000160: cd9c a4bd 26e9 19be d387 0b3b 380d 14bf
00000170: d687 e13e f1d7 acbe 73b1 d73e 8bb6 9cbe

coord_encoder.0.bias f4 [32]
-0.42152056 0.24803476 0.27735326 -0.04207241 -0.7872799 -0.13470708 -0.4742632 0.25360113
0.64909184 0.45222896 0.6339201 -0.25982857 0.45601848 0.39071536 0.13112113 -0.7251456
-0.35183063 0.23369111 0.39775383 0.38401327 0.080954514 -0.43353617 -0.4919766 -0.31580922
-0.028566215 0.121240616 0.48201352 -0.51462233 0.29317397 0.61226434 -0.57804865 -0.27875355
00000000: 8bd1 d7be d3fc 7d3e 3f01 8e3e 1f54 2cbd
00000010: 2d8b 49bf a7f0 09be a0d2 f2be 02d8 813e
00000020: e22a 263f 8e8a e73e 9648 223f 4008 85be
00000030: 417b e93e d80b c83e 9e44 063e 24a3 39bf
00000040: 2523 b4be b94c 6f3e 64a6 cb3e 639d c43e
00000050: 7bcb a53d 74f8 ddbe 5be4 fbbe bfb1 a1be
00000060: b203 eabc 004d f83d 7aca f63e 4abe 03bf
00000070: e61a 963e 5bbd 1c3f fffa 13bf c9b8 8ebe

coord_encoder.2.weight f4 [32, 32]
0.083691955 -0.051796462 0.21454446 0.14892985 0.11958723 0.20181337 0.17844602 -0.30543944
-0.14067349 -0.11713602 -0.0007546465 -0.050081298 0.17796026 0.22590129 0.056489583 -0.11757811
-0.03723673 0.10060002 0.12058994 0.09557681 -0.030225527 0.048757184 0.101442784 0.07170394
0.03866283 -0.24455817 0.16369782 -0.113403544 -0.17487216 -0.09297499 0.19463255 -0.14374913
0.059674617 0.027284235 0.17911883 -0.008787237 -0.17006218 -0.018827487 -0.086043745 0.02137996
-0.24287856 0.17519744 0.24120064 -0.13402165 0.12840909 0.025244845 0.34502432 -0.10627989
-0.01468249 -0.07324999 -0.33065766 0.05173553 0.0870724 -0.18246813 0.027095027 -0.05236508
-0.106334515 -0.060996853 -0.07207582 -0.2286019 -0.112578824 -0.0144512355 0.07751775 0.071999826
-0.020242944 -0.06386048 0.0724991 -0.11860555 0.14778332 0.23993781 -0.1332944 -0.19924392
-0.16161314 -0.052028492 0.07113371 -0.14077298 0.13369952 0.04135545 -0.09525408 -0.09484787
0.10939891 0.22919486 -0.034320798 -0.008081807 0.08829213 0.029618163 -0.056035716 0.16044424
-0.113627955 -0.04325027 0.18896367 -0.05345221 -0.11941809 -0.14316808 -0.059485737 0.12908825
0.18935625 -0.16535461 -0.15781794 0.0067900536 -0.048326347 -0.12298868 -0.18888362 0.12608412
0.09216809 0.04418936 -0.08162 -0.17407623 -0.01414206 0.06670913 -0.055537708 0.17392792
0.039884917 -0.018075105 0.21918124 0.057538506 -0.14333615 0.09647307 -0.16161513 -0.04746148
-0.04455576 0.13035582 -0.17644274 -0.013592382 -0.15466431 0.092613295 0.05230934 -0.07134455
0.04151081 0.20031287 0.18970561 -0.1708548 -0.050557625 0.21566084 0.15284081 0.02959655
0.13714406 -0.039060242 -0.09029665 0.031380247 0.12172342 -0.06413248 -0.106843814 0.1690872
-0.04833295 0.1586459 0.16009985 0.053242866 -0.08767261 0.044044603 0.16414757 -0.0054623387
0.051315177 -0.07280817 -0.18579243 -0.026082832 -0.025715038 0.11673002 0.002212748 -0.014157905
-0.13302961 -0.044644266 -0.029983882 -0.068974175 0.036322758 0.16223519 0.20282902 0.06007326
-0.05927473 0.15907317 0.1962659 -0.06621763 0.02963722 0.17754066 -0.12951747 0.1614314
0.012841363 0.120809294 0.09533692 0.22426468 0.14612496 -0.14388311 0.09249899 -0.05634482
-0.0833555 0.020209221 0.003576474 -0.02125335 -0.17448238 -0.13005993 0.025482733 0.09292339
0.17762794 0.044583496 0.11836222 -0.14501126 -0.10584008 0.055761352 -0.20158745 0.1645035
-0.005824269 -0.0696566 0.12598515 0.08354776 0.14236991 0.1284628 0.010043605 0.23020065
0.0268272 0.012212143 0.17461047 -0.1710088 -0.11970488 0.19879334 -0.11400427 0.1083029
0.11495221 -0.14522892 -0.03258212 -0.07955495 0.13015129 -0.031984065 0.16735317 -0.14612001
0.15394634 0.10606939 -0.12611178 -0.06250029 -0.13985536 0.016695809 0.036586273 -0.05418524
0.019971007 -0.032140795 -0.0528468 0.13978636 0.020028472 0.0877969 0.22903392 -0.3947273
0.0028916965 0.13302773 -0.22788092 -0.011985893 0.13454206 0.038780462 -0.037981737 0.071639575
-0.14477788 0.14888023 0.123607114 -0.12596123 -0.068687335 -0.0024921102 0.18141165 -0.06463609
00000000: b066 ab3d 8728 54bd 8bb1 5b3e 1181 183e
00000010: 26ea f43d 2aa8 4e3e 8eba 363e 8f62 9cbe
00000020: b60c 10be 02e5 efbd 78d3 45ba 0c22 4dbd
00000030: 373b 363e ab52 673e 9f61 673d cbcc f0bd
00000040: 8b85 18bd 6207 ce3d dcf7 f63d c6bd c33d
00000050: 869b f7bc 9db5 473d 3cc1 cf3d 84d9 923d
00000060: ea5c 1e3d 756d 7abe 67a0 273e 1e40 e8bd
00000070: b011 33be ac69 bebd c14d 473e f932 13be
00000080: 5f6d 743d 3083 df3c ed6a 373e 58f8 0fbc
00000090: c824 2ebe 1a3c 9abc b437 b0bd 0725 af3c
000000a0: 28b5 78be f566 333e 4dfd 763e f93c 09be
000000b0: ac7d 033e 47ce ce3c 07a7 b03e 45a9 d9bd
000000c0: d48e 70bc 1704 96bd f64b a9be a3e8 533d
000000d0: 0453 b23d edd8 3abe 64f6 dd3c c47c 56bd
000000e0: e9c5 d9bd d6d7 79bd 7d9c 93bd 9e16 6abe
000000f0: ba8f e6bd e0c4 6cbc a0c1 9e3d a574 933d
00000100: 88d4 a5bc 49c9 82bd 687a 943d 77e7 f2bd
00000110: 8354 173e 42b2 753e 547e 08be 9906 4cbe
00000120: ea7d 25be d41b 55bd 8dae 913d cb26 10be
00000130: 87e8 083e 5564 293d 9214 c3bd 9a3f c2bd
00000140: 890c e03d 0fb2 6a3e f793 0cbd 8e69 04bc
00000150: 81d2 b43d caa1 f23c b585 65bd 7f4b 243e
00000160: c6b5 e8bd 3227 31bd b17f 413e b4f0 5abd
00000170: 7991 f4bd a79a 12be 51a7 73bd b62f 043e
00000180: 9be6 413e b852 29be 079b 21be 197f de3b
00000190: d9f1 45bd 7de1 fbbd b56a 41be 321c 013e
000001a0: a0c2 bc3d e7ff 343d 6328 a7bd 0a41 32be
000001b0: 19b4 67bc cc9e 883d 827b 63bd 291a 323e
000001c0: 5e5e 233d 3e12 94bc 0c71 603e 7fad 6b3d
000001d0: b6c6 12be ac93 c53d 707e 25be f866 42bd
000001e0: 1a80 36bd ff7b 053e 68ad 34be 95b2 5ebc
000001f0: 5260 1ebe 0aac bd3d 5242 563d 171d 92bd
00000200: 3d07 2a3d d11e 4d3e 3042 423e 90f4 2ebe
00000210: 8315 4fbd 32d6 5c3e 4d82 1c3e 7774 f23c
00000220: 7e6f 0c3e a2fd 1fbd 73ed b8bd 9388 003d
00000230: 214a f93d e457 83bd eed0 dabd 3225 2d3e
00000240: c5f8 45bd 1274 223e 37f1 233e 3115 5a3d
00000250: b38d b3bd 1d68 343d 4d16 283e 6bfd b2bb
00000260: dd2f 523d 731c 95bd 5f40 3ebe aaab d5bc
00000270: 58a8 d2bc 2610 ef3d c003 113b 8ff6 67bc
00000280: ea38 08be e8dc 36bd c2a0 f5bc 5542 8dbd
00000290: 2cc7 143d fb20 263e 69b2 4f3e 610f 763d
000002a0: 0fca 72bd 14e4 223e eef9 483e 1c9d 87bd
000002b0: c1c9 f23c 38cd 353e 3aa0 04be 464e 253e
000002c0: 9564 523c dd6a f73d 0140 c33d a4a5 653e
000002d0: c8a1 153e 1856 13be 1c70 bd3d d3c9 66bd
000002e0: 4ab6 aabd cf8d a53c 4763 6a3b 811b aebc
000002f0: 82ab 32be 6e2e 05be 2ac1 d03c 9e4e be3d
00000300: 19e4 353e 2f9d 363d e467 f23d d57d 14be
00000310: afc2 d8bd 0466 643d f16c 4ebe 9b73 283e
00000320: 82d9 bebb 1fa8 8ebd 4002 013e 171b ab3d
00000330: 6bc9 113e c18b 033e ef8d 243c b8b9 6b3e
00000340: b7c4 db3c 7115 483c 16cd 323e ee1c 2fbe
00000350: d527 f5bd 7b90 4b3e 127b e9bd e9cd dd3d
00000360: 106c eb3d e4b6 14be d474 05bd b5ed a2bd
00000370: 6146 053e b901 03bd a15e 2b3e 7ca0 15be
00000380: 1ca4 1d3e e93a d93d 7223 01be 2700 80bd
00000390: 3e36 0fbe a6c5 883c 7ddb 153d 58f1 5dbd
000003a0: 3d9a a33c 11a6 03bd e375 58bd 2824 0f3e
000003b0: c012 a43c dcce b33d de87 6a3e b219 cabe
000003c0: 9e82 3d3b 6c38 083e 9e59 69be 7b60 44bc
000003d0: 65c5 093e 43d8 1e3d bd92 1bbd c5b7 923d
000003e0: a740 14be 0f74 183e ba25 fd3d fbfb 00be
000003f0: f2ab 8cbd ac52 23bb fac3 393e ed5f 84bd

coord_encoder.2.bias f4 [32]
0.18836506 -0.031026144 -0.021823965 0.017511208 -0.09334653 -0.045655515 0.0045862272 0.11944979
0.04270534 -0.0485343 0.097222164 -0.07535371 0.05452987 -0.040191866 0.16368803 -0.026271649
-0.108599775 -0.0372338 0.0067298315 -0.20850062 0.11919359 -0.11566678 0.026033217 -0.1270781
-0.015946092 -0.06372871 -0.051974513 0.09097798 -0.16431405 0.01116708 -0.0136197265 -0.10179195
00000000: c5e2 403e 8a2a febc 2cc8 b2bc aa73 8f3c
00000010: 772c bfbd 4701 3bbd 1048 963b 17a2 f43d
00000020: cbeb 2e3d e7cb 46bd 6a1c c73d 0c53 9abd
00000030: b75a 5f3d 3aa0 24bd d69d 273e a437 d7bc
00000040: 8f69 debd 7882 18bd eb85 dc3b 3081 55be
00000050: c51b f43d b4e2 ecbd 9d43 d53c c320 02be
00000060: 61a1 82bc 3384 82bd 3ae3 54bd aa52 ba3d
00000070: f141 28be 21f6 363c 4625 5fbc 4c78 d0bd

decoder.0.weight f4 [64, 64]
0.28290147 0.17246923 0.062040523 -0.09398901 -0.023138113 -0.08665974 -0.21609543 0.03279738
-0.002780851 0.24774547 -0.28428113 0.19275375 0.19750023 -0.24494933 -0.2818486 -0.009810718
0.18567261 -0.13879682 -0.05701219 0.05207313 -0.109579444 -0.25383976 0.25913665 -0.15246382
0.10093054 0.1973288 -0.1380254 -0.05165625 -0.1182408 -0.30634075 -0.037710425 0.14547294
0.041007906 -0.14464375 0.15332516 -0.08814818 0.3637579 -0.04335926 0.014209926 -0.023819951
0.16211799 -0.46795654 0.16886602 -0.06142533 -0.35734692 0.026206387 0.12347754 0.13629428
-0.0076868795 0.042515315 -0.13901384 0.11550857 0.07839836 0.033112668 -0.09383165 -0.117917456
0.032091137 0.74327314 0.4136496 -0.1450863 0.029877683 0.3003625 -0.04267599 -0.12941496
0.06540605 0.113419905 0.120302334 -0.09475856 -0.11530695 0.05708423 -0.0073051597 0.17380041
0.09941588 -0.03839657 0.06628823 0.04865728 0.0012616531 0.08546377 0.012224429 -0.045602474
-0.1521315 0.12697 -0.1032144 0.09704563 -0.044339705 -0.02477873 0.01880685 0.16538064
-0.08369659 -0.103607155 0.08778599 -0.051096026 -0.04431585 0.08006615 -0.04508331 0.009100393
-0.049212106 0.008245918 0.1535125 0.032399587 -0.0363759 0.11454584 0.0628332 -0.085733876
0.07869456 0.04890889 -0.0571201 -0.12421199 0.112545505 -0.017420728 0.04640649 0.09835554
0.12398684 0.18161988 -0.099547796 0.046432532 -0.06433883 0.11014204 0.039916925 -0.1265153
-0.09830578 0.0030754881 -0.12119131 0.036554717 -0.18643647 0.057660423 -0.17544399 0.018372847
0.10311583 -0.12530872 -0.12153398 0.0541869 -0.02693174 -0.09979443 0.03044247 -0.08049355
-0.013043985 0.055399004 0.16621977 -0.09215967 0.13918841 0.10360795 0.16576996 0.12930654
-0.09462756 0.011050648 0.009934917 0.05892794 -0.056658227 0.115587406 0.059611723 0.13146621
0.0972371 0.088396795 -0.13220078 -0.06295644 -0.10499402 0.07602824 0.014246462 0.0014835822
0.041444935 0.012618766 0.08610047 -0.25079498 0.17784473 -0.031126129 -0.1346011 0.034712974
0.08748982 -0.18093936 0.096362546 -0.13075669 -0.12010013 -0.0075591765 0.11379985 -0.022326421
0.15374018 -0.0036798718 -0.120223016 -0.057381522 -0.1668867 0.18880995 -0.13832885 -0.09649613
-0.061089113 0.09886601 0.06506641 0.043641247 0.014447419 0.11312148 0.09277309 0.06825435
0.040937904 0.10627619 0.09321436 -0.011106999 -0.119528264 0.016972343 -0.09118543 0.011306562
0.012687887 0.10752136 -0.12486062 -0.11293145 0.06661071 0.016822316 -0.13057482 0.032082405
0.11721132 -0.05949679 -0.044025924 0.08415925 0.11346209 -0.035372034 0.08078016 -0.0010804774
-0.023404958 0.016215289 -0.11114299 0.05484463 -0.08686127 -0.14291264 -0.013240959 -0.021924142
-0.061486125 -0.016443644 0.02322614 0.08440359 0.070590675 -0.008278523 0.04666051 -0.059632167
0.09738547 -0.05874389 0.086703934 -0.11421225 0.061144497 0.058913235 -0.09976323 0.14407551
0.019009026 -0.0120700635 0.062345557 0.14791697 0.16971593 -0.13078867 0.10166623 0.03675933
-0.02286897 0.07381557 0.071669966 0.1415829 0.17526133 0.16609858 -0.058912393 -0.10733438
00000000: 76d8 903e c69b 303e 341e 7e3d 4f7d c0bd
00000010: 248c bdbc a97a b1bd 1f48 5dbe 8c56 063d
00000020: f03e 36bb fdb0 7d3e 4c8d 91be 3d61 453e
00000030: 803d 4a3e ffd3 7abe 764e 90be 22bd 20bc
00000040: f620 3e3e c120 0ebe 9d85 69bd a24a 553d
00000050: 306b e0bd 49f7 81be 8fad 843e 7a1f 1cbe
00000060: acb4 ce3d 9010 4a3e 8856 0dbe 8195 53bd
00000070: 3c28 f2bd b2d8 9cbe 3f76 1abd dcf6 143e
00000080: e8f7 273d 7e1d 14be 4501 1d3e 0887 b4bd
00000090: 7a3e ba3e 7b99 31bd c0d0 683c 0f22 c3bc
000000a0: 4202 263e 0098 efbe 37eb 2c3e 2099 7bbd
000000b0: 2df6 b6be c7ae d63c cbe1 fc3d ba90 0b3e
000000c0: 38e2 fbbb 8a24 2e3d a559 0ebe c28f ec3d
000000d0: 528f a03d 26a1 073d cf2a c0bd b57e f1bd
000000e0: ff71 033d 2647 3e3f e1c9 d33e 8191 14be
000000f0: 0bc2 f43c 1dc9 993e 05cd 2ebd 5b85 04be
00000100: 9bf3 853d b248 e83d 1261 f63d c710 c2bd
00000110: 0d26 ecbd 27d1 693d 1f60 efbb bcf8 313e
00000120: 8e9a cb3d b945 1dbd 20c2 873d db4c 473d
00000130: 0e5e a53a a107 af3d f948 483c a9c9 3abd
00000140: 5cc8 1bbe 6c04 023e 1262 d3bd dcbf c63d
00000150: 8d9d 35bd c3fc cabc d310 9a3c 8b59 293e
00000160: 1e69 abbd fd2f d4bd 24c9 b33d 114a 51bd
00000170: 8984 35bd b9f9 a33d 47a9 38bd d119 153c
00000180: a292 49bd e319 073c 6132 1d3e 6eb5 043d
00000190: e5fe 14bd 0297 ea3d b1ae 803d 3e95 afbd
000001a0: 9d2a a13d b054 483d c4f6 69bd db62 febd
000001b0: 427e e63d eab5 8ebc bb14 3e3d a16e c93d
000001c0: d0ec fd3d 90fa 393e b7df cbbd 0a30 3e3d
000001d0: 14c4 83bd 2692 e13d ee7f 233d 3a8d 01be
000001e0: 8a54 c9bd 218e 493b 2633 f8bd 66ba 153d
000001f0: 34e9 3ebe 562d 6c3d 97a7 33be a782 963c
00000200: 642e d33d ee50 00be cfe6 f8bd 15f3 5d3d
00000210: f49f dcbc 0661 ccbd 7d62 f93c cdd9 a4bd
00000220: 70b6 55bc 11ea 623d 8435 2a3e 36be bcbd
00000230: 6887 0e3e 6830 d43d 9abf 293e ef68 043e
00000240: 18cc c1bd c70d 353c 10c6 223c 6c5e 713d
00000250: 7512 68bd 17b9 ec3d 6c2b 743d 149f 063e
00000260: 3f24 c73d 6109 b53d a45f 07be 4eef 80bd
00000270: 1b07 d7bd b2b4 9b3d fe69 693c c274 c23a
00000280: 2ac2 293d f1be 4e3c 7155 b03d 3368 80be
00000290: ee1c 363e 39fc febc dfd4 09be 312f 0e3d
000002a0: dd2d b33d 2b48 39be ba59 c53d 15e5 05be
000002b0: 0ff7 f5bd f8b2 f7bb e50f e93d e6e5 b6bc
000002c0: 116e 1d3e 012a 71bb 7c37 f6bd e308 6bbd
000002d0: 59e4 2abe 6557 413e 14a6 0dbe c39f c5bd
000002e0: 9438 7abd 437a ca3d 8a41 853d 2ac1 323d
000002f0: deb4 6c3c 3cac e73d d1ff bd3d f0c8 8b3d
00000300: 81ae 273d 55a7 d93d 2ce7 be3d 21fa 35bc
00000310: 3ccb f4bd 9509 8b3c 6dbf babd 293f 393c
00000320: dbe0 4f3c 2934 dc3d edb6 ffbd 9b48 e7bd
00000330: 326b 883d f4ce 893c 68b5 05be d768 033d
00000340: 7d0c f03d e8b2 73bd 8754 34bd af5b ac3d
00000350: d05e e83d 44e2 10bd 1270 a53d ce9e 8dba
00000360: c1bb bfbc edd5 843c f09e e3bd c3a4 603d
00000370: 52e4 b1bd b157 12be 9bf0 58bc 429a b3bc
00000380: e0d8 7bbd d2b4 86bc bf44 be3c cadb ac3d
00000390: d891 903d a4a2 07bc 171f 3f3d dc40 74bd
000003a0: 0972 c73d 6f9d 70bd d591 b13d 1de8 e9bd
000003b0: a772 7a3d 014f 713d aa50 ccbd 8888 133e
000003c0: d1b8 9b3c 84c1 45bc 0e5e 7f3d 8c77 173e
000003d0: 03ca 2d3e 77ed 05be 6236 d03d f490 163d
000003e0: b557 bbbc 9e2c 973d b4c7 923d 1cfb 103e
000003f0: b577 333e bf15 2a3e 1f4e 71bd 21d2 dbbd

decoder.0.bias f4 [64]
-0.17403957 0.0053057335 0.01490205 0.018954659 0.077119485 0.09290068 0.14501984 0.048408743
0.06651858 0.051550914 -0.051908802 0.09778602 -0.010024843 0.056487612 -0.08608801 0.108046375
0.077693634 0.024032868 -0.113543935 -0.015151744 -0.030183854 0.16092765 -0.14193399 -0.034605004
-0.09048555 -0.09944405 0.065943986 -0.08182518 0.06714986 0.023398267 -0.041362435 -0.024538945
0.002361822 -0.15242642 -0.09197669 -0.0642378 0.029492643 -0.12899801 0.06787192 0.09490897
0.11504564 0.112946734 -0.03484797 -0.05349762 0.07803493 -0.022266945 -0.10191785 -0.06775459
0.08536404 -0.06915546 0.060286377 -0.10230884 0.08631635 0.04407897 0.085895054 -0.0011740177
0.059572835 0.09578797 -0.050945785 -0.107663244 -0.09605227 0.06309367 -0.11939669 -0.11599915
00000000: 6e37 32be b8db ad3b ba27 743c cd46 9b3c
00000010: d2f0 9d3d b642 be3d 1580 143e 3f48 463d
00000020: e53a 883d 0d27 533d 539e 54bd 0944 c83d
00000030: 3d3f 24bc 8e5f 673d e94e b0bd 6b47 dd3d
00000040: d71d 9f3d 94e0 c43c b989 e8bd 053f 78bc
00000050: 2144 f7bc 38ca 243e 2557 11be fabd 0dbd
00000060: 7d50 b9bd 52a9 cbbd a40d 873d f693 a7bd
00000070: de85 893d b9ad bf3c a86b 29bd e605 c9bc
00000080: ccc8 1a3b ac15 1cbe 465e bcbd 1c8f 83bd
00000090: 8e9a f13c 0e18 04be 6f00 8b3d a25f c23d
000000a0: 0c9d eb3d 9e50 e73d bfbc 0ebd 5220 5bbd
000000b0: c7d0 9f3d 2b69 b6bc 4eba d0bd ebc2 8abd
000000c0: 58d3 ae3d 61a1 8dbd d9ee 763d 4c87 d1bd
000000d0: a0c6 b03d 268c 343d bfe9 af3d 7fe1 99ba
000000e0: a502 743d 7c2c c43d 87ac 50bd 8c7e dcbd
000000f0: 0db7 c4bd 4137 813d 4086 f4bd f690 edbd

decoder.2.weight f4 [64, 64]
-0.11542653 -0.08897825 -0.05056224 -0.11172525 -0.02214934 0.12702659 -0.08107806 0.0048359707
0.0015996675 -0.105249494 -0.060789056 0.011332922 0.06449722 -0.1567559 0.21150027 -0.067220114
0.10973697 0.16463865 0.10644509 0.056891978 -0.15360805 -0.1181396 0.09165874 0.06177889
0.10561108 0.09505675 -0.1590723 0.036046833 -0.08443233 -0.048758056 0.024003303 0.06852516
-0.17206766 0.028778866 0.1401317 -0.12318394 0.13819948 0.1197337 0.058610555 -0.16387476
-0.010106235 0.10223682 -0.059709296 -0.023228517 -0.046356376 0.13747498 0.07016428 -0.07398117
0.0061457357 0.08997876 0.021730306 -0.09008959 -0.0026678222 0.1325216 0.027526535 -0.08370381
-0.12373723 -0.01818934 0.049082983 0.14863472 0.10393467 0.09367539 0.013895074 0.061379094
-0.11729401 -0.17022325 -0.17551848 -0.023046616 -0.09989523 0.031325635 -0.047884405 0.14770874
-0.046957653 0.011301862 0.074867435 -0.04352102 -0.028826447 -0.16122854 -0.021617603 -0.0075065517
0.028386204 0.102976464 0.08705531 0.097157106 -0.041148856 -0.008404781 0.14536265 0.0726174
0.108108446 -0.028811328 -0.15547144 0.100117885 0.09447486 -0.046568155 -0.005961955 -0.025652738
-0.04010306 -0.13095787 0.13140486 -0.11502842 -0.006858614 0.17739858 0.03237256 -0.13288595
0.18314111 -0.0042012613 0.034993947 0.0785279 0.03961383 -0.058303066 0.07541132 0.099856466
-0.029748596 -0.098270416 -0.00035886792 0.020747563 0.048607215 0.06420375 0.11366076 0.16866992
-0.04949083 -0.029752405 0.1297523 0.09986701 0.07474362 0.19289903 0.04745061 0.1610204
-0.20194714 0.007430046 -0.1752607 -0.17653717 0.041014984 0.084568195 0.11593826 -0.0087035345
-0.24217482 -0.123939425 -0.1290923 0.0016906762 -0.047751535 -0.035579506 0.19062242 0.06737576
0.35137564 0.16572143 0.05683493 -0.11799498 -0.17389883 -0.09078565 0.16453677 -0.13772273
0.078304075 -0.047386374 -0.024978956 0.027033368 -0.07788815 -0.059961345 0.061920736 0.06295622
-0.24634247 -0.22966924 -0.03786839 0.05417331 0.1160549 0.15576984 -0.005640777 -0.007979601
0.050623793 0.15110254 0.0860764 -0.0320381 -0.1631121 0.09278457 -0.08446874 -0.07540247
0.035511255 -0.042559266 -0.07642044 0.033724774 0.1393747 0.07104666 0.2965328 0.031071601
0.061587013 0.016249025 0.26611656 0.0027500459 -0.060199093 0.022370605 -0.0070443796 0.06300643
-0.20548959 0.10522975 -0.17925636 -0.03997832 -0.1335931 -0.025810357 0.23269974 -0.016255992
-0.099672094 -0.100644276 -0.07333893 -0.124262415 0.10196181 0.10901864 -0.15976061 0.043155253
0.10740308 0.15895112 -0.10147245 -0.099512294 0.10626751 0.047606017 0.09539909 0.0154364295
-0.0060585532 0.08652872 0.022444397 -0.020868832 -0.10059604 0.047670033 -0.055149738 0.02216823
-0.11270399 -0.009680926 -0.0669276 0.11542725 -0.023707384 0.033691388 -0.030865407 0.031471293
-0.0701882 -0.12496232 0.08285698 -0.0688371 -0.12516314 -0.035535064 -0.07887926 0.053861946
0.007821236 0.17678092 -0.101603635 -0.044199046 0.0744725 -0.03978197 0.15928996 0.02940993
-0.05912334 0.031180989 0.066821106 -0.071864985 0.030961106 0.027445188 -0.07992659 -0.15760162
00000000: bf64 ecbd 3b3a b6bd 5a1a 4fbd 35d0 e4bd
00000010: 8872 b5bc 4213 023e 410c a6bd 1077 9e3b
00000020: efab d13a 0c8d d7bd f2fd 78bd b8ad 393c
00000030: 1e17 843d 9e84 20be 8793 583e b3aa 89bd
00000040: c7bd e03d 0997 283e e2ff d93d 9007 693d
00000050: 6e4b 1dbe 2df3 f1bd 94b7 bb3d dd0b 7d3d
00000060: 9f4a d83d 1dad c23d d9e3 22be d8a5 133d
00000070: dcea acbd 87b6 47bd 93a2 c43c eb56 8c3d
00000080: 8132 30be a8c1 eb3c af7e 0f3e dd47 fcbd
00000090: 2a84 0d3e f136 f53d 9f11 703d c9ce 27be
000000a0: 9f94 25bc 8a61 d13d bc91 74bd bb49 bebc
000000b0: 2fe0 3dbd 3ec6 0c3e 4ab2 8f3d 7183 97bd
000000c0: 2b62 c93b c946 b83d c103 b23c e480 b8bd
000000d0: a1d6 2ebb beb3 073e 547f e13c e76c abbd
000000e0: f269 fdbd d001 95bc 3d0b 493d b333 183e
000000f0: b3db d43d e2d8 bf3d 2aa8 633c a568 7b3d
00000100: d837 f0bd 014f 2ebe 1ebb 33be 42cc bcbc
00000110: df95 ccbd 4f4f 003d 7022 44bd f640 173e
00000120: ab56 40bd 722b 393c 1954 993d 1943 32bd
00000130: 7125 ecbc 1819 25be 6617 b1bc 85f9 f5bb
00000140: 2f8a e83c 53e5 d23d 0e4a b23d 4efa c63d
00000150: b48b 28bd 35b4 09bc f2d9 143e 6eb8 943d
00000160: f667 dd3d bc05 ecbc e833 1fbe 9b0a cd3d
00000170: 097c c13d 40be 3ebd 815c c3bb b125 d2bc
00000180: 1b43 24bd d219 06be ff8e 063e 0594 ebbd
00000190: 39be e0bb f9a7 353e 1799 043d 4113 08be
000001a0: 5889 3b3e bcaa 89bb d055 0f3d 3cd3 a03d
000001b0: 1d42 223d 32cf 6ebd 4071 9a3d 8c81 cc3d
000001c0: 54b3 f3bc 0042 c9bd 7026 bcb9 cbf6 a93c
000001d0: 5c18 473d 417d 833d f9c6 e83d cfb7 2c3e
000001e0: e6b6 4abd 51bb f3bc c9dd 043e 1387 cc3d
000001f0: 2f13 993d 5387 453e 925b 423d 88e2 243e
00000200: 3bcb 4ebe be77 f33b 8a77 33be 29c6 34be
00000210: 54ff 273d 1732 ad3d 0a71 ed3d 4599 0ebc
00000220: adfc 77be f4d3 fdbd c630 04be ae99 dd3a
00000230: 1d97 43bd d1bb 11bd 8632 433e 4dfc 893d
00000240: 82e7 b33e e1b2 293e becb 683d 5aa7 f1bd
00000250: 8912 32be d4ed b9bd 547c 283e 3007 0dbe
00000260: e35d a03d 3718 42bd aba0 ccbc 1575 dd3c
00000270: d383 9fbd 079a 75bd 99a0 7d3d 31ef 803d
00000280: 3341 7cbe 6a2e 6bbe e31b 1bbd d5e4 5d3d
00000290: 31ae ed3d 2182 1f3e 44d6 b8bb dfbc 02bc
000002a0: e55a 4f3d a0ba 1a3e d348 b03d 623a 03bd
000002b0: dc06 27be d605 be3d f2fd acbd 9c6c 9abd
000002c0: 4074 113d a052 2ebd 5282 9cbd fd22 0a3d
000002d0: 3eb8 0e3e e980 913d 26d3 973e df89 fe3c
000002e0: aa42 7c3d ad1c 853c 6e40 883e 1d3a 343b
000002f0: 5393 76bd 8f42 b73c 8ad4 e6bb 8409 813d
00000300: dd6b 52be b282 d73d fb8e 37be 4fc0 23bd
00000310: a1cc 08be 3e70 d3bc d748 6e3e 492b 85bc
00000320: e220 ccbd 961e cebd b932 96bd 4b7d febd
00000330: 5ad1 d03d 2a45 df3d 4998 23be 90c3 303d
00000340: 25f6 db3d 15c4 223e cad0 cfbd 1acd cbbd
00000350: c8a2 d93d 87fe 423d 9960 c33d 14e9 7c3c
00000360: d486 c6bb f835 b13d 50dd b73c 1df5 aabc
00000370: 4c05 cebd a741 433d b1e4 61bd 269a b53c
00000380: 59d1 e6bd bf9c 1ebc 5611 89bd 1f65 ec3d
00000390: fd35 c2bc fbff 093d 73d9 fcbc 0be8 003d
000003a0: d5be 8fbd 3fec ffbd ecb0 a93d 77fa 8cbd
000003b0: c42a 00be 378d 11bd 738b a1bd 589e 5c3d
000003c0: a424 003c 0f06 353e 9115 d0bd 0f0a 35bd
000003d0: 0a85 983d 6bf2 22bd e81c 233e 18ed f03c
000003e0: 512b 72bd 466f ff3c 81d9 883d f32d 93bd
000003f0: 25a2 fd3c bbd4 e03c 8db0 a3bd 5262 21be

decoder.2.bias f4 [64]
0.025325172 -0.05945598 -0.012950274 -0.02017752 0.03921077 0.016933542 -0.042798523 0.07396687
-0.078646526 0.05542555 -0.0059529473 0.008133615 -0.012613689 0.084993295 -0.016862622 0.09290666
0.112744235 0.113320686 0.06417096 -0.014417854 -0.035197288 -0.05976109 0.087762505 -0.028093332
-0.12894316 0.015714483 -0.014681363 -0.09243716 -0.079628944 -0.019547597 0.031571407 0.048123956
-0.092001006 -0.11656192 -0.21274896 -0.011695983 -0.0055768923 0.03829177 -0.2690548 0.08820827
-0.052064702 -0.10906185 -0.088211015 0.04705536 -0.037707966 0.09965208 -0.0077050435 0.060319804
0.09462913 -0.050132785 -0.004178727 -0.022190178 -0.07280831 -0.12763582 -0.10608342 0.0853206
-0.017878605 -0.0959819 0.019164924 0.06041487 0.05360628 0.10019195 -0.079878196 -0.057908885
00000000: bc76 cf3c 1d88 73bd 632d 54bc 544b a5bc
00000010: 799b 203d 36b8 8a3c 814d 2fbd f17b 973d
00000020: 6e11 a1bd e705 633d f110 c3bb db42 053c
00000030: a5a9 4ebc f710 ae3d 7b23 8abc d945 be3d
00000040: 73e6 e63d ad14 e83d 106c 833d dd38 6cbc
00000050: 082b 10bd 0bc8 74bd d4bc b33d fd23 e6bc
00000060: ad09 04be a9bb 803c 198a 70bc b24f bdbd
00000070: 8014 a3bd 4822 a0bc 0551 013d a01d 453d
00000080: 066b bcbd 04b8 eebd ddda 59be 82a0 3fbc
00000090: 5dbe b6bb d5d7 1c3d 8dc1 89be 8aa6 b43d
000000a0: cc41 55bd d25b dfbd faa7 b4bd 1fbd 403d
000000b0: ab73 1abd 6416 cc3d 977a fcbb e611 773d
000000c0: ebcc c13d 0958 4dbd b4ed 88bb 2dc8 b5bc
000000d0: 861c 95bd f7b2 02be 4442 d9bd 91bc ae3d
000000e0: 2776 92bc 2992 c4bd c2ff 9c3c 9575 773d
000000f0: 4292 5b3d 7031 cd3d 2e97 a3bd de31 6dbd

decoder.4.weight f4 [64, 64]
0.12627546 0.032438066 0.10123307 -0.01747378 0.111997455 -0.05529958 -0.09138684 -0.039375138
0.22036031 0.029791228 -0.17010404 -0.19009352 0.18277195 0.14075726 0.031586252 -0.18827982
-0.15240033 -0.0683126 0.0025903198 -0.124174595 0.09545885 -0.028273555 0.024110582 -0.010942267
0.07031757 -0.19260351 -0.19506691 -0.052420985 0.16157503 -0.24306558 0.18465844 -0.12923038
-0.26227683 -0.0984559 -0.046755366 -0.032059476 -0.18952577 -0.028868534 -0.04044365 0.22628734
-0.074004896 0.053905487 -0.03838016 -0.15868473 -0.16356131 -0.04368898 0.20184223 -0.1899086
0.1572644 0.26580822 -0.083647735 0.13213074 0.009799836 -0.016005646 0.20086524 -0.18294992
0.1636434 -0.21510951 0.26023284 0.025557423 0.07029279 -0.17639193 -0.07150384 -0.043783322
-0.07625031 0.09368895 -0.0059041977 -0.041490305 -0.09162142 0.12718245 0.024717191 -0.10379311
0.13237676 -0.1291511 0.013231624 0.07336484 0.027166938 -0.115577504 -0.124607496 -0.11229468
-0.123664245 -0.110977866 -0.06025074 -0.14148019 0.0016603811 -0.1044809 -0.079384945 -0.10556153
-0.19911104 -0.042650793 -0.028654065 -0.09955665 0.24253659 -0.04151638 0.08221676 -0.011689913
-0.10286528 -0.007958692 0.005054098 -0.19323693 0.18319272 -0.14188951 -0.04208916 -0.114143275
-0.17310901 0.063251026 -0.13116348 0.09147275 -0.029504053 0.17966528 -0.038742635 -0.20541276
0.06029346 -0.018701857 -0.04988821 0.11184237 -0.10334703 -0.08905774 0.115216844 0.101262145
0.12037233 -0.037592877 0.119005404 -0.0109969145 0.14974028 0.03587868 0.009630445 -0.09623589
0.15593088 0.0009453068 -0.037964705 -0.0150315305 -0.033081863 -0.10240799 0.043794867 -0.06333922
0.05563349 -0.0123819895 -0.13223243 -0.07134436 -0.009564554 0.14945684 -0.16095488 0.03752319
0.08379598 0.026388455 -0.054266084 0.0060596443 0.107977666 0.024465824 0.0042583477 -0.12907326
-0.021841817 -0.07082626 0.020635808 0.058741614 -0.059263192 -0.05746523 0.12025943 -0.06857699
-0.037090022 -0.08033008 -0.04635448 -0.121441945 -0.07914668 -0.15909758 0.08153556 0.01334723
-0.02402592 0.047726177 -0.00092853897 0.08739913 -0.054318827 -0.07783703 0.10927053 -0.19021893
0.057705175 0.048382383 -0.13923152 -0.024385788 0.07323167 -0.087045565 -0.00016059271 0.04436912
0.0892305 0.0020739029 -0.03274834 -0.019798225 -0.033896144 -0.008999037 0.001570158 -0.08566114
-0.11895013 0.018254803 -0.015625052 0.04056659 0.0064042816 -0.13288878 0.07363111 0.1617509
0.08252072 -0.02164329 -0.00360001 -0.039791692 0.095959924 0.059336074 0.008998102 0.07263398
0.12249017 0.12267168 -0.050702155 -0.022087818 -0.15694958 -0.07731067 -0.03660249 -0.04889747
0.12181918 0.15798661 0.03167281 0.12083463 -0.026225684 0.08888157 -0.13418418 0.05130055
0.012213362 0.1256474 0.13402918 0.13945849 0.047396217 -0.036744412 -0.16488437 -0.05913386
0.042615566 -0.0328761 0.061064944 0.14643674 0.20627904 0.045175325 0.014477445 0.09786437
0.0010645076 -0.034103412 0.0870178 0.0032540257 0.024517387 0.0028053017 -0.1744415 0.033515096
-0.042118624 0.16578597 -0.0047756047 0.080149874 -0.05797147 0.14715493 -0.057386015 0.043811258
00000000: 5b4e 013e c7dd 043d 4953 cf3d 2c25 8fbc
00000010: ec5e e53d d081 62bd 0629 bbbd d347 21bd
00000020: 22a6 613e bc0c f43c c12f 2ebe e0a7 42be
00000030: 9228 3b3e ac22 103e 9660 013d 6dcc 40be
00000040: d50e 1cbe 7ae7 8bbd 5bc2 293b 404f febd
00000050: ee7f c33d f19d e7bc 8e83 c53c 3247 33bc
00000060: a802 903d db39 45be 9fbf 47be 63b7 56bd
00000070: ed73 253e 2fe6 78be 1a17 3d3e f854 04be
00000080: 2649 86be 3fa3 c9bd 8e82 3fbd cc50 03bd
00000090: 0b13 42be b47d ecbc 3ea8 25bd deb7 673e
000000a0: e18f 97bd 00cc 5c3d 8434 1dbd 407e 22be
000000b0: 9e7c 27be 37f3 32bd bbaf 4e3e 6677 42be
000000c0: eb09 213e 0418 883e 814f abbd 484d 073e
000000d0: 7e8f 203c 461e 83bc 9eaf 4d3e 3957 3bbe
000000e0: 2392 273e ab45 5cbe 3d3d 853e cd5d d13c
000000f0: abf5 8f3d 16a0 34be 9b70 92bd 2456 33bd
00000100: 1f29 9cbd fedf bf3d 0078 c1bb bdf1 29bd
00000110: 03a4 bbbd 1e3c 023e b57b ca3c 7b91 d4bd
00000120: c68d 073e 3040 04be 74c9 583c 4e40 963d
00000130: 338d de3c e6b3 ecbd 3732 ffbd c1fa e5bd
00000140: ae43 fdbd 5d48 e3bd 7bc9 76bd 2fe0 10be
00000150: 25a1 d93a 15fa d5bd 9394 a2bd a530 d8bd
00000160: c4e3 4bbe 99b2 2ebd eebb eabc 5be4 cbbd
00000170: 835b 783e 140d 2abd 4361 a83d 0d87 3fbc
00000180: 08ab d2bd 2c65 02bc d99c a53b e7df 45be
00000190: df96 3b3e 7c4b 11be af65 2cbd f3c3 e9bd
000001a0: 7d43 31be c189 813d b84f 06be 1156 bb3d
000001b0: 7cb2 f1bc 2dfa 373e 99b0 1ebd b957 52be
000001c0: 46f6 763d a334 99bc 9457 4cbd 9d0d e53d
000001d0: 9ca7 d3bd e863 b6bd cff6 eb3d 8762 cf3d
000001e0: c585 f63d fdfa 19bd 1bb9 f33d 672c 34bc
000001f0: 8455 193e 86f5 123d 04c9 1d3c 5317 c5bd
00000200: 58ac 1f3e 77ce 773a e180 1bbd cf46 76bc
00000210: d980 07bd 48bb d1bd 3f62 333d feb7 81bd
00000220: f1df 633d d4dd 4abc f067 07be fe1c 92bd
00000230: a6b4 1cbc 370b 193e 5bd1 24be ebb1 193d
00000240: 3a9d ab3d 9a2c d83c 1d46 5ebd fb8f c63b
00000250: 6523 dd3d 8d6c c83c 9c89 8b3b c82b 04be
00000260: 9ced b2bc 5c0d 91bd 6d0c a93c 0c9b 703d
00000270: f6bd 72bd a960 6bbd 934a f63d 1872 8cbd
00000280: b5eb 17bd 1984 a4bd 32de 3dbd 8eb6 f8bd
00000290: a817 a2bd 7aea 22be 1efc a63d 57ae 5a3c
000002a0: 02d2 c4bc 867c 433d 3269 73ba 51fe b23d
000002b0: 6b7d 5ebd 0569 9fbd 3ac9 df3d c0c8 42be
000002c0: 435c 6c3d 9b2c 463d b592 0ebe b4c4 c7bc
000002d0: 7cfa 953d f244 b2bd c764 28b9 65bc 353d
000002e0: 7bbe b63d 51ea 073b 2023 06bd e32f a2bc
000002f0: afd6 0abd b270 13bc c3cd cd3a 1c6f afbd
00000300: 209c f3bd 198b 953c 1c00 80bc 2729 263d
00000310: 02db d13b ff13 08be e8cb 963d 07a2 253e
00000320: a000 a93d 454d b1bc 25ee 6bbb 9dfc 22bd
00000330: a386 c43d 620a 733d c66c 133c 20c1 943d
00000340: 20dc fa3d 4a3b fb3d 10ad 4fbd 83f1 b4bc
00000350: 64b7 20be 0e55 9ebd 7eec 15bd b748 48bd
00000360: 567c f93d 3ec7 213e 59bb 013d 2678 f73d
00000370: 3fd7 d6bc 8a07 b63d 9467 09be 8720 523d
00000380: 8e1a 483c b6a9 003e f23e 093e 35ce 0e3e
00000390: 8922 423d 4f81 16bd 73d7 28be 5936 72bd
000003a0: a98d 2e3d 17a9 06bd 3c1f 7a3d 83f3 153e
000003b0: d03a 533e c309 393d ce32 6d3c 1d6d c83d
000003c0: f386 8b3a 05b0 0bbd 6336 b23d 7e41 553b
000003d0: b0d8 c83c 27d9 373b cba0 32be 2047 093d
000003e0: 9484 2cbd ccc3 293e ad7c 9cbb 9e25 a43d
000003f0: 7e73 6dbd c8af 163e 990d 6bbd 6f73 333d
