Code/Trained models/m_mu_500_norm_16001.pth (torch, 9504 bytes, 9 tensors)

net.0.weight f4 [20, 6]
0	0x3f8ae842	1.085213
1	0xbe463b8a	-0.1935865
2	0xbdff39f2	-0.12462224
3	0xbe721bed	-0.23643465
4	0x3e1991b1	0.14996983
5	0xbec46957	-0.38361618
6	0x3f336d38	0.7008853
7	0xbcadfffa	-0.021240223
8	0x3d6fd38b	0.058551352
9	0x3d18b5f0	0.037282884
10	0xbd9a13ea	-0.075233296
11	0x3e73d698	0.2381233
12	0xbf8b7ccd	-1.0897461
13	0x3d27a2ce	0.040926747
14	0x3de0898d	0.10963736
15	0xbd9cd73c	-0.0765824
16	0x3f1b92a2	0.6077062
17	0xbe17793f	-0.14792345
18	0x3f37ff09	0.7187353
19	0xbc7d32bf	-0.015453993
20	0x3dba8b59	0.0910861
21	0xbd99a777	-0.075026445
22	0x3ed4575f	0.4147291
23	0x3e6a07f8	0.22854602
24	0x3ef4e17a	0.47828275
25	0xbe03ff9c	-0.12890476
26	0x3cc6fce5	0.024290511
27	0x3cd9a36b	0.026567182
28	0x3e20f908	0.15719998
29	0xbe4caf28	-0.19988692
30	0x3f4ccaef	0.7999715
31	0x3d0c846f	0.034305986
32	0xbcd351a8	-0.025795773
33	0x3c798a14	0.015230674
34	0xbdb393e9	-0.08768446
35	0xbe5457f4	-0.20736676
36	0x3f2c4f2a	0.67308295
37	0x3d5a2c73	0.053265046
38	0xbda2d467	-0.07950669
39	0x3c82e2b5	0.015977243
40	0xbe95eb09	-0.2928088
41	0x3f09ac8a	0.537789
42	0x3f35fc78	0.7108836
43	0x3dd49b66	0.103812024
44	0xbad9c977	-0.0016615827
45	0x3dfb811a	0.122804835
46	0x3e0cc309	0.13746275
47	0x3dcdb004	0.10043338
48	0xbf4c1453	-0.7971851
49	0xbc41f8f5	-0.011839141
50	0xbc5d7226	-0.013515985
51	0xbcfd6855	-0.030933538
52	0x3e4371d1	0.19086386
53	0x3df6038d	0.12012396
54	0x3f138bc0	0.57635117
55	0xbcdcbdc6	-0.02694596
56	0xbe0b377c	-0.13595384
57	0xbe951b51	-0.29122403
58	0xbea12cd2	-0.31479508
59	0xbe698c18	-0.22807348
60	0x3f8e10d3	1.1098884
61	0x3e04786c	0.12936562
62	0x3cf6ff3e	0.030151006
63	0xbdf22430	-0.118233085
64	0xbd308dbb	-0.043103915
65	0xbde1f6ea	-0.11033423
66	0xbe1c73ed	-0.15278597
67	0xbce8b9a8	-0.02840884
68	0xbdec5fb3	-0.11541691
69	0x3e11683f	0.14199923
70	0xbd922fba	-0.07138009
71	0x3e8cdedb	0.27513775
72	0xbe358151	-0.17725112
73	0xbd96a2a7	-0.07355242
74	0x3d8c91f1	0.068637736
75	0xbcc37c46	-0.02386297
76	0xbe5672fb	-0.20942299
77	0x3e48a05c	0.19592422
78	0x3ed0362d	0.40666333
79	0xbd053a33	-0.032526206
80	0xbda1711e	-0.078829035
81	0xbdd61185	-0.1045256
82	0xbe97b861	-0.29632857
83	0x3d2c452b	0.04205815
84	0xbf7cfd50	-0.98824024
85	0x3e6d493c	0.23172468
86	0xbb95475e	-0.004555627
87	0x3dee481f	0.1163485
88	0x3ce15088	0.02750422
89	0x3ec9e975	0.39435926
90	0xbf0f7341	-0.5603524
91	0x3dd1445b	0.10218116
92	0xbd4be8cd	-0.049782563
93	0xbdb8ed84	-0.090296775
94	0xbd2373fe	-0.03990554
95	0xbd8096f8	-0.06278795
96	0xbd7037ef	-0.058647092
97	0xbd8b9d51	-0.06817115
98	0xbda48f67	-0.08035164
99	0x3ec84c8b	0.39120898
100	0xbede8200	-0.43458557
101	0x3e8c316f	0.27381465
102	0xbf50eef4	-0.81614614
103	0xbc6aa645	-0.014321868
104	0x3c8c893d	0.017155284
105	0x3e2659dd	0.16245218
106	0xbca391ab	-0.01996692
107	0xbc28457c	-0.010270473
108	0x3f116408	0.5679326
109	0x3d4c32be	0.04985308
110	0x3c9b98a2	0.01899368
111	0x3dce0676	0.10059826
112	0xbe470419	-0.19435157
113	0xbeac03ac	-0.3359655
114	0x3f5bf02f	0.85913366
115	0xbc064cf3	-0.008197057
116	0x3b8ff9ab	0.0043937764
117	0x3bf5fee6	0.007507193
118	0x3eaf49eb	0.34236082
119	0xbd007f86	-0.031371616

net.0.bias f4 [20]
0	0xbe9b1f36	-0.3029725
1	0xbe5cdd2b	-0.21568744
2	0xbdfa9eb4	-0.122373015
3	0xbbef45c4	-0.007302018
4	0x3e7f5c70	0.24937606
5	0xbd0fb018	-0.035080045
6	0x3eadd9de	0.33955282
7	0xbeb52764	-0.35381615
8	0x3df7986c	0.12089619
9	0x3e503e9e	0.20336387
10	0x3e8c6b6e	0.27425712
11	0xbde35791	-0.11100686
12	0xbdad1788	-0.08451754
13	0x3d446a4f	0.047952946
14	0xbe535a0c	-0.20639819
15	0xbe122063	-0.14270167
16	0xbea56923	-0.32306775
17	0xbdd702d6	-0.10498588
18	0x3e4e146b	0.20124976
19	0x3e259982	0.1617184

net.2.weight f4 [20, 20]
0	0x3dbe7fa7	0.093016915
1	0x3e5ca7e1	0.21548416
2	0xbe48551f	-0.19563721
3	0x3ed7e0f0	0.421638
4	0x3e8811dd	0.2657613
5	0x3d28d51c	0.041218862
6	0x3e03ca57	0.12870155
7	0xbe34d798	-0.17660367
8	0xbe737bc7	-0.23777686
9	0xbd776935	-0.060403068
10	0x3ddd98a2	0.10820128
11	0xbe47c240	-0.19507694
12	0x3ea392ba	0.3194788
13	0x3dda21c6	0.10650973
14	0x3d7e9252	0.06215126
15	0xbedf207f	-0.4357948
16	0x3d9621b2	0.073306456
17	0xbedde332	-0.433374
18	0x3ed1cb93	0.40975627
19	0x3e2d7e93	0.16942815
20	0x3c126a43	0.008936468
21	0xbe12b39f	-0.14326333
22	0x3e6e4d18	0.23271596
23	0xbde8acf8	-0.11361116
24	0xbf0cb43f	-0.54962534
25	0x3c81d04b	0.015846392
26	0xbe2c04eb	-0.16798751
27	0x3e3ef992	0.18649891
28	0x3ec53de3	0.38523778
29	0xbdec53de	-0.11539434
30	0xbcba9714	-0.022777118
31	0x3d60086b	0.054695528
32	0xbdef685c	-0.11689827
33	0xbe830472	-0.2558933
34	0x3df88c05	0.121360816
35	0x3eb7a7c3	0.3587018
36	0x3d9cd1ec	0.07657227
37	0xbe566015	-0.2093509
38	0x3ce5728b	0.02800872
39	0xbeba9323	-0.3644038
40	0xbc87aeac	-0.016562782
41	0x3e7482ea	0.23878065
42	0x3e18d0c4	0.14923388
43	0x3f0c3a74	0.5477669
44	0x3f1f2fde	0.62182415
45	0x3ee8edec	0.4549402
46	0xbe900379	-0.2812765
47	0x3e860ef7	0.26183292
48	0xbf23fbcd	-0.6405609
49	0x3eabfa25	0.33589283
50	0x3d6950c6	0.056961797
51	0xbe612c6a	-0.21989599
52	0xbd3c4b09	-0.045969997
53	0x3f31b657	0.69418854
54	0xbe643611	-0.2228625
55	0xbec99157	-0.39368698
56	0xba363822	-0.00069511135
57	0xbe7a4f3a	-0.24444285
58	0x3ed7375e	0.4203443
59	0x3e9bb8e0	0.30414486
60	0xbf239634	-0.63901067
61	0x3e7d5a6e	0.24741527
62	0x3e86e0d6	0.2634341
63	0xbeb4fa14	-0.35347044
64	0xbf154b73	-0.5831825
65	0xbea1be81	-0.31590655
66	0x3ec1e001	0.37866214
67	0x3d9c7460	0.07639384
68	0x3e99b408	0.30020165
69	0xbc2e75cd	-0.010648203
70	0xbef55a55	-0.4792048
71	0x3e9a6c9b	0.30160984
72	0x3e5c5bf3	0.21519451
73	0xbe9ce4d8	-0.30643344
74	0x3f20ca42	0.6280862
75	0xbd566291	-0.052340094
76	0x3e63271a	0.22182885
77	0x3f0d592c	0.5521419
78	0xbdb81af7	-0.08989518
79	0xbe8d755e	-0.27628607
80	0xbdffb4b5	-0.12485639
81	0x3e5f2d89	0.21794714
82	0xbe092b0d	-0.13395329
83	0xbdafcfb8	-0.08584541
84	0xbd2da202	-0.04239083
85	0x3ecab720	0.39592838
86	0x3e92a0ed	0.28638402
87	0x3dd3a34e	0.10333882
88	0xbe6c4731	-0.23074032
89	0xbe29f180	-0.16596031
90	0xbdb0e8b2	-0.08638133
91	0x3ea83793	0.328549
92	0xbe93ebe5	-0.2889091
93	0x3c5ef7d7	0.013608894
94	0x3e29676f	0.16543363
95	0x3dcf8067	0.10131913
96	0x3e4b56ab	0.1985728
97	0xbe348b07	-0.1763116
98	0x3d7139f0	0.058893144
99	0x3e8729dc	0.26399124
100	0xbcadecdb	-0.021231106
101	0x3e8c9679	0.27458552
102	0xbde62381	-0.112372406
103	0x3eb70c71	0.3575168
104	0x3eeeed4f	0.46665427
105	0x3f01c864	0.50696397
106	0x3e3510ed	0.17682238
107	0x3ef1e7fd	0.47247306
108	0xbeca2d37	-0.3948762
109	0x3e1ab4d7	0.15108047
110	0x3e7a6de9	0.2445599
111	0x3dcafa0e	0.099109754
112	0xbde3c7d5	-0.11122099
113	0x3ee445ab	0.44584402
114	0xbbb02f7f	-0.0053767557
115	0xbe45d4e5	-0.19319494
116	0x3e79209d	0.24328847
117	0xbee2eb5b	-0.44320187
118	0x3ec25787	0.37957403
119	0x3f228502	0.63484204
120	0xbef1d8cb	-0.47235712
121	0xbe491ddb	-0.19640295
122	0xbedc0603	-0.42973337
123	0xbf003db2	-0.5009414
124	0xbefaac6e	-0.48959678
125	0xbf1a53fc	-0.602844
126	0x3eafa827	0.34307978
127	0xbc2c7550	-0.010526016
128	0x3f21ad3b	0.63154954
129	0xbf1300f3	-0.57423323
130	0xbea6f295	-0.3260695
131	0x3e6b9dc4	0.23009402
132	0x3ead2c8f	0.33823058
133	0xbeb93a1f	-0.36177155
134	0x3f1267e1	0.57189757
135	0xbd1d73d6	-0.038440548
136	0x3e5cf692	0.21578434
137	0x3edb0441	0.42776683
138	0xbf35d3c8	-0.7102628
139	0xbf0700ab	-0.52735394
140	0x3e271cf4	0.16319638
141	0x3e10a6f1	0.14126183
142	0xbe7292c1	-0.23688795
143	0x3e4acc7e	0.1980457
144	0x3e6dbdf1	0.23216988
145	0x3e093c30	0.13401866
146	0x3dd2009d	0.10254023
147	0x3e5e4770	0.21706939
148	0xbf113958	-0.56728125
149	0xbd56cc29	-0.052440796
150	0xbd8e8282	-0.06958486
151	0xbe7372d3	-0.2377427
152	0xbe0b6560	-0.1361289
153	0x3ec50237	0.38478252
154	0xbd5d04c8	-0.053959638
155	0xbe7ea84e	-0.2486889
156	0xbd3aad1b	-0.045575242
157	0xbeacf66d	-0.33781758
158	0x3e821776	0.25408524
159	0x3e82d627	0.2555401
160	0xbd095699	-0.03352985
161	0xbeacbdd7	-0.33738586
162	0x3e477e25	0.19481714
163	0xbda9563b	-0.082684
164	0xbe169a37	-0.14707266
165	0xbe8c6974	-0.27424204
166	0xbe5135f3	-0.20430736
167	0xbdb45f34	-0.08807221
168	0x3f11d532	0.56965935
169	0xbdc7f90f	-0.09764301
170	0x3df2c6f8	0.118543565
171	0xbe847e02	-0.25877386
172	0xbd1f6739	-0.0389168
173	0x3d919e38	0.07110256
174	0xbd533b4f	-0.051570233
175	0x3eb1cc8a	0.34726363
176	0xbdf939d1	-0.12169231
177	0x3d446f37	0.047957625
178	0xbe768dfe	-0.24077603
179	0xbe637e52	-0.22216156
180	0xbe020ef1	-0.12701012
181	0x3c82e97e	0.015980478
182	0x3e132008	0.14367688
183	0x3e856084	0.26050198
184	0xbcfd333f	-0.030908225
185	0xbe59260a	-0.21205917
186	0x3d88026f	0.06641089
187	0xbe8ce23c	-0.27516353
188	0x3e072400	0.13197327
189	0x3d24b1b4	0.040208533
190	0x3e973d1b	0.29538807
191	0xbdb081ea	-0.08618529
192	0x3e1c0228	0.15235198
193	0xbebcdca7	-0.36887094
194	0x3d7d3599	0.061818693
195	0xbc74bbf5	-0.014937391
196	0xbd453d8a	-0.04815439
197	0x3e3dff1b	0.18554346
198	0x3e621f65	0.22082289
199	0xbeb14ca5	-0.34628788
200	0xbd81d8a1	-0.06340147
201	0x3d5cb5d3	0.05388434
202	0x3d878dcc	0.066188425
203	0xbec91b7a	-0.39278775
204	0xbf04c7b0	-0.518672
205	0x3d1ee3f7	0.038791623
206	0x3dcd75d1	0.10032237
207	0xbac0a4ef	-0.0014697592
208	0x3db15ed5	0.08660666
209	0x3ccecee8	0.025245145
210	0xbd935c4b	-0.07195338
211	0xbe27ed55	-0.16399129
212	0x3c5655d3	0.0130819855
213	0x3dca4aaa	0.09877522
214	0x3e5b8e68	0.21441042
215	0x3ea2898c	0.31745565
216	0xbe3ab65f	-0.18233632
217	0xbde49de2	-0.11162926
218	0xbeac3942	-0.33637434
219	0x3e4e966b	0.20174567
220	0xbd2673ff	-0.040637966
221	0xbe4ef80a	-0.20211807
222	0x3cd69226	0.026192736
223	0x3f42f607	0.7615666
224	0xbdc0f675	-0.09422008
225	0x3b869621	0.004107252
226	0x3e8b27d6	0.2717883
227	0xbd97bb48	-0.07408768
228	0x3e5acad2	0.21366432
229	0xbe828ef8	-0.25499701
230	0xbd01b979	-0.03167102
231	0x3e9f114e	0.3106789
232	0x3f22c24b	0.6357772
233	0x3d877d29	0.06615669
234	0xbefb6a0c	-0.49104345
235	0xbe19faa8	-0.15037024
236	0xbd4317a9	-0.047629986
237	0x3e407bdf	0.18797253
238	0xbd8c6ccd	-0.068566896
239	0xbd9cd5b2	-0.07657947
240	0x3cc2142c	0.02369126
241	0xbef8d398	-0.48598933
242	0x3e2b2254	0.16712314
243	0xbe08f15e	-0.13373324
244	0xbe271145	-0.16315182
245	0xbeca7e8f	-0.39549682
246	0xbe5a2a01	-0.21305086
247	0xbebb4f30	-0.36583853
248	0x3ef8094f	0.48444602
249	0xbda35225	-0.07974652
250	0x3e59cf75	0.21270545
251	0x3d33ea91	0.04392487
252	0x3d93ee5b	0.07223197
253	0xbe8db3af	-0.2767615
254	0xbddafd4e	-0.10692845
255	0x3df6c9e7	0.120502286

net.2.bias f4 [20]
0	0xbd664c7c	-0.056225285
1	0xbe1ab841	-0.1510935
2	0xbe4cd765	-0.20004041
3	0x3db710c6	0.08938746
4	0x3e5b4c16	0.21415743
5	0x3d972fc8	0.073821604
6	0x3e7402c1	0.23829176
7	0x3e7ef60b	0.24898545
8	0x3c9aaa47	0.018880023
9	0x3adc5172	0.001680894
10	0xbd897b3d	-0.06712959
11	0x3e54cdc0	0.20781612
12	0xbdb4311d	-0.0879843
13	0xbe750e4f	-0.2393124
14	0xbe862865	-0.26202694
15	0x3d2e3246	0.042528413
16	0x3e603b06	0.21897516
17	0x3d38578e	0.045005374
18	0xbe26c8ea	-0.1628758
19	0xbd2cfc19	-0.042232607

net.4.weight f4 [20, 20]
0	0xbf24539f	-0.64190096
1	0x3ec908c1	0.3926449
2	0xbf0121fb	-0.50442475
3	0xbc0d68c2	-0.008630933
4	0x3e890ef3	0.26769218
5	0xbd493e30	-0.049131572
6	0x3f3136b1	0.6922408
7	0xbf47d162	-0.7805387
8	0x3ee15932	0.44013363
9	0x3ea8fa2c	0.33003366
10	0x3ddfeed8	0.10934228
11	0x3f0942b9	0.53617436
12	0xbccb56a5	-0.024821589
13	0x3e366f26	0.17815837
14	0xbf15a54c	-0.5845535
15	0x3ef8be73	0.485828
16	0xbe46519b	-0.19367068
17	0xbce8e5bd	-0.02842986
18	0xbed91ec0	-0.42406273
19	0xbdce51b5	-0.10074178
20	0xbde756c6	-0.112958476
21	0x3e9139a9	0.28364304
22	0xbea783e7	-0.3271782
23	0xbca8e10c	-0.020615123
24	0x3d1e4d1c	0.038647756
25	0x3d6e413d	0.058167685
26	0x3e1bff4a	0.15234104
27	0xbf1e22e5	-0.61771995
28	0x3eda60c8	0.42651963
29	0x3e3f4ede	0.18682429
30	0x3ddf6149	0.109072275
31	0x3e074b5a	0.13212338
32	0x3eb9d0f6	0.36292237
33	0x3e0b0222	0.13575032
34	0xbed3a04b	-0.4133323
35	0x3e445286	0.19172105
36	0xbe072027	-0.13195859
37	0x3d934cc8	0.07192379
38	0xbeac2eb7	-0.3362939
39	0xbee96e41	-0.4559193
40	0x3e25f950	0.16208386
41	0xbd81dfcd	-0.06341515
42	0x3e654dcd	0.2239296
43	0x3d7c29d3	0.061563324
44	0x3e1151d8	0.14191377
45	0x3ee100f8	0.43946052
46	0xbe95729e	-0.29189008
47	0x3f00dffe	0.50341785
48	0xbe8085cf	-0.25102088
49	0xbdebf0d5	-0.115205444
50	0x3c0ce69e	0.008599905
51	0xbdf85cf7	-0.12127107
52	0xbe8e8db8	-0.27842498
53	0xbd082d8e	-0.03324657
54	0x3ec8bc85	0.3920633
55	0xbe889ed1	-0.26683667
56	0x3ecbe169	0.39820412
57	0x3d6dece1	0.058087233
58	0x3ea99694	0.33122694
59	0x3e9591d4	0.2921282
60	0xbd98b087	-0.07455545
61	0x3e4c1fa3	0.19933943
62	0x3e061af4	0.1309622
63	0x3eb51980	0.35371017
64	0x3e7ff740	0.24996662
65	0xbd23f620	-0.040029645
66	0x3ee4b43e	0.44668764
67	0xbe37ed4e	-0.17961618
68	0x3d9d76de	0.07688688
69	0x3e2b71a0	0.16742563
70	0x3e2acded	0.16680117
71	0xbe4f58ff	-0.20248793
72	0xbe7b1688	-0.24520314
73	0x3d66e062	0.056366332
74	0xbdf0efac	-0.11764464
75	0xbd64651c	-0.055760488
76	0x3e330841	0.17483617
77	0xbf1de2ca	-0.6167418
78	0xbf2148a5	-0.6300147
79	0xbd0bfd7d	-0.034177292
80	0x3e0f46e8	0.13991892
81	0x3d475077	0.04866072
82	0x3e780a30	0.24222636
83	0x3e0d0aa7	0.13773595
84	0x3de48018	0.111572444
85	0xbc239f94	-0.009986777
86	0x3db46df2	0.08810033
87	0xbe423a28	-0.18967497
88	0x3e374ef9	0.1790122
89	0x3dfce3db	0.123481475
90	0xbcd7dfa9	-0.026351767
91	0xbecb7481	-0.39737323
92	0xbc848224	-0.016175337
93	0xbdfcc7ce	-0.12342797
94	0x3eb1ef31	0.347528
95	0x3ca59d85	0.020216713
96	0x3e3521d1	0.17688681
97	0x3d5bf983	0.05370475
98	0xbdd2743b	-0.102760755
99	0xbdd4e5d9	-0.103954025
100	0xbdbc394c	-0.09190616
101	0xbc1fba33	-0.009748983
102	0x3edc3fef	0.43017527
103	0x3e6c6091	0.23083712
104	0x3ea6e8b2	0.32599407
105	0x3ea1275f	0.3147535
106	0xbeed71d9	-0.4637592
107	0x3e639594	0.22225028
108	0xbd3ec58e	-0.04657512
109	0x3d6a5133	0.057206344
110	0xbcb8f406	-0.022577297
111	0xbe256fdb	-0.1615595
112	0xbedd6d18	-0.43247294
113	0xbe7a0b20	-0.24418306
114	0x3e8d880e	0.27642864
115	0xbeafa83f	-0.3430805
116	0x3eb8ee82	0.36119467
117	0xbcf0306c	-0.029319964
118	0x3e084333	0.13306884
119	0x3eb49d5e	0.35276312
120	0xbd9ac71a	-0.07557507
121	0x3e31b521	0.17354251
122	0x3e17c884	0.14822584
123	0xbd1ebad3	-0.03875239
124	0x3e840ded	0.25791875
125	0x3eb96d19	0.36216047
126	0xbeb9d862	-0.362979
127	0x3eca1fad	0.39477292
128	0xbedfa13b	-0.43677697
129	0xbe844f02	-0.25841528
130	0xbe55b860	-0.20871115
131	0xbe33f3df	-0.17573498
132	0xbe94fb86	-0.29098147
133	0xbe39e50c	-0.1815378
134	0x3e9c9b1b	0.30587086
135	0xbee52cd8	-0.44760776
136	0x3e863dc4	0.26218998
137	0xbe18d832	-0.14926222
138	0x3e7f6373	0.2494028
139	0x3ee1ff81	0.44140247
140	0x3e54c4e7	0.20778237
141	0xbef81951	-0.48456815
142	0xbe43ed67	-0.1913353
143	0xbe4af412	-0.19819668
144	0xbe9f894f	-0.31159446
145	0x3d20e804	0.039283767
146	0xbdb83b2f	-0.089956634
147	0x3e49c5a0	0.19704294
148	0x3dcfbb4a	0.101431444
149	0xbe75fc27	-0.2402197
150	0x3d804d21	0.06264711
151	0x3e54c6da	0.20778981
152	0x3dbaff61	0.09130741
153	0x3e9c1f88	0.30492806
154	0xbe8a4e4d	-0.27012864
155	0x3e9043b8	0.28176665
156	0xbe5d33ec	-0.21601838
157	0x3d6b5f4c	0.05746393
158	0x3c41497e	0.011797307
159	0x3db05504	0.086099654
160	0x3e82b83a	0.2553118
161	0xbe12a1f4	-0.14319593
162	0x3ecde4df	0.40213677
163	0xbda99a2a	-0.082813576
164	0xbd9a0b75	-0.075217165
165	0x3ddc9997	0.107714824
166	0xbed519c9	-0.41621235
167	0x3f44b8ab	0.7684428
168	0xbe5440ec	-0.2072789
169	0xbee277cb	-0.4423202
170	0xbe68cc1f	-0.22734116
171	0xbec1e6dc	-0.37871444
172	0xbf00953c	-0.50227714
173	0xbe0998d0	-0.134372
174	0x3f06e5dd	0.52694494
175	0xbf26c1bc	-0.65139365
176	0x3f16be52	0.58884156
177	0x3df46a37	0.119343214
178	0x3ebb6461	0.3660002
179	0x3e19b093	0.15008764
180	0x3ee31458	0.4435146
181	0xbeb6fd15	-0.3573996
182	0x3f46cfb9	0.7766071
183	0xbe379e32	-0.1793144
184	0x3c44ab3c	0.012003716
185	0xbe8d4285	-0.27589813
186	0xbf363c9e	-0.71186244
187	0x3d861635	0.065472044
188	0x3d212ae4	0.039347544
189	0xbdc02260	-0.093815565
190	0xbef15189	-0.4713252
191	0xb9a87748	-0.00032132328
192	0xbdd4a068	-0.103821576
193	0xbe53e7fe	-0.20693967
194	0x3f17f0e5	0.5935195
195	0xbd5ec0e5	-0.054383177
196	0x3b96d3d2	0.0046028877
197	0x3b00b8ad	0.0019641325
198	0x3f15fe1f	0.58590883
199	0xbde5179b	-0.11186143
200	0x3ed3c60b	0.41362032
201	0xbe9663b6	-0.29372948
202	0x3f8387d2	1.0275824
203	0xbdbf4502	-0.09339334
204	0x3dda5412	0.106605664
205	0xbe43775b	-0.19088499
206	0xbf8ad93b	-1.0847543
207	0xbd6b7983	-0.05748893
208	0x3df2cc2c	0.11855349
209	0x3e5e8d2b	0.21733539
210	0xbe8c4dbb	-0.27403054
211	0x3e2ddc50	0.16978574
212	0x3e34fbac	0.1767413
213	0x3dddf2dc	0.108373374
214	0x3f36327f	0.711708
215	0xbe9cec44	-0.30649006
216	0xbe438cfe	-0.19096753
217	0x3d1904ff	0.03735828
218	0x3ec3d4eb	0.3824838
219	0xbe17fd96	-0.14842829
220	0xbc7f3139	-0.0155757
221	0xbeeddd78	-0.4645803
222	0xbed6d72d	-0.4196104
223	0xbe4c71c1	-0.19965269
224	0xbe896fb9	-0.2684305
225	0xbed571fa	-0.4168852
226	0x3ebf7e12	0.37400872
227	0xbe94be49	-0.29051426
228	0x3e0bfcce	0.13670656
229	0x3e2500f1	0.1611364
230	0x3ea6a469	0.3254731
231	0x3cbb9fb5	0.022903303
232	0x3de747f9	0.112930246
233	0x3d4a5b52	0.049403496
234	0xbe37637b	-0.17909043
235	0x3eaaad29	0.33335236
236	0xbe3bee4d	-0.18352623
237	0x3d82dbcf	0.063895814
238	0xbee1e5cb	-0.4412063
239	0xbee31894	-0.4435469
240	0x3d43b4d8	0.047779888
241	0xbe9ae292	-0.30250984
242	0xbe9ec38b	-0.31008562
243	0xbe87e204	-0.26539624
244	0xbe1daa22	-0.15396932
245	0xbeacf1bb	-0.33778176
246	0x3d7f8b54	0.062388733
247	0xbe9f7687	-0.31145117
248	0x3d35f40f	0.044422206
249	0x3e9cf9a8	0.30659223
250	0x3d042410	0.032260954
251	0x3d499d19	0.049222086
252	0x3e81480f	0.2525029
253	0x3e1c54fe	0.15266797
254	0xbe1bc7a3	-0.15212874
255	0xbdf24c68	-0.118309796

net.4.bias f4 [20]
0	0x3e750f06	0.23931512
1	0x3d1d0eeb	0.038344305
2	0x3e945acc	0.28975523
3	0x3e976737	0.29570934
4	0x3cd3a5a9	0.025835829
5	0x3d154e5f	0.036451694
6	0x3eb2153e	0.34781832
7	0xbe67af47	-0.22625457
8	0x3d8fbc16	0.070182964
9	0xbe68b469	-0.22725071
10	0xbd89e780	-0.06733608
11	0xbeb4d708	-0.35320306
12	0xbe06c5d0	-0.13161397
13	0x3e727b32	0.23679808
14	0xbe024709	-0.1272241
15	0xbda5f559	-0.08103437
16	0x3ead8787	0.33892462
17	0x3e37298b	0.17886941
18	0xbda45804	-0.080246
19	0xbe4477e5	-0.19186361

net.6.weight f4 [20, 20]
0	0xbd81cc24	-0.06337765
1	0xbdb69b0e	-0.08916293
2	0xbdf74d3c	-0.12075278
3	0xbe02c2bd	-0.127696
4	0xbe41c59b	-0.18923037
5	0xbed5e6e3	-0.41777715
6	0xbee9685e	-0.45587438
7	0x3e8422ea	0.25807887
8	0x3dc02690	0.09382355
9	0x3dee83ff	0.1164627
10	0xbccc2bad	-0.02492317
11	0x3ef820dd	0.48462573
12	0x3eca9625	0.39567676
13	0xbec563cb	-0.38552698
14	0xbd0e2f86	-0.03471329
15	0xbed75a1d	-0.42060938
16	0x3daecff7	0.0853576
17	0x3e66b236	0.2252892
18	0x3ea55b14	0.3229605
19	0x3d818fac	0.06326231
20	0x3f01f2c0	0.5076103
21	0x3f56aba2	0.8385564
22	0x3d1801ff	0.03711128
23	0xbea0fb9c	-0.31441963
24	0xbea20466	-0.3164398
25	0x3e03e9fb	0.12882225
26	0x3d0fb86a	0.03508798
27	0x3e2e60c4	0.170291
28	0xbecbadc4	-0.3978101
29	0xbea4e69c	-0.3220719
30	0xbe9a1813	-0.30096492
31	0x3b61cd38	0.0034454595
32	0x3d08f7ff	0.033439633
33	0x3ec70d66	0.3887741
34	0x3f2fa103	0.6860506
35	0xbce86d01	-0.02837229
36	0x3da525f8	0.080638826
37	0x3eb8bb9b	0.36080632
38	0x3f506751	0.8140765
39	0x3d6c45e8	0.057683855
40	0x3ebcd601	0.36882022
41	0xbed30c92	-0.41220528
42	0xbe8ec1ea	-0.2788232
43	0x3ee44edd	0.44591418
44	0x3d917ef0	0.071042895
45	0x3df0c289	0.11755855
46	0xbe2ca662	-0.16860345
47	0xbe569048	-0.20953476
48	0x3ef52957	0.47883102
49	0x3ee4bdee	0.44676155
50	0x3ea6148c	0.3243755
51	0xbdb1334f	-0.086523645
52	0xbcd40aca	-0.02588405
53	0xbec8a98a	-0.39191848
54	0x3dcd62a2	0.10028578
55	0xbd3581f3	-0.044313382
56	0x3eb69e8f	0.35667846
57	0x3d9adae2	0.0756128
58	0xbd92b1d8	-0.07162827
59	0xbea5cfc7	-0.32385084
60	0x3e8ae796	0.2712981
61	0x3efd6c8e	0.49496883
62	0xbddb9bbe	-0.10723065
63	0xbd7a3000	-0.061080933
64	0xbd09a68c	-0.033606097
65	0xbd053520	-0.032521367
66	0x3d37ff6c	0.044921324
67	0x3e0889a1	0.13333751
68	0xbf0b6dc8	-0.5446439
69	0x3d70cc3f	0.058788534
70	0x3d47225a	0.048616745
71	0xbd2def8f	-0.04246479
72	0x3e85ffee	0.2617182
73	0x3e068389	0.13136114
74	0x3df9cde0	0.12197471
75	0xbe31c850	-0.1736157
76	0xbd911aba	-0.07085176
77	0x3e6ac8a1	0.22928096
78	0x3eb9e476	0.36307114
79	0x3df292c7	0.11844402
80	0xbf694ba6	-0.91131055
81	0xbee29110	-0.442513
82	0x3df0cee1	0.11758209
83	0x3d55d95e	0.05220925
84	0xbd3d538b	-0.04622225
85	0x3d1b872e	0.037970714
86	0xbdb24fc8	-0.08706623
87	0x3e752dcc	0.23943251
88	0x3e3307fa	0.17483512
89	0x3eff4019	0.4985359
90	0x3e8748d8	0.26422763
91	0x3de4ff1c	0.11181471
92	0x3c85194e	0.016247418
93	0x3dcfd367	0.10147744
94	0xbe75c8e5	-0.24002416
95	0xbe5e2cd8	-0.21696794
96	0xbf139630	-0.5765104
97	0xbe864663	-0.26225576
98	0xbef02f65	-0.4691116
99	0x3ddda471	0.1082238
100	0x3eea5956	0.45771283
101	0xbdbe1281	-0.09280873
102	0x3d137ce6	0.036007784
103	0xbd9c9f8b	-0.07647618
104	0xbe062341	-0.13099386
105	0xbe4e8bdf	-0.20170544
106	0xbe681f16	-0.22668108
107	0xbcf25535	-0.029581646
108	0x3eb958c2	0.3620053
109	0xbe6b5234	-0.22980577
110	0xbdcf80ea	-0.1013201
111	0x3e0ba59c	0.13637394
112	0x3e7cf95a	0.24704495
113	0xbe812b16	-0.25228184
114	0x3e624c9b	0.22099535
115	0xbe01a7dd	-0.12661691
116	0x3f2e8413	0.6817028
117	0x3e28d5f2	0.16487864
118	0x3e2dc54e	0.16969797
119	0xbcfe51ec	-0.031044923
120	0x3ba19444	0.0049310047
121	0xbeb7c2c6	-0.35890788
122	0xbdabbe69	-0.08385927
123	0x3ed6ff87	0.41991827
124	0xbda53609	-0.08066947
125	0x3d893e50	0.06701338
126	0xbe214b9e	-0.15751502
127	0xbddef081	-0.10885716
128	0x3e851ed1	0.26000074
129	0x3dc3c720	0.095594645
130	0x3ed7cb37	0.42147228
131	0x3d99bed0	0.07507098
132	0x3dd5483f	0.104141705
133	0xbee75c01	-0.4518738
134	0xbe0659c7	-0.13120185
135	0xbd1f2fd4	-0.03886397
136	0x3eff752e	0.49894089
137	0x3d9be308	0.07611662
138	0xbd933f3f	-0.071897976
139	0xbec41cb7	-0.38303158
140	0xbe70af86	-0.23504457
141	0x3daf5108	0.08560377
142	0xbd972eef	-0.07381999
143	0xbe975571	-0.29557374
144	0xbdf59242	-0.11990787
145	0x3e96eea3	0.2947894
146	0x3cafb66d	0.021449292
147	0x3e53de32	0.2069023
148	0xbde57b89	-0.11205203
149	0xbe93bd61	-0.28855422
150	0xbdb0f857	-0.08641117
151	0xbda3d384	-0.07999328
152	0x3e1b0017	0.15136753
153	0x3eedb311	0.4642568
154	0xbd53d3aa	-0.05171553
155	0xbd2074c2	-0.03917385
156	0xbe338f41	-0.17535116
157	0x3d287d2b	0.041134994
158	0x3dd742be	0.10510777
159	0x3ebda07a	0.37036496
160	0xbed2436c	-0.41067064
161	0x3e364809	0.17800917
162	0x3e600df8	0.21880329
163	0xbe6502dc	-0.22364372
164	0xbe77f710	-0.2421534
165	0x3dc19999	0.094531246
166	0xbdb76adb	-0.08955928
167	0x3d1ae33a	0.037814356
168	0xbd7e74fa	-0.062123276
169	0xbe95c3bc	-0.29250896
170	0xbeddf33d	-0.4334964
171	0x3cb37fcb	0.021911522
172	0x3db48fc1	0.088164814
173	0x3ce00df1	0.027350398
174	0xbdc1d77d	-0.09464929
175	0xbe37fe7e	-0.17968175
176	0xbeb91fb9	-0.36157015
177	0xbe0af08b	-0.13568322
178	0x3e3e4d88	0.18584263
179	0x3e084c79	0.13310422
180	0xbece8489	-0.4033549
181	0x3dc229b1	0.09480608
182	0xbcada5b6	-0.021197181
183	0xbecc3af7	-0.39888737
184	0xbdf42651	-0.11921371
185	0xbde17329	-0.11008293
186	0xbcbce806	-0.023059856
187	0x3e9ac650	0.30229425
188	0xbe35a0e1	-0.17737152
189	0xbecfb894	-0.4057051
190	0xbeb17dad	-0.34666196
191	0x3e070bf7	0.13188158
192	0xbe342fd5	-0.17596371
193	0x3df47061	0.11935497
194	0xbdb8c92d	-0.09022746
195	0x3d5e11ba	0.054216124
196	0xbeb42dd8	-0.35191226
197	0xbe3dd75f	-0.18539189
198	0x3ea71639	0.32634142
199	0xbc3cf6a2	-0.011533411
200	0x3e547cc2	0.20750716
201	0xbe1e05d1	-0.15431906
202	0xbeb7dc08	-0.35910058
203	0x3d29b1bb	0.041429263
204	0xbe35f2f6	-0.17768463
205	0xbd83ecc0	-0.06441641
206	0xbee5b9b0	-0.4486823
207	0x3b485c78	0.0030572694
208	0xbe517c1a	-0.20457497
209	0x3d495050	0.049148858
210	0x3e2fe20f	0.17176078
211	0x3ed054c4	0.4068967
212	0x3e5e1ee2	0.21691468
213	0xbeea5d92	-0.45774513
214	0x3ea0d66e	0.31413597
215	0xbe988e02	-0.29795843
216	0x3df5eb05	0.12007717
217	0xbd049e05	-0.03237726
218	0x3bd2e8ed	0.0064364583
219	0xbe199406	-0.14997873
220	0x3f00eeff	0.5036468
221	0x3f036870	0.51331234
222	0xbe974ac3	-0.29549226
223	0xbe68860e	-0.22707388
224	0xbe8b2a6c	-0.27180803
225	0xbd49774f	-0.049186047
226	0x3d530894	0.051521853
227	0x3dac6132	0.08416976
228	0xbeb832e0	-0.35976315
229	0xbe11337c	-0.14179796
230	0xbd7361bb	-0.059419375
231	0xbdbba7d6	-0.091628715
232	0x3e346f8e	0.1762068
233	0x3e980a05	0.29695144
234	0x3f2ad05a	0.6672417
235	0xbb56da2e	-0.0032783854
236	0x3e8720b8	0.2639215
237	0x3f03eec4	0.515362
238	0x3ea4a012	0.32153374
239	0x3e8106ef	0.25200602
240	0x3ed947ae	0.424375
241	0x3b87237e	0.004124104
242	0x3d752813	0.05985267
243	0x3e840d97	0.25791618
244	0x3eaa7b53	0.33297214
245	0xbe4148df	-0.18875454
246	0xbddf1026	-0.10891752
247	0xbede95e3	-0.4347373
248	0x3eb5c822	0.35504252
249	0x3e8336bf	0.25627705
250	0x3f2aa5a5	0.66659003
251	0x3e24eebf	0.161067
252	0xbdfc5bc9	-0.12322194
253	0xbe02e235	-0.12781604
254	0x3cdc201d	0.026870782
255	0xbe83ef82	-0.25768667

net.6.bias f4 [20]
0	0xbdde9a18	-0.10869235
1	0xbe87c489	-0.26517132
2	0xbe1eb192	-0.15497425
3	0xbe78aa1a	-0.24283639
4	0xbe00ffd6	-0.12597594
5	0x3e65fb47	0.22459136
6	0x3dc727a1	0.097243555
7	0xbe892b29	-0.2679074
8	0xbe48ac2d	-0.1959693
9	0xbc925f06	-0.017867576
10	0xbdbd4a19	-0.09242649
11	0xbe08e1d1	-0.13367392
12	0x3dc56114	0.09637657
13	0xbda4a110	-0.08038533
14	0x3c98b160	0.018639266
15	0xbd3d8c88	-0.0462766
16	0x3e5e43be	0.21705529
17	0x3e4cb080	0.19989204
18	0x3e353beb	0.17698638
19	0x3c9d0fac	0.019172512

net.8.weight f4 [1, 20]
0	0xbe8da61d	-0.27665797
1	0x3eae9141	0.34095195
2	0xbf47c9ec	-0.78042483
3	0x3eba627f	0.36403272
4	0x3e39f95e	0.18161532
5	0xbe9a17f2	-0.30096394
6	0xbf10a03f	-0.56494516
7	0x3ed031eb	0.40663084
8	0x3efe61eb	0.4968408
9	0x3f20170e	0.6253518
10	0xbe20fefc	-0.15722269
11	0x3f1af97f	0.6053695
12	0xbf026275	-0.50931484
13	0xbe84b9d2	-0.2592302
14	0xbecf0ae6	-0.40438002
15	0x3effde00	0.4997406
16	0xbf168daa	-0.5880991
17	0x3e98f9cd	0.29878083
18	0x3e9517b7	0.29119655
19	0x3e8e0ee0	0.27745724
