Code/Trained models/m_mu_k_y0_500_norm_4001.pth (torch, 9624 bytes, 9 tensors)

net.0.weight f4 [20, 6]
000000 6f 4a 17 3f 19 9e 4e bd f2 70 c4 bd c3 7f 07 3c
       0.5909795 -0.050443742 -0.09591855 0.008270207
000010 ac f8 49 bd 2d 81 51 be 63 87 38 bf 12 5f bd bc
       -0.049309418 -0.20459433 -0.72081584 -0.023116622
000020 76 d9 9a 3c 21 01 30 3d 78 8c 44 bd 53 e4 64 3e
       0.018902522 0.042969827 -0.047985524 0.22352724
000030 60 ac f3 be 1b 13 3e 3d 4b 09 9e 3d 34 d0 8a bd
       -0.4759245 0.04640494 0.07716616 -0.06777993
000040 2e d3 df bc f9 f1 7a 3e 90 96 3e 3f ec ff a1 bb
       -0.027322378 0.24506368 0.7444849 -0.0049438383
000050 ac 2d a8 3d c4 71 a8 bc f6 4f 2c bd ad ed 52 3e
       0.08211836 -0.02056206 -0.042068444 0.20598479
000060 bf d8 b3 be 36 d5 ee 3d 01 5f 0c bd 4f 54 9e bd
       -0.35126302 0.116617605 -0.03427029 -0.07730924
000070 f1 17 71 3e e0 d3 e3 3e 34 a4 fb 3e 48 c5 10 bc
       0.23544289 0.44497585 0.49148715 -0.008836098
000080 b1 80 bc 3d ee 36 88 bc e7 14 45 3d 96 1e b0 bd
       0.092042334 -0.016627755 0.048115637 -0.08599584
000090 d5 06 cf 3e 7c 4e ea 3d 77 e3 4e 3c 53 4e d8 bd
       0.404349 0.11440751 0.012627474 -0.10561814
0000a0 64 d0 ee 3d 7f d1 95 3e 18 ae 11 bf 5f a8 e2 3d
       0.11660841 0.29261395 -0.5690627 0.110672705
0000b0 68 5e 59 3d 58 24 39 bc 16 26 2f bd 86 28 77 bd
       0.05306855 -0.011300169 -0.04276093 -0.06034138
0000c0 9d a9 4f bf e1 0a 72 3d df f8 dd 3c fc 73 57 bd
       -0.81118184 0.059092406 0.02709621 -0.052600846
0000d0 46 16 47 3d f0 e7 8a bd 0b 4f 2d 3f 78 30 b1 be
       0.048605226 -0.0678252 0.67698735 -0.3460729
0000e0 63 98 62 bb 56 8c c0 3e 2d e7 37 3d b9 8e c7 bd
       -0.0034575693 0.37607068 0.0448982 -0.09744019
0000f0 2b 43 3b be 18 e7 98 3e 34 cc 30 3e 79 00 e6 bd
       -0.18287341 0.2986381 0.17265397 -0.11230559
000100 d3 53 08 be 7b c1 1d 3e 95 7f d3 3e 78 0f d5 3d
       -0.13313226 0.15405838 0.41308275 0.10403341
000110 ff 65 ad 3d 51 6a af bc 19 6b be 3c a7 39 36 3e
       0.0846672 -0.021413 0.023244428 0.1779543
000120 ff 77 c8 3e 14 ef 20 3e 06 a0 ab 3d 58 7e ac bd
       0.3915405 0.15716201 0.083801314 -0.08422536
000130 17 29 04 3d ad 15 93 be fb a0 06 bf 12 94 0d bd
       0.03226575 -0.28727475 -0.52589387 -0.03456504
000140 48 8f cb 3d 9c bd 62 bd c3 94 34 3d 45 65 89 be
       0.09939438 -0.055356607 0.044087183 -0.26835075
000150 45 4b ee be a2 60 d6 3c 7c 39 a4 bd 16 70 35 be
       -0.465418 0.026169125 -0.08018777 -0.17718539
000160 55 2b 64 3d ac 1d 34 be 4a 39 34 3d 42 b1 7b 3e
       0.055705387 -0.17589444 0.043999948 0.24579337
000170 17 66 8d 3e ac d0 6f 3e f8 d3 6e 3e cd 9b 17 be
       0.2761695 0.23419446 0.23323047 -0.14805527
000180 8d 8f 64 3e 66 fe 82 3e ad 3e 66 3d af 41 7d bd
       0.22320385 0.25584716 0.056212116 -0.06183022
000190 23 a5 2a be f4 11 c0 be 02 b5 fc 3e b1 e8 65 3d
       -0.16664557 -0.37513697 0.49356848 0.056130115
0001a0 7b 79 55 3c 78 ff d4 3c b8 97 47 3c c1 51 30 be
       0.0130294515 0.026000723 0.012182169 -0.17218687
0001b0 c1 5e 87 3e 4c 04 c6 bd 40 7d 43 3e 24 5c 12 3e
       0.2643948 -0.09668788 0.19090748 0.14292961
0001c0 87 f0 14 3d 85 5a ae be 9d 63 34 bf b7 56 96 3c
       0.036362197 -0.34053436 -0.704645 0.018351896
0001d0 f4 ae 17 3d be fb fb 3c dd 54 17 3d c1 99 75 be
       0.037032083 0.030759688 0.036946166 -0.23984434

net.0.bias f4 [20]
000000 7b 8d 91 3d a1 2c d5 be 9d d0 ad be 25 5c 97 bd
       0.071070634 -0.41635612 -0.33948222 -0.07390622
000010 24 6b 2e be 49 01 88 3e e6 69 38 be 19 4c 0e 3e
       -0.17033058 0.2656348 -0.18009147 0.13896216
000020 94 5c a5 3e 4d 57 cd be 9a 88 8d 3e a3 4e c0 bd
       0.32297194 -0.40105668 0.2764328 -0.09389999
000030 b8 a4 8a 3e 4d 2c b1 3e 66 b6 35 be 01 cc ce be
       0.27078795 0.3460411 -0.1774536 -0.40390018
000040 18 53 12 3e 2e 7e 03 be 8c 40 16 bd b4 4a f2 3e
       0.1428951 -0.12841102 -0.03668265 0.4732262

net.2.weight f4 [20, 20]
000000 8d d5 c5 be a1 ad a6 3e cb 30 ff 3e e9 36 20 be
       -0.3863949 0.32554343 0.49841914 -0.15645947
000010 ea 03 91 bd f0 48 38 3c 69 52 9b be b6 62 e7 3d
       -0.07080825 0.011247858 -0.3033631 0.112981245
000020 f7 ff f2 3e 6c 1b 4a be 15 18 78 3d 52 f9 1b be
       0.4746091 -0.19737023 0.06056984 -0.15231827
000030 48 02 9e bd ff 59 08 3e 36 4f 19 bc 57 f8 56 be
       -0.07715279 0.13315581 -0.009357264 -0.20993172
000040 c3 1f f7 3c 6b f2 d1 be 2a 22 b1 bd 43 76 69 3e
       0.030166512 -0.41005263 -0.086490944 0.2279902
000050 1b fe 07 bf 9e f9 cd 3e 17 30 53 be 7b a9 bc be
       -0.5312211 0.40229505 -0.20623814 -0.36848053
000060 ba 1e 09 be 71 e1 6a be a0 c0 16 be b6 a3 fe 3d
       -0.13390628 -0.22937562 -0.14721918 0.12433569
000070 a8 ba 1b 3e e8 eb 11 3f ce 3a 66 3c 9e e7 bc 3e
       0.15207922 0.5700059 0.014052106 0.3689546
000080 9f 5c c1 be 4f 7d 95 be 26 82 d6 be a0 bf b9 3c
       -0.37765977 -0.29197165 -0.4189617 0.022674382
000090 4e 43 12 bf a9 2a ca be 92 65 23 3e fb 77 18 3d
       -0.5713395 -0.39485672 0.15956715 0.037223797
0000a0 d9 09 a5 3e b6 d9 01 bf cf e4 98 be d3 4a 99 3e
       0.32234076 -0.50722826 -0.29862067 0.299399
0000b0 26 87 65 3b 63 5a 94 3e ac a1 07 3e b4 8a 98 be
       0.0035023182 0.2897521 0.13245267 -0.29793322
0000c0 4f b7 f4 be 25 ee 2f 3d 3e 04 81 3e eb 0c 0a 3f
       -0.47796103 0.04295172 0.2519855 0.5392596
0000d0 9b 13 d7 3d 27 8e 3e be c2 54 3d 3c e5 01 21 3d
       0.10501786 -0.18608914 0.011555852 0.039308447
0000e0 61 58 8d 3e 3e 6b 26 3e b3 57 0f be 1f 4b 02 bf
       0.2760649 0.16251847 -0.13998298 -0.50895876
0000f0 cf b0 ec 3c d7 cd 72 be 1d 15 61 bd 06 88 47 3e
       0.028892903 -0.23711334 -0.054951776 0.19485483
000100 0d fb 97 bd e5 18 49 3d f0 0f 00 3e 09 81 66 be
       -0.07420931 0.049096007 0.1250608 -0.2251016
000110 a3 e4 20 3d cb 60 12 bf 68 dd ac 3d 51 9a ab bb
       0.039280545 -0.57178944 0.084406674 -0.005236902
000120 81 35 46 3e 43 f2 02 3f 98 7f b6 3e 0a ea f7 bc
       0.19356348 0.5115091 0.3564422 -0.030262966
000130 83 52 9d bc c8 7a 66 3e 61 78 f7 3d f1 fb f8 bc
       -0.019204384 0.22507775 0.12083507 -0.030393573
000140 81 6c 94 3d c4 de f7 3e 04 25 c1 3e 29 71 b8 be
       0.07247258 0.48412144 0.37723553 -0.36023834
000150 2a 21 0e bd 8a 75 7e be dc 6a ee bc 04 97 a5 3c
       -0.034699596 -0.24849525 -0.029103689 0.020213611
000160 5f 5e ba 3e 68 f3 06 be 3e ea d9 3d 91 2c 56 be
       0.36400124 -0.1317879 0.10640381 -0.20915438
000170 a5 a3 51 be c0 6f e3 3d 6d 8f 6a 3e 72 2d 29 be
       -0.20472582 0.11105299 0.22906275 -0.16521242
000180 6e 80 73 3e c6 d0 51 bd 10 ba fd 3d 70 c6 24 3e
       0.23779461 -0.051224492 0.12389004 0.16091323
000190 74 4a 9f 3e d2 d7 93 be 00 fd 7e be a3 a8 a3 3e
       0.3111149 -0.28875595 -0.249012 0.31964597
0001a0 70 c9 83 3d 1a 36 0a 3e 4b f8 13 be 59 5d e2 3d
       0.064349055 0.134972 -0.14450185 0.11052961
0001b0 df 63 f7 be 7a 42 5a 3e 06 5c 4c 3e f7 1d 3c 3e
       -0.48318383 0.21314421 0.19956979 0.18370806
0001c0 ba 0d f6 3d ab 38 36 bd 9e 55 4a bd f3 91 68 be
       0.12014337 -0.044487637 -0.049398057 -0.22711925
0001d0 e4 41 4f 3d 0c 8f 74 3e 8d 3d 4f 3e 6f 94 a7 be
       0.050599948 0.23882693 0.20238324 -0.32730433
0001e0 01 65 31 3c 88 73 c4 bd bf b2 52 bf 28 99 d1 3e
       0.010827304 -0.09592348 -0.82303995 0.4093716
0001f0 59 f5 96 bd 4e 94 ba bd 71 75 8f be 98 fc 1d be
       -0.07371015 -0.09110318 -0.28019288 -0.15428388
000200 5e 7b cd be 58 d2 b5 3d 17 9e 25 be 5a 3a 8e 3e
       -0.40133184 0.088780105 -0.16173588 0.27778894
000210 23 10 0a be 77 9f b6 bd 2c 4b af be 1d 52 58 3e
       -0.13482718 -0.08917134 -0.3423704 0.21125074
000220 58 9d 58 3d b4 d1 09 3f ff 52 41 3d 07 53 a1 be
       0.05288443 0.53835607 0.047198292 -0.31508657
000230 d2 76 6e be bf 7b 30 bd 85 83 59 3e d6 6b f3 be
       -0.23287514 -0.043086763 0.21241577 -0.4754321
000240 e3 6e 05 3d 9f 83 b4 3c 33 0e 6b be a6 89 d9 3d
       0.032576453 0.022035418 -0.22954635 0.106219575
000250 fb a8 02 3e 94 59 53 3e 7e 8e f4 bd d0 c6 93 3d
       0.12759773 0.2063964 -0.11941241 0.07215655
000260 90 77 ba be 73 25 a9 bd 80 14 1f 3f 3e ff fa 3c
       -0.36419344 -0.08259096 0.62140656 0.030639287
000270 12 5c ca 3d 83 02 9b 3d a6 1b a5 3d 56 5f 1a bd
       0.09880842 0.075688384 0.08061914 -0.037688576
000280 5c 89 4c be 75 2f 1c 3f cb 22 fe 3e 5b 0e f8 be
       -0.19974273 0.61009914 0.4963592 -0.48448452
000290 f7 e1 38 3d 1e e6 b5 be 1a 18 5b be a2 6c 7f 3e
       0.045137372 -0.35527128 -0.21395913 0.24943784
0002a0 8d 71 09 3f ff 90 5f 3d bd ef ae 3c 24 ef c6 be
       0.5368889 0.05458164 0.02135455 -0.38854325
0002b0 63 60 46 be 34 92 8c 3e 69 ff 4a 3d af 36 43 bd
       -0.19372706 0.27455294 0.049559984 -0.047659572
0002c0 ac 33 41 3d c8 8d d9 be 43 04 e2 bd f3 1e fe 3e
       0.04716842 -0.42490983 -0.11035969 0.49632987
0002d0 02 30 79 3d 35 06 aa be b1 48 97 3d 85 a2 e7 3e
       0.0608368 -0.3320786 0.07386912 0.4524118
0002e0 aa 33 e8 3c bb ff 35 3e 90 af a9 3e dd 37 0c be
       0.028344948 0.17773335 0.33141756 -0.13693185
0002f0 bb 52 aa 3d 9f 52 db be f7 d8 fd 3e 08 e6 3c 3e
       0.08316561 -0.42836472 0.49579594 0.18447125
000300 24 16 65 be 18 d4 20 3d e6 26 1f be ba cf 1b be
       -0.22371727 0.03926477 -0.15542182 -0.1521596
000310 30 a2 54 3d 44 ad b2 bd 12 0c a2 be a8 91 46 be
       0.051912487 -0.08724454 -0.31649834 -0.19391501
000320 c4 54 08 3e 25 65 65 3e 53 16 c4 3e 21 07 8f be
       0.13313586 0.22401865 0.38298282 -0.27935126
000330 6e a7 bc 3d 78 d5 08 bf 4f 91 8d 3e 0a d7 99 3e
       0.09211622 -0.5345073 0.27649924 0.30046874
000340 ca d0 d2 3e 01 65 a2 3c 64 92 91 bd 66 bd c2 bd
       0.41174918 0.019823553 -0.07108 -0.09508781
000350 37 20 23 be af 35 92 3d 88 fd 87 3e a5 33 1e 3e
       -0.15930258 0.071391456 0.26560616 0.15449388
000360 98 53 ae 3d 30 98 f7 be 02 49 aa be 1d a3 6b 3e
       0.08512038 -0.48358297 -0.33258826 0.23011442
000370 6c 28 48 3e c5 61 06 bf 8e 7a 17 bd 2a cb 86 3e
       0.1954667 -0.52492934 -0.03698211 0.26326877
000380 4f 07 5a be 15 d4 4b 3e 76 f8 14 3e ad 1c c7 be
       -0.2129185 0.19905122 0.14547905 -0.38889065
000390 1b 0f 64 be 03 89 22 bd 64 72 15 bd c2 8e b8 3e
       -0.22271387 -0.039681446 -0.036486045 0.36046416
0003a0 92 5a 2a 3d fc 3a 79 bd 25 04 22 be 32 a0 f0 bd
       0.04159028 -0.060847268 -0.15821894 -0.11749305
0003b0 4d 59 89 bd 98 25 74 3e e9 7d 57 3c 08 b4 7c be
       -0.06706486 0.23842466 0.013152578 -0.24678051
0003c0 ae 4a c3 bd f9 bf d0 be 9a 7a 6c be d5 5d b4 bd
       -0.095357284 -0.40771464 -0.23093644 -0.088069595
0003d0 4e 5f 7c bd ce c2 66 3e 26 68 75 3e f9 2e 3c be
       -0.061614327 0.2253525 0.2396551 -0.18377294
0003e0 e5 1a 55 be 05 6b 76 bd 02 96 be 3d f1 6b 00 3e
       -0.2081104 -0.060160656 0.093059555 0.12541176
0003f0 4d ad b3 3d 57 d7 ef bd d2 6b 06 3d c5 71 26 3d
       0.08773289 -0.11710995 0.03281767 0.040635843

net.2.bias f4 [20]
000000 f1 49 1b 3d 1a 90 5d 3e 57 db 59 bd 33 e6 83 3d
       0.037912313 0.21637002 -0.053187694 0.064403914
000010 12 17 36 be 0d 20 20 3e 6f 93 48 3d 5e f5 23 3e
       -0.17782238 0.15637226 0.04896873 0.16011569
000020 94 35 a7 bd a4 89 46 bd 74 be 73 3e 75 eb 17 3e
       -0.08164516 -0.048471108 0.23803121 0.14835913
000030 dd 43 7c 3e 3c 9e a3 be 85 4e 64 bd 5d 21 31 3e
       0.24635263 -0.3195666 -0.055738945 0.17297883
000040 21 d0 00 3d e5 e0 4a be ea 2c 76 be 09 42 3a 3e
       0.031448487 -0.19812353 -0.24040571 0.18189253

net.4.weight f4 [20, 20]
000000 ca 0f e3 bd f4 f1 09 bc e4 b2 4f bd b2 4f 0e 3f
       -0.11086996 -0.0084195025 -0.050707713 0.55590355
000010 fc aa c3 be 3e fb 23 be b4 8b 08 3e fb 00 a5 3a
       -0.38216388 -0.1601381 0.13334543 0.0012588793
000020 b4 f0 a4 3c cf 46 67 bc e4 cf d4 be 8e 76 5f 3e
       0.020134307 -0.014116003 -0.41564858 0.21822569
000030 2a 23 bc 3e bc 9f 78 3e ee cb d0 bd 38 61 23 bf
       0.36745578 0.24279684 -0.101951465 -0.6382022
000040 eb 5f 81 3d 7f c9 ae 3e 98 48 9b bd 5f 35 8e be
       0.06317123 0.34138104 -0.075822055 -0.27775094
000050 12 4c 09 3e 80 46 ad 3c 06 7b 9d be 9e f5 d9 bd
       0.13407925 0.021151781 -0.30757922 -0.10642551
000060 21 fb 9e 3d 83 72 41 be f4 fb 4e 3d 6d 5f 64 3e
       0.07762743 -0.18891339 0.05053325 0.22302027
000070 ed 36 97 3e 10 c7 04 be 15 08 f9 3d 06 d1 b1 be
       0.29534093 -0.12966561 0.12159745 -0.34729785
000080 b3 c6 41 be e1 fc 98 3e ab 03 c8 3e c9 73 8f 3e
       -0.18923454 0.2988043 0.39065298 0.28018025
000090 b1 88 ed be c0 a6 4a bd 6f 73 c9 bd 21 38 56 3e
       -0.4639335 -0.04947543 -0.0983647 0.20919849
0000a0 c2 ec 63 3e a3 03 c9 3d 3e 13 e2 be e4 25 c4 3b
       0.22258285 0.09815147 -0.44155306 0.005985962
0000b0 57 45 6a 3e ea a7 9d 3d ea 2e 25 3a df 9f 0e 3e
       0.22878014 0.07698043 0.0006301241 0.13928173
0000c0 6b 82 74 3e 2b 6c a4 be 0b ff 0a be ae 7f 86 be
       0.23877876 -0.32113776 -0.13573854 -0.26269287
0000d0 4a 6d 8b be fb 62 74 3e 07 15 c8 3d 99 29 6f 3e
       -0.27231818 0.23865883 0.09769636 0.23355712
0000e0 3e 5e 10 bf 85 03 3d bd 07 25 95 bc 1d cb 72 3d
       -0.563938 -0.046145935 -0.018206133 0.059275735
0000f0 8d d9 86 be a5 84 55 be b8 68 0b 3f 8b 5c 08 3e
       -0.26337853 -0.20851381 0.54456663 0.13316552
000100 5b 61 46 be b6 61 8b 3e 96 21 10 3b be 83 03 bf
       -0.19373076 0.27222985 0.0021992675 -0.513729
000110 e1 7b a7 be 86 81 f6 3e de f4 9e be 36 b2 1e 3f
       -0.327117 0.48145694 -0.31046194 0.6199068
000120 d9 0d 45 3e 1d f4 76 bd 5c 50 c2 be c9 74 72 be
       0.19243564 -0.0602914 -0.37951934 -0.23677363
000130 26 30 d7 3e 38 6c 94 3e 8f 7f 00 3e 9b 37 fa bd
       0.42028922 0.28988814 0.1254866 -0.12217637
000140 92 94 86 be 1c 89 03 bf 6b 70 9b be dd 52 83 3e
       -0.26285225 -0.5138109 -0.30359206 0.25649157
000150 56 a8 ab be 8e e6 c7 3e a4 4e 38 3f 8a af dc bd
       -0.33526868 0.39043087 0.71994996 -0.10775669
000160 0c da 53 3d 54 3e c0 be 94 1f 4b bf d2 a9 8d 3e
       0.051721618 -0.37547553 -0.7934506 0.27668625
000170 53 1b 9d be 3c ec 50 3f f5 e0 12 bd 47 a0 91 3d
       -0.3068491 0.81610465 -0.035859067 0.071106486
000180 21 8c 36 3d d2 ce cc 3e 43 ee 8e 3d c2 a1 02 bf
       0.04456723 0.4000154 0.069790386 -0.5102807
000190 7a ce 70 3e 9d 51 32 3f ea eb 05 be ad ae 90 be
       0.23516265 0.6965578 -0.13078275 -0.28258267
0001a0 c0 fa 6f 3e fd 87 7f be 34 dc a9 be 2b 7c b3 be
       0.23435497 -0.24954219 -0.33175814 -0.3505567
0001b0 41 ee 96 3c 67 7c 92 3e 49 9f 1c 3f 1d ae 42 3d
       0.018424155 0.28610536 0.6118055 0.04752933
0001c0 95 20 76 3d d8 f7 8f bf ca 27 90 be 37 cf b1 3e
       0.060089666 -1.1247511 -0.28155357 0.34728405
0001d0 1e 2f 00 be 8d f7 36 bf 3a bb 20 3e ee 81 3f 3e
       -0.12517974 -0.7147148 0.15696421 0.18701908
0001e0 68 30 b8 be d7 a6 4b be e9 0e d1 3e b7 71 9c be
       -0.3597443 -0.19887863 0.40831688 -0.30555508
0001f0 3f 06 74 bd 1f 0b f1 3e 5f 4a e8 3e ae e5 92 be
       -0.05957627 0.47078797 0.4536924 -0.28690857
000200 0c cb 98 be 64 fd b4 3d ee 94 96 be 8c 80 b3 3e
       -0.29842412 0.08837393 -0.294105 0.3505901
000210 0c 7f 86 bc e1 5c 67 3e 07 7d 87 be 66 1e 2f 3e
       -0.016418003 0.22594024 -0.26462576 0.1710144
000220 9e 5d ec 3e ed 3d c5 3c 3a 31 33 3e d5 7d 42 3d
       0.46165174 0.02407738 0.17499247 0.047483284
000230 9b 39 d4 be 5d e9 1b 3d 48 53 01 3f 23 55 0c 3f
       -0.414502 0.03806435 0.505177 0.5481741
000240 70 3f 20 bf 3d fa d6 3e 9f dd f0 3d 63 98 1e be
       -0.625968 0.41987792 0.11761021 -0.15487818
000250 90 ce 92 be 71 3e 22 3d 5a d0 09 be 28 18 1c 3f
       -0.2867322 0.03961033 -0.13458386 0.6097436
000260 ac 4d 01 3f 61 61 04 3e 70 5d 3b bc c3 9f a3 bd
       0.5050914 0.12927772 -0.011435851 -0.079894565
000270 f5 64 ee 3e 42 42 c6 3e bb f6 7b be c0 3e a1 3d
       0.465614 0.38722426 -0.24605839 0.07873297
000280 96 10 8e be be e7 12 3e 68 64 b5 3e ac 84 38 be
       -0.2774703 0.14346215 0.35428166 -0.1801936
000290 d8 95 99 be 5e c7 67 bd 44 e2 a3 be f3 fb 74 3e
       -0.29997134 -0.056586616 -0.32008564 0.23924236
0002a0 87 f0 df be 20 f2 c5 3e 34 5e f8 39 2a 2c 45 3e
       -0.43738195 0.3866129 0.00047372433 0.19255129
0002b0 cc f0 bf 3e f8 0b b9 3c 1a 4d 95 be c9 71 5d be
       0.374884 0.022588715 -0.29160386 -0.21625437
0002c0 d0 28 e3 3e e2 f6 9f 3e aa 96 f0 be 82 85 9d bd
       0.44367075 0.31243044 -0.46989948 -0.0769148
0002d0 80 7d b7 be 7d 72 9d be 70 f2 2b be 8c fa b9 bc
       -0.35837936 -0.3075141 -0.16791701 -0.022702478
0002e0 31 7d 3d 3e 57 b2 ec 3d a6 54 84 bd 02 85 9d be
       0.18504788 0.11557453 -0.06461458 -0.3076554
0002f0 ba 1d d0 3e 62 6f 2e bd 95 80 07 bf c8 15 45 be
       0.4064768 -0.04258669 -0.52930576 -0.1924659
000300 e1 6a ae bc 78 13 95 3f d1 b0 b3 bd 91 11 1e be
       -0.021291198 1.1646566 -0.087739594 -0.15436389
000310 9c ba 8e 3c 78 fb 64 3e 32 94 8c be e0 85 01 bf
       0.017422967 0.22361553 -0.27456814 -0.505949
000320 82 52 fa be c4 a9 3f be a3 f6 2c 3e bc 21 fd be
       -0.48891073 -0.18717104 0.1689096 -0.494398
000330 30 5e 35 bf e8 8b 34 3e c8 49 67 3e 53 40 41 3d
       -0.70846844 0.17631495 0.22586739 0.047180485
000340 16 41 17 be 59 f6 c4 3d bb f4 33 bf 42 6b a1 3d
       -0.14770922 0.096172996 -0.70295304 0.07881786
000350 ad 07 d1 bc 5f 45 e1 3e 4e 98 81 be db f4 06 be
       -0.025516355 0.43998238 -0.25311512 -0.13179342
000360 6f 88 e3 bd cf 7f f2 3e 24 4c c0 be a5 fc 9f 3e
       -0.11110007 0.47363135 -0.3755809 0.3124744
000370 dc 51 82 3e eb 58 a0 bd 12 7f 39 be 81 ef 69 3e
       0.2545308 -0.0782946 -0.1811488 0.2284527
000380 a3 86 82 3e 46 20 f2 bc f4 95 88 be 61 a1 90 3e
       0.25493345 -0.029556405 -0.26676905 0.28248122
000390 49 0f b8 3e f0 4d ab 3d 62 ea ab 3e 57 e5 8b be
       0.35949162 0.08364475 0.33577257 -0.2732341
0003a0 99 4e b1 3d b4 fc 8c be c8 61 80 3e 2c 48 92 3e
       0.086575694 -0.27536547 0.250746 0.28570688
0003b0 b7 f0 e6 be 39 47 4d be a1 38 84 3b b7 b0 22 be
       -0.45105526 -0.200467 0.004035071 -0.15887724
0003c0 e2 b0 6c 3d ce f4 91 3d 44 62 29 bc d6 58 9f be
       0.057785876 0.07126771 -0.01033837 -0.31122464
0003d0 de d7 b4 3e 25 0b 50 be 37 23 31 bf 78 7d 81 3d
       0.35320944 -0.20316751 -0.6919436 0.063227594
0003e0 e3 e7 c6 3b ae cd 68 3e e4 44 3c 3f 60 ff 51 be
       0.0060701235 0.2273471 0.7354262 -0.20507574
0003f0 7c 20 c3 3c 5b f7 88 be 7a 20 8d 3b 52 37 0f 3e
       0.0238192 -0.26751217 0.00430685 0.13985947

net.4.bias f4 [20]
000000 44 40 5d be e8 da 54 bd 88 20 f7 3d 83 61 82 3e
       -0.21606547 -0.051966578 0.12066752 0.2546502
000010 a9 e1 81 3d 4a 90 f4 bc f6 9e e1 bd d8 34 1d 3d
       0.063418694 -0.029853959 -0.110166475 0.038380474
000020 5a a4 20 3d a0 3e 12 3e 2a f1 5c 3e 4f a3 ba 3d
       0.039219238 0.14281702 0.21576372 0.0911318
000030 19 64 11 3d 34 e7 16 be db 45 09 3e 0f 1a 6b bd
       0.03549585 -0.14736634 0.13405554 -0.0573979
000040 58 7a 6d be fa a2 d7 bd de 46 3a be 7b 18 03 be
       -0.23191202 -0.10529132 -0.18191096 -0.12802307

net.6.weight f4 [20, 20]
000000 7f ba 3c 3e fc bd 62 be 35 8a 09 3d ff 5a 06 be
       0.18430518 -0.22142786 0.03357907 -0.1312065
000010 3a 47 2a 3e fd 7d c9 3c db 9f bd 3e 4f 0a 89 3e
       0.16628733 0.024596209 0.37036023 0.26765677
000020 01 41 86 3e b1 f1 c2 be 83 1b 0e 3e 38 29 ab be
       0.2622147 -0.3807502 0.13877682 -0.33429885
000030 e6 eb 15 3e 26 f0 a2 be 3d 55 06 3e f8 93 a5 be
       0.1464077 -0.31823844 0.13118453 -0.32339454
000040 c6 4c aa bd 67 ca 28 3e 7a f0 c4 be b1 62 8d bd
       -0.083154246 0.1648346 -0.3846472 -0.069035895
000050 96 a1 16 bf 9a 64 6d 3e 5f 42 7a bd b0 fa 1a be
       -0.5884031 0.23182908 -0.061098453 -0.15134692
000060 19 d7 17 bf 7f 46 44 3e f2 a6 83 3d b9 a3 b9 be
       -0.5931259 0.19167517 0.06428327 -0.36257723
000070 a3 04 11 be 37 4d d5 3e 87 16 4a be c2 7b e2 3d
       -0.14161925 0.41660473 -0.19735156 0.11058761
000080 a6 04 a0 3e 63 66 c3 3e 5b b8 1b 3d e3 c8 18 bb
       0.31253546 0.38164052 0.038017612 -0.0023313097
000090 d0 11 01 bf fc 30 03 bf c3 c0 88 3d 3c 38 85 3e
       -0.50417805 -0.5124662 0.066773914 0.26019466
0000a0 95 ab 44 3e b7 b5 9e 3d c6 d1 09 3b a9 e7 18 bd
       0.19206078 0.07749503 0.0021029576 -0.037330303
0000b0 2e 7b a4 3d e2 df 8d be 3b f4 85 be 1d f0 c0 be
       0.08031307 -0.27709872 -0.26162896 -0.37683192
0000c0 7f 0a be be 13 08 a7 3e 9d 87 44 bf 5c 60 91 3e
       -0.37117383 0.32623348 -0.7676943 0.2839383
0000d0 a8 69 56 3e 7a 98 65 3f 8d ce 4a be 81 72 ec be
       0.20938742 0.89685786 -0.19805355 -0.4618111
0000e0 64 0f 9f be ca 35 fa be ef 31 5f 3f f8 62 e3 bd
       -0.3106643 -0.48869163 0.8718557 -0.11102861
0000f0 a8 92 38 3f 76 ee cc bd 71 67 ec 3d 76 ed 97 3e
       0.7209878 -0.1000642 0.115431674 0.29673356
000100 57 2b 8d bd d8 e8 32 bf 86 cc 3e 3e a2 b7 c7 be
       -0.06893032 -0.6988654 0.18632707 -0.39007288
000110 2e 37 fc bd d1 a3 97 3d 12 09 d2 3e 1a de aa be
       -0.12315212 0.074042924 0.41022545 -0.33372575
000120 da 12 1f bf fa 24 6c 3c 81 a9 89 be a2 11 81 bc
       -0.6213814 0.014413113 -0.26887134 -0.015755478
000130 49 cd 23 bf 24 78 3c 3d 2a e5 4c 3b 96 3b 61 be
       -0.63985115 0.046013013 0.0031264522 -0.21995386
000140 34 a1 bb 3e 49 c3 94 3d 67 e2 1a 3e 09 5f b7 3e
       0.36646426 0.0726381 0.15125428 0.35814694
000150 dd fe 4e bf ed a5 14 be 74 1b ac bd db 2a 7f bd
       -0.8085764 -0.1451642 -0.08403674 -0.06229673
000160 5f ad cb bd cf c7 84 3f dc af be bd 00 b0 50 be
       -0.09945177 1.0373477 -0.09310886 -0.20379639
000170 05 83 75 3e fc 02 d6 3d 03 92 4e be a0 10 40 3f
       0.23975761 0.10449788 -0.20172887 0.7502537
000180 8d 3e 87 be 5b 8a 9b bd 76 6f 68 3e c3 13 1b 3e
       -0.2641491 -0.075947486 0.22698769 0.15144257
000190 cc ee 3c 3e 7e a3 9d be 7a 7b 50 3d c8 23 ef 3e
       0.18450469 -0.30788797 0.050899006 0.46706986
0001a0 3f 98 5f bf f0 15 a3 3d a8 e8 e9 bd 81 9c c4 be
       -0.87341684 0.079631686 -0.11421329 -0.38400653
0001b0 ed dc 86 be 90 80 01 3f d7 84 fb 3d 3d c5 81 be
       -0.26340428 0.50586796 0.122811966 -0.25345793
0001c0 86 a9 54 bd f0 70 db 3e f7 6e 15 be ed c5 a1 3e
       -0.051919483 0.42859602 -0.14593111 0.31596318
0001d0 ec 63 0a be af 47 d2 3d da 8e 20 3c a3 92 4f be
       -0.1351468 0.10267579 0.0097996835 -0.20270781
0001e0 3b f3 26 3f f0 90 00 be 69 7d 14 3e a7 d2 90 bd
       0.6521489 -0.1255529 0.14500965 -0.07071429
0001f0 bf be d5 3c 47 52 0d bf d6 0b e0 3e 78 f0 f2 3d
       0.026091931 -0.5520367 0.4375903 0.11862272
000200 97 0f 13 bd 76 a6 e8 be 2b 3d db 3c c1 5d 0d bf
       -0.03590354 -0.454395 0.026762566 -0.5522118
000210 1c 5a 18 bf 2f f7 a0 3e 3d 4b e3 bd 11 28 11 3f
       -0.59512496 0.31438586 -0.11098335 0.5670176
000220 f3 0b 23 bd a8 62 00 3f 25 0a 46 3d 5b 4c 68 3d
       -0.039806318 0.5015054 0.04834952 0.056713443
000230 98 76 8d bd 15 98 cc bd 2c d7 1f be d2 87 94 3e
       -0.069073856 -0.09989945 -0.15609425 0.29009873
000240 fc 7c 88 bd d5 8d d8 bd 53 a1 50 3d d7 70 a4 be
       -0.06664464 -0.10573927 0.0509351 -0.3211734
000250 47 d1 77 be 3e fb 7b 3e 27 3a a8 3e 14 73 c9 be
       -0.24200927 0.2460756 0.32856867 -0.3934561
000260 81 c9 66 bd 74 ba 61 3e 4e d5 98 3e 59 e9 86 be
       -0.056344513 0.22043782 0.2985024 -0.26349905
000270 7a 5f 5a bc b2 25 81 3e 2d 6a d5 3d d4 ad 56 bb
       -0.013328427 0.25224072 0.10420642 -0.0032757418
000280 d6 a4 c8 3e 06 1d e8 3d 33 a0 97 bd 8e 74 65 bd
       0.3918826 0.11333661 -0.074036025 -0.05601936
000290 99 61 1c 3e 8f 69 25 be a9 60 c2 3e 3c e5 0f 3f
       0.15271606 -0.16153549 0.3796437 0.5620916
0002a0 fd 88 04 3f ad b1 95 bc a8 30 4d 3e 36 91 cd be
       0.5177153 -0.018273199 0.20038092 -0.4014985
0002b0 e2 2a 8d be 83 17 0f bf 2c a1 ef 3e 12 a8 3c be
       -0.2757178 -0.5589525 0.46802652 -0.18423489
0002c0 9a 77 64 be cb ac cc 3d 6f 95 55 bd fd 9b 82 be
       -0.2231125 0.09993895 -0.052144464 -0.25509635
0002d0 93 dc 93 be b5 eb 28 bd d8 19 49 bd 81 9c 3f be
       -0.28879222 -0.041240413 -0.049096912 -0.18712045
0002e0 51 69 97 bd f9 25 df 3e 34 f3 1b be 04 1d a2 3d
       -0.073931344 0.43583658 -0.15229493 0.079156905
0002f0 ea 12 e6 3d 2e 9b bb 3e 8f 85 e3 be f8 62 f7 3d
       0.11234076 0.3664183 -0.44437835 0.12079424
000300 a1 18 0d 3f 7a ec c6 be 8b c7 84 bc c3 23 a4 be
       0.55115706 -0.38852292 -0.01620843 -0.32058534
000310 83 62 5b 3e ba f1 dc be be f1 1b bd 45 64 2d 3d
       0.21424298 -0.43153173 -0.03807234 0.042331953
000320 01 56 e8 bd 88 9e d5 be 62 b4 91 be e3 bb e9 3e
       -0.11344529 -0.41722512 -0.28457934 0.4565116
000330 d4 f2 0a be e6 f5 48 bc ce 71 ea 3e aa 6f d0 3e
       -0.13569194 -0.012265658 0.4578995 0.40710193
000340 6a bf 91 3e 05 40 c9 be 8d 8b 9f 3e 44 72 db bd
       0.2846635 -0.39306656 0.31161156 -0.10715154
000350 d0 f9 22 be 95 a9 e3 be cb 52 94 3e f9 f0 7a 3e
       -0.15915608 -0.44465318 0.28969416 0.24505986
000360 a3 31 ea be 3b 52 91 3d 09 a5 93 be 17 1d ea be
       -0.45740995 0.07095762 -0.2883685 -0.4572532
000370 1f 81 03 bf 2a 57 26 3f 7b df 1a 3f e0 e5 3b bf
       -0.513689 0.6497675 0.60497254 -0.73397636
000380 9c 4d a6 bc 2f ee 92 3d 7b 34 22 be 96 ea 8c be
       -0.020300679 0.07174336 -0.15840332 -0.27522725
000390 1c 1c 2a 3e 8b a4 af bd 6e 9e 62 bb 93 6a d8 3e
       0.16612285 -0.08576306 -0.0034579295 0.4226881
0003a0 de 4f 0b 3e e3 a3 85 3c a4 39 72 bd ae 52 01 bf
       0.13604686 0.016313499 -0.059137 -0.50516784
0003b0 55 d8 3b 3c 2c 6f a8 be 5a 9d 1b 3e c1 28 f0 3e
       0.011465152 -0.32897317 0.15196744 0.46906093
0003c0 43 ec 60 be c3 7c 7a 3d a2 14 08 3f ef 05 98 be
       -0.21965127 0.06115414 0.53156483 -0.29692027
0003d0 7e fa ce be 2b d6 39 3f 86 38 95 bc 4c 21 ca 3e
       -0.40425485 0.7259242 -0.018215429 0.39478528
0003e0 01 e5 87 be a8 f4 e0 3d 93 0c be be e1 a8 be 3e
       -0.26541904 0.109841645 -0.37118968 0.3723822
0003f0 7f e1 9f 3e 8b b9 df be ae d3 be be e2 62 b0 3c
       0.31226727 -0.43696246 -0.37270874 0.021531526

net.6.bias f4 [20]
000000 41 77 89 3e 91 36 f1 bd 0a 71 79 bc d5 cc 83 3e
       0.26848796 -0.11777986 -0.0152247045 0.25742212
000010 f3 3b 80 3e 1d 1a a2 bc 6c 9f 3b be ac 5a 80 3e
       0.25045738 -0.019787842 -0.18322533 0.25069177
000020 96 80 20 3c 72 23 42 be f3 8f ea 3d 6e 76 bc bd
       0.009796282 -0.18958834 0.114532374 -0.09202276
000030 a6 f5 32 be 24 43 6b 3e 0f aa 9a 3c 28 07 21 be
       -0.1747652 0.22974831 0.018879918 -0.15725386
000040 2f 94 99 be 30 2d 2a 3d b1 2e 61 be d2 0e 38 3e
       -0.29995868 0.041547 -0.21990468 0.17974404

net.8.weight f4 [1, 20]
000000 41 11 80 3e ba b6 dc be 95 ca 8e be 65 fb fe be
       0.25013164 -0.4310816 -0.27888933 -0.49801174
000010 9f 11 2b bf 49 eb 1f bf 26 2d ad be 2f 04 80 be
       -0.6682376 -0.6246839 -0.33823508 -0.25003192
000020 e7 9b 76 3e 09 f7 a8 3e 34 14 cb 3e 65 e4 a0 3e
       0.2408291 0.33000973 0.3966385 0.3142425
000030 60 a0 8b 3e 45 3c 9d be 73 bd 6a 3e 7d 2a d5 be
       0.27270794 -0.30710045 0.22923832 -0.41633978
000040 01 16 28 3f 97 e9 51 bf 48 ba d3 be ee 42 2c bf
       0.65658575 -0.81997055 -0.4135306 -0.67289627
