Code/Trained models/m_mu_k_y0_500_4001_P2INN.pth (torch, 70678 bytes, 17 tensors)

param_encoder.0.weight f4 [32, 3]
000000 12 a4 30 3f 9f 9b bb bd 24 fa 8f be 9d e3 2f be
       0.6900035 -0.09160542 -0.2812053 -0.17176671
000010 16 84 7e be 20 bd d1 be 1e 54 23 bf 62 20 e6 bd
       -0.24855074 -0.40964603 -0.6380023 -0.11236645
000020 e0 51 81 3b ac 16 12 be e7 e6 41 be a5 b1 1d 3f
       0.003946528 -0.14266461 -0.18935739 0.6159919
000030 a5 5e f8 be ea 5f 42 3e d3 bd ef 3e 1c 66 d0 be
       -0.48509708 0.18981901 0.46824512 -0.40702903
000040 a1 9d 33 be e8 17 a8 3e ea 1b 4d 3f cd 36 4e 3e
       -0.175406 0.3283074 0.8012072 0.20138092
000050 ad 89 05 3f 58 45 98 be 09 cf 1f be 32 5a 16 3f
       0.521632 -0.29740405 -0.15606321 0.5873138
000060 9d 10 6a bd f2 67 22 3f b1 75 17 3d 13 f5 96 bd
       -0.05714475 0.6343986 0.036977474 -0.07370963
000070 f7 19 46 3f f0 ee 1f 3f bb 9e aa 3d 9d 4e b6 be
       0.7738337 0.62473965 0.08331057 -0.35606852
000080 b5 ba ef bc 05 62 cf be f9 34 c0 3e 6f 75 63 3d
       -0.029263834 -0.4050447 0.37540415 0.055531915
000090 b8 d9 76 3e 10 18 d8 3e 54 a1 2d 3e 7b 7f e1 be
       0.2410649 0.42205858 0.16956073 -0.44042572
0000a0 ce e7 13 3f b5 eb be 3e 58 f5 05 bf 53 be c2 3e
       0.5777558 0.37289205 -0.5232749 0.3803583
0000b0 1e b5 fd 3d ee 90 bb bd 6a 24 e5 be 2e 49 cb bd
       0.12388061 -0.091585025 -0.44754344 -0.09926067
0000c0 7e 24 20 bf 08 10 dd 3e 54 28 c3 3e 96 99 8a 3d
       -0.6255568 0.43176293 0.38116705 0.067675754
0000d0 ca c3 71 3f 2a b6 4e be dd 65 61 3d bd db f8 be
       0.94439375 -0.20186678 0.055028785 -0.48605147
0000e0 26 b7 a9 bc fb 7b 90 3e 18 33 9c 3e c1 6a 21 bd
       -0.020717215 0.2821959 0.3050773 -0.03940845
0000f0 3d 0a 2a be 89 97 09 3f ef 6d e6 3e 30 43 46 3d
       -0.16605468 0.5374685 0.45005748 0.04840392
000100 ad 0d 6d be e6 53 94 3d cf 09 11 bd 11 3d 17 3f
       -0.23149748 0.07242565 -0.035409745 0.59077555
000110 f3 cb 8f 3d 1c 52 e5 3c 74 be 4a bd 97 6b b2 3e
       0.07021322 0.027993254 -0.049498037 0.3484771
000120 30 2c 8d 3c db 85 30 3f 08 4e 9f 3e 1d 5f 06 bf
       0.017232984 0.6895425 0.3111422 -0.5248888
000130 ea bf 06 be c8 85 0c bf 16 f2 0c bf 65 39 14 3d
       -0.13159147 -0.54891634 -0.55056894 0.03618755
000140 81 1b 1c 3e 3e 20 a7 3d 18 96 8b 3f 98 fc a1 be
       0.15244867 0.081604466 1.090518 -0.31638026
000150 ad 2a 79 be 59 17 f6 bd f5 b7 83 3a 63 33 d8 bc
       -0.24332686 -0.12016172 0.001004933 -0.02639169
000160 e1 66 23 3f c4 ab 8d be 80 a1 d4 be 14 6b 3d be
       0.63828856 -0.2767011 -0.41529465 -0.18497878
000170 0b f3 f4 3e d3 3a 13 3e 3a f3 8f 3e 0c 49 d0 3d
       0.47841677 0.14377908 0.28115255 0.101701826

param_encoder.0.bias f4 [32]
000000 c2 10 00 3f 3c 38 d1 3e 7d 13 de 3e c8 ef 9c 3d
       0.5002557 0.40863216 0.43374243 0.07662922
000010 e5 d6 f1 be bf 53 87 be be 4b ca 3e 3a b7 14 3f
       -0.47234264 -0.2643108 0.39510912 0.5809208
000020 d5 59 55 be 3f 92 2c 3f 4a be d6 3d e3 f0 78 3c
       -0.2083505 0.67410654 0.104855135 0.015194151
000030 f2 c3 3e 3d 70 eb b6 bd 43 75 fe 3e 56 a4 8a 3c
       0.046573587 -0.08931625 0.4969884 0.016924065
000040 ca e8 b7 3e 7d 2c cb be 28 ca 9f be 5c ba 79 3d
       0.3591979 -0.3968238 -0.3120892 0.06096874
000050 d7 8e 1a 3f 41 a3 86 3e 92 0c e3 3d 54 5e 0f bf
       0.60374206 0.26296428 0.11086382 -0.5600331
000060 c4 7d a6 3d 8b aa f9 be 6b e8 e3 be 34 b6 5d 3e
       0.08129457 -0.48762926 -0.44513258 0.21651536
000070 d9 76 ac be 0d f1 01 3f a7 6a d5 be 86 d9 17 3e
       -0.33684424 0.5075844 -0.41682932 0.14829072

param_encoder.2.weight f4 [32, 32]
000000 04 d2 8c 3d 76 4a 0e be eb e6 32 3e 7d e7 8c bc
       0.06875995 -0.13895592 0.174709 -0.017200226
000010 e7 36 00 3e cf 2a 45 3e 9f 77 8b bd 27 5a 8f bd
       0.12520944 0.19254611 -0.06809925 -0.06999617
000020 c3 a2 f2 3d b3 38 dd 3c dd 30 97 3d f9 8c 51 3e
       0.118474506 0.027004575 0.07382367 0.20463933
000030 1c da b3 bd a3 c5 05 3b 87 6d 13 3e bd fd a0 3d
       -0.087818354 0.002041199 0.1439725 0.07860897
000040 6f 61 c9 bd 21 22 1e 3d ad c6 0d be 0e bc eb bd
       -0.09833037 0.038606767 -0.1384532 -0.11510478
000050 46 f0 f6 3d 43 85 3a bd c5 e4 bc bd ba ab ab 3b
       0.12057547 -0.045537245 -0.09223322 0.0052389773
000060 e1 1a 3f 3d f6 8b f0 bd 4a 8d f1 bd 90 61 36 be
       0.046656493 -0.117454454 -0.11794527 -0.17810655
000070 dd 8c 57 3d 6c 77 e0 bd 92 7e f9 3c 44 63 36 bd
       0.052624572 -0.10960278 0.030455861 -0.04452826
000080 df a2 c4 bd cf f9 56 bd 0b f1 2e be d1 f7 c5 bd
       -0.09601378 -0.05248433 -0.17084138 -0.09666408
000090 30 ed de bb a1 e3 17 be 36 c3 27 be 11 77 02 3e
       -0.0068031773 -0.14832927 -0.16383061 0.12740733
0000a0 81 15 ef 3c 61 d3 b1 bd 57 a7 9f bd 6b c0 ee 3d
       0.029185059 -0.086828955 -0.077955894 0.116577946
0000b0 1c 23 1a be d2 8c c8 bd 63 0c 11 be 42 e4 7c bc
       -0.15052456 -0.09792484 -0.14164881 -0.01543528
0000c0 6e 28 4c bc cf 8a 0a be 7a 57 04 3e 9b 41 04 be
       -0.012460811 -0.13529514 0.12923995 -0.12915652
0000d0 d4 7a 21 3e a0 40 fa bd 5b 9a de bc 6d b1 36 3d
       0.15769511 -0.122193575 -0.027173212 0.0446028
0000e0 5a b9 ab bd 3c b4 2f 3e 6a 72 e3 bd 64 6e 85 bc
       -0.083849624 0.17158598 -0.11105807 -0.01628799
0000f0 89 16 03 be 58 9c 02 3d ac a3 20 3e 06 f2 26 3e
       -0.12801565 0.031887382 0.15687436 0.16303262
000100 2f 09 37 be 49 e5 62 bd 61 7c 5c 3f 8b 93 39 3c
       -0.17874597 -0.055394445 0.8612729 0.011326681
000110 f0 9e 14 3e 59 4a 3f bd 2d 1e cd bd e8 eb 19 be
       0.14513755 -0.046701763 -0.10015521 -0.15031397
000120 b9 e4 d2 3c d3 00 5b 3c 07 4e f0 bd eb 59 46 3f
       0.02574383 0.013366896 -0.117336325 0.77480954
000130 45 00 fe bd 1d 48 9e 3c 3b 3d 01 3e 45 25 00 bc
       -0.12402395 0.019321496 0.12621014 -0.007821386
000140 a6 cc 47 3d e8 0a a5 bd be e8 94 3d 5e 73 df be
       0.048779152 -0.08058721 0.072709545 -0.43642706
000150 af ae 85 3c 68 2f 1b 3e 4b e0 db 3d de e1 01 3d
       0.016318647 0.15154803 0.1073614 0.031709544
000160 a2 82 e4 3d 20 45 42 3e e5 53 fd 3e 6f cf bc 3d
       0.11157729 0.18971682 0.4947807 0.09219252
000170 c6 09 22 3e 8b 8f 49 3e 2e 19 3c 3e 83 d4 1c be
       0.15824041 0.19683664 0.1836898 -0.15315442
000180 03 b0 54 3e 27 54 ab bd c6 f4 f7 bd be ec 3a be
       0.20770268 -0.0836566 -0.12107234 -0.18254372
000190 af 88 37 3b a9 30 e8 bd af 59 7e 3d 5c ff 37 3d
       0.0028005054 -0.11337406 0.062097248 0.044921264
0001a0 35 55 a2 bd 36 55 b6 3d 2a 13 32 3e 4a a4 d2 be
       -0.07926408 0.089029714 0.17390123 -0.41140968
0001b0 fe 54 30 3e 1d 49 08 3e 0b c7 87 3d ca e8 9b bc
       0.17219922 0.1330914 0.06629761 -0.0190319
0001c0 c3 ca 34 3d 3b 6c a7 bd db 2c 66 bd 72 63 2f 3e
       0.04413868 -0.0817494 -0.05619512 0.17127779
0001d0 b9 a4 95 3d 79 7e 34 3d bb ac 2e be 8d d6 e1 3d
       0.07306809 0.044065926 -0.17058079 0.110272504
0001e0 cf 13 a5 bd 57 ac 1e 3e b4 4f 34 bd b6 2d c8 3d
       -0.08060419 0.1549543 -0.044021323 0.09774344
0001f0 be 32 0f 3e 9c 1b 3b 3e 84 c3 7d 3d 83 e6 70 bd
       0.139842 0.18272251 0.061954036 -0.058813583
000200 1d 66 9c 3d 6c 4b 33 3d 53 79 0a 3e 07 2a 0d bd
       0.07636664 0.0437731 0.13522844 -0.03446391
000210 09 2d 39 3e cb 54 56 3e 2e b5 11 be 5c cd 16 3e
       0.18083586 0.20930783 -0.14229271 0.14726776
000220 a6 77 cd bd 68 bb 02 be b9 0a 92 be 7b 44 05 3e
       -0.10032587 -0.12766802 -0.28523806 0.13014404
000230 b6 0e 06 be 65 ef 4e bd b4 85 ae bd 62 ea 1e 3d
       -0.1309155 -0.050521273 -0.085215956 0.038797744
000240 37 30 24 be 5b be c1 bd 69 55 51 3b 93 53 3e bc
       -0.16034018 -0.094601355 0.0031941778 -0.011616605
000250 42 76 a8 bd c6 15 aa 3d 24 7d e5 bd 83 a2 e5 bd
       -0.08225681 0.08304934 -0.11205509 -0.11212637
000260 07 0c ca bc 1c a2 b5 bd fc b7 52 3e f5 e4 21 be
       -0.024663938 -0.088688105 0.20577997 -0.15809996
000270 9c 9d bc ba 1b aa cc ba a2 7c e4 bd bf 5c 0f 3e
       -0.0014390233 -0.001561466 -0.11156584 0.14000224
000280 93 6b 9e bd a3 05 85 bd 9c 5d 07 be 8a 58 4f bd
       -0.07735362 -0.06495216 -0.13219303 -0.050621547
000290 81 a4 8d bd 32 1d 25 be 55 bc aa 3d e5 46 88 3c
       -0.06916142 -0.16124418 0.08336703 0.016635368
0002a0 c0 c8 34 3e c4 2b 11 3e eb 21 62 3e 18 56 a4 bb
       0.17654705 0.14176852 0.22083251 -0.005015146
0002b0 30 c0 df 3d 64 61 33 3e c7 74 27 3e 3a 81 16 be
       0.10925329 0.1751762 0.16353141 -0.14697734
0002c0 fd 4c dd bc 33 b9 3f be 28 7d 52 bc 56 20 15 bd
       -0.02701425 -0.18722992 -0.012847222 -0.03640779
0002d0 51 c0 31 3e b8 8b 24 3d ee d5 89 3c 67 e1 06 be
       0.17358519 0.04017231 0.016825642 -0.13171922
0002e0 94 68 f8 bd dd 87 99 3b 1c 87 12 be ce 93 b3 bd
       -0.12129322 0.0046853856 -0.14309353 -0.08768426
0002f0 da 59 cc 3d e5 e2 a6 bd 25 14 a6 bd b5 08 1b 3e
       0.09978075 -0.081487454 -0.08109311 0.1514004
000300 46 50 9b 3d 27 d5 e3 bd cf 35 41 3d 1f 3a ca 3d
       0.0758367 -0.1112464 0.047170456 0.09874367
000310 55 9f 20 be 2a dd f8 3c e5 3c 64 3d 1c 4e 87 3b
       -0.1568578 0.030378897 0.055722136 0.0041291844
000320 1d db 28 3e 36 9b d0 bd b0 da 26 3e eb 5c 06 be
       0.16489835 -0.10185854 0.1629436 -0.13121383
000330 42 ea 10 be 9b f8 01 3e 5e c1 93 bd ce 78 83 3b
       -0.14151862 0.12692492 -0.07214616 0.004012204
000340 46 04 d0 3d 00 97 21 be 63 f0 26 be bd d2 99 3d
       0.10157065 -0.15780258 -0.16302638 0.07510898
000350 b3 7d 2b 3e 2b ba 58 bc ad 41 07 3e 31 e4 6c 3d
       0.16747169 -0.01322798 0.13208647 0.057834808
000360 2b c8 7c 3d ed 45 03 be d6 1b fe 3d 88 fa 9f 3d
       0.061714333 -0.12819643 0.12407653 0.07811457
000370 fe 55 4d 3c a1 2a 0b 3e bf 59 1d be e0 61 3e 3d
       0.012532709 0.1359048 -0.15366267 0.04648006
000380 93 71 11 be fe 74 87 bc 78 c3 3b 3e 9f 8c a4 3d
       -0.14203481 -0.016535278 0.18336284 0.08034634
000390 3e aa 78 3d d3 53 f5 bd 1f 2b de bd 20 a0 b6 3b
       0.06070923 -0.11978879 -0.108480684 0.0055732876
0003a0 69 b3 72 bd 1d 02 15 be ec 28 70 3e c7 d7 28 3e
       -0.05925313 -0.14551587 0.2345311 0.16488563
0003b0 b4 b7 05 be 44 8a af 3d 32 62 c3 3d bd f3 94 bd
       -0.13058358 0.08571294 0.09540214 -0.07273052
0003c0 87 90 cb 3d 2f 4b e0 bd 6b f4 7d 3d 71 91 00 3e
       0.09939676 -0.1095184 0.062000673 0.12555481
0003d0 15 65 f4 3d 98 d0 ac 3d cf d2 2c bd d1 61 ca 3c
       0.11933342 0.084382236 -0.04219323 0.024704846
0003e0 fe a3 7e 3d 9d e4 26 3d 71 a9 25 3c 28 35 d9 3c
       0.062168114 0.040745366 0.010111199 0.026514605
0003f0 cd 73 55 bd b0 88 ba bd 25 ea 1c be 5a 10 1e be
       -0.05211239 -0.09108102 -0.15323694 -0.15435925

param_encoder.2.bias f4 [32]
000000 76 6a be 3d c2 12 90 bd cf c9 0a 3e cb 22 c8 bb
       0.092976496 -0.07034828 0.13553546 -0.0061076633
000010 c7 1e 93 bc 57 ea 06 be c0 db 37 3e 5d 31 b2 bc
       -0.017959012 -0.13175331 0.17954922 -0.021752054
000020 99 21 11 3e 44 0f b5 bd 09 37 fb bd 88 7f 40 bd
       0.14172973 -0.08840802 -0.122663565 -0.046996623
000030 00 a9 0b be 45 ed 60 3d 26 4f 5f bb 42 3c 10 bd
       -0.13638687 0.054913778 -0.0034074276 -0.035213716
000040 80 b2 c4 3d 14 40 c4 3d 1d 9c 25 be 9b 2a fe bd
       0.09604359 0.095825344 -0.16172834 -0.1241047
000050 82 5f c3 3d e9 c2 01 be 49 37 8d 3d b7 da 22 bd
       0.09539701 -0.12672009 0.068953104 -0.039759364
000060 83 c0 f7 3c a3 83 02 be fa 12 af bb f6 0f a8 bd
       0.030243164 -0.12745528 -0.0053428384 -0.08206169
000070 37 55 ad bd 74 2c 65 bd 1e f2 89 3c 86 16 fb 3d
       -0.08463519 -0.055950597 0.016839083 0.122601554

param_encoder.4.weight f4 [32, 32]
000000 0f 7b 4a bc f1 c8 80 3b cc ca 76 3e 87 ba d3 3d
       -0.012358441 0.003930204 0.24100798 0.10338312
000010 97 a7 ff ba 09 6b 27 be 98 1c c6 3c 23 99 ba 3d
       -0.0019504902 -0.16349424 0.024183556 0.0911124
000020 aa e8 2e be 0c 0d 02 be fa e0 80 3d 07 81 10 3e
       -0.17080942 -0.1270029 0.06292911 0.1411172
000030 ea 20 7f be da 38 01 be 1f 0f 6f bd 21 4b 2d be
       -0.249149 -0.12619343 -0.05836403 -0.1692319
000040 eb 73 b9 bd fa 7b ec 3d 11 e1 59 3e 27 93 1e be
       -0.09055313 0.11547084 0.21277262 -0.15485822
000050 12 96 98 3c 74 45 89 be 6a 9c c9 3d 1d 2a f3 3a
       0.018626247 -0.268108 0.09844287 0.001855198
000060 cc 42 a7 bd bc c4 8e bd 31 34 5b 3d ec 1c f7 3d
       -0.08167037 -0.06971118 0.05351657 0.12066063
000070 77 2a 8e bc da 49 b1 3c 34 56 14 3e f5 c1 f5 3c
       -0.017354233 0.02164166 0.14486009 0.029999712
000080 26 f6 f9 bb 2d 77 ea 3b b4 ab 64 be 70 4e 36 3e
       -0.00762822 0.00715532 -0.22331125 0.17803359
000090 08 54 4f 3d 51 0e a5 bd a8 4a 4a 3e 2f 43 94 bc
       0.050617248 -0.08059371 0.19755042 -0.018098442
0000a0 14 23 2d 3d 28 3b e0 3d 95 62 21 be 97 ec 81 3e
       0.04226978 0.10948783 -0.15760262 0.25375816
0000b0 c7 fa fc bd 22 92 d3 3e da 92 45 3e ed a0 12 be
       -0.123525195 0.41322428 0.192943 -0.14319201
0000c0 ac 44 56 be e2 fc bc bc ac 70 7e be ca 5b 88 3d
       -0.20924634 -0.023069803 -0.24847668 0.066581324
0000d0 0a a1 ac 3d 84 9b 8a be dc b8 1d bd ae 62 11 bf
       0.08429153 -0.27071774 -0.038506374 -0.567912
0000e0 a8 6b 6b bd 7a e6 0c be 71 06 59 3c 33 1f ea bd
       -0.057475716 -0.13759795 0.013246165 -0.11431732
0000f0 ed e0 09 be 00 4c c3 3c 96 65 9f bd 68 93 60 bd
       -0.13464709 0.02383995 -0.07783048 -0.054828078
000100 b4 34 b9 3c 77 c9 07 3e 0b e2 3a 3e 8d 9c 41 be
       0.022608139 0.13260446 0.18250291 -0.18907376
000110 05 d9 db bd c7 f7 aa bd 16 0e 18 be 0f 40 a3 3d
       -0.107347526 -0.08348041 -0.14849123 0.079712026
000120 b1 91 03 be 8e 27 df bd b4 42 bb 3d a4 2d ae 3d
       -0.12848546 -0.10896216 0.09143582 0.08504799
000130 a9 70 c4 bd 9a 22 6d be 83 5c 01 3d 6e 70 99 3d
       -0.09591801 -0.2315773 0.031582367 0.074921474
000140 51 3b 27 3e 6c af ec bb 8e 5c 38 3e 08 88 35 be
       0.16331221 -0.0072230604 0.18004057 -0.17727673
000150 df 67 3e 3e 97 da 4c be 91 c7 ca bd 04 61 83 3e
       0.18594311 -0.2000526 -0.099013455 0.25659955
000160 13 d6 04 bd 7a 83 fd 3d 3d 96 ce bd ed 41 0d 3e
       -0.03243072 0.12378593 -0.100872494 0.1379468
000170 93 1a 64 3e ed 24 26 3d f9 ff 18 3e fb 45 e4 bd
       0.22275762 0.04056256 0.14941396 -0.1114616
000180 93 4e 70 3c 9b 26 35 3c c4 3b 63 3e 90 f9 3c bd
       0.014667171 0.011056568 0.22190768 -0.04613644
000190 57 77 da 3d b3 90 2b bd e3 2b a3 bd 9c ff 07 3e
       0.106672935 -0.041886043 -0.07967355 0.13281101
0001a0 c2 d0 48 be f3 8d aa bd b5 b7 37 3e ab f7 a9 bd
       -0.19610885 -0.08327856 0.17941172 -0.08299192
0001b0 3c 78 34 bc 77 7d 17 be 46 0b 32 be 03 f5 d1 bd
       -0.011014994 -0.14793955 -0.17387113 -0.102518104
0001c0 62 62 30 3e 73 5e 15 be ef 95 c5 3d fb c4 08 3e
       0.1722503 -0.14586811 0.09647738 0.13356392
0001d0 80 73 c7 3d e5 66 a2 3e 66 b5 95 3d 39 ca 6b 3e
       0.09738827 0.31719127 0.0730999 0.2302636
0001e0 8a b9 c9 3d b0 5b 55 be cc ef 2d be 18 28 33 be
       0.09849842 -0.20835757 -0.16986006 -0.17495763
0001f0 59 f0 03 3e f1 f8 15 3e 77 b7 99 3d 61 09 96 3e
       0.12884654 0.14645745 0.07505696 0.2930403
000200 89 33 b4 bd 86 7f bf bd 88 74 df bd 97 7c 50 3d
       -0.08798892 -0.09350495 -0.109108984 0.050900068
000210 78 e6 9e 3d a7 5d da 3c 3e 3e 16 be c9 75 bd 3c
       0.07758802 0.026655985 -0.14672181 0.023127453
000220 a6 70 9e bd 64 f4 23 bc 36 eb 8a bc 23 b8 9a bc
       -0.0773633 -0.010006998 -0.01695786 -0.018886631
000230 0e f4 35 be be 79 da 3d 1f 14 93 bd 30 cb 4a 3d
       -0.1776888 0.10667752 -0.07181572 0.04951018
000240 3b f2 0b 3e 9e 50 6f 3d 9b ae 13 3e bd 4d c4 3d
       0.13666622 0.058426492 0.14422075 0.0958514
000250 d2 3f 0b 3e c4 f0 e5 3d 4d 0b 08 3e a8 ec a5 bc
       0.13598564 0.11227563 0.13285561 -0.020254448
000260 b8 ec bd bd a4 4b b9 3d 28 9f 46 3d 48 d1 18 bc
       -0.09273666 0.090476304 0.048491627 -0.00932724
000270 5b ef 0e be c9 7e 57 3d 9c 9a e7 3d 5c 6a 46 bc
       -0.13958494 0.052611146 0.11308786 -0.012110319
000280 07 b5 46 3d 5c 13 8c 3d 3f 21 5a be 38 6c c0 3a
       0.048512485 0.0683963 -0.21301745 0.0014680689
000290 59 a6 a4 bd eb 75 a1 bd 4c 5e fa 3d 48 2f 21 3e
       -0.08039541 -0.07883819 0.12225017 0.15740693
0002a0 e7 dd f6 3c 6f 1a bf 3d 7b 76 1e be 83 49 55 3d
       0.030135108 0.09331214 -0.15474884 0.05207206
0002b0 95 33 85 bc 39 bd 4e bd b0 65 01 3d 59 0f 86 3d
       -0.016259948 -0.050473426 0.031591117 0.06545896
0002c0 95 9f d8 bc 3e d3 b7 3d 86 09 50 3d 4d f9 2b 3e
       -0.026443282 0.08975838 0.050790332 0.1679432
0002d0 ea ab a2 b9 92 11 dd 3c a4 f6 b2 bc 85 18 78 bd
       -0.00031027134 0.026985917 -0.021846123 -0.06057026
0002e0 6b 97 f0 bd 83 2e ff bc 86 e7 22 be 05 35 fd bd
       -0.11747631 -0.031150108 -0.15908632 -0.12363628
0002f0 dd d6 3a be c9 07 0e 3e c2 b6 d4 bd 03 e8 b6 bc
       -0.18246026 0.13870157 -0.10386421 -0.022327429
000300 87 26 2c 3d d4 c0 11 3e ed 7f 8e 3e 4c 30 15 be
       0.04202893 0.14233714 0.27831975 -0.14569205
000310 3e 90 38 3e ba 47 2a be 15 07 ab 3c 67 e8 85 3e
       0.18023774 -0.16628924 0.0208774 0.2615387
000320 95 ee f1 3d e7 f1 9d bb d3 50 92 bd f8 2f dc bb
       0.11813084 -0.004820097 -0.07144322 -0.0067195855
000330 9f 85 15 3d 82 51 7e be 62 c2 5b bd 7e 02 c3 bd
       0.036504384 -0.2483578 -0.053652175 -0.0952196
000340 65 a5 a3 3d 47 ff fb 3c c7 fd 08 3e 52 b4 6d bd
       0.07990531 0.030761374 0.13378058 -0.058033295
000350 1f 43 3a be 18 bc aa bd 17 ee 0e bd e1 c0 9b 3e
       -0.18189667 -0.08336657 -0.03489503 0.30420592
000360 5f df 4e 3d a8 56 24 be 50 09 38 bc 0e 8c 53 be
       0.050505992 -0.16048682 -0.011232689 -0.20658895
000370 6d 17 bc bd 57 91 e3 bd ed 35 ae bd d2 60 0e 3d
       -0.091841556 -0.11111706 -0.08506379 0.034760304
000380 e7 83 30 3d 9f 5e b8 3d db 20 46 3e 65 2b 82 3d
       0.043094542 0.090024225 0.19348471 0.06355933
000390 84 38 c7 ba 2f 3f fa bc da 38 00 3e 88 f8 52 bd
       -0.0015199338 -0.030547706 0.12521687 -0.05150655
0003a0 b5 da b2 3d cd bb 2a be 6f 40 df bd db 6d 56 3b
       0.08733121 -0.16673203 -0.109009616 0.0032719288
0003b0 b5 f7 08 be 93 fa 46 bd e7 17 0f 3e 64 a0 bf 3d
       -0.13375743 -0.04857881 0.13973962 0.09356764
0003c0 ef e0 2e 3e 75 b3 8b bd 26 3b 4f bd 9d c4 ce bc
       0.17077993 -0.06821338 -0.050593518 -0.025240237
0003d0 d1 b2 33 bd f9 df 42 bd d3 5f 19 3d 0d ee 2e 3e
       -0.043871704 -0.04757688 0.0374449 0.17082997
0003e0 35 df d2 bd 62 e9 b5 3d 2d 7e 9f 3d 1d b8 ab 3d
       -0.102964796 0.08882405 0.07787738 0.08384726
0003f0 5a c1 55 3d 7a ce 69 bd 35 52 6c 3d 57 c8 ba bc
       0.052186348 -0.057081677 0.057695586 -0.022800608

param_encoder.4.bias f4 [32]
000000 ca a7 9f bd 36 29 76 bd b2 aa d6 3d 68 4e c7 3d
       -0.07795675 -0.060097896 0.10481776 0.09731752
000010 18 23 39 be 5c d6 a2 3d f2 b0 33 be 42 07 bb bd
       -0.18079793 0.07951042 -0.17547968 -0.09132244
000020 e4 59 81 3d 4c 0e e3 3d 7b 87 80 bd 3a 8e 1b 3e
       0.063159734 0.11086711 -0.06275841 0.15190974
000030 61 e5 e4 3d 17 c3 09 3e a4 b5 1c be 0f a8 b5 bd
       0.11176563 0.13453327 -0.15303665 -0.08869945
000040 7b 34 79 3a 9f fd 1c 3e b0 b2 46 bd f9 58 2b 3d
       0.00095064164 0.15331124 -0.048510253 0.041832898
000050 2e e7 8e 3d b9 21 de bd 62 5d e4 bd ce 7e 39 3e
       0.06977688 -0.10846276 -0.11150624 0.18114778
000060 2a 1a ca bb 16 48 13 3e 2f 83 3e be 9d 2c ad bd
       -0.00616767 0.14382967 -0.1860473 -0.08455775
000070 cc 7b e5 3d 4f 9f 1c 3a 9f 9b 88 3d 09 5a 29 be
       0.11205253 0.00059746666 0.06670307 -0.16538252

coord_encoder.0.weight f4 [32, 3]
000000 93 8d 2a 3f 0e 24 1d bd 2c da 78 bd 49 39 03 bf
       0.66622275 -0.038364463 -0.06075494 -0.51259285
000010 33 ec ab be 2a cb dc be c1 d0 22 bf 3e 37 89 be
       -0.33578643 -0.43123752 -0.63599783 -0.2679996
000020 ee 7f 33 be 6c 4c 07 3f fd ff ed 3d 40 4f ce 3e
       -0.1752927 0.52850986 0.116210915 0.40294838
000030 bd e4 a5 bd f5 f2 54 3e d0 61 10 3f a6 d5 1a bf
       -0.08100269 0.20795806 0.5639925 -0.6048225
000040 db 0f 03 be 36 95 c4 3e d2 58 41 be 85 2a 1a be
       -0.12799017 0.3839509 -0.18881539 -0.15055282
000050 d1 03 3b 3d ce c1 86 be 89 a9 2c 3e 98 a5 a4 be
       0.045657936 -0.26319736 0.16861548 -0.32157588
000060 5b b4 69 3e 2a 8c e3 bd a2 71 6f be e1 74 75 be
       0.22822706 -0.111107185 -0.23383191 -0.23970367
000070 7f 27 85 3e f3 ca 94 3e 42 25 31 bf db ef 16 bf
       0.26006696 0.29061088 -0.69197476 -0.5895974
000080 98 f8 e3 be 14 2b a2 3e 67 ba a1 3e f7 4a 13 bf
       -0.445256 0.3167349 0.31587526 -0.5753626
000090 18 20 08 3e 69 78 18 3e b5 f3 a8 be 2e 0b 4e 3e
       0.13293493 0.14889683 -0.32998434 0.20121452
0000a0 31 c3 cb 3e ba 71 0d 3f 1e b2 88 3e 78 20 be bd
       0.39797357 0.5525166 0.26698393 -0.09283537
0000b0 44 0e ad be 3b d1 75 be 97 d8 e1 3c f3 ca 19 bd
       -0.33799946 -0.24005596 0.027569098 -0.037547063
0000c0 b8 ce ff 3e db 09 8d be d2 3b 3b 3d cf e6 af be
       0.499624 -0.27546582 0.045711346 -0.3435578
0000d0 11 b8 10 3e 1c 3f 02 3f d5 ce 1e 3d d5 4e d2 bd
       0.14132716 0.5087755 0.03877147 -0.10268942
0000e0 4b 04 5a be 3d c2 3b bf 74 7f c7 be 41 68 0b 3e
       -0.212907 -0.7334326 -0.38964427 0.13613988
0000f0 b4 ff da be 69 6c 92 3d 26 9c e0 bd 5b 38 87 3e
       -0.4277321 0.07149584 -0.10967283 0.26410183
000100 96 5c b5 3e 21 23 ee 3d 27 38 7d 3e 84 68 ff 3e
       0.354222 0.11627794 0.24728452 0.49884427
000110 06 c4 23 be 05 b3 71 3e cc cd 4e bf ba e8 fe 3e
       -0.15992746 0.23603447 -0.8078277 0.4978693
000120 ca 2d 76 be e7 26 82 3d 30 00 95 3e fb fa 9b 3d
       -0.24040905 0.06355076 0.29101706 0.0761623
000130 9d 30 07 3f 9d f2 8f be 05 35 82 be de 6a 3a 3f
       0.52808553 -0.28114787 -0.25431076 0.72819316
000140 a9 a9 92 be ab 45 10 3f 63 67 10 3f 14 2a a4 3e
       -0.28645065 0.56356305 0.56407756 0.32063353
000150 e6 d4 81 be e5 fa 5c bc 5a 75 ef be b6 82 d2 be
       -0.2535774 -0.013487552 -0.4676922 -0.4111535
000160 3f 09 6d be 8e f6 9e be af 81 b9 3e 6e cb 8c 3e
       -0.23148058 -0.3104748 0.36231753 0.27498955
000170 4a dd 14 be 8e 6e 1e be 32 55 27 3f 2b 31 64 bc
       -0.1453754 -0.15471861 0.6536437 -0.013927738

coord_encoder.0.bias f4 [32]
000000 5a ea ea 3e da 38 19 3f 98 36 fc bd 2a f0 18 bf
       0.4588192 0.59852374 -0.123151004 -0.5974146
000010 e1 4b 0c 3f 96 0f d7 be 57 2a 0d 3f 6a 7f e6 be
       0.5480328 -0.4200408 0.5514273 -0.45019084
000020 9c 58 84 3d 4e b2 2f 3e 61 a5 e1 bc 4f f2 db 3e
       0.064622134 0.17157862 -0.02754468 0.42958304
000030 50 2b 0b bf e9 e4 81 be 70 94 cd bd b3 e1 e4 3e
       -0.54362965 -0.25369957 -0.10038078 0.44703445
000040 9d ed 85 3e 77 60 a6 3e 00 d8 6c 3e 28 c7 ce 3e
       0.26157847 0.32495472 0.23129272 0.4038632
000050 1c da b7 bd 08 ee 15 be a7 af 6c bd f4 06 49 3e
       -0.08977148 -0.14641583 -0.057784703 0.19631559
000060 cd 07 4f be f1 16 3d 3e 10 9d 61 3e 2a 44 86 3d
       -0.2021782 0.18465783 0.22032571 0.0655597
000070 e4 e3 05 3f ef d8 26 3e eb 50 ce 3e 3a ad 0e be
       0.5230086 0.16293691 0.4029611 -0.13933268

coord_encoder.2.weight f4 [32, 32]
000000 d0 38 5e be 66 ba 22 3e f0 86 02 3e 02 0f c7 3d
       -0.2170136 0.15891418 0.12746787 0.097196594
000010 fe 4a b3 3d f4 4f af 3d 5e 68 c3 bd 6b 91 26 be
       0.08754538 0.08560172 -0.09541391 -0.1626641
000020 ca c2 3a bd 9b 39 3f 3e 71 56 49 bb 62 6e 92 bd
       -0.04559592 0.18674318 -0.003072169 -0.0714996
000030 1d 5f 90 3d 0f 2c 99 bd b4 0c 4d ba d1 f5 b1 bd
       0.070493914 -0.07479107 -0.00078220223 -0.08689464
000040 27 96 47 be 1b 65 a6 bd 97 70 52 bd db 8c 90 3d
       -0.19490872 -0.08124753 -0.051376905 0.07058116
000050 24 8e 03 3e 2d 5d 36 be ff b8 ef bd 0f de 99 3d
       0.12847191 -0.17808981 -0.11705207 0.075130574
000060 dc d7 05 3d 7a 8d f2 bc b8 70 db 3d 2e 9f bf bd
       0.032676563 -0.029608477 0.10714859 -0.09356533
000070 32 dd c3 3d fd 41 32 3e 12 d8 0e bc d4 c5 78 bd
       0.09563674 0.17407985 -0.008718507 -0.06073554
000080 3a dd d0 bd eb a9 06 be 84 8d 29 bd 6d e5 85 3d
       -0.101984456 -0.13150756 -0.041394725 0.065379
000090 45 d7 8d 3d 68 08 0c bd 09 87 83 3d e7 d9 8d bd
       0.06925825 -0.034187704 0.0642224 -0.06926327
0000a0 9d 9a 13 3e f6 ad 19 be 20 74 45 3d d3 04 5a 3e
       0.14414449 -0.15007767 0.04820645 0.21290903
0000b0 1d 15 bc 3d be 0b 94 3a d1 39 35 3c da 21 49 be
       0.091837145 0.0011295003 0.011061148 -0.1964182
0000c0 1b 7f d5 bd a2 16 38 be 6c d1 21 3e c5 e8 d2 bd
       -0.10424634 -0.17977384 0.15802544 -0.102983035
0000d0 38 87 20 bd 92 b1 e4 bd 11 3f dc 3d 0c e0 06 3e
       -0.039191455 -0.11166681 0.107542165 0.13171405
0000e0 5e 6d ad bd 80 df 6e bb f8 50 b2 3d 6a ff 1d 3e
       -0.08468126 -0.0036449134 0.0870685 0.15429464
0000f0 85 e3 0b 3e ad 96 11 be 26 1f 8d 3d e8 aa 1d be
       0.1366101 -0.14217634 0.06890707 -0.15397227
000100 04 3e 3a be b6 42 44 3e d2 9f aa bd ee 74 12 be
       -0.1818772 0.19166073 -0.083312646 -0.14302418
000110 2a 27 9f 3d 91 14 21 3e f2 bf 2e be 1f 24 a7 bd
       0.07771142 0.15730502 -0.17065409 -0.081611864
000120 a1 dc b1 bd 3b 9d 0c 3e 21 84 0d 3e 56 e6 fa 3d
       -0.0868466 0.13731854 0.13819934 0.12250964
000130 07 24 f5 3d e7 bb 82 bd 72 d2 06 3e e2 a4 36 3d
       0.11969762 -0.06383496 0.13166216 0.04459084
000140 97 fd d9 bc 2b 76 4c bd 97 65 a1 3d 4d d3 27 3d
       -0.026610179 -0.04991738 0.07880705 0.040972997
000150 05 94 e7 3c 42 ac d0 3d e9 a6 83 bd cd 29 fc 3c
       0.028268823 0.101891056 -0.0642832 0.03078165
000160 12 69 2c 3e e7 9c af 3d b2 c9 28 bd 78 1b 06 be
       0.16836956 0.085748486 -0.041207977 -0.13096416
000170 3d 9c 89 3d ff bf 2e 3d c1 86 36 bd e4 2e ee 3d
       0.06719253 0.04266357 -0.044562105 0.116300374
000180 4a 22 05 3e 79 a2 23 be 16 2a 55 be e9 5c 6a 3e
       0.13001361 -0.15979947 -0.20816836 0.22887005
000190 e4 64 8f 3c 7e 52 8c bd 5c 7e e4 bd 68 ac 03 3e
       0.017504163 -0.06851672 -0.11156914 0.12858737
0001a0 a5 2a 0f 3e c1 49 ff bd 22 93 4f be b5 9a 02 3e
       0.13981111 -0.12465239 -0.2027097 0.12754329
0001b0 9e 01 20 3d 1f 7f 54 3c 6f 13 01 be b7 23 85 3d
       0.039064042 0.012969761 -0.1260507 0.06500953
0001c0 48 9f 96 bd 8a db f1 3d 59 7c 49 be c2 86 cb bd
       -0.07354599 0.11809452 -0.19676341 -0.099378124
0001d0 ac 53 62 be 1b 74 5b 3e e0 24 30 3e ab c3 e9 bd
       -0.22102231 0.2143101 0.17201567 -0.11414274
0001e0 30 f0 d0 3d a4 1f 0b be 35 c8 47 be 6b 7b 10 3e
       0.10202062 -0.13586289 -0.19509967 0.1410958
0001f0 5c 02 63 3d 65 09 4a 3d 02 e5 ae 3d b3 3f 16 3e
       0.055422172 0.049325366 0.085397735 0.14672737
000200 a5 ac 46 be 86 cd ea 3d a1 84 a1 bc b8 50 cf bc
       -0.19401796 0.11464982 -0.019716563 -0.025307044
000210 f5 da 13 3e ea 9c eb bd 48 c7 98 3d ac 01 20 bd
       0.14438994 -0.11504538 0.07459885 -0.039064094
000220 69 42 b3 3d 86 db 8c bb 8b c2 b2 3d d4 41 43 3e
       0.08752901 -0.00429863 0.087285124 0.1906808
000230 15 bc a5 bd 30 53 1f be cf e3 19 3e ec 92 ae bd
       -0.080925144 -0.15559077 0.15028308 -0.08524117
000240 7b 17 86 3c 00 ee 0a 3e 95 eb 42 bd 06 70 e2 3d
       0.016368618 0.13567352 -0.04758795 0.11056523
000250 a9 eb 0c 3e 15 88 40 bd 4c 11 25 3d 0b 7b 0c 3d
       0.13761772 -0.047004778 0.0402997 0.03429703
000260 70 6f 3f 3e b6 4b b5 3d 8b 9a 04 be 0d 70 23 bc
       0.18694854 0.08852331 -0.12949578 -0.009975445
000270 2c 4f b4 3d b2 b1 17 3e 0f 93 2b 3d db c6 3a 3d
       0.08804163 0.14813879 0.041888293 0.0455998
000280 9d 71 1e bd 9e 82 97 3b 3a a9 f5 bd 62 f9 14 3e
       -0.03868257 0.004623725 -0.11995168 0.14548257
000290 0a d4 1f 3e 53 30 af bd c9 59 e7 bc f6 42 03 3e
       0.1560823 -0.08554139 -0.028241055 0.12818512
0002a0 94 49 91 be f0 a6 5b 3e d1 d8 36 be f6 5f 33 be
       -0.28376448 0.214504 -0.17856146 -0.17517075
0002b0 49 01 c4 bd 95 e9 33 3e 14 77 60 be 11 24 50 3e
       -0.095705576 0.17569573 -0.21920425 0.20326258
0002c0 52 fd 75 3d f3 2a 84 3e e1 80 d3 3d c4 ca f2 3d
       0.06005604 0.25814018 0.10327316 0.11855081
0002d0 25 e9 17 3e 94 58 96 bd f9 a9 0f bf e4 79 95 3d
       0.14835031 -0.07341114 -0.5611873 0.072986394
0002e0 3a bc d3 3e 9b 3c 01 be 99 fc 1f be e8 c5 0c be
       0.41354543 -0.12620775 -0.15623702 -0.1374737
0002f0 74 d7 b5 bd fe 92 cc 3c f1 08 1c bd 5f e5 93 bd
       -0.08878985 0.024972435 -0.038094465 -0.072214834
000300 08 b7 f6 bc 16 74 07 3c c5 d9 3f be 66 c4 5c 3e
       -0.030116573 0.008267423 -0.18735416 0.21559295
000310 c9 46 6c bd f5 14 59 3d ea f7 3a 3d fa d0 40 bd
       -0.057684693 0.0529985 0.045646586 -0.047074296
000320 2e 8c 02 3e 2f 7d 0e 3c de 93 ee 3c cd 18 35 be
       0.12748787 0.008696838 0.029123243 -0.17685242
000330 e4 4c 4a 3d 03 fc 0a 3d e9 f3 74 3c a2 ed 25 bd
       0.049389735 0.033931743 0.014950731 -0.040509827
000340 c6 e2 27 3e 7c 56 e3 3d 92 98 14 3e e0 12 ce 3c
       0.16395101 0.1110048 0.14511326 0.025155485
000350 c6 c6 a4 3b 2f 6e a5 bd 47 ea cd bd d2 3c 7c bd
       0.0050285785 -0.080776565 -0.100544505 -0.06158144
000360 ed 4c fd 3c 93 0f 57 bd a9 5a e9 bd 2d 8b c4 3d
       0.03092047 -0.052505087 -0.11394245 0.09596858
000370 80 8d ae 3d f0 55 ef bd 6a 8d 2d 3e f9 e5 8b bd
       0.08523083 -0.11686313 0.16948476 -0.06830973
000380 0c 74 32 3e e7 36 82 3d 01 c5 bf bd 33 4a 4d 3e
       0.17427081 0.06358128 -0.093637474 0.20047836
000390 64 d4 fc bd bb 28 a6 bd 1e 61 00 3e cd ab 30 bd
       -0.12345198 -0.081132375 0.12537047 -0.043132592
0003a0 2e 07 27 bd 08 03 19 b9 83 a4 f5 bc 5c 7f e4 3d
       -0.04077833 -0.00014592346 -0.029985672 0.111571044
0003b0 9c db 29 3e 55 e4 75 3d 4d 25 c0 3d 77 42 08 3d
       0.1658768 0.060032208 0.093821146 0.03326651
0003c0 d2 21 e8 3c 79 e4 68 bb 85 91 ea 3c 39 bc 2d 3e
       0.02833644 -0.003553657 0.028633842 0.16966332
0003d0 4e 58 9d 3d 69 56 1e bb ba 53 c6 3d 61 fd 39 bc
       0.076828584 -0.0024160391 0.09683938 -0.011351914
0003e0 5f be 9b 3c df 13 34 3e ad 5a e3 bd 30 a6 42 3d
       0.019011674 0.17585705 -0.111012794 0.04752177
0003f0 2d 10 fe bc 58 83 3d be 31 f7 1f be 41 8a 07 bb
       -0.031013573 -0.18507135 -0.1562164 -0.002068177

coord_encoder.2.bias f4 [32]
000000 3c cd 14 3d 82 a0 93 bd 97 57 b1 bd 0c a6 f4 bd
       0.03632854 -0.07208349 -0.086592846 -0.119457334
000010 71 47 12 3d 48 4b 30 3e d1 05 ae 3d e7 e9 ed 3d
       0.035712663 0.17216218 0.08497203 0.11616879
000020 ec c6 f7 3d 51 7d 8c 3e f9 5c 29 bc 07 50 08 be
       0.12098488 0.2743936 -0.010337108 -0.13311778
000030 ac 6e 02 3e 89 ae e9 bd c4 83 92 bd 7d 3d 81 3d
       0.1273753 -0.11410243 -0.071540385 0.06310556
000040 e2 6d e0 3d f8 e6 c2 bd d8 48 fd 3d 44 87 f8 bd
       0.109584585 -0.0951671 0.123674095 -0.12135175
000050 0c 60 8e 3c 60 2f b4 3d 17 cd 02 3d bc 97 d4 bd
       0.017379783 0.087980986 0.03193387 -0.103805035
000060 60 2e c8 bd 8d f3 ea 3d 5a 80 8c 3d 61 e8 b1 bd
       -0.0977447 0.11472235 0.068604186 -0.08686901
000070 24 50 37 3e 85 f2 85 bc 9a ce 58 bc 34 b2 4f 3d
       0.17901665 -0.016350994 -0.013232851 0.050707057

decoder.0.weight f4 [64, 64]
000000 53 9e df 3d 54 75 88 bd 0c 93 93 3c 0a 4f fc bc
       0.1091887 -0.066630036 0.018014453 -0.030799408
000010 e7 f2 28 bd 6a e5 01 bd c4 c0 30 3d dd 7d 9b 3d
       -0.041247275 -0.031712927 0.043152586 0.07592366
000020 96 3b a5 bd 7f 6f 84 3d a0 20 e6 3d 3b af 57 bc
       -0.08068006 0.06466579 0.112366915 -0.013164337
000030 89 5e a9 bc de 49 22 3d 44 f1 db bd 09 3c d8 3d
       -0.02067496 0.039621226 -0.10739377 0.10558326
000040 bd e7 ec bb 60 f5 19 bd d7 05 92 3d 8a 79 8c 3d
       -0.007229774 -0.037587523 0.0713002 0.06859119
000050 47 2e a5 bd e6 80 9d bd 18 63 d2 bd cc 16 f9 bd
       -0.08065467 -0.07690601 -0.10272807 -0.12162551
000060 60 5d 5e bd 2b 29 e1 bd 10 88 47 ba e0 44 50 bd
       -0.054288268 -0.1099418 -0.00076115225 -0.050846934
000070 a7 dc b3 3d 12 b0 b2 3d ba 7a b4 3d 76 08 85 bd
       0.087823205 0.08724989 0.08812471 -0.064957544
000080 21 a9 c2 bd f2 b5 7a 3d 2a 96 0f bc 9c 89 a1 3d
       -0.09504915 0.061208673 -0.008763829 0.07887575
000090 3d 87 06 be db c6 e9 3d 30 89 c4 bd 24 1a bb bd
       -0.13137527 0.11414882 -0.09596479 -0.09135845
0000a0 a4 31 f4 3b 3c 3f 96 bd 3d 2c c0 bd fd 6d ab 3d
       0.0074522067 -0.0733628 -0.09383438 0.08370588
0000b0 79 39 dc 3d 89 4b 1b 3d 93 80 3b 3c 8d e1 f9 bc
       0.107531495 0.037913833 0.011444229 -0.030503059
0000c0 b5 dc de bd d5 a6 ec 3d 22 01 b7 bd ea 45 02 be
       -0.1088194 0.11555258 -0.08935763 -0.12721983
0000d0 48 b4 e9 3d 45 29 41 3b d0 f5 a2 3d 10 cc 7b bd
       0.11411339 0.0029474061 0.07957041 -0.061473906
0000e0 51 47 ca 3d 13 46 a5 bd 9d 08 92 3d e7 73 e0 3d
       0.09876884 -0.08070006 0.07130549 0.109596066
0000f0 0e cd 44 3b 67 96 8f 3d 3e 21 cd ba 44 be e8 bd
       0.0030029449 0.07011109 -0.0015650166 -0.11364415
000100 bf 8a 55 3d bb 0b 0e be f4 e1 10 3c ac 39 6e bd
       0.05213427 -0.13871662 0.008842934 -0.05816047
000110 bf fe 65 bd 25 68 40 bd 42 7f a2 3d 42 3d f4 bd
       -0.056151148 -0.04697432 0.07934429 -0.119257465
000120 56 8e 58 bd 5d 0f 06 be 99 4d b5 bd 9a 19 2b be
       -0.052870117 -0.13091798 -0.08852691 -0.16708985
000130 64 a4 e6 bd f8 9c 81 bd 31 85 cc 3d 33 17 71 bd
       -0.11261824 -0.063287675 0.09986342 -0.058860015
000140 21 22 05 be 63 21 a2 bd 9f 47 08 3e e6 9e 8e ba
       -0.130013 -0.07916524 0.13308571 -0.0010881096
000150 5b f9 24 bd 10 13 a3 3d 22 bf 78 bd 16 36 54 bd
       -0.040276866 0.0796262 -0.060729153 -0.051809393
000160 e1 8b a7 3b c0 e7 6f 3d 36 cf cd bd ed 7c c3 bc
       0.0051131104 0.058570623 -0.10049288 -0.02386328
000170 33 eb 92 3c b3 37 08 3c 3d 15 9e bd dd 29 e2 3d
       0.017934417 0.008314061 -0.07718895 0.11043141
000180 5f c3 07 3d d4 a1 9a bd cf 02 1b 3d ca 17 00 be
       0.033145305 -0.075503975 0.037844475 -0.12509075
000190 d9 84 57 3d 37 ba 1d be f9 7c 7e bd 75 45 82 bd
       0.052616928 -0.15403067 -0.062130902 -0.06360904
0001a0 2b e3 15 be 67 be 32 bd 2b 0e a8 bb 2d 4f c5 bd
       -0.14637439 -0.043638613 -0.005128642 -0.09634242
0001b0 42 4f 58 bc a8 b1 17 3e d9 da f5 bb 3a 1d f4 bd
       -0.01320249 0.14813864 -0.0075028953 -0.11919637
0001c0 ea 1e 8f 3c 59 71 63 bd d6 07 65 3b 87 e0 e5 bd
       0.017470796 -0.05552802 0.0034947298 -0.11224466
0001d0 b9 9a bc bd 21 f1 cb bc 29 6f 6d 3d f4 be 93 3c
       -0.092091985 -0.024895253 0.05796734 0.01803539
0001e0 5a 6b 96 bc 03 96 2a bd 4e 3b 96 bd d9 4a 28 bd
       -0.018361736 -0.04164697 -0.0733553 -0.041087005
0001f0 41 70 c4 3c 7d 96 57 3d c5 43 0c 3e cc 95 9f 3d
       0.023979308 0.05263375 0.13697727 0.07792243
000200 8c c8 70 3d c5 1c b2 bc 02 d4 95 bd a9 04 ae 3d
       0.058785006 -0.021742234 -0.07315828 0.084969826
000210 dd b0 ae 3d ca aa ad 3d 3e 8b 12 3d e7 1c 49 3d
       0.08529828 0.08479841 0.035777323 0.04909983
000220 71 89 c0 3d 09 3c e2 3d f3 4e ea bd e2 57 17 be
       0.09401215 0.11046607 -0.114408396 -0.14779618
000230 e6 76 55 bd 9a d5 c7 3d 06 22 df 3d 19 bf 9b 39
       -0.052115344 0.09757538 0.10895161 0.00029706283
000240 39 aa e3 bd 76 f3 e1 3b 91 46 2d 3d b0 09 c9 3d
       -0.11116452 0.006895478 0.042303625 0.09816301
000250 0f 41 9f 3d 94 6c e3 bd 6b 8f d7 3d ba 82 06 3e
       0.07776081 -0.11104694 0.10525402 0.13135806
000260 70 d9 2d bd fb 54 5c bd ef 11 6d 3d 9c 1b e6 bd
       -0.042443693 -0.05379198 0.05787843 -0.11235735
000270 2f f3 ab 3d d3 0d 17 bd e3 a0 46 3c d0 bc b2 bd
       0.08395993 -0.03687842 0.012123319 -0.087274194
000280 c4 55 d5 bd 1f ab f9 3c 17 cc 4c bd 51 86 91 bd
       -0.10416749 0.030477105 -0.049999323 -0.07105697
000290 56 b7 fd 3d 8e 04 03 3d d9 2e 07 bd 66 1a 0e be
       0.12388484 0.031986766 -0.03300366 -0.13877258
0002a0 9e 00 05 be 98 d7 c8 bc 7d 0b 36 3d d4 72 00 be
       -0.12988517 -0.024516866 0.04444455 -0.12543803
0002b0 4e 80 4d 3d 63 5f 10 3e b9 7e db 3c 0e ae fa bd
       0.05017119 0.14098887 0.026793825 -0.122402295
0002c0 e4 70 82 3d 22 aa 20 bd d7 0a 40 3d 9f 55 c9 3a
       0.063691884 -0.03922475 0.046885338 0.00153606
0002d0 78 91 03 3d 1f 4d 19 bd 78 95 dd 3a c1 ed a9 3d
       0.03212115 -0.037427064 0.0016905507 0.08297301
0002e0 e7 b6 c2 bd 73 6a 06 3b 2d f6 f5 3d 3a 03 82 3d
       -0.09507542 0.0020510226 0.12009845 0.06348272
0002f0 31 c9 17 3d 00 db 2f bc 89 45 9e 3d 55 19 dc bd
       0.037057105 -0.010733366 0.077281065 -0.10747019
000300 67 d8 cb bd a6 4a 1d 3e 19 26 5b bc a0 f4 c9 bd
       -0.09953385 0.15360507 -0.013375782 -0.09861112
000310 08 42 c9 bd a4 27 85 bd 8a d4 a2 be 2b 6a da bd
       -0.098270476 -0.065017015 -0.3180278 -0.10664781
000320 d1 76 7d bd a3 c9 2d bd 46 27 d9 3c a1 54 45 bd
       -0.06188089 -0.042428624 0.026507985 -0.04817641
000330 d2 56 07 bd 5f 71 41 3e 1d c2 fb bc 0c e3 23 be
       -0.033041783 0.18890904 -0.030732209 -0.1600458
000340 8a 12 6f 3d 77 bf 31 be 76 dc 27 be f7 0d 74 3c
       0.05836729 -0.17358194 -0.16392693 0.014895908
000350 55 e7 76 3e fe 0b 53 be d4 d2 c5 bd 43 98 8d 3c
       0.24111684 -0.20610043 -0.09659353 0.017284518
000360 16 bf f0 3d 2e d9 f7 bd a8 ae ac bd 6d 7a c5 bd
       0.11755197 -0.121019706 -0.084317505 -0.096424915
000370 b2 3e 26 be 77 ba a6 3d ad b4 17 bd 1b 34 29 3d
       -0.16234854 0.08141034 -0.03703754 0.041309457
000380 f2 4d dc bd 0a 0d c7 bc 61 d8 48 3d a2 67 46 3b
       -0.107570544 -0.02429821 0.04903448 0.0030274172
000390 a0 30 e8 bc ce 60 18 3e e0 1c ae bd b5 01 aa 3d
       -0.028343499 0.14880678 -0.08501601 0.08301107
0003a0 51 db 29 bd 43 18 dc 3d 84 9a 6c 3d 27 1f 96 3d
       -0.041468922 0.10746815 0.057764545 0.073301606
0003b0 0e 79 c1 bb f9 ec 39 bd 9b 66 fb bd a3 70 ba 3c
       -0.0059043234 -0.04539201 -0.1227543 0.022758787
0003c0 e4 0a f8 3d b8 db 11 3c 44 72 4c 3d 26 11 66 bd
       0.12111452 0.008902483 0.04991366 -0.056168698
0003d0 66 5b 33 bb 54 aa 38 bd d7 db d1 bd ef f7 c3 3d
       -0.002736771 -0.045084313 -0.10247009 0.09568774
0003e0 b1 5a d0 3c 14 71 30 3c c2 64 fd 3d 63 13 e9 3c
       0.02543387 0.010769147 0.12372734 0.028451627
0003f0 52 9f e5 3b 6b e8 5a 3d f2 ff 57 3d 7d bf d2 3c
       0.007007518 0.053444307 0.052734323 0.025726074

decoder.0.bias f4 [64]
000000 eb d1 55 bd 08 74 e0 bc 06 ae ef 3d e2 03 05 3e
       -0.052202147 -0.027399078 0.11703114 0.12989762
000010 53 55 dd bd 1d 41 cf bc ce a3 36 3d 50 c9 dd 3d
       -0.1080729 -0.025299603 0.04458981 0.10829413
000020 77 c3 7a bd 9d 3d 26 bd 36 4c b6 bd 28 87 c0 3c
       -0.061221566 -0.040586103 -0.08901255 0.023501948
000030 26 55 9f 3c 76 e8 8c 3c 90 ed b2 bb 8d 8d c3 bd
       0.019449782 0.01720069 -0.0054604486 -0.09548483
000040 22 01 71 bd 20 7a 18 bd 80 e2 43 3d 3e cc 2a 3d
       -0.05883897 -0.037225842 0.04782343 0.041698687
000050 9e be 25 3d 11 c4 c6 bd 41 01 36 bc a4 d1 a8 bc
       0.04046499 -0.097053654 -0.011108697 -0.020607777
000060 7a 2a c8 3d d7 25 c9 3d cb 23 7e bd c5 a1 aa bd
       0.09773727 0.098216705 -0.062045854 -0.08331636
000070 e2 34 d1 bd cd f0 56 bb bc 82 f7 bd 50 2c 6d 3d
       -0.10215165 -0.0032797337 -0.120854825 0.057903588
000080 4f 5d 30 bd 51 34 a4 bd 56 00 90 bb 76 ba 39 bd
       -0.043057736 -0.08017791 -0.0043945713 -0.04534384
000090 1d 9b a6 3d f4 a9 d3 3d 4e 90 c7 bd 6c df 3f 3d
       0.08135054 0.1033515 -0.09744321 0.04684393
0000a0 5d bd 9b 3c 05 52 64 3d a3 d4 52 bc 1c ab 68 bc
       0.019011194 0.055742282 -0.012868079 -0.014200952
0000b0 35 5c 6a bc 9e 6b 44 3c a0 bd ac 3c 3e 2c 9d 3d
       -0.01430421 0.011988549 0.021086514 0.07674454
0000c0 f1 4d 01 3d c5 86 ea bd f5 17 6e bd f8 51 77 bd
       0.03156847 -0.114514865 -0.058128316 -0.060380906
0000d0 18 6f 0c be ae 99 09 3e c0 a1 80 bd c9 11 77 bd
       -0.13714254 0.1343753 -0.06280851 -0.060319696
0000e0 55 8b ab bd 1b 2e 9c 3d 53 48 94 bd 5f 41 aa bd
       -0.08376185 0.076259814 -0.07240357 -0.0831325
0000f0 15 d3 89 3d cb 8c 44 3d 49 9e 11 bb 12 3d 03 be
       0.06729714 0.047985833 -0.002221959 -0.12816265

decoder.2.weight f4 [64, 64]
000000 25 60 97 bd 4c cd e9 bd 56 e0 0b bc aa 82 f0 3c
       -0.07391385 -0.114161104 -0.008537373 0.02935918
000010 ae 90 8c bc e1 58 17 bd eb 50 80 bd c2 fa 5b 3d
       -0.017158832 -0.036949996 -0.06265434 0.05370594
000020 d8 79 e7 bc 87 92 a4 bc 93 ca 17 bd 3d 86 1f 3d
       -0.028256342 -0.020089401 -0.037058424 0.03894638
000030 17 b7 86 3d ab 42 bc 3d e0 64 af 3d f7 47 a2 3c
       0.0657789 0.091924034 0.08564162 0.019809706
000040 a6 f5 3d 3d 6d 00 0a be fc dc e8 bd f2 27 d1 3e
       0.046376847 -0.13476725 -0.113702744 0.40850788
000050 4e 29 bf 3c a1 7a 87 bd 6e 89 85 3d d6 3e 02 3e
       0.023335125 -0.066151865 0.06520353 0.12719283
000060 b1 18 90 3d 2c 19 12 3e 96 7e 00 bd aa f9 f3 bd
       0.070359595 0.14267415 -0.03137072 -0.11912854
000070 e7 fa 9d be 68 a2 93 3d 7d ee 09 3e 93 2b cd bd
       -0.30855486 0.07208711 0.13469882 -0.10018077
000080 7a ed 14 3d 1e 0d 29 be 54 11 56 3d 4a 13 b6 3d
       0.036359288 -0.1650891 0.05226262 0.08890398
000090 25 63 9d 3e 78 2d cd 3d e9 55 05 be 9a b6 8d bd
       0.30739704 0.10018438 -0.13021053 -0.06919594
0000a0 98 94 f8 bc 3f 14 ac 3d 32 e0 d1 3d 94 e9 06 bd
       -0.030344293 0.08402299 0.1024784 -0.0329376
0000b0 bc 0b b7 3d ab 76 31 be e1 38 0a 3b 78 86 87 3d
       0.08937785 -0.17330424 0.0021091031 0.06617445
0000c0 b1 2e be bd 54 db 39 3e 95 99 42 be 02 20 c7 bd
       -0.092862494 0.18150073 -0.190039 -0.09722902
0000d0 f2 e8 20 3d 9a b1 b9 bc 19 77 16 be 5f c1 89 bc
       0.039284654 -0.022667695 -0.1469387 -0.01681584
0000e0 55 29 5f 3e 95 69 34 3d 94 a6 03 3c ff f8 f8 bd
       0.2179311 0.044046003 0.008035321 -0.12156867
0000f0 b5 9b 8d be be 0e 00 be 7f 2f be 3d 4a 36 98 bd
       -0.27657858 -0.12505624 0.09286403 -0.0743223
000100 12 cc 02 3e 40 fd 0e bd da ac 97 3c 3b c3 08 3e
       0.12773159 -0.034909487 0.01851504 0.13355725
000110 a4 30 e4 bc 14 db 8b bd e3 0d dd 3b 9d 72 82 bd
       -0.027855225 -0.06828895 0.00674604 -0.06369517
000120 1a fa 33 3d 87 f4 71 3d b1 df b8 3d 78 84 df bc
       0.043939687 0.05907109 0.09027041 -0.027284846
000130 d4 7e c7 bd 4a d4 f5 bd 23 20 c1 bc 3f 9a d9 3d
       -0.097409874 -0.120033816 -0.023574894 0.10625123
000140 73 d3 0d bd 63 d6 ba 3c 67 8e 0f bd 49 6d 2a be
       -0.03462548 0.022807306 -0.035047915 -0.16643251
000150 2c 08 24 3e 82 67 3f bc d0 de 9e bd 10 17 fb 3d
       0.16018742 -0.011682393 -0.07757342 0.12260258
000160 89 47 60 3d 98 5d a0 3d 4e 71 c0 3d a0 c8 c9 bd
       0.05475572 0.078303516 0.09396611 -0.09852719
000170 55 e1 65 3e 84 f1 72 bc 2e 80 a1 bb 79 a4 2d 3d
       0.22449239 -0.01482809 -0.0049286103 0.04239318
000180 9a 6d 29 bd cd f2 06 3e db 32 0a 3c 18 7a a6 3d
       -0.04136429 0.13178559 0.008434976 0.08128756
000190 e1 be c5 bc 01 4a 04 be b3 8b cb 3c 87 92 8f bd
       -0.02413887 -0.12918855 0.024846887 -0.0701037
0001a0 dd a9 47 bc 89 8a ca bd 06 f0 e0 bd f4 b8 53 3d
       -0.012186495 -0.09889705 -0.10983281 0.051690057
0001b0 38 6c da bd 15 ae 4f bd ec 2b f4 bd 2d 82 70 3d
       -0.10665172 -0.050703127 -0.1192244 0.058717895
0001c0 c7 94 88 3e a3 f9 06 3d 23 cd 48 bd 7a e0 f8 3d
       0.26676008 0.032952916 -0.04902376 0.121521905
0001d0 4f fc 14 3e 21 d2 29 3b 22 06 18 3e 46 7e 9f 3d
       0.14549373 0.00259126 0.1484609 0.077877566
0001e0 e2 12 01 be a6 0a db bc f3 5b 94 bd b0 7e 84 3d
       -0.1260486 -0.026738476 -0.072441004 0.06469476
0001f0 aa 68 25 3e 56 79 bc bd 5d 2a 81 bd ae b9 34 3d
       0.16153207 -0.092028305 -0.06306908 0.04412239
000200 2d db 64 3d 21 d2 86 bd da d7 8d bb f5 75 96 3c
       0.055873085 -0.06583048 -0.00432871 0.018366793
000210 41 18 5f bd 3a b2 ac bd aa 49 95 bd a0 b7 81 bd
       -0.05446649 -0.084324315 -0.07289441 -0.06333852
000220 93 da 8c bd f2 d0 0f 3d 93 be 01 bd c3 36 9f bd
       -0.06877627 0.035111375 -0.031675886 -0.07774117
000230 8c e7 8f 3d 29 d1 dc 3d 23 bd 5d bd 94 e5 24 bd
       0.07026586 0.10782082 -0.054135453 -0.040258005
000240 57 fc 09 be 3d b0 e2 bd bb b6 4b 3b a5 84 7c bb
       -0.13475166 -0.11068771 0.0031084258 -0.003853121
000250 bc 4d 37 3b 1e a6 44 bd 42 1c 17 bd d4 e4 85 3a
       0.0027969917 -0.048009984 -0.036892183 0.0010215291
000260 ff a1 2d 3e 8d 03 f5 3d 42 94 d4 bd 56 e5 00 bd
       0.16956328 0.11963568 -0.103798404 -0.03146871
000270 01 e9 09 bd 3f 24 2b bd 96 1b 37 3d aa 8b 88 bd
       -0.033669475 -0.041782614 0.044704042 -0.06667264
000280 70 da 79 ba 5c 3b b8 bd 5a d9 9e bd 08 48 21 be
       -0.0009531146 -0.08995697 -0.077563 -0.15750134
000290 0c 71 01 3d 63 7e a8 bd 40 85 d7 bd 6b 4f bc bd
       0.03160195 -0.08227231 -0.10523462 -0.09194835
0002a0 24 9a 00 3e f6 5a 5d bd f4 55 0d 3e 5e 62 6f bd
       0.125588 -0.054041825 0.1380232 -0.05844342
0002b0 12 fe 56 3d 3e 78 c5 bc 76 f2 81 bd 52 4a fb 3d
       0.052488394 -0.024105188 -0.06345074 0.12270035
0002c0 07 5f 03 be 94 ec cf bd a0 00 ad 3d 76 51 48 bc
       -0.12829219 -0.101525456 0.08447385 -0.012226453
0002d0 13 0c 22 bd 25 20 04 3e 1b 13 f3 bd 0f 49 f1 bc
       -0.039562296 0.12902887 -0.118688785 -0.029453782
0002e0 9a f0 20 3e e4 54 5b ba 55 99 ac bc 9d 75 68 bd
       0.15716782 -0.00083668367 -0.021069208 -0.05675279
0002f0 b3 10 05 be 25 d8 e5 3d 98 4a 67 3b 5b 7d 2f bc
       -0.12994651 0.11222867 0.0035292264 -0.010711039
000300 b6 de 90 3d e7 4c da 3d f4 ec 68 3d e0 cf e3 3d
       0.07073729 0.10659199 0.0568666 0.111236334
000310 53 d5 59 bc 16 41 45 3c b0 85 1f bd 95 4c 0f be
       -0.013295489 0.0120394435 -0.038945854 -0.13994057
000320 1e fd b8 3d 63 9a b6 bd 7d 7c b8 bd 69 cf 92 bd
       0.09032653 -0.08916166 -0.09008119 -0.071684666
000330 30 f0 fd bd 43 00 9c bd bf 98 a6 bd c2 d0 1b bc
       -0.12399328 -0.076172374 -0.08134603 -0.009510221
000340 8c bd af bd fb e7 a7 bd 49 12 b8 bd 99 2c 2a be
       -0.08581075 -0.08198544 -0.089878626 -0.16618575
000350 4e 2c a7 3b 91 50 bb 3c 59 29 9f 3b 65 bf 7e 3d
       0.005101717 0.022865565 0.004857224 0.062194247
000360 9f 74 55 bd 02 8a ab bd 93 ad b8 3c 66 4f aa 3d
       -0.05211317 -0.08375932 0.022543704 0.08315925
000370 ad b7 e7 3d 9d a8 ce bc f8 1b 77 3c ed 6b 17 be
       0.1131433 -0.025226885 0.015082352 -0.14787264
000380 aa bb 96 bd f7 a1 8c 3c 9c 08 ea bd da 67 08 be
       -0.07360013 0.017167075 -0.11427423 -0.13320866
000390 a1 e4 1b be 40 85 6c 3c d0 d4 f8 3d 51 50 0e 3c
       -0.15223934 0.014436066 0.12149966 0.008686141
0003a0 4f 3b f3 bc 45 b5 e7 bc 5e c1 e3 3d a7 f7 93 bd
       -0.029691366 -0.028284678 0.11120866 -0.0722497
0003b0 ee d1 47 3d 67 81 0f 3e e8 2c b0 bc 91 ea cc 3d
       0.04878419 0.14014207 -0.021505788 0.100056775
0003c0 aa c0 81 bd b8 66 ef bd d6 86 19 3e 31 5e 78 3d
       -0.06335576 -0.11689514 0.14992842 0.060636703
0003d0 84 d3 91 3d 3d 0c 6c bc d8 6a 0a be bd 4b 1f 3e
       0.071204215 -0.014407215 -0.1351732 0.15556236
0003e0 d4 76 89 3d 03 e5 98 3d 25 90 21 bd 36 82 aa 3d
       0.06712118 0.074655555 -0.039444108 0.08325617
0003f0 3b 54 48 be eb ce be 3c 0f 96 06 3e 9a 00 89 bd
       -0.19563381 0.023292026 0.1314318 -0.06689568

decoder.2.bias f4 [64]
000000 7c 18 23 bd 3a 28 39 bd 60 ef f5 bb 25 06 f3 3c
       -0.039818272 -0.04520438 -0.0075053424 0.029666016
000010 2e 17 b0 bc 81 a8 8c 3d 8d c1 45 be 36 bc 06 be
       -0.021495428 0.06868077 -0.19312115 -0.13157734
000020 e1 e8 a7 bd 21 9f 97 bd fe 59 63 3d ee a1 9d 3d
       -0.08198715 -0.07403398 0.055505745 0.07696901
000030 3d 9d 0a 3e 42 88 09 3c 44 f3 79 bd 9b 7b c7 3c
       0.13536544 0.008394303 -0.06102301 0.024350932
000040 47 2d 47 3d 91 cc 12 bc 1b c7 eb 3c e0 0b 7d 3d
       0.048627164 -0.008959905 0.028781464 0.061778903
000050 2d 9f 12 bd 07 c5 33 bd 52 f2 8c 3a 6f b4 d9 3c
       -0.035796333 -0.04388907 0.001075337 0.026575295
000060 62 45 0a bd c4 04 ce bd df 9e f2 bd 8f 3c 08 3e
       -0.033757575 -0.10059503 -0.118467085 0.13304351
000070 ac ab 01 3e 4f e0 fa bd 13 44 8a bd 3c 49 94 bc
       0.12663144 -0.12249815 -0.067512654 -0.018101327
000080 3b 8f 56 bd fa 1d 10 be 8e b3 56 3d f5 e3 98 bd
       -0.05238269 -0.14073935 0.05241733 -0.07465354
000090 5a be 5f 3d e8 90 9f bd c6 db 3e 3c 98 68 1c bd
       0.054624893 -0.077913105 0.011649078 -0.038185686
0000a0 77 6a 84 bd 41 67 0c bd 38 a6 e8 bd 21 e0 f4 3d
       -0.06465619 -0.034278158 -0.11359829 0.11956812
0000b0 15 0f 48 bc 1c 1b a6 bd 69 c2 eb 3d 8f f3 26 3d
       -0.012210627 -0.081106395 0.1151169 0.04075962
0000c0 7a 14 63 bc 1f 79 6b 3d a6 9b 3f 3b 14 5b 06 3c
       -0.013859862 0.057488557 0.002923706 0.008200426
0000d0 a9 1b c3 3d cb 80 ee 3c 32 64 ae 3d 32 5e 8b 3d
       0.0952676 0.029114148 0.085152045 0.06805076
0000e0 f3 e1 16 bd 78 b9 52 3c 7c 38 3d bd 0d b8 e2 3d
       -0.036836576 0.012861602 -0.046196446 0.11070261
0000f0 d1 64 99 bd 62 62 9c 3d 09 df 41 bd 9e 04 94 3d
       -0.07489932 0.076359525 -0.047331844 0.07227443
