Code/Trained models/m_mu_k_y0_500_norm_4001_P2INN.pth (torch, 70788 bytes, 17 tensors)

param_encoder.0.weight f4 [32, 3]
0	0x3ee39f12	0.444573
1	0xbe8ae57d	-0.2712821
2	0xbe8fcf4a	-0.28087837
3	0xbe87ccab	-0.26523337
4	0xbf1dcfbd	-0.6164511
5	0xbf1ade47	-0.6049542
6	0xbebe0bf2	-0.3711849
7	0xbe30d069	-0.17267002
8	0x3d5afb59	0.05346236
9	0xbe5252b6	-0.20539364
10	0xbed54dee	-0.41661018
11	0x3f6c188b	0.9222495
12	0xbe21056d	-0.15724726
13	0x3e43948f	0.1909964
14	0x3ecfc870	0.4058261
15	0xbf0b0b68	-0.5431428
16	0xbd8693f6	-0.0657119
17	0x3ea4f77e	0.32220072
18	0x3eed701c	0.46374595
19	0x3c7d0a31	0.015444324
20	0x3f07210f	0.5278482
21	0xbee83bd7	-0.45358154
22	0xbedb2d8d	-0.4280819
23	0x3f5c1548	0.8596997
24	0xbc84f224	-0.016228743
25	0x3f1573c5	0.58379775
26	0xbdd21499	-0.10257835
27	0xbe347fcc	-0.17626876
28	0x3ee9cd0c	0.4566425
29	0x3eea2709	0.45732906
30	0x3db42660	0.08796382
31	0xbe82f605	-0.25578323
32	0xbd3676ee	-0.044547014
33	0xbe492231	-0.19641949
34	0x3f291a9a	0.66056216
35	0x3e846936	0.2586152
36	0x3e2381bb	0.15967457
37	0x3ea88790	0.32915926
38	0x3e09ff0a	0.13476196
39	0xbe9c2e0d	-0.30503884
40	0x3ee9474e	0.45562214
41	0x3eecfb48	0.46285462
42	0xbebea71b	-0.37236866
43	0x3e95ae70	0.29234648
44	0x3e8122e7	0.2522194
45	0xbda3c93c	-0.07997367
46	0xbeeea5c0	-0.46610832
47	0xbd93c044	-0.07214406
48	0xbec76d84	-0.3895074
49	0x3e1abefd	0.15111919
50	0x3ef30e77	0.47471973
51	0xbe8454cc	-0.25845945
52	0x3f00b04c	0.5026901
53	0xbd337716	-0.04381474
54	0x3d98be44	0.07458165
55	0xbdf056f7	-0.11735337
56	0xbd643743	-0.055716764
57	0x3e9997ae	0.29998535
58	0x3e4057af	0.18783449
59	0x3c256d78	0.0100969
60	0xbecafdf2	-0.3964687
61	0x3f0a8e5e	0.54123485
62	0x3ebc6103	0.36792764
63	0x3dc4e9f5	0.09614936
64	0xbea24195	-0.3169066
65	0x3de88e62	0.11355282
66	0xbdd97687	-0.106183104
67	0x3f32d4f9	0.6985622
68	0x3cecc7fd	0.028903956
69	0xbc5e35fa	-0.013562674
70	0xbc54ef00	-0.012996435
71	0x3eb8019f	0.35938737
72	0xbd064ecc	-0.03278999
73	0x3ef2d1eb	0.4742578
74	0x3e9a568d	0.30144158
75	0xbe8fa108	-0.28052545
76	0xbd931f7a	-0.07183738
77	0xbf12b05f	-0.5730037
78	0xbe776b11	-0.24161936
79	0x3e3b27eb	0.18276946
80	0xbeb115f3	-0.34587058
81	0x3e26dd63	0.1629539
82	0x3f56abbe	0.8385581
83	0xbe7e0f13	-0.24810438
84	0xbe3c87a4	-0.18411118
85	0xbe5cf4ca	-0.21577755
86	0x3c50fb01	0.0127551565
87	0xbc5e6ad0	-0.013575271
88	0x3f00fbad	0.50384027
89	0xbe18e656	-0.14931616
90	0xbe783f13	-0.24242811
91	0xbd19b9ae	-0.037530594
92	0x3f4908f0	0.7852926
93	0x3e8801d2	0.2656389
94	0x3eaf1a93	0.34199962
95	0xbe404c94	-0.18779212

param_encoder.0.bias f4 [32]
0	0x3f2eca86	0.68277776
1	0x3ec58edc	0.38585556
2	0x3f0ac383	0.5420458
3	0xbe63cde4	-0.2224651
4	0xbf0ac47d	-0.5420607
5	0xbe795665	-0.24349363
6	0x3da25cb7	0.0792784
7	0x3f0a4ad2	0.54020417
8	0xbe91bb25	-0.28463092
9	0x3f3aaf85	0.7292407
10	0x3d11b89e	0.035576455
11	0x3d9505a9	0.0727647
12	0x3ce6e18f	0.028183727
13	0xbdfcf79b	-0.123519145
14	0x3f2b405c	0.6689508
15	0x3e52eacb	0.20597379
16	0x3e9aa23c	0.302019
17	0xbf1eb3b6	-0.6199297
18	0xbee5dd79	-0.44895533
19	0x3d42c881	0.047554497
20	0x3ea42927	0.32062647
21	0x3e89f5b7	0.26945278
22	0xbcd7d6e7	-0.02634759
23	0xbf379e5e	-0.71726024
24	0x3d8e5c4b	0.06951197
25	0xbee4ec18	-0.44711375
26	0xbed3008a	-0.4121135
27	0x3e0d5ce6	0.13804969
28	0xbebb22e5	-0.3655006
29	0x3f3a1020	0.72680855
30	0xbdf30ba4	-0.11867455
31	0x3e420dcb	0.18950574

param_encoder.2.weight f4 [32, 32]
0	0x3e29103f	0.16510104
1	0xbdebdb69	-0.115164585
2	0xbc1ed57c	-0.009694453
3	0xbd3e9e67	-0.046537783
4	0x3d4fa606	0.05069544
5	0x3e110e31	0.1416557
6	0xbdcce900	-0.10005379
7	0xbd83e357	-0.06439846
8	0x3e1c5839	0.1526803
9	0xbd7496ac	-0.059714004
10	0xbcc9c798	-0.024631307
11	0x3e22a9e5	0.15885122
12	0xbdd28542	-0.10279323
13	0xbcbb8711	-0.022891553
14	0x3d9a1f1a	0.075254634
15	0x3d8cb8fa	0.06871219
16	0xbe3b5dcb	-0.18297498
17	0x3d82bc6a	0.063835934
18	0xbe3c878b	-0.1841108
19	0xbda964c4	-0.08271173
20	0x3debed80	0.11519909
21	0xbd800348	-0.06250626
22	0xbdab6898	-0.08369559
23	0xbd8f0572	-0.069834605
24	0x3d53246a	0.0515484
25	0xbe1a90e0	-0.15094328
26	0xbe07413c	-0.13208479
27	0xbe194bd9	-0.1497034
28	0x3d273133	0.040818404
29	0xbde62bcf	-0.112388246
30	0xbd45ce0f	-0.048292216
31	0xbcdd1550	-0.026987702
32	0xbda51cca	-0.08062132
33	0xbda507cc	-0.08058128
34	0xbdcddfd5	-0.10052458
35	0xbde93843	-0.11387684
36	0xbd24485c	-0.04010807
37	0xbdf14ee9	-0.11782629
38	0xbe3199b5	-0.17343791
39	0x3e188363	0.1489387
40	0x3c5236bf	0.012830435
41	0xbe050e5b	-0.12993757
42	0x39424305	0.00018526248
43	0x3e104b9f	0.14091347
44	0xbe0c0339	-0.13673104
45	0xbde681bf	-0.11255216
46	0xbe18a4be	-0.14906594
47	0xbcc405f6	-0.023928624
48	0xbce5fc25	-0.028074333
49	0xbe0adc76	-0.13560662
50	0x3ded7bf1	0.115959056
51	0xbe2993b9	-0.16560258
52	0x3e2d5c97	0.16929851
53	0xbe06d6f7	-0.1316794
54	0xbcc80a0d	-0.024418855
55	0xbda028b2	-0.07820262
56	0xbd636759	-0.055518482
57	0x3de24aaf	0.11049401
58	0xbdcf4117	-0.10119837
59	0xbd217d70	-0.039426267
60	0xbde67c0c	-0.11254129
61	0x3c30abbc	0.010783132
62	0x3e66df7a	0.22546187
63	0x3e7964f0	0.24354911
64	0x392c398b	0.00016424635
65	0xbdd45fad	-0.10369811
66	0x3e16e515	0.14735825
67	0x3ce5ca48	0.028050557
68	0x3e163a3c	0.14670652
69	0xbdc2b534	-0.09507218
70	0xbe1e6274	-0.15467244
71	0xbea90a36	-0.33015603
72	0x3e8929cf	0.2678971
73	0x3d32965b	0.04360042
74	0xbe1e56c1	-0.15462781
75	0xbcf7eef9	-0.030265318
76	0xbd8155b4	-0.06315175
77	0x3cb60111	0.022217305
78	0x3d30030c	0.042971656
79	0xbe3b5c77	-0.18296991
80	0x3d94ad61	0.07259632
81	0xbde9983c	-0.114059895
82	0x3da29aa9	0.07939655
83	0xbe3342f3	-0.17506008
84	0x3b5d66c2	0.0033783172
85	0x3e011e6c	0.12609261
86	0x3e8d28b0	0.27570105
87	0x3e045fe2	0.12927201
88	0x3d30ee13	0.043195795
89	0x3eb64f81	0.35607532
90	0x3d6b91aa	0.057511963
91	0x3de52cb4	0.11190167
92	0x3ca82646	0.020526063
93	0x3e867b5a	0.26265985
94	0x3dfbf77d	0.12303064
95	0xbd7e4565	-0.0620779
96	0xbcb232a9	-0.021752672
97	0xbe283d9d	-0.16429754
98	0xbd89f9b7	-0.067370825
99	0xbde2dfe4	-0.1107786
100	0x3d5d7975	0.05407091
101	0xbd22d56c	-0.039754316
102	0x3da6620d	0.081241705
103	0x3e00242d	0.125138
104	0xbde3b55e	-0.111185774
105	0x3decbc16	0.11559312
106	0x3d8997a9	0.0671838
107	0xbe037f1c	-0.12841457
108	0x3e232082	0.1593037
109	0x3e1567b9	0.14590348
110	0x3e07abe1	0.1324916
111	0xbc73bba6	-0.014876282
112	0x3d431a91	0.047632758
113	0xbdad29f6	-0.08455269
114	0xbd8d6308	-0.06903654
115	0x3e11e699	0.14248122
116	0x3dd94b61	0.106100805
117	0x3da68b7c	0.08132073
118	0xbe22560a	-0.15853134
119	0x3e466c5a	0.1937727
120	0xbd3104b9	-0.043217395
121	0x3db6f868	0.089340985
122	0x3df7a750	0.12092459
123	0x3daa69a6	0.08320932
124	0x3e19f5d0	0.15035176
125	0x3da446cf	0.08021318
126	0x3e3d709d	0.1849999
127	0xbdc61859	-0.09672613
128	0x3e6498c8	0.22323906
129	0x3e0c7ceb	0.13719527
130	0x3e90f1ca	0.2830947
131	0xbe3baeac	-0.18328351
132	0x3da23f4a	0.07922228
133	0x3dfcdb80	0.12346554
134	0xbe332835	-0.17495807
135	0x3e020fe9	0.12701382
136	0xbe0e0e4b	-0.1387264
137	0xbd13ce68	-0.036085516
138	0xbe1279d4	-0.14304286
139	0x3d7667ad	0.060157467
140	0xbea03d10	-0.31296587
141	0xbd998cd7	-0.07497566
142	0xbd8e55da	-0.06949969
143	0x3e268355	0.16261037
144	0xbe3f643c	-0.1869058
145	0xbd0136cb	-0.031546395
146	0xbd31e135	-0.043427665
147	0xbe834c8b	-0.25644335
148	0xbd954640	-0.0728879
149	0x3d7263df	0.059177276
150	0xbe2c78a4	-0.16842896
151	0xbe24d985	-0.16098602
152	0xbc851a79	-0.016247975
153	0xbe28d270	-0.16486526
154	0x3e0ce9e4	0.13761097
155	0xbdf48f1d	-0.11941359
156	0x3d055642	0.032552965
157	0x3d953c55	0.07286898
158	0xbe97b3f3	-0.29629478
159	0xbdd22d12	-0.10262503
160	0xbdae3527	-0.08506232
161	0xbd7ed23b	-0.06221221
162	0xbddf0668	-0.10889894
163	0x3ca8624d	0.020554686
164	0xbd5402bf	-0.05176043
165	0xbe36db88	-0.17857182
166	0x3dac0c1d	0.08400748
167	0x3d441884	0.047874942
168	0x3e374216	0.17896304
169	0x3e03cde4	0.1287151
170	0x3e2f46c4	0.17116839
171	0x3cbd474f	0.023105292
172	0x3e0c75e8	0.13716853
173	0x3e2c6264	0.16834408
174	0x3e110286	0.14161119
175	0xbe045290	-0.1292212
176	0xbc9a2eda	-0.018821169
177	0xbe406396	-0.18787989
178	0x3d943fd6	0.07238738
179	0xbc8377b9	-0.0160483
180	0x3e0509dc	0.12992042
181	0x3d0716e4	0.032980815
182	0xbcf05b28	-0.029340342
183	0xbe2cc9e1	-0.16873886
184	0xbe34dbed	-0.1766202
185	0x3db6e370	0.08930099
186	0xbdbe5ae2	-0.09294678
187	0xbdc1798c	-0.09447011
188	0x3e0309d2	0.12796715
189	0xbdcb1701	-0.09916497
190	0xbe03160e	-0.12801382
191	0x3e4291b9	0.19000901
192	0x3d931121	0.071810015
193	0xbdbbf5f2	-0.0917777
194	0x3d87fb08	0.06639677
195	0x3e10be99	0.14135207
196	0xbe24668a	-0.1605474
197	0x3cbb9416	0.022897761
198	0x3d558a88	0.052134067
199	0x3cafa0c5	0.021438966
200	0x3e24ebd9	0.16105594
201	0xbdf09798	-0.11747664
202	0x3dca117c	0.09866616
203	0xbddd6010	-0.10809338
204	0xbe037c93	-0.1284049
205	0x3df10d7a	0.117701486
206	0xbda64f15	-0.081205525
207	0x3cc2e3db	0.02379029
208	0x3dc547a3	0.09632804
209	0xbe1ecab4	-0.15507013
210	0xbe214dbe	-0.15752313
211	0x3d599f4d	0.053130437
212	0x3e0ed956	0.13950095
213	0xbc983e82	-0.018584494
214	0x3dbc6944	0.09199765
215	0x3daebe6d	0.085324146
216	0x3d0ea06f	0.03482097
217	0xbdbdd8be	-0.09269856
218	0x3e1dea12	0.15421322
219	0x3d90205c	0.07037422
220	0x3cf3b5a9	0.029749708
221	0x3e2334d0	0.15938115
222	0xbe4daa45	-0.20084484
223	0x3d9131c6	0.07089572
224	0xbdef9571	-0.116984256
225	0xbd2f1123	-0.042740952
226	0x3c36aac8	0.011149116
227	0x3d5334ba	0.051563956
228	0x3db161d1	0.08661235
229	0xbe129b92	-0.14317158
230	0xbda1c3a6	-0.07898645
231	0xbd9f42b8	-0.077763975
232	0xbcdeea51	-0.02721134
233	0xbe002042	-0.12512305
234	0x3e319dea	0.17345396
235	0x3c921995	0.017834464
236	0xbd69d93c	-0.057091936
237	0x3deb5c00	0.11492157
238	0x3d93a36a	0.07208903
239	0xbe1317d3	-0.14364557
240	0x3de8cadc	0.11366817
241	0xbde5a553	-0.11213174
242	0x3dc0af63	0.09408452
243	0x3e4c7266	0.19965515
244	0x3ddebadb	0.108754836
245	0x3dd11ecb	0.102109514
246	0xbc97d201	-0.018532755
247	0x3d24206a	0.040069975
248	0x3d8e3922	0.06944491
249	0x3d8a186c	0.06742939
250	0xbd0be1d4	-0.034150913
251	0x3d04d283	0.032427322
252	0xbd9ad2b4	-0.0755972
253	0xbdc6544b	-0.09684046
254	0xbea1d8e0	-0.31610775
255	0xbe1028ba	-0.14078036

param_encoder.2.bias f4 [32]
0	0x3dabf0de	0.08395551
1	0xbd75d565	-0.060017962
2	0x3dfff43a	0.124977544
3	0xbcc51460	-0.024057567
4	0x3c8771e4	0.0165338
5	0xbe202706	-0.15639886
6	0x3e31dc96	0.17369303
7	0xbd0c5a71	-0.03426594
8	0x3df3e920	0.119096994
9	0xbde7c79b	-0.113173686
10	0xbe0152ad	-0.12629195
11	0xbcf98bd2	-0.03046218
12	0xbe1dfb71	-0.15427949
13	0x3d3f9d29	0.04678074
14	0xbccab78d	-0.024745727
15	0xbd207f15	-0.039183695
16	0x3dac197b	0.084032975
17	0x3dea3f60	0.11437869
18	0xbe5301b5	-0.2060612
19	0xbe257742	-0.16158774
20	0x3e0c68fe	0.13711926
21	0xbe1faea3	-0.15593962
22	0x3cf771b3	0.030205583
23	0xbcc50b3d	-0.02405321
24	0x3cebda4f	0.028790621
25	0xbdf83a16	-0.12120454
26	0xbdad78ca	-0.08470304
27	0xbd52298f	-0.051309165
28	0xbda5b360	-0.08090854
29	0xbde1c892	-0.11024584
30	0x3d774128	0.060364872
31	0x3d740fb0	0.059585273

param_encoder.4.weight f4 [32, 32]
0	0xbd26fd8a	-0.040769137
1	0x3cf374a9	0.029718714
2	0x3e1750e0	0.14776945
3	0x3e0b978e	0.13632032
4	0xbd8bae14	-0.06820312
5	0xbe0d7521	-0.13814212
6	0x3daf5736	0.08561556
7	0x3bc9257f	0.006138503
8	0xbcdc2cd0	-0.026876837
9	0xbe2290ca	-0.15875545
10	0x3cbf172e	0.023326483
11	0x3e8365ec	0.25663698
12	0xbe60e93b	-0.2196397
13	0xbdcc7af7	-0.09984391
14	0xbd4d7a3d	-0.050165404
15	0xbe2007ea	-0.15628019
16	0xbde27348	-0.110571444
17	0x3e1a5df1	0.15074898
18	0x3de81eb9	0.11333985
19	0xbde06464	-0.10956648
20	0x3d3aae9f	0.045576688
21	0xbe2f54a8	-0.17122138
22	0x3d0117e2	0.031516917
23	0xbe2797fe	-0.16366574
24	0xbda2f068	-0.0795601
25	0xbd0fe389	-0.035129104
26	0x3cdd31b2	0.027001236
27	0x3debdcbd	0.11516712
28	0xbd8144e7	-0.0631197
29	0x3ce8a50b	0.028399011
30	0x3e47e302	0.1952019
31	0xbc7153bf	-0.014729439
32	0xbd17f737	-0.037100997
33	0xbe88b4bd	-0.26700392
34	0xbd7025df	-0.058629867
35	0x3da09be0	0.07842231
36	0x3e0b5511	0.13606669
37	0xbb44ac99	-0.0030010103
38	0xbcaf40f4	-0.021393277
39	0x3f56d896	0.83924234
40	0x3bcfdcb6	0.0063434495
41	0x3e114813	0.1418765
42	0xbd801e0b	-0.0625573
43	0x3e6b2453	0.22963075
44	0xbde80c9b	-0.11330529
45	0x3e8c621f	0.2741861
46	0x3ed726f5	0.4202191
47	0xbee800d5	-0.45313135
48	0x3d421d12	0.047391005
49	0xbcc0b933	-0.02352581
50	0xbd92667d	-0.07148454
51	0xbca67820	-0.020320952
52	0x3e9780b6	0.29590386
53	0xbdf2e071	-0.11859215
54	0x3e94ff90	0.2910123
55	0x3e8b513c	0.27210414
56	0xbd61c135	-0.055115897
57	0xbc6fd126	-0.014637267
58	0x3d0bec50	0.034160912
59	0xbd25a944	-0.040444627
60	0xbd71934a	-0.058978356
61	0x3d8cf763	0.06883123
62	0xbe393d86	-0.18089876
63	0x3d92677e	0.07148646
64	0xbcdb19b6	-0.026745658
65	0x3e4086c5	0.1880141
66	0x3de7554b	0.11295565
67	0xbe1c8a43	-0.15287118
68	0xbe331849	-0.17489733
69	0xbcfcf0a2	-0.030876461
70	0xbe314dff	-0.1731491
71	0x3ddcdbfd	0.10784147
72	0xbdbc6422	-0.09198786
73	0xbe1e04d4	-0.1543153
74	0x3d8ebb78	0.069693506
75	0x3d981c98	0.07427329
76	0xbd4dbebb	-0.050230723
77	0xbe225d8f	-0.15856002
78	0xbd97cdd0	-0.074123025
79	0x3db30737	0.087416105
80	0x3e589d71	0.21153809
81	0x3d43f66e	0.047842436
82	0x3ddcfb9f	0.107901804
83	0xbe5644f7	-0.20924746
84	0x3e5fdf3e	0.21862504
85	0xbe257fc6	-0.16162023
86	0xbd8945b6	-0.067027494
87	0x3e38d8dc	0.18051475
88	0xbcf1e525	-0.02952821
89	0x3e26fd5f	0.16307591
90	0xbe10c70d	-0.14138432
91	0x3da86ebd	0.08224247
92	0x3e4b2d6a	0.19841543
93	0x3d841588	0.06449419
94	0x3e2382ad	0.15967818
95	0xbe089c3d	-0.1334085
96	0xbe4b5c6e	-0.19859478
97	0xbc8b7df6	-0.017027836
98	0x3e107ea6	0.14110813
99	0xbdbd4080	-0.09240818
100	0x3d424d2c	0.047436878
101	0x3d31df6a	0.043425955
102	0xbdda1a6e	-0.10649572
103	0x3e3be1cb	0.18347852
104	0xbe91f1b3	-0.28504714
105	0xbe4dd606	-0.20101175
106	0x3cb601b2	0.022217605
107	0x3b2c1e78	0.0026263278
108	0x3dfe0d6c	0.12404904
109	0x3cf6e7a4	0.030139752
110	0xbe27a018	-0.16369665
111	0xbe567501	-0.20943071
112	0x3e8ec930	0.2788787
113	0xbe176afb	-0.14786904
114	0x3d805358	0.062658966
115	0x3d06d7c4	0.032920614
116	0x3da1f3ac	0.07907805
117	0xbe190fed	-0.14947481
118	0x3dbb0fc8	0.091338694
119	0xbc9af723	-0.018916672
120	0x3dc1edd1	0.09469188
121	0xbd8e89ba	-0.06959863
122	0xbe52c664	-0.20583493
123	0xbea20f4d	-0.316523
124	0x3e3116aa	0.17293802
125	0x3e1104f8	0.14162052
126	0x3dedf1ac	0.11618361
127	0x3e29724d	0.16547509
128	0xbd2acebb	-0.04170106
129	0xbe0505c5	-0.12990482
130	0xbe088735	-0.13332827
131	0x3d5994c5	0.053120393
132	0x3d6dd1fe	0.058061592
133	0xbc97603c	-0.018478505
134	0xbe0ea0eb	-0.13928573
135	0xbc484c2b	-0.012225191
136	0xbdee8e43	-0.11648228
137	0xbd541a3b	-0.051782828
138	0xbc7dfc88	-0.015502103
139	0x3d2c74a6	0.042103432
140	0xbe265af2	-0.1624563
141	0x3e159dad	0.1461093
142	0xbdd26d43	-0.10274746
143	0x3d7055a4	0.058675423
144	0x3e103a77	0.14084803
145	0x3d94b8d3	0.07261815
146	0x3e00c80b	0.1257631
147	0x3ddfa672	0.10920419
148	0x3e0fd198	0.14044797
149	0x3da01efb	0.07818409
150	0x3de7bf4d	0.113157846
151	0xbd9081bf	-0.07055997
152	0xbdbc3a57	-0.09190815
153	0x3dc10f54	0.09426752
154	0x3d2ad140	0.041703463
155	0x3d349773	0.044089746
156	0xbe26e70f	-0.1629908
157	0x3d862a51	0.0655104
158	0x3d8847f6	0.066543505
159	0xbd0967f1	-0.033546392
160	0x3e562406	0.2091218
161	0x3d07d6d1	0.03316385
162	0xbe2c72f8	-0.16840732
163	0xbca62a1c	-0.020283751
164	0xbd32376c	-0.043509886
165	0xbe0395a3	-0.1285005
166	0x3dfec19d	0.124392726
167	0x3e38a15c	0.18030304
168	0x3dc0a2a8	0.09406024
169	0x3e12d38b	0.1433851
170	0xbe17a855	-0.14810307
171	0x3d5976d2	0.05309183
172	0xbd86615d	-0.06561539
173	0xbdf15135	-0.11783067
174	0x3de7a5be	0.1131091
175	0x3cf123a3	0.029435938
176	0xbd64aa3d	-0.055826414
177	0x3d47f5ec	0.048818514
178	0x3e0281a4	0.12744766
179	0x3e5fe34e	0.21864054
180	0xbca999a8	-0.020703152
181	0x3d9432c3	0.072362445
182	0xbd98c12a	-0.07458718
183	0xbd346b99	-0.044047926
184	0xbdd4b0fc	-0.103853196
185	0xbd5b10f3	-0.05348296
186	0xbda3d7b0	-0.080001235
187	0xbbd97089	-0.0066357297
188	0xbe33c52b	-0.17555682
189	0x3e102e4d	0.14080162
190	0xbdf52401	-0.11969758
191	0xbbda5526	-0.0066629825
192	0x3ddf1875	0.10893337
193	0xbd001430	-0.031269252
194	0x3d9c398d	0.076281644
195	0xbdd66169	-0.10467798
196	0x3e5c7180	0.21527672
197	0xbe50d820	-0.20394945
198	0x3db32324	0.08746937
199	0x3e742cea	0.23845258
200	0x3e2b6135	0.167363
201	0xbd08d35f	-0.033404704
202	0xbe0c72f3	-0.13715725
203	0x3e5fa2ec	0.21839494
204	0x3dcddaca	0.10051496
205	0xbd81c6ae	-0.06336723
206	0xbd2e75a0	-0.042592645
207	0xbe227c9e	-0.1586785
208	0x3cfd3279	0.030907856
209	0x3cee79b5	0.029110769
210	0x3debf0f5	0.11520568
211	0xbbc94f53	-0.0061434894
212	0xbe620302	-0.2207146
213	0xbddbfd30	-0.10741651
214	0xbe4a9878	-0.19784725
215	0x3c9e93d3	0.019357597
216	0x3c7b9a38	0.015356593
217	0xbd949f36	-0.072569296
218	0x3d19084c	0.03736143
219	0xbb592669	-0.0033134467
220	0xbe1d46a3	-0.15358977
221	0xbdd18b48	-0.10231644
222	0xbdccbb39	-0.099966474
223	0xbd98793f	-0.07445001
224	0x3e1cbf29	0.15307297
225	0x3edf42c4	0.43605626
226	0x3d03a048	0.032135278
227	0x3d3b4062	0.045715697
228	0x3cfbf372	0.030755732
229	0x3b2e26e0	0.0026573464
230	0xbe4f065a	-0.20217267
231	0xbed3676b	-0.4128984
232	0x3dca54e8	0.09879476
233	0xbd972b5c	-0.07381317
234	0xbe44c36c	-0.19215173
235	0xbd6e2512	-0.05814082
236	0xbd25bfb7	-0.040466037
237	0xbe9b8e2a	-0.303819
238	0x3ecc15d1	0.39860395
239	0x3e843183	0.25819024
240	0x3de7fa03	0.11326983
241	0xbdfd20a4	-0.12359741
242	0x3d215fb8	0.039397925
243	0x3e68a1ac	0.22717923
244	0xbec4bc80	-0.38425064
245	0x3e84742f	0.2586989
246	0x3d97dcd7	0.07415169
247	0xbda62ca6	-0.08113985
248	0xbd08d632	-0.033407398
249	0x3e5e0357	0.21680962
250	0x3da5da54	0.080982834
251	0xbde335b2	-0.11094226
252	0x3d240c10	0.040050566
253	0xbdf26126	-0.11834936
254	0xbe015674	-0.12630635
255	0xbdf1a1e6	-0.11798458

param_encoder.4.bias f4 [32]
0	0xbd78beaf	-0.060728725
1	0xbdb5ae13	-0.08871093
2	0x3e0a274f	0.13491558
3	0x3dba9f5c	0.09112427
4	0xbe361a9f	-0.17783593
5	0x3d40a136	0.047028743
6	0xbe4be3ce	-0.1991112
7	0xbe76c94c	-0.24100226
8	0x3dd3c638	0.103405416
9	0x3dc6a98e	0.09700309
10	0xbd8d2d45	-0.068934
11	0x3e25c1da	0.1618723
12	0x3e26826b	0.16260688
13	0x3e183531	0.14864041
14	0xbe1935d6	-0.14961943
15	0xbda1b354	-0.07895532
16	0x3dac47ed	0.08412156
17	0x3de804ba	0.113290265
18	0xbd34a003	-0.04409791
19	0x3caaf601	0.020869257
20	0x3de442fa	0.11145587
21	0xbd992f43	-0.074797176
22	0xbdba2357	-0.09088772
23	0x3e357648	0.17720902
24	0x3c36c92e	0.011156363
25	0x3e0e1e05	0.13878639
26	0xbe309d86	-0.1724759
27	0xbd90e1ab	-0.07074293
28	0x3e020044	0.12695414
29	0x3c711986	0.014715558
30	0x3d8adbfa	0.067802384
31	0xbe0e2cd8	-0.13884294

coord_encoder.0.weight f4 [32, 3]
0	0x3f4c44c0	0.79792404
1	0xbdd8383b	-0.105576
2	0xbd3d0744	-0.046149507
3	0xbf126d24	-0.57197785
4	0xbe3b30f1	-0.18280388
5	0xbeea879f	-0.45806596
6	0xbf365567	-0.71224064
7	0xbd16150f	-0.036641177
8	0xbe2d8208	-0.16944134
9	0x3f2ff6f6	0.6873621
10	0xbcde244c	-0.027116917
11	0x3ebe1932	0.37128597
12	0xbf07ee98	-0.5309844
13	0x3e484a33	0.19559555
14	0x3f03304b	0.51245564
15	0xbf541192	-0.8283931
16	0xbda0b4d1	-0.07846988
17	0x3f04da75	0.5189584
18	0xbf016255	-0.5054067
19	0xbdbf3492	-0.09336199
20	0x3d185b2b	0.03719632
21	0xbde336d9	-0.11094446
22	0xbd5620cc	-0.05227737
23	0xbe9586e6	-0.29204482
24	0x3eb82321	0.359643
25	0xbe0d111d	-0.1377606
26	0xbe45e206	-0.19324502
27	0xbec1047a	-0.37698728
28	0x3e584fe9	0.21124233
29	0x3e86554e	0.26236957
30	0xbf3468a6	-0.7047218
31	0xbeb5cbd5	-0.35507074
32	0xbf03cb44	-0.51482034
33	0x3f1ff75f	0.62486833
34	0x3e9c4511	0.30521443
35	0xbf26772f	-0.6502561
36	0x3ec5cf57	0.3863475
37	0x3e0eea2d	0.13956518
38	0xbe9d1b32	-0.3068481
39	0xbcc0dc7c	-0.023542635
40	0x3eed0722	0.46294504
41	0x3f0fed0b	0.56221074
42	0x3de3cd33	0.11123123
43	0xbd432139	-0.047639105
44	0xbec10240	-0.3769703
45	0xbecd8c5a	-0.40146142
46	0x3caeecd3	0.021353161
47	0xbd74400d	-0.059631396
48	0x3ef9cb00	0.4878769
49	0xbebf16c8	-0.37322068
50	0x3cff7f33	0.031188583
51	0xbf19169a	-0.5980011
52	0x3da52d2b	0.08065256
53	0x3f09b9d1	0.5379916
54	0x3e528790	0.20559525
55	0xbdf3353d	-0.11875389
56	0xbe540abf	-0.20707224
57	0xbf3bbe84	-0.7333758
58	0xbec81f22	-0.39086252
59	0x3e9a00a8	0.30078626
60	0xbefea349	-0.49733952
61	0x3e68baee	0.22727558
62	0xbe10bd10	-0.14134622
63	0x3e7ca4db	0.24672262
64	0x3ebfaa87	0.3743479
65	0x3dd495ac	0.1038011
66	0x3e6c5b49	0.23081698
67	0x3ef5e7ad	0.48028317
68	0xbe2cee83	-0.1688786
69	0x3f16746e	0.5877141
70	0xbefc738a	-0.493069
71	0x3f0bc241	0.5459328
72	0xbee3da25	-0.4450237
73	0xbd1d330b	-0.038378756
74	0x3e909e6e	0.28245872
75	0xbdd65334	-0.104650885
76	0x3eeb09d5	0.4590594
77	0xbe59bc95	-0.21263345
78	0xbe40a0f2	-0.18811396
79	0x3ee5320d	0.44764748
80	0xbed3c510	-0.41361284
81	0x3f334092	0.700204
82	0x3f0486a6	0.5176796
83	0x3eaf5115	0.34241548
84	0xbd68c879	-0.05683181
85	0xbd83953e	-0.0642495
86	0xbefbfceb	-0.492164
87	0xbf0cfae9	-0.5507036
88	0xbdcb2564	-0.09919241
89	0xbe94cb01	-0.2906113
90	0x3f09bf62	0.5380765
91	0x3e4dd9b3	0.20102577
92	0xbe21f96f	-0.15817808
93	0xbe751023	-0.23931937
94	0x3f132be3	0.5748884
95	0x3d89956a	0.067179516

coord_encoder.0.bias f4 [32]
0	0x3ef264a0	0.47342396
1	0x3f125af6	0.57170045
2	0xbdf03a8b	-0.11729916
3	0xbf210b18	-0.6290755
4	0x3efe3541	0.49650005
5	0xbe91efe6	-0.2850334
6	0x3f0afff7	0.5429682
7	0xbed760b2	-0.4206596
8	0x3dd777a2	0.10520865
9	0x3e12c6e4	0.14333683
10	0xbdc6e0d6	-0.09710853
11	0x3eb5999b	0.35468754
12	0xbf053ed7	-0.5204901
13	0xbe79dc48	-0.24400437
14	0xbe0eb21a	-0.13935128
15	0x3ed99319	0.4249504
16	0x3e7cfc47	0.24705611
17	0x3eb555fb	0.3541716
18	0x3e72d190	0.23712754
19	0x3f1189af	0.56850713
20	0xbdf8b848	-0.12144524
21	0xbe22b4dd	-0.15889306
22	0xbd88ac4a	-0.066734865
23	0x3e7a3df5	0.24437697
24	0xbe57cb30	-0.21073604
25	0x3e819f99	0.25317076
26	0x3dbecc31	0.0931629
27	0x3db2e0b4	0.08734265
28	0x3eff3ffb	0.498535
29	0x3e3b3001	0.18280031
30	0x3ec7c2f9	0.3901594
31	0xbd6e7d82	-0.058225162

coord_encoder.2.weight f4 [32, 32]
0	0xbe8d8b19	-0.27645186
1	0x3e2c7106	0.1683999
2	0x3e215f2c	0.15758961
3	0x3d43da20	0.047815442
4	0x3db03914	0.08604637
5	0x3d4fdb6d	0.05074637
6	0xbdb2c9aa	-0.087298706
7	0xbe21ae0e	-0.15789053
8	0xbd46a0e7	-0.048493292
9	0x3e4f2104	0.20227438
10	0x3ca5efd8	0.020255968
11	0xbdc2cbf6	-0.09511559
12	0x3d8c8ef6	0.06863205
13	0xbd4116ac	-0.047140762
14	0x3ce28a05	0.027653703
15	0xbce59cda	-0.028028894
16	0xbe48e6c2	-0.19619277
17	0xbdaf805a	-0.08569403
18	0xbda087c2	-0.07838394
19	0x3ddf9313	0.10916724
20	0x3e0c5d94	0.13707572
21	0xbe18bd9b	-0.14916079
22	0xbd984263	-0.07434537
23	0x3d4ceb3f	0.050029036
24	0x3bc16bb8	0.0059027337
25	0xbc4cf2fe	-0.012509106
26	0x3e0098d7	0.12558304
27	0xbd51b804	-0.05120088
28	0x3dcc80bb	0.09985491
29	0x3e4958e1	0.19662811
30	0xbd42cbce	-0.047557645
31	0xbcd7fdb0	-0.026366085
32	0xbd04d4cb	-0.032429498
33	0xbe27db85	-0.16392334
34	0xbdd5b625	-0.10435132
35	0x3e0bcc86	0.13652238
36	0x3db2a280	0.08722401
37	0xbcd83e90	-0.02639702
38	0x3df74c94	0.12075153
39	0xbda915b8	-0.08256096
40	0x3dbedfb2	0.0932001
41	0xbe05b961	-0.13058998
42	0x3c68a5b4	0.014199663
43	0x3e2c28d7	0.16812454
44	0x3d91df72	0.07122697
45	0xbc9f321d	-0.019433076
46	0xbd2c91a7	-0.042131092
47	0xbe5dc207	-0.21656047
48	0xbdcf3502	-0.10117532
49	0xbe23f83a	-0.1601266
50	0x3e29f4d3	0.165973
51	0xbdb8025a	-0.089848235
52	0xbd66f910	-0.05638987
53	0xbe06564a	-0.13118854
54	0xbd16f9b7	-0.03685924
55	0x3e1f9feb	0.15588348
56	0x3bd8439e	0.0065998575
57	0xbceb37a9	-0.028713064
58	0x3da64bfc	0.081199616
59	0x3e0c7530	0.13716578
60	0x3e00db07	0.12583552
61	0xbe3586e2	-0.17727235
62	0x3d9c2c3b	0.07625624
63	0xbe1208ce	-0.14261171
64	0xbe500fda	-0.20318547
65	0x3e3e4979	0.18582715
66	0xbd92d8a7	-0.071702294
67	0xbe2cd406	-0.16877756
68	0x3dce46f0	0.10072124
69	0x3e547696	0.20748362
70	0xbe0bb3c0	-0.13642788
71	0xbdda39dc	-0.10655567
72	0xbe0d6de6	-0.13811454
73	0x3e3d972e	0.18514702
74	0x3e0a173f	0.1348543
75	0x3d9f35d2	0.07773937
76	0x3dc47d38	0.09594196
77	0xbc9cf616	-0.019160312
78	0x3dcc5580	0.09977245
79	0x3db692d6	0.089147255
80	0x3b1a9d9c	0.0023592478
81	0xbd020f90	-0.031753123
82	0x3d1febe1	0.03904331
83	0x3de6eca2	0.11275603
84	0x3bcb50d5	0.0062047043
85	0x3de7f315	0.11325661
86	0xbd9a08e0	-0.07521224
87	0x3d393249	0.04521397
88	0x3e4a744b	0.19770925
89	0x3da7f9d6	0.08201949
90	0xbd80aa48	-0.062824786
91	0xbdb58075	-0.08862392
92	0x3d28dd7f	0.04122686
93	0x3d343835	0.043998916
94	0xbd963d7f	-0.07335948
95	0x3dce61c7	0.10077243
96	0x3e2eda49	0.17075457
97	0xbe0295d0	-0.12752461
98	0xbe55dcb4	-0.20884973
99	0x3e8119a6	0.2521488
100	0xbc97c677	-0.018527253
101	0xbd9e4152	-0.077273026
102	0xbe039a44	-0.12851816
103	0x3e173c0a	0.14768997
104	0x3e1ab451	0.15107848
105	0xbe13d1bb	-0.14435475
106	0xbe2c906e	-0.1685197
107	0x3e173fd4	0.14770442
108	0x3d947c82	0.072503105
109	0xbd8f07d9	-0.06983919
110	0xbe0bb460	-0.13643026
111	0x3d1fc0c6	0.039002202
112	0xbd683f3b	-0.056700926
113	0x3db6f621	0.08933664
114	0xbdebcd40	-0.11513758
115	0xbe1bfd10	-0.15233254
116	0xbe762158	-0.24036157
117	0x3de3434b	0.110968195
118	0x3e041e35	0.12902148
119	0xbdde19a6	-0.10844736
120	0x3dfc1eb6	0.12310545
121	0xbe17284f	-0.1476147
122	0xbe63b795	-0.22238
123	0x3d541e37	0.051786628
124	0x3daa169d	0.083050944
125	0x3d80560e	0.06266414
126	0x3d313fd5	0.043273766
127	0x3df2651b	0.118356906
128	0xbe8181fb	-0.2529448
129	0x3e08f014	0.13372833
130	0x3cac8318	0.021058604
131	0xbdac8ce4	-0.0842531
132	0x3e0efdec	0.13964051
133	0xbdb40e8a	-0.087918356
134	0x3deb57af	0.11491334
135	0xbce1ff52	-0.027587567
136	0x3d1c69ca	0.038186826
137	0x3d4cb4d2	0.04997713
138	0x3df30c50	0.11867583
139	0x3e0a37e0	0.13497877
140	0xbda7fd5f	-0.082026236
141	0xbe0d3fb2	-0.13793829
142	0x3e0946ed	0.13405962
143	0x3bd38c7e	0.006455957
144	0x3c7c8003	0.01541138
145	0x3e019f43	0.1265841
146	0xbd936ab6	-0.07198088
147	0x3e37b173	0.17938785
148	0x3e18dda8	0.14928305
149	0xbd890b3d	-0.06691597
150	0x3c6453c1	0.013935984
151	0x3c4aa250	0.0123678
152	0x3e5af9ae	0.21384308
153	0x3ddbdc3e	0.10735367
154	0xbdeca849	-0.11555535
155	0x3cb4e703	0.022082811
156	0x3dd0ca4a	0.101948336
157	0x3e3cf53d	0.18452926
158	0xbce22aa1	-0.027608218
159	0x3da14f56	0.0787646
160	0xbd11bc9c	-0.035580263
161	0x3d13941f	0.03602993
162	0xbd8c53e1	-0.06851936
163	0x3db8cf3b	0.09023901
164	0x3e12d8d4	0.14340526
165	0xbd960648	-0.07325417
166	0xbded11ba	-0.11575647
167	0x3e181760	0.14852667
168	0xbe38f35f	-0.18061589
169	0x3e0bd8ff	0.13656996
170	0xbe1b620c	-0.1517412
171	0xbe141e1c	-0.14464611
172	0xbdb22cd4	-0.086999565
173	0x3e39c921	0.18143131
174	0xbd1ee903	-0.038796436
175	0x3e43cc7f	0.19120978
176	0x3d83c918	0.0643484
177	0x3e348fc8	0.17632973
178	0x3de0a6a7	0.109692864
179	0x3e32f49e	0.17476127
180	0x3df67c36	0.1203541
181	0xbd667ec7	-0.056273248
182	0xbd3f2964	-0.046670333
183	0x3dfc3df1	0.12316502
184	0x3e335431	0.17512585
185	0xbd8ad21d	-0.06778357
186	0xbe32d694	-0.17464668
187	0xbe19061b	-0.14943735
188	0xbd934cf7	-0.07192414
189	0x3d83db52	0.064383164
190	0xbd98b223	-0.07455852
191	0xbd399a95	-0.045313437
192	0x3b894894	0.00418956
193	0x3c41f937	0.011839203
194	0xbe492921	-0.19644596
195	0x3e7cdab7	0.24692808
196	0xbd908a08	-0.07057577
197	0xbd637782	-0.055533893
198	0xbcdcdb9d	-0.026960189
199	0xbd44e74a	-0.048072137
200	0x3e5874de	0.21138331
201	0xbd76b347	-0.060229566
202	0x3c04e297	0.008110664
203	0xbdb91385	-0.09036926
204	0x3d95d3cf	0.0731579
205	0x3d0d76e2	0.034537204
206	0x3d9e993e	0.077440724
207	0xbe115198	-0.14191282
208	0x3e0c306b	0.13690345
209	0x3dc5b647	0.09653907
210	0x3e243d6a	0.16039053
211	0xbdf05857	-0.117355995
212	0x3ccb1749	0.024791377
213	0xbd35cf1d	-0.04438697
214	0xbd48cd5d	-0.049023975
215	0xbd822fae	-0.063567504
216	0xbd58cfbd	-0.05293249
217	0xbd13c214	-0.03607376
218	0xbdf33f5f	-0.118773215
219	0x3dc8503e	0.0978093
220	0x3dac15bb	0.08402582
221	0xbe12f028	-0.14349425
222	0x3e7520dc	0.23938316
223	0xbd94487a	-0.07240386
224	0x3e7966b6	0.24355587
225	0x3d2e07e1	0.042487983
226	0xbe0c396a	-0.13693777
227	0x3e8747d1	0.2642198
228	0xbdf62dcd	-0.120204546
229	0xbdf8dea6	-0.12151842
230	0x3dd0fa92	0.102040425
231	0xbd4cee0d	-0.05003171
232	0x3c43bedf	0.011947363
233	0xbce4d27e	-0.027932402
234	0xbd7b599d	-0.06136476
235	0x3e1551fa	0.14582053
236	0x3e2a51fa	0.16632834
237	0x3d2f50f0	0.042801797
238	0x3d92e298	0.071721256
239	0xbd8fe69e	-0.070264086
240	0x3d10e2d9	0.03537259
241	0x3a5e0518	0.0008469387
242	0x3d59f8ad	0.05321567
243	0x3dad8e7d	0.08474443
244	0x3d697f46	0.057006143
245	0x3c51410e	0.012771858
246	0x3db960c4	0.0905166
247	0x3c9768b9	0.018482553
248	0x3c9e954b	0.019358298
249	0x3e1ef5d0	0.15523458
250	0xbe0a5c83	-0.13511853
251	0x3c851750	0.016246468
252	0xbd23a5e3	-0.039953124
253	0xbe611680	-0.2198124
254	0xbda1d92b	-0.0790275
255	0xbccaedde	-0.024771627

coord_encoder.2.bias f4 [32]
0	0x3d006b32	0.03135223
1	0xbd523dfc	-0.051328644
2	0xbd878c06	-0.06618504
3	0xbe1caf39	-0.15301217
4	0x3cdd1656	0.02698819
5	0x3e224b72	0.15849093
6	0x3d986ac4	0.07442239
7	0x3dfad0d8	0.12246865
8	0x3dfc1c6e	0.1231011
9	0x3dc5557f	0.09635448
10	0xbca5ee42	-0.020255212
11	0xbe4e2c02	-0.20133975
12	0x3e0252ce	0.127269
13	0xbdfaaa68	-0.12239534
14	0xbdbd52a0	-0.09244275
15	0x3d86bc18	0.06578845
16	0x3da71c88	0.08159739
17	0xbdf04c32	-0.11733283
18	0x3e03b792	0.12862995
19	0xbe07cd86	-0.13261995
20	0x3cf05d40	0.02934134
21	0x3db00d9d	0.085963465
22	0x3d0711f4	0.032976106
23	0xbddbaa44	-0.10725835
24	0xbde31644	-0.11088231
25	0x3df3f8b6	0.11912672
26	0x3d91730d	0.07102022
27	0xbdb9f206	-0.090793654
28	0x3e2b7d4c	0.16747016
29	0xbc2f68a4	-0.010706101
30	0xbcab5136	-0.020912748
31	0x3ca72661	0.020404043

decoder.0.weight f4 [64, 64]
0	0x3dcfe697	0.101514034
1	0xbd92e356	-0.07172267
2	0x3dc6915b	0.09695693
3	0x3ca7113c	0.02039396
4	0xbd5bf0e6	-0.053696536
5	0xbd79b45a	-0.060963012
6	0xbd297069	-0.04136697
7	0x3d68bb2f	0.056819137
8	0xbe0f8bbe	-0.14018151
9	0x3d8541bd	0.06506679
10	0x3e539ac5	0.20664509
11	0xbdba2bbc	-0.09090373
12	0xbd051a1c	-0.032495603
13	0x3d051bd5	0.032497246
14	0xbdd8b476	-0.10581295
15	0x3db4db0d	0.08830843
16	0xbd0f3947	-0.034966733
17	0xbc0daf0e	-0.008647693
18	0x3d948b66	0.07253151
19	0x3d505226	0.050859593
20	0xbdaa770d	-0.083234884
21	0xbd3f9a3b	-0.046777945
22	0xbe028446	-0.12745771
23	0xbddaa164	-0.10675314
24	0xbc95e0bb	-0.018295636
25	0xbe069946	-0.13144407
26	0xbaf3a40a	-0.0018588316
27	0xbdac6360	-0.08417392
28	0x3d96fc8c	0.07372388
29	0x3dd27a01	0.10277177
30	0x3e2c0c45	0.16801555
31	0xbd4934cb	-0.049122613
32	0xbdf3c151	-0.119021066
33	0x3e1f6d20	0.15568972
34	0xbda9e254	-0.08295122
35	0x3e2fca69	0.17167057
36	0xbe1decc3	-0.15422349
37	0x3dea31e4	0.11435297
38	0xbd28ceb3	-0.04121275
39	0xbd1e46e0	-0.03864181
40	0x3d94ed69	0.07271845
41	0xbd8c0f9e	-0.06838916
42	0xbd80ed30	-0.0629524
43	0x3d86b235	0.06576959
44	0x3e2583f1	0.16163613
45	0x3e1e3468	0.15449679
46	0x3d63cf50	0.05561763
47	0x3d22f5bb	0.039785128
48	0xbd68f635	-0.056875426
49	0x3e1896ed	0.14901324
50	0xbd91cf1d	-0.07119582
51	0xbdeeb1dd	-0.116550185
52	0x3dfcbe03	0.12340929
53	0x3c38a438	0.011269622
54	0x3e1859ad	0.14877959
55	0xbd7e158b	-0.062032264
56	0x3d1cfbbd	0.038326014
57	0xbd419d31	-0.04726905
58	0x3d8c0d07	0.06838422
59	0x3e3fa39b	0.18714754
60	0xbdafca07	-0.085834555
61	0x3d4b0367	0.04956379
62	0xbd1987bc	-0.037482962
63	0xbde53482	-0.11191656
64	0x3d82a586	0.06379227
65	0xbde61191	-0.11233819
66	0xbd464ecd	-0.048414994
67	0xbdfd8631	-0.123791106
68	0xbdddf5e0	-0.108379126
69	0xbd97941b	-0.07401296
70	0xbca4b151	-0.020104082
71	0xbdff93c6	-0.124793574
72	0xbd323345	-0.043505926
73	0xbdd89c6a	-0.105767086
74	0xbdd1393f	-0.10215997
75	0xbdbf3465	-0.09336165
76	0xbd82e903	-0.063921
77	0xbd49bcbd	-0.04925226
78	0x3df45319	0.11929912
79	0xbdd9dec7	-0.106381945
80	0xbde68f37	-0.11257785
81	0xbdd0e3b0	-0.10199678
82	0x3de3d6ae	0.11124931
83	0xbcc8c70b	-0.024508974
84	0xbd9163b6	-0.070990965
85	0x3d3be277	0.04587027
86	0xbd821516	-0.06351678
87	0xbb7a2e29	-0.0038174486
88	0x3deaa82a	0.11457856
89	0x3dad4033	0.08459511
90	0xbddb0ac3	-0.10695412
91	0xbd2e970c	-0.04262452
92	0x3c204cf9	0.009783977
93	0x3d111acf	0.035425957
94	0xbdd6d729	-0.10490257
95	0x3d84e29a	0.06488533
96	0x3d6e13db	0.058124404
97	0xbe6dbcd0	-0.23216558
98	0x3da98154	0.082766205
99	0xbe6531ca	-0.22382274
100	0x3d81ea4d	0.063435175
101	0xbe0471d3	-0.12934045
102	0xbdb22a81	-0.08699513
103	0xbde253ac	-0.110511154
104	0xbe3eb4ef	-0.18623708
105	0xbc9f8475	-0.01947234
106	0xbc899d2b	-0.016798576
107	0xbd5e932d	-0.054339577
108	0xbd847e5c	-0.06469414
109	0xbc43d0fb	-0.01195168
110	0xbd80d8f7	-0.06291383
111	0xbe1ef439	-0.15522851
112	0xbc9467f7	-0.01811598
113	0xbd9b6339	-0.075872846
114	0x3d37d563	0.044881236
115	0xbdaef355	-0.08542506
116	0xbe0e4790	-0.13894486
117	0xbd4d44c9	-0.050114427
118	0xbac5ce64	-0.0015091416
119	0xbcb9bd4d	-0.022673273
120	0x3daf8909	0.08571059
121	0xbd8f9883	-0.07011511
122	0xbde8bd57	-0.11364239
123	0xbdd2cba2	-0.10292746
124	0x3dff145e	0.124550566
125	0x3d058ae1	0.03260315
126	0x3db244f2	0.087045565
127	0x3d0a70ba	0.03379891
128	0x3dce4591	0.100718625
129	0x3caefb87	0.021360172
130	0xbd02f8ea	-0.031975664
131	0x3a8e49dc	0.0010855752
132	0x3db7bbd0	0.08971369
133	0x3e13451b	0.1438183
134	0x3d414296	0.047182642
135	0x3d37cdc1	0.044873957
136	0x3d92014b	0.07129153
137	0x3e137bf9	0.1440276
138	0xbdc080c2	-0.093995586
139	0xbdb66670	-0.08906257
140	0x3c1bc85c	0.009508219
141	0x3dd47d50	0.10375464
142	0x3d6b4f31	0.05744857
143	0x3d1bacf9	0.038006756
144	0xbdd3c505	-0.10340313
145	0xbd528545	-0.051396627
146	0x3d9f9bc8	0.07793385
147	0x3e0fa257	0.14026771
148	0x3bb74859	0.0055933413
149	0xbdc9eadb	-0.09859248
150	0x3e73b327	0.2379881
151	0x3e4340dd	0.19067712
152	0xbde41c1a	-0.111381724
153	0xbe1ab529	-0.1510817
154	0x3db24122	0.08703829
155	0xbe92a02e	-0.28637832
156	0x3dce994d	0.100878336
157	0xbd8dac5c	-0.069176406
158	0x3dc891d4	0.097934395
159	0xbcb169dd	-0.021656925
160	0xbe367dfd	-0.17821498
161	0x3de36c58	0.11104649
162	0xbdea3f45	-0.11437849
163	0xbd14a55e	-0.03629052
164	0x3d069ce3	0.032864463
165	0x3d1e251a	0.0386096
166	0xbc85e19d	-0.016342932
167	0xbd76f460	-0.060291648
168	0xbbfcab4c	-0.00771085
169	0xbd3c5f8f	-0.04598957
170	0x3d2980e6	0.041382693
171	0xbe28a3b3	-0.16468696
172	0x3e51324d	0.20429344
173	0x3e5bfcdd	0.21483178
174	0x3e169368	0.14704669
175	0x3d64363a	0.055715777
176	0x3cafabac	0.021444164
177	0xbd88a1ab	-0.06671461
178	0x3cc02d5d	0.02345913
179	0xbc1886a1	-0.009309442
180	0x3dca3cb2	0.09874858
181	0x3e0d84f7	0.13820253
182	0xbd2fbdc4	-0.042905584
183	0x3d78beae	0.06072872
184	0xbe651b68	-0.22373736
185	0x3da53e98	0.080685794
186	0x3d555c9c	0.052090272
187	0x3e1cfc16	0.15330538
188	0xbe197225	-0.14984949
189	0xbcfa8d19	-0.030584859
190	0x3db7a4a3	0.08966949
191	0xbdfb7544	-0.12278226
192	0xbcd0779b	-0.025447657
193	0x3e43e6a5	0.19130953
194	0x3def55b9	0.11686272
195	0x3d88c591	0.06678308
196	0xbdd12424	-0.102119714
197	0xbdbf1dcc	-0.09331855
198	0x3c45d0d1	0.0120737115
199	0xbe085a53	-0.13315706
200	0xbdb336cb	-0.08750685
201	0xbcdb0a55	-0.026738325
202	0x3bf0eefd	0.0073527084
203	0x3d059d47	0.032620694
204	0xbe3f66bd	-0.18691535
205	0x3d0cfa31	0.03441829
206	0xbc8d39c5	-0.01723946
207	0xbdb9a85d	-0.09065316
208	0x3e361d0e	0.17784521
209	0xbdeedfb3	-0.11663761
210	0xbdce3a4f	-0.10069715
211	0x3dea9f11	0.11456121
212	0xbd5fd098	-0.05464229
213	0x3d4cd0cf	0.050003823
214	0xbdbf7f19	-0.09350414
215	0xbe236046	-0.15954694
216	0x3dfaeddf	0.122524016
217	0xbe264586	-0.16237459
218	0xbdc20c70	-0.094750285
219	0x3b8256e2	0.0039776424
220	0xbdb9dce1	-0.090753324
221	0x3e147b10	0.1450007
222	0x3cea0b03	0.028569704
223	0x3e0fa54c	0.140279
224	0xbe43ffe9	-0.1914059
225	0x3e5d3725	0.21603067
226	0xbd812be3	-0.06307199
227	0x3e11e274	0.14246541
228	0xbdff0513	-0.1245214
229	0x3dfa37ff	0.12217712
230	0xbb7aa8ac	-0.003824751
231	0x3e581fdc	0.21105903
232	0x3e0522ad	0.13001509
233	0x3cb5794b	0.022152564
234	0x3e0b3c97	0.13597332
235	0xbc219f00	-0.009864569
236	0x3e054a79	0.1301669
237	0x3e427726	0.18990764
238	0x3cebbee3	0.028777545
239	0x3e375e45	0.17907055
240	0x3de58e56	0.11208789
241	0x3db7d475	0.0897607
242	0xbcb1d5bf	-0.021708367
243	0xbe0d1aea	-0.13779798
244	0x3d119ce0	0.03555
245	0x3cde1d66	0.027113628
246	0xbc711df5	-0.014716615
247	0x3d9f48cd	0.077775575
248	0xbe086fd7	-0.13323914
249	0x3dc8b9ba	0.098010495
250	0x3e0a6772	0.13516024
251	0x3e4ad984	0.19809538
252	0xbe605970	-0.21909118
253	0x3c45ff5d	0.012084809
254	0x3bf1aeda	0.0073755803
255	0x3d7aecee	0.06126111

decoder.0.bias f4 [64]
0	0xbd275243	-0.040849935
1	0xbcc46928	-0.023975924
2	0x3df40962	0.11915852
3	0x3df72eb0	0.12069452
4	0xbddd0549	-0.10792024
5	0xbba91845	-0.005160364
6	0x3d17d3b6	0.037067138
7	0x3dde5ad7	0.1085717
8	0xbd3cc70f	-0.046088275
9	0xbc89b534	-0.016810037
10	0xbdaaf595	-0.08347622
11	0xbd807409	-0.06272132
12	0x3bb3e193	0.005489537
13	0xbcc53477	-0.024072869
14	0x3ccd4a18	0.025059745
15	0xbdc74a38	-0.09730953
16	0xbd045847	-0.03231075
17	0xbd4ce30a	-0.05002121
18	0x3cdd3342	0.02700198
19	0x3d3b087c	0.04566239
20	0x3d361df2	0.04446215
21	0xbdc8ca6d	-0.09804235
22	0xbca33caa	-0.019926388
23	0x3c60cede	0.013721196
24	0x3dc242ca	0.09485395
25	0x3dd3bb6b	0.103384815
26	0xbde50c3c	-0.11183974
27	0xbdc94155	-0.09826914
28	0xbb5c78f5	-0.0033641432
29	0xbcccaf2c	-0.024985872
30	0xbe0b3f20	-0.13598299
31	0x3d8a0ee6	0.06741123
32	0xbd684710	-0.056708395
33	0xbd601430	-0.054706752
34	0x3bfc4c7a	0.0076995464
35	0xbd169bf9	-0.03676984
36	0x3dcdcaf1	0.100484736
37	0x3da59145	0.080843486
38	0xbd0abb3a	-0.03386996
39	0x3d81d2a3	0.06339004
40	0x3c6922c4	0.01422948
41	0x3d7eb928	0.062188298
42	0xbd547b77	-0.051875558
43	0xbc7a9d2d	-0.015296263
44	0xbbb49cc7	-0.0055118534
45	0x3aee0903	0.0018160645
46	0x3d8b86a7	0.06812792
47	0x3d869431	0.06571234
48	0x3d12ebed	0.035869528
49	0xbdb16b28	-0.086630166
50	0xbdb9d624	-0.09074047
51	0xbd73ff26	-0.0595695
52	0xbda002dd	-0.07813046
53	0x3e14e104	0.14538962
54	0xbd18728f	-0.037218627
55	0xbd62aefc	-0.05534266
56	0x3d84489e	0.06459163
57	0x3d4b3a8e	0.04961639
58	0xbe089d66	-0.13341293
59	0xbd9f73fe	-0.07785796
60	0xbdd3ffe8	-0.103515446
61	0x3d3bd65d	0.04585873
62	0x3a0fc26d	0.0005483989
63	0xbdeab31a	-0.11459942

decoder.2.weight f4 [64, 64]
0	0x3cf10274	0.029420115
1	0xbe7c6a36	-0.24649891
2	0x3e1956e8	0.14974558
3	0x3e6f77e9	0.23385586
4	0xbd904eb2	-0.0704626
5	0x3d8fb9da	0.0701787
6	0xbdc4a7b7	-0.096023016
7	0xbdfb4c9b	-0.12270471
8	0x3dea72a6	0.11447649
9	0xbc1963c4	-0.009362165
10	0xbdadae0f	-0.08480465
11	0x3ccd638d	0.025071884
12	0x3db14ab7	0.08656829
13	0x3d0a16e8	0.03371325
14	0x3e308b87	0.17240725
15	0xbd8bf7cc	-0.06834373
16	0x3df7d825	0.12101773
17	0xbe2314cb	-0.159259
18	0xbe86fdc5	-0.26365486
19	0x3dbd3f3e	0.09240578
20	0x3ddccb3f	0.107809536
21	0xbe41faf6	-0.1894339
22	0x3df69b0b	0.12041291
23	0x3e024b05	0.1272393
24	0xbdae3c43	-0.08507588
25	0x3d9d74bd	0.07688282
26	0xbd578911	-0.05262095
27	0xbe1a5fbb	-0.15075581
28	0xbd1b6cd3	-0.03794558
29	0x3d201701	0.03908444
30	0x3dea789a	0.11448784
31	0x3da9897f	0.082781784
32	0xbd352834	-0.044227794
33	0xbe87adf6	-0.2649991
34	0x3e6c68a9	0.230868
35	0x3e694937	0.22781835
36	0x3e317c02	0.17332461
37	0x3e002310	0.12513375
38	0xbde49ad6	-0.11162345
39	0xbcd90206	-0.026490223
40	0xbd2c7dc0	-0.042112112
41	0x3e08b795	0.13351281
42	0x3d160ca8	0.036633164
43	0xbdcf5be3	-0.10124948
44	0x3e605a7b	0.21909516
45	0xbdfe0115	-0.1240255
46	0x3ddb1d90	0.10698998
47	0x3d5c58ca	0.053795613
48	0xbcf9739d	-0.030450637
49	0x3e86d581	0.26334766
50	0xbe8a896a	-0.27057964
51	0xbd3cd173	-0.046098184
52	0xbe148896	-0.14505228
53	0xbd3a8af5	-0.045542676
54	0xbe57b7a3	-0.21066146
55	0xbda23eee	-0.07922159
56	0x3bcaf16c	0.0061933305
57	0xbe0188f6	-0.12649903
58	0x3d38100c	0.04493718
59	0xbde643d6	-0.112434074
60	0xbe8d25d3	-0.2756792
61	0xbd807fdf	-0.062743895
62	0xbc22e413	-0.009942072
63	0xbd08e80e	-0.03342443
64	0x3da64b0f	0.08119785
65	0x3d839482	0.0642481
66	0xbd863b3d	-0.065542676
67	0x3cb753a2	0.022378746
68	0xbd064b17	-0.032786455
69	0xbeb45133	-0.352182
70	0x3e6f9eff	0.23400496
71	0xbbd5ddc9	-0.006526683
72	0xbdb4a924	-0.088213235
73	0x3e3d379e	0.18478248
74	0x3e59326d	0.21210642
75	0xbdab9b00	-0.08379173
76	0xbe8ff8a6	-0.2811939
77	0xbd3de60d	-0.04636197
78	0x3d281ed3	0.04104502
79	0x3d4d1dc9	0.050077233
80	0xbe2d02f2	-0.16895655
81	0x3d9cf01d	0.076629855
82	0x3e1c417e	0.15259358
83	0xbefdfe2c	-0.4960798
84	0x3de629f9	0.112384744
85	0x3e1c6ec2	0.15276626
86	0xbec81b1c	-0.39083183
87	0x3e0b625f	0.13611744
88	0xbe682b3c	-0.22672743
89	0x3e4497f5	0.19198592
90	0x3e850fdf	0.2598867
91	0xbe903a05	-0.28169265
92	0x3ae428a0	0.0017407127
93	0x3d35f4d8	0.044422954
94	0xbdfda5ea	-0.12385161
95	0xbe897b1a	-0.26851732
96	0x3ddcc370	0.10779464
97	0x3ece29ff	0.40266415
98	0xbe541447	-0.2071086
99	0xbe088729	-0.1333281
100	0xbdb4ea76	-0.088337824
101	0xbeac422c	-0.33644235
102	0x3e0f90d0	0.14020085
103	0x3e8333d9	0.25625494
104	0x3ddc4ad1	0.107564576
105	0xbe7a03a2	-0.24415448
106	0x3ea9f3b9	0.33193758
107	0x3e176d56	0.14787802
108	0xbe9bc86b	-0.30426344
109	0xbe9542a1	-0.29152396
110	0xbe6f4986	-0.2336789
111	0x3ea20382	0.316433
112	0x3ea4f8b1	0.32220986
113	0xbdc68cea	-0.09694846
114	0x3d25bba0	0.040462136
115	0x3f0ba943	0.5455515
116	0x3d90cc74	0.07070246
117	0x3d1e50ce	0.03865128
118	0x3e509271	0.20368363
119	0x3d7f7d82	0.062375553
120	0x3c0852a5	0.008320485
121	0x3e1adaa2	0.15122464
122	0xbe96f975	-0.29487196
123	0x3e8d2fed	0.27575627
124	0x3e597f03	0.21239857
125	0xbdcba202	-0.0994301
126	0x3de96dbc	0.11397883
127	0xbe898f26	-0.26867026
128	0x3be1408e	0.0068741506
129	0xbd2d6572	-0.042333074
130	0xbcc58c54	-0.024114765
131	0xbdc9c2fc	-0.098516434
132	0xbd3e1655	-0.046408016
133	0xbd8ab581	-0.067729004
134	0xbd425a85	-0.047449607
135	0x3e174817	0.14773594
136	0xbde76e53	-0.113003395
137	0xbe579030	-0.21051097
138	0xbeed37ea	-0.46331722
139	0x3eb2a12b	0.34888586
140	0x3eb87b18	0.36031413
141	0x3ec01198	0.37513423
142	0xbeae7745	-0.3407537
143	0x3d894261	0.06702114
144	0xbe80faba	-0.2519129
145	0xbd25ecf9	-0.040509198
146	0xbb71fc34	-0.0036924006
147	0x3e23c6fe	0.15993878
148	0xbea07b99	-0.31344298
149	0xbd3b6b50	-0.045756638
150	0x3e2c0fa0	0.16802835
151	0xbe8a9ed8	-0.27074313
152	0x3e010f1c	0.1260342
153	0xbe13b4ca	-0.14424434
154	0xbe16e2c5	-0.14734943
155	0x3ef1d0c4	0.47229588
156	0xbdc0d6b5	-0.09415952
157	0x3c5d14bb	0.013493712
158	0x3eb24d96	0.34824818
159	0xbd10c4de	-0.035343997
160	0x3e09e13a	0.13464823
161	0xbe0c6da3	-0.13713698
162	0xbda0d437	-0.07852977
163	0xbe9063ec	-0.28201234
164	0xbd0186f2	-0.031622835
165	0x3e983ced	0.29733983
166	0xbf32b315	-0.6980451
167	0xbeca703e	-0.3953876
168	0x3e26be74	0.1628359
169	0xbd1241c8	-0.035707265
170	0xbc474d69	-0.012164452
171	0xbd61e423	-0.05514921
172	0x3d71e2b7	0.059054103
173	0x3e5af77e	0.21383473
174	0xbdeee975	-0.11665622
175	0xbe1aec25	-0.15129144
176	0xbe965102	-0.2935868
177	0xbe13a891	-0.14419772
178	0x3d91efcc	0.07125816
179	0xbdc42fd8	-0.09579438
180	0xbd579f8a	-0.052642383
181	0xbe5e9fba	-0.21740618
182	0xbdba30b8	-0.090913236
183	0xbd0059f8	-0.0313358
184	0xbf528491	-0.8223353
185	0x3daeef5e	0.085417494
186	0x3ed845f3	0.42240867
187	0xbe29d81c	-0.16586345
188	0xbb2b2fa0	-0.0026120916
189	0xbca90c1e	-0.02063566
190	0x3b3ff4a9	0.0029290116
191	0x3e35e10a	0.17761627
192	0x3d80a64e	0.0628172
193	0x3e796ead	0.24358626
194	0x3c6cd9ef	0.014456256
195	0x3db7568d	0.08952055
196	0x3c994eea	0.018714387
197	0xbdc4c21c	-0.09607336
198	0x3dafb98f	0.08580314
199	0xbe0f1fe5	-0.1397701
200	0xbc46d18a	-0.012134919
201	0xbd4eaf06	-0.050459884
202	0x3e29dbbf	0.16587733
203	0xbda448f6	-0.08021729
204	0xbe89ccdb	-0.26914105
205	0xbdf67c6b	-0.120354496
206	0x3e0c1e7b	0.13683502
207	0xbde32769	-0.11091501
208	0xbe4803ae	-0.19532654
209	0xbd50a146	-0.050935052
210	0x3da630f1	0.081148036
211	0xbf1840d9	-0.5947395
212	0x3da90846	0.08253531
213	0x3e0fd636	0.14046559
214	0xbe703458	-0.23457468
215	0x3e57e58d	0.2108366
216	0xbe3a4238	-0.18189323
217	0x3dc896fa	0.097944215
218	0x3df8b699	0.12144203
219	0xbe447035	-0.19183429
220	0x3dc2f930	0.09520185
221	0x3c7d68b2	0.015466856
222	0xbda9bdc6	-0.082881495
223	0xbed23b12	-0.41060692
224	0xbc4cdd1f	-0.012503891
225	0x3e866306	0.26247424
226	0xbe4e8929	-0.2016951
227	0xbe61137f	-0.21980093
228	0xbe0fe404	-0.14051825
229	0xbe786cc9	-0.24260248
230	0x3e999810	0.29998827
231	0x3ed93b4a	0.42428046
232	0xbaf67821	-0.0018804112
233	0xbda5d472	-0.08097161
234	0x3ed15312	0.4088369
235	0xbbb344ea	-0.0054708617
236	0xbdc308c2	-0.09523155
237	0xbe20f1cd	-0.1571724
238	0xbe1bd1c0	-0.15216732
239	0x3eb47671	0.35246614
240	0x3e3f1703	0.18661122
241	0xbe40dc0b	-0.1883394
242	0x3e55b137	0.20868383
243	0x3e7d4e58	0.24736917
244	0x3ec12bc3	0.377287
245	0x3d857b9f	0.065177195
246	0xbd76c55e	-0.060246818
247	0x3dda0200	0.10644913
248	0x3e1c7a72	0.15281084
249	0x3e3cd0d5	0.18439038
250	0xbe8c65fe	-0.27421564
251	0x3ea97d17	0.33103248
252	0xbcab7249	-0.020928519
253	0xbb5a6330	-0.003332328
254	0x3e5d3a7c	0.21604341
255	0xbdcd4441	-0.10022784

decoder.2.bias f4 [64]
0	0xbd262c20	-0.040569425
1	0xbd1e9b15	-0.038722117
2	0xbdae1847	-0.08500724
3	0x3c9543b5	0.018220762
4	0xbcbc9aba	-0.023022998
5	0x3d924b72	0.07143296
6	0x3c3e9be4	0.011633847
7	0xbde715b6	-0.11283438
8	0xbe2245f7	-0.15847002
9	0xbd5cf497	-0.053944197
10	0x3d493950	0.049126923
11	0x3d827c56	0.063713714
12	0x3dedcc4e	0.11611234
13	0x3bab9c2a	0.005237122
14	0xbdfe8d32	-0.124292746
15	0x3b469596	0.0030301563
16	0x3d54b6ec	0.05193226
17	0x3c8cbd1a	0.017180014
18	0x3d84784c	0.06468257
19	0x3d9f87a6	0.07789545
20	0xbd23db4c	-0.04000406
21	0xbd8213c5	-0.06351427
22	0x3c2e5a31	0.0106416205
23	0x3b9ff66a	0.00488167
24	0x3ca4ce31	0.020117851
25	0xbd934faa	-0.07192929
26	0xbe213b38	-0.15745246
27	0x3e11fead	0.14257307
28	0x3de23cdc	0.11046764
29	0xbe0bb8dc	-0.13644737
30	0xbde2bc9b	-0.1107113
31	0x3c1c2ecd	0.009532643
32	0xbd92ee4e	-0.07174359
33	0xbe1e973f	-0.15487383
34	0x3daafcfe	0.08349036
35	0xbd8923fc	-0.066963166
36	0x3d4cd096	0.05000361
37	0xbdc66686	-0.096875235
38	0x3c86aac1	0.016438844
39	0xbd10f8d9	-0.03539357
40	0xbda7c401	-0.08191682
41	0xbd821dc9	-0.06353337
42	0xbe1744f4	-0.14772397
43	0x3d95e95b	0.073199
44	0xbd45fec2	-0.04833866
45	0xbdc957c3	-0.09831192
46	0x3df2988d	0.11845503
47	0x3c878cee	0.016546693
48	0xbd477a4d	-0.04870062
49	0x3d77553c	0.06038402
50	0x3b9469d5	0.0045292177
51	0x3cd34e5e	0.025794204
52	0x3df775ea	0.12083037
53	0x3d7f9038	0.062393397
54	0x3d9ba2ed	0.07599435
55	0xbd27d21a	-0.040971853
56	0xbd666f29	-0.056258354
57	0xbcc8c44d	-0.024507666
58	0xbd1c501f	-0.038162347
59	0x3e0205d0	0.1269753
60	0xbd52144d	-0.05128889
61	0x3dbfe1e3	0.09369256
62	0xbcc610cc	-0.024177931
63	0x3df2a700	0.11848259
