Code/Trained models/m_mu_5000_norm_4001_vanilla.pth (torch, 9680 bytes, 9 tensors)

net.0.weight f4 [20, 6]
0.71327806 0.012276734 -0.026474653 0.012420542 -0.23210207 0.019755043 -0.3788057 0.031253684
0.095458046 0.01159029 -0.065193534 -0.15793565 -0.680775 0.10349834 0.03802897 -0.12605701
-0.24282359 0.28431705 -0.53567326 0.012854239 -0.036192916 -0.026656535 0.25716394 -0.03736354
2.7140086 -0.22490698 -0.020545 -0.3762899 -0.39757976 -0.39354277 -0.7236346 -0.04338505
-0.056798525 0.019087585 -0.1409321 -0.007336238 0.08469436 0.12173176 -0.0887133 -0.2980911
0.02196136 0.123971455 -0.35095367 -0.0665178 0.016565049 0.076569915 -0.029028518 -0.065199666
-0.23688343 -0.12634735 0.17483301 -0.25238886 0.28927147 -0.28047135 -0.5626206 0.01659234
0.07202694 0.008775231 -0.122719035 0.21463047 0.4830071 -0.0628506 -0.02300867 0.31457815
0.087608874 -0.46058983 -0.7074053 0.10264224 -0.083353125 -0.2861166 -0.061186098 -0.013686834
0.723129 -0.15412398 0.10833305 0.10600051 0.0878506 0.13081282 0.62045836 0.024809618
-0.08004461 0.02329148 0.5034738 -0.30106914 -0.72052 0.18192266 -0.10093294 0.19097178
0.05432649 -0.2094032 0.6188246 -0.59229547 -0.011079291 -0.39619568 0.15079828 -0.34095132
-0.53828275 -0.055542454 0.001659991 0.30179724 -0.26888564 0.02330529 -0.10973759 -0.0812011
-0.116944194 -0.48144007 -0.30763775 0.19397512 0.26796144 -0.089035936 -0.1247551 0.3393352
-0.13134873 0.28580207 -0.7952358 0.0007441642 -0.029497793 0.23908581 0.057561483 -0.19824883
00000000: 6499 363f 5b24 493c 5fe1 d8bc 877f 4b3c
00000010: 2aac 6dbe 54d5 a13c d2f2 c1be dd03 003d
00000020: 827f c33d 33e5 3d3c 3084 85bd e2b9 21be
00000030: 4547 2ebf f0f6 d33d 44c4 1b3d 1715 01be
00000040: bfa6 78be 0192 913e e221 09bf 969a 523c
00000050: 063f 14bd ce5e dabc feaa 833e 830a 19bd
00000060: 51b2 2d40 044e 66be fd4d a8bc 12a9 c0be
00000070: 938f cbbe 707e c9be 1e40 39bf 86b4 31bd
00000080: 92a5 68bd 915d 9c3c 8150 10be d364 f0bb
00000090: 3d74 ad3d 804e f93d 52af b5bd 669f 98be
000000a0: 4fe8 b33c bfe4 fd3d 33b0 b3be 7c3a 88bd
000000b0: 6db3 873c b0d0 9c3d 37cd edbc 6787 85bd
000000c0: 9291 72be 3361 01be 6d07 333e 1d39 81be
000000d0: 641b 943e f199 8fbe e707 10bf a9ec 873c
000000e0: dc82 933d fdc5 0f3c 1e54 fbbd 17c8 5b3e
000000f0: b54c f73e d1b7 80bd ae7c bcbc 6310 a13e
00000100: 486c b33d 6ed2 ebbe 8418 35bf 1836 d23d
00000110: 0bb5 aabd e07d 92be 469e 7abd be3e 60bc
00000120: fb1e 393f add2 1dbe b8dd dd3d cc16 d93d
00000130: 04eb b33d ccf3 053e 5cd6 1e3f 8a3d cb3c
00000140: 6eee a3bd c6cd be3c a9e3 003f bc25 9abe
00000150: 0074 38bf ef49 3a3e eeb5 cebd 1b8e 433e
00000160: 7485 5e3d cb6d 56be 4a6b 1e3f ada0 17bf
00000170: ea85 35bc 29da cabe dd6a 1a3e 2c91 aebe
00000180: e6cc 09bf 7c80 63bd 0e94 d93a 2b85 9a3e
00000190: 61ab 89be bcea be3c 1abe e0bd c34c a6bd
000001a0: 7080 efbd 507f f6be b282 9dbe 6aa1 463e
000001b0: 3e32 893e 7958 b6bd 9a7f ffbd 58bd ad3e
000001c0: 4880 06be a654 923e 9394 4bbf 0414 433a
000001d0: 5ba5 f1bc e9d2 743e 97c5 6b3d be01 4bbe

net.0.bias f4 [20]
-0.3263323 -0.2719463 0.44133165 0.021809017 -0.3773676 -0.07801426 0.010475961 0.3959393
-0.34296045 0.05858493 0.22475965 0.13377139 -0.023906121 -0.7282784 -0.19436227 -0.14238422
-0.40336466 0.0545234 0.08267292 -0.38914192
00000000: 0715 a7be 8c3c 8bbe 39f6 e13e d3a8 b23c
00000010: 5336 c1be f1c5 9fbd 5da3 2b3c 8eb8 ca3e
00000020: 8398 afbe c0f6 6f3d 6527 663e 5efb 083e
00000030: c5d6 c3bc 7470 3abf e706 47be 2bcd 11be
00000040: d085 cebe ee53 5f3d 6b50 a93d 9c3d c7be

net.2.weight f4 [20, 20]
0.06680622 0.089686565 0.42950678 0.05106194 -0.44058076 0.47187576 -0.02473319 0.19700156
-0.25320777 0.23944972 -0.22227395 -0.11403353 -0.083900146 0.030075403 0.6482941 0.09136161
0.20771231 -0.14134783 0.15718378 0.6410998 -0.047584657 -0.104181565 0.7324521 0.291265
-0.714464 0.17908521 0.1873889 0.5693146 0.03765605 0.47515374 -0.064382516 -0.14373691
-0.0054953704 0.0070962156 0.12346414 -0.30645505 0.20044376 -0.022800324 0.34463593 0.61570436
-0.34677422 0.06906799 -0.22747715 0.032715168 0.18678075 0.103725925 -0.11186377 0.052563418
-0.05218394 -0.12429064 -0.2185803 0.1850166 0.08347674 0.011775638 -0.22797552 0.0035588164
-0.1994548 -0.027701577 0.068379216 0.46422553 -0.2176884 -0.07705589 0.055639695 -0.009178637
-0.23285519 0.053403236 -0.05469434 -0.19231156 0.13307655 -0.14023551 0.15986015 0.030486353
-0.3136714 0.08428572 0.4001188 -0.07329843 -0.07136296 -0.2022941 -0.10924391 -0.24525915
0.062126525 -0.069863915 -0.12719741 -0.33385774 0.12712894 -0.26846755 0.085852705 -0.4642339
0.13490324 -0.48336953 0.4292837 -0.30418986 0.013638777 0.34494367 -0.08094269 -0.16349638
0.05169257 -0.107788295 -0.15698428 -0.29258132 -0.3225966 -0.025825236 0.72246987 0.53001726
-0.24944317 0.52132803 -0.008835356 0.64621776 -0.1540691 0.36264792 -0.33968204 0.37222278
-0.33806294 -0.3902386 0.43111625 0.07718307 0.21753477 0.012254358 -0.01133265 0.57084435
-0.37044778 0.13599569 0.33282426 0.60451305 -0.1805852 0.50591576 -0.00073178177 0.32645023
0.031487588 0.5533637 -0.39298797 0.079144955 -0.30379787 -0.027196942 0.18009512 0.07225723
0.10529295 -0.0083997175 -0.042647492 0.51769865 0.029592747 -0.04138241 -0.57942 -0.13280527
0.10700785 -0.3486359 0.052991707 -0.2474738 -0.0038280194 -0.27616534 0.22058381 -0.04354913
0.19476213 0.41668776 -0.33016387 0.267265 0.018543558 0.12181053 -0.14655769 -0.32593
-0.06834198 -0.2115684 0.29185337 0.3049679 0.42525464 0.12798466 -0.32709455 0.43249103
-0.11348229 0.40244916 0.03886119 0.16901575 -0.14379089 -0.42996517 -0.22684091 -0.103242084
-0.020304343 -0.33127382 0.13464983 0.24384719 0.19469571 0.1549677 -0.40530005 -0.47242606
-0.044349015 -0.43511444 -0.3132729 -0.36952424 0.017011773 0.044634026 -0.08603737 -0.4404793
0.33549666 0.26211026 -0.108002484 0.20744379 0.20116997 -0.060133766 0.055876106 -0.043536182
-0.29578424 -0.05912133 0.022046346 0.17673413 -0.3311891 0.26260304 -0.04378317 0.26300412
0.012385989 0.017670766 0.089452736 -0.010692169 0.23404594 -0.101697505 0.13734683 0.0667238
0.15463196 -0.104218386 0.077098176 0.6355992 -0.381355 -0.17010844 -0.012212144 0.18319444
-0.0111247385 0.0532276 -0.21062961 0.23115785 0.25073215 0.3367929 -0.11835002 0.2686552
-0.13234888 -0.19791459 0.08802043 0.2299975 -0.077532016 -0.09264231 -0.04513864 0.42370328
0.18916085 -0.17198873 0.116740435 -0.2873673 -0.0196825 0.10556503 0.080344215 -0.3985108
-0.046907634 -0.13402613 0.2384746 -0.33342367 -0.21505882 0.017425204 0.09258488 0.02743748
00000000: b3d1 883d 97ad b73d 50e8 db3e 5326 513d
00000010: cd93 e1be b399 f13e 429d cabc c7ba 493e
00000020: 73a4 81be 4f32 753e c89b 63be 698a e9bd
00000030: d7d3 abbd b160 f63c 9af6 253f cc1b bb3d
00000040: 89b2 543e 7cbd 10be c9f4 203e 1e1f 243f
00000050: 21e8 42bd 255d d5bd fb81 3b3f b020 953e
00000060: 1de7 36bf 1d62 373e e0e2 3f3e 9abe 113f
00000070: 3b3d 1a3d 5a47 f33e fbda 83bd c52f 13be
00000080: 8212 b4bb 5f87 e83b c4da fc3d ade7 9cbe
00000090: 2141 4d3e bfc7 babc 1f74 b03e cd9e 1d3f
000000a0: 648c b1be 8573 8d3d c5ef 68be 5700 063d
000000b0: 7443 3f3e 426e d43d d518 e5bd bd4c 573d
000000c0: d4be 55bd 178c febd 84d3 5fbe fe74 3d3e
000000d0: daf5 aa3d 9bee 403c 6a72 69be 083b 693b
000000e0: e13d 4cbe 6bee e2bc 670a 8c3d f8ae ed3e
000000f0: b5e9 5ebe 7acf 9dbd 73e6 633d fe61 16bc
00000100: 9771 6ebe 5abd 5a3d 2c07 60bd 52ed 44be
00000110: 3845 083e e699 0fbe 61b2 233e 84be f93c
00000120: 8a99 a0be fe9d ac3d 5fdc cc3e 7d1d 96bd
00000130: be26 92bd 2f26 4fbe 45bb dfbd 3725 7bbe
00000140: 6278 7e3d d014 8fbd 0a40 02be 67ef aabe
00000150: 172e 023e 9474 89be 8bd3 af3d 11b0 edbe
00000160: 1324 0a3e 367c f7be 13cb db3e c6be 9bbe
00000170: 2d75 5f3c 759c b03e 48c5 a5bd 986b 27be
00000180: 97bb 533d 1cc0 dcbd 7dc0 20be 38cd 95be
00000190: 622b a5be 728f d3bc c9f3 383f 36af 073f
000001a0: 086e 7fbe c175 053f 2bc2 10bc 876e 253f
000001b0: 4ac4 1dbe fdac b93e ceea adbe fc93 be3e
000001c0: 9616 adbe 5bcd c7be 45bb dc3e 2812 9e3d
000001d0: 6fc1 5e3e 81c6 483c 94ac 39bc db22 123f
000001e0: 55ab bdbe 7442 0b3e f167 aa3e 5ec1 1a3f
000001f0: 54eb 38be b283 013f 0bd5 3fba 7c24 a73e
00000200: 21f9 003d 3ea9 0d3f b835 c9be c016 a23d
00000210: 658b 9bbe 1fcc debc db6a 383e 99fb 933d
00000220: d5a3 d73d f89e 09bc 23af 2ebd e687 043f
00000230: 7d6c f23c 9a80 29bd de54 14bf 1bfe 07be
00000240: ef26 db3d 6880 b2be d50d 593d c669 7dbe
00000250: 82df 7abb 8b65 8dbe b9e0 613e 9360 32bd
00000260: b96f 473e 1958 d53e 3d0b a9be f5d6 883e
00000270: a9e8 973c cd77 f93d 3813 16be 4ce0 a6be
00000280: e1f6 8bbd 63a5 58be ce6d 953e c124 9c3e
00000290: faba d93e 690e 033e f078 a7be 776f dd3e
000002a0: 6769 e8bd d10d ce3e e92c 1f3d 7712 2d3e
000002b0: eb3d 13be 6524 dcbe fc48 68be 9670 d3bd
000002c0: 4b55 a6bc b99c a9be a5e1 093e 14b3 793e
000002d0: 505e 473e daaf 1e3e 7d83 cfbe d4e1 f1be
000002e0: 50a7 35bd 52c7 debe 4e65 a0be 4832 bdbe
000002f0: 465c 8b3c 2bd2 363d 5c34 b0bd 8186 e1be
00000300: 38c6 ab3e 5133 863e 6830 ddbd 256c 543e
00000310: 80ff 4d3e d34e 76bd 58de 643d ff52 32bd
00000320: 0871 97be 3529 72bd 8a9a b43c cbf9 343e
00000330: 9e91 a9be e873 863e fb55 33bd 7aa8 863e
00000340: 9aee 4a3c 48c2 903c ff32 b73d 352e 2fbc
00000350: bda9 6f3e c846 d0bd a6a4 0c3e 7da6 883d
00000360: d757 1e3e 7370 d5bd a6e5 9d3d a1b6 223f
00000370: f640 c3be e830 2ebe 7215 48bc 5397 3b3e
00000380: 8944 36bc 2f05 5a3d 4aaf 57be a5b4 6c3e
00000390: f75f 803e 1e70 ac3e 7f61 f2bd 2d8d 893e
000003a0: 7786 07be 1faa 4abe 0e44 b43d 7784 6b3e
000003b0: 1bc9 9ebd 40bb bdbd 4be3 38bd a3ef d83e
000003c0: 62b3 413e d01d 30be 9c15 ef3d cf21 93be
000003d0: 323d a1bc 7a32 d83d 828b a43d 9c09 ccbe
000003e0: 3822 40bd 253e 09be af32 743e 82b6 aabe
000003f0: 6138 5cbe 4dbf 8e3c 249d bd3d 91c4 e03c

net.2.bias f4 [20]
0.33378777 0.047143698 -0.15526688 0.13263243 0.1001022 0.097770415 -0.06592128 -0.15036276
0.19641864 0.14676423 0.03907182 0.12998876 0.010332573 -0.082450494 0.00609181 0.15201427
-0.014569245 0.17858823 0.15435919 0.058931544
00000000: 3be6 aa3e c019 413d 48fe 1ebe ccd0 073e
00000010: 6202 cd3d db3b c83d bc01 87bd b2f8 19be
00000020: f821 493e 5d49 163e c609 203d c61b 053e
00000030: f449 293c cedb a8bd ce9d c73b a1a9 1b3e
00000040: d8b3 6ebc d5df 363e 5610 1e3e 3462 713d

net.4.weight f4 [20, 20]
0.2387841 0.37570095 0.34299356 -0.040579483 -0.5684739 0.23057108 0.2731041 -0.36233202
0.46062255 0.21176428 0.16376661 0.19651283 -0.27969947 -0.5197171 0.10538023 -0.46505472
0.28437775 0.5439519 0.5537699 0.26171297 0.1873017 0.27066025 -0.28558642 0.046065073
0.19199891 -0.050596878 0.072525136 -0.24110232 -0.2517978 -0.1580516 -0.019198077 -0.07172664
0.24426825 -0.3523101 -0.36380792 0.036502123 -0.07878018 0.042804755 -0.1240949 0.012854686
0.04029417 0.19859451 0.26843014 -0.2839345 -0.06257126 0.059748527 0.2568763 0.048087966
-0.02446552 0.13357961 0.065201394 0.16945785 -0.34473792 -0.033830788 0.34613094 -0.020580214
0.25556877 -0.019149251 0.018458625 0.025085991 -0.24066317 -0.18261011 -0.07497371 0.023023408
0.2547044 -0.61516005 -0.32573357 0.40807903 -0.35324883 0.28067896 -0.061898552 -0.34459636
0.241403 0.5919933 0.14101036 -0.0830877 0.13486084 -0.44088566 -0.7475012 -0.0485754
0.30568776 0.070436455 0.09916468 0.14935973 -0.15033388 -0.396651 0.1371479 0.07287641
-0.0959117 0.35287875 0.21375473 0.2956619 0.016370129 -0.35404876 -0.21920037 0.23103575
0.029595912 0.09029813 -0.06316492 0.1222088 -0.008321633 0.010669926 -0.015146016 0.052194566
0.36637688 -0.33301455 -0.26910862 0.03193841 -0.14648814 0.104537144 0.005142583 -0.40072733
-0.016980173 0.10266828 -0.40352312 0.27587512 -0.49294627 -0.15690532 -0.24579051 -0.38144916
0.02971 0.004191798 0.2754021 -0.18947768 -0.5288545 0.41926855 0.5016115 -0.5922098
0.19596508 0.0967799 -0.046853114 0.3488281 -0.5522441 -0.098511994 0.043142736 -0.46662277
0.2893489 0.60143 0.33451232 0.2750856 -0.058192067 -0.2904045 0.21323307 -0.29973432
-0.31107715 0.031885255 0.3248988 -0.29955658 0.33609888 -0.02819161 0.119839296 0.06275292
-0.36980107 0.049336534 0.10999607 -0.26863688 0.47370207 0.3213863 0.17270255 0.3851402
-0.29521623 -0.28363582 0.24766676 0.03677286 0.26418763 -0.8005688 -0.19215937 0.93881214
-0.19216348 0.8184198 -0.82646686 0.03719476 0.018392269 -0.15508029 0.1189128 -0.072328016
0.03719217 -0.2617783 -0.4680484 -0.059993785 0.17370032 0.15928817 -0.113696955 0.14906749
-0.052172713 -0.36637583 0.04744805 0.07348378 -0.28724337 -0.14566015 0.05474667 0.27882302
-0.124734454 0.11899325 -0.10510507 -0.08627975 0.21966282 0.05543046 -0.10250387 0.08517311
0.25084594 0.12966494 -0.53249997 0.1356646 0.37210777 -0.39041108 -0.4168174 0.16015339
-0.12570314 0.104353696 -0.001882112 -0.36664757 0.4738181 -0.18084872 -0.21580206 0.49040052
-0.5445454 -0.3921239 -0.30338258 -0.45422754 0.1023268 0.097463116 0.08521449 0.056760386
0.03364446 -0.20402156 -0.33539134 -0.11765 -0.026673282 0.113533914 -0.08788879 -0.12488849
0.1982775 -0.1337145 -0.15148704 -0.039146315 0.011413586 -0.14877754 -0.1403811 -0.2116026
0.0033152322 -0.25432822 -0.043255486 -0.07589075 0.4263145 -0.20593676 -0.14977704 0.12687269
-0.16091572 -0.2604634 0.1131341 -0.28450862 0.10995251 0.3074117 0.052253462 0.23587425
00000000: d283 743e e05b c03e da9c af3e ac36 26bd
00000010: 8187 11bf d31a 6c3e 4dd4 8b3e 9583 b9be
00000020: b8d6 eb3e bcd8 583e 6fb2 273e a93a 493e
00000030: c534 8fbe 2e0c 05bf 97d1 d73d a71b eebe
00000040: f699 913e 6f40 0b3f ddc3 0d3f 3eff 853e
00000050: 04cc 3f3e fb93 8a3e 6238 92be bbae 3c3d
00000060: 5d9b 443e ac3e 4fbd 0f88 943d 87e3 76be
00000070: a4eb 80be 47d8 21be 4945 9dbc 6be5 92bd
00000080: 7521 7a3e fd61 b4be 0845 babe 4083 153d
00000090: 8157 a1bd 0a54 2f3d 7825 febd 769c 523c
000000a0: 800b 253d 5c5c 4b3e ad6f 893e dd5f 91be
000000b0: 5c25 80bd dfba 743d 4a85 833e e3f7 443d
000000c0: ea6b c8bc 18c9 083e 4f88 853d 5c86 2d3e
000000d0: 7d81 b0be 2792 0abd 1338 b13e d697 a8bc
000000e0: e9d9 823e e4de 9cbc 8b36 973c 2381 cd3c
000000f0: 6870 76be 25fe 3abe d18b 99bd 969b bc3c
00000100: 9d68 823e 217b 1dbf 8dc6 a6be bcef d03e
00000110: 08dd b4be 27b5 8f3e 5689 7dbd ef6e b0be
00000120: 5932 773e df8c 173f 0565 103e e229 aabd
00000130: f618 0a3e c4bb e1be 3d5c 3fbf 00f7 46bd
00000140: 1b83 9c3e fd40 903d da16 cb3d c2f1 183e
00000150: 20f1 19be d715 cbbe 8070 0c3e 3a40 953d
00000160: 5a6d c4bd 86ac b43e 85e2 5a3e ff60 973e
00000170: a61a 863c e145 b5be 1076 60be a394 6c3e
00000180: 2073 f23c 3aee b83d 9c5c 81bd 9b48 fa3d
00000190: 7557 08bc ead0 2e3c ff26 78bc f8c9 553d
000001a0: c095 bb3e e280 aabe 9bc8 89be dad1 023d
000001b0: fd00 16be 9217 d63d 1d83 a83b 222c cdbe
000001c0: 011a 8bbc bf43 d23d 959a cebe 813f 8d3e
000001d0: 7463 fcbe caab 20be 82b0 7bbe 4e4d c3be
000001e0: 6362 f33c 5a5b 893b 8101 8d3e 7006 42be
000001f0: 0263 07bf 5eaa d63e 9c69 003f 109b 17bf
00000200: 12ab 483e 8a34 c63d 0de9 3fbd 9999 b23e
00000210: df5f 0dbf a8c0 c9bd 70b6 303d 2ee9 eebe
00000220: 8a25 943e 51f7 193f 3345 ab3e 05d8 8c3e
00000230: ce5a 6ebd e6af 94be c559 5a3e c776 99be
00000240: 8145 9fbe 1d9a 023d 2359 a63e 7b5f 99be
00000250: 2715 ac3e 17f2 e6bc 4e6e f53d 9a84 803d
00000260: 9156 bdbe 1b15 4a3d 9f45 e13d c68a 89be
00000270: 1489 f23e bf8c a43e f0d8 303e 1931 c53e
00000280: 9526 97be b738 91be 5b9c 7d3e 239f 163d
00000290: 9a43 873e 14f2 4cbf 6dc5 44be fe55 703f
000002a0: 81c6 44be f683 513f 5593 53bf 8859 183d
000002b0: 62ab 963c 5ecd 1ebe 8e88 f33d b620 94bd
000002c0: d156 183d ce07 86be 0aa4 efbe 0bbc 75bd
000002d0: 7fde 313e 701c 233e f3d9 e8bd 26a5 183e
000002e0: 0eb3 55bd 9d95 bbbe e358 423d aa7e 963d
000002f0: 9011 93be ef27 15be 0b3e 603d e4c1 8e3e
00000300: c774 ffbd bcb2 f33d 5441 d7bd 70b3 b0bd
00000310: 4aef 603e 0d0b 633d 8ded d1bd 3d6f ae3d
00000320: e16e 803e e3c6 043e eb51 08bf a9eb 0a3e
00000330: e984 be3e f6e3 c7be 1769 d5be 40ff 233e
00000340: 53b8 00be 64b7 d53d 33b1 f6ba 3bb9 bbbe
00000350: 4998 f23e 6830 39be 37fb 5cbe c715 fb3e
00000360: 5467 0bbf 77c4 c8be f654 9bbe 8390 e8be
00000370: b790 d13d be9a c73d ef84 ae3d 947d 683d
00000380: c6ce 093d 07eb 50be 6ab8 abbe 7cf2 f0bd
00000390: ed81 dabc 7884 e83d 0aff b3bd 89c5 ffbd
000003a0: 4209 4b3e 74ec 08be 6b1f 1bbe e357 20bd
000003b0: 0d00 3b3c 2459 18be 10c0 0fbe 5aae 58be
000003c0: 5e44 593b 4f37 82be aa2c 31bd 9c6c 9bbd
000003d0: e545 da3e 16e1 52be 275f 19be eaea 013e
000003e0: 17c7 24be 755b 85be dab2 e73d 1dab 91be
000003f0: c82e e13d 1165 9d3e ba07 563d 0589 713e

net.4.bias f4 [20]
0.10225579 0.07786927 -0.19382088 0.124850206 0.028468298 0.033527713 -0.0959283 -0.2166448
-0.065218695 0.030137787 0.03628652 0.15228452 -0.015155434 0.09341865 -0.12983443 -0.15201475
0.07141593 0.18055 0.072363906 -0.21033517
00000000: 7c6b d13d ed79 9f3d fb78 46be 77b1 ff3d
00000010: 5936 e93c 5b54 093d 0e76 c4bd 22d8 5dbe
00000020: 6191 85bd 85e3 f63c 2da1 143d 79f0 1b3e
00000030: 7f4e 78bc 4752 bf3d 51f3 04be c1a9 1bbe
00000040: 8442 923d 19e2 383e 8733 943d 1a62 57be

net.6.weight f4 [20, 20]
0.009287015 0.25827843 -0.23842806 0.07679779 -0.09768045 0.31587887 -0.04641152 -0.2796286
0.19646491 -0.115184456 0.47818053 0.20805335 0.16469726 -0.16581658 0.3098464 0.03379186
-0.023887254 0.11597076 -0.061173834 -0.13443778 -0.18281518 0.18588535 -0.0784308 0.011199964
0.05151372 0.29469737 -0.2805855 -0.39429113 0.045876265 0.102902144 0.10844359 0.39006722
0.21799861 -0.3633979 0.4579121 0.10770398 0.009295636 0.094437875 -0.34950286 -0.07267099
0.2787962 -0.24825995 0.46081507 0.14254948 0.26619306 -0.41217318 0.13890128 0.3150191
-0.05468321 0.15900458 -0.22465265 -0.026791846 -0.2868946 0.31907776 -0.46691188 -0.043257434
0.1302779 -0.30889416 0.40508777 0.12468013 -0.17345427 0.21462604 0.18999559 -0.49266106
0.23305462 0.07892712 -0.40380868 0.06508567 0.4527404 0.36730447 -0.06762423 0.11800602
-0.02932761 0.16290538 -0.31760317 -0.22226839 -0.16875124 0.042639878 0.018173447 -0.2632414
0.17564839 -0.11746667 -0.124597974 0.41027108 -0.21287312 -0.21903238 0.4923919 0.14735352
-0.310654 -0.0030439582 0.18786864 0.11216875 -0.09379808 0.19061615 0.2974491 0.46114743
0.15846206 -0.1299512 -0.12515916 0.19822812 0.12204047 0.28467914 0.14007956 -0.43443775
0.48459363 -0.039431058 -0.15330037 -0.16956824 0.3970706 0.32312694 -0.047698073 0.02676524
-0.20821248 -0.029812394 0.18607193 -0.33602583 0.041156333 -0.042453695 -0.02841251 -0.13109368
0.3018035 0.098250836 0.17758587 0.45579994 -0.22057551 -0.12637165 0.24713282 -0.35164508
-0.4756213 -0.4240703 0.48328432 0.0014636755 -0.33498463 0.22925858 0.043951668 0.39851722
-0.09185872 0.01671483 -0.04341089 0.06378454 0.32682997 -0.10104812 0.1693775 0.3616974
-0.17814158 0.00827855 0.18019818 -0.2566669 -0.3876452 -0.3497665 0.39890665 -0.09829488
-0.21995708 0.2737184 0.10288706 0.44836769 0.29645255 -0.100416824 -0.14727803 0.21151721
-0.11982389 -0.056464143 -0.06756073 -0.39843026 0.4051038 0.1857616 -0.15835387 0.08971713
0.18359856 0.05907621 0.033037588 -0.07154717 -0.1599794 0.19069135 0.116297446 -0.32922465
-0.016771689 0.09159189 -0.08593845 -0.105794735 -0.37569535 0.06531054 -0.18293184 -0.36775154
0.35083213 -0.19000582 -0.4312482 0.17173728 0.28386843 0.15295272 -0.42262596 0.22904906
-0.03164839 -0.13357124 -0.049941804 -0.0075584496 -0.138953 0.29764822 -0.0732758 -0.28025922
0.07079306 -0.026550703 0.07043747 0.13688023 0.4997031 0.07240243 0.03774708 -0.0017587269
0.013247262 0.2523428 -0.071538925 0.22223336 -0.08853547 0.10785157 0.0607433 -0.10799447
0.10759137 -0.08274092 0.081026845 -0.14174877 0.06139051 0.11766144 0.4132025 -0.539176
0.50265414 0.20714931 -0.45901912 -0.014547036 0.18425848 0.07023482 -0.13763307 -0.0056428732
0.08816122 0.07542076 -0.082156084 -0.37020683 -0.30519205 0.12697479 -0.10942782 -0.29072294
0.6083469 -0.11984662 0.041095894 -0.21623252 -0.021543376 -0.06823673 0.4672872 -0.07165059
-0.019376151 0.2368132 0.38935962 -0.2292033 -0.39580846 0.07177829 0.3959643 -0.02574485
00000000: 9028 183c 123d 843e 7c26 74be 2948 9d3d
00000010: b00c c8bd e0ba a13e 021a 3ebd 7b2b 8fbe
00000020: 192e 493e d4e5 ebbd 14d4 f43e f00b 553e
00000030: 66a6 283e d2cb 29be 30a4 9e3e 5569 0a3d
00000040: 34af c3bc 1482 ed3d 6a91 7abd 0faa 09be
00000050: e733 3bbe bb58 3e3e 54a0 a0bd 0e80 373c
00000060: 0d00 533d 93e2 963e e7a8 8fbe 87e0 c9be
00000070: c0e8 3b3d 5cbe d23d ac17 de3d e4b6 c73e
00000080: 073b 5f3e 4a0f babe 7473 ea3e e793 dc3d
00000090: b94c 183c a568 c13d 0af2 b2be 87d4 94bd
000000a0: 60be 8e3e db37 7ebe f4ef eb3e 7ef8 113e
000000b0: 754a 883e 5d08 d3be 233c 0e3e 2f4a a13e
000000c0: 80fb 5fbd 19d2 223e 580b 66be 937a dbbc
000000d0: d9e3 92be 295e a33e 130f efbe b52e 31bd
000000e0: 9267 053e 6027 9ebe aa67 cf3e 4c58 ff3d
000000f0: ff9d 31be eec6 5b3e 348e 423e 123e fcbe
00000100: dfa5 6e3e 8ba4 a13d 03c0 cebe a34b 853d
00000110: 97cd e73e 550f bc3e 937e 8abd 24ad f13d
00000120: 7540 f0bc abd0 263e e29c a2be 539a 63be
00000130: 20cd 2cbe 27a7 2e3d 7be0 943c 94c7 86be
00000140: 2cdd 333e 5e92 f0bd 392d ffbd 0d0f d23e
00000150: 69fb 59be 064a 60be cb1a fc3e d7e3 163e
00000160: 0b0e 9fbe 257d 47bb a360 403e bbb8 e53d
00000170: 3519 c0bd e130 433e 404b 983e 841b ec3e
00000180: e143 223e ed11 05be b929 00be 50fc 4a3e
00000190: 5bf0 f93d 77c1 913e 0471 0f3e a06e debe
000001a0: a81c f83e 7682 21bd c6fa 1cbe 4ca3 2dbe
000001b0: d64c cb3e e570 a53e 0e5f 43bd c742 db3c
000001c0: a735 55be 1f39 f4bc a489 3e3e 940b acbe
000001d0: 8b93 283d ede3 2dbd 5ac1 e8bc 6c3d 06be
000001e0: fd85 9a3e bc37 c93d 12d9 353e 9c5e e93e
000001f0: 8cde 61be 9267 01be 6310 7d3e d30a b4be
00000200: a384 f3be be1f d9be 0b71 f73e cdd8 bf3a
00000210: 1b83 abbe c3c2 6a3e aa06 343d 730a cc3e
00000220: 6d20 bcbd 8aed 883c 9ecf 31bd 78a1 823d
00000230: 4256 a73e 51f2 cebd 4c71 2d3e 6730 b93e
00000240: bf6a 36be c1a2 073c df85 383e d869 83be
00000250: 6f79 c6be 9814 b3be 7e3d cc3e d34e c9bd
00000260: 6e3c 61be d124 8c3e 73b6 d23d 7390 e53e
00000270: a1c8 973e 56a7 cdbd 0dd0 16be f897 583e
00000280: 3a66 f5bd f246 67bd 485d 8abd 0dff cbbe
00000290: c469 cf3e 4a38 3e3e 8427 22be 9dbd b73d
000002a0: 4301 3c3e e5f9 713d 6c52 073d 5387 92bd
000002b0: a4d1 23be 9844 433e 5b2d ee3d 2290 a8be
000002c0: c864 89bc 8794 bb3d 8000 b0bd e9aa d8bd
000002d0: 245b c0be 88c1 853d 7c52 3bbe ee49 bcbe
000002e0: 45a0 b33e e390 42be 90cc dcbe e6db 2f3e
000002f0: 3457 913e a39f 1c3e 6e62 d8be d68b 6a3e
00000300: bea1 01bd e6c6 08be c78f 4cbd dfac f7bb
00000310: b249 0ebe 5965 983e 9f11 96bd 237e 8fbe
00000320: f4fb 903d dc80 d9bc 8541 903d 552a 0c3e
00000330: 16d9 ff3e ba47 943d af9c 1a3d 1585 e6ba
00000340: 0b0b 593c 1333 813e 0083 92bd 2491 633e
00000350: 1652 b5bd 49e1 dc3d f7cd 783d 342c ddbd
00000360: dd58 dc3d 1274 a9bd 67f1 a53d 9726 11be
00000370: 9e74 7b3d 7bf8 f03d 478f d33e 7007 0abf
00000380: f1ad 003f f31e 543e 8e04 ebbe b156 6ebc
00000390: 41ae 3c3e 46d7 8f3d afef 0cbe dae7 b8bb
000003a0: df8d b43d 3376 9a3d 7341 a8bd c08b bdbe
000003b0: 2242 9cbe ae05 023e b11b e0bd a3d9 94be
000003c0: 9fbc 1b3f 2572 f5bd 2b54 283d 0f6c 5dbe
000003d0: bc7b b0bc b3bf 8bbd 4540 ef3e 8bbd 92bd
000003e0: bcba 9ebc 297f 723e 255a c73e 45b4 6abe
000003f0: 68a7 cabe 7f00 933d d5bb ca3e dde6 d2bc

net.6.bias f4 [20]
0.1174659 0.059560396 -0.1695514 0.31796244 -0.008934578 0.23518407 -0.32715008 -0.25312954
0.21227331 0.18560177 -0.1316036 0.38188857 -0.064127006 -0.15803066 -0.25347286 -0.1735974
0.22696933 -0.05078191 0.28721604 0.16574897
00000000: f691 f03d 9af5 733d e29e 2dbe f9cb a23e
00000010: 5662 12bc 18d4 703e 3780 a7be 329a 81be
00000020: 2d5e 593e 640e 3e3e 18c3 06be e686 c33e
00000030: 0555 83bd cad2 21be 32c7 81be 84c3 31be
00000040: a66a 683e b100 50bd fb0d 933e 19ba 293e

net.8.weight f4 [1, 20]
0.40087748 0.3105972 -0.22027342 -0.5135121 0.5816975 -0.25898048 0.4813289 0.5848713
-0.4631497 -0.40858665 -0.028104687 -0.25599656 0.3042843 -0.32719782 0.592402 0.46020967
-0.5352963 0.42073306 -0.3867029 0.1622438
00000000: d03f cd3e 9906 9f3e 5b8f 61be 8775 03bf
00000010: 21ea 143f 1799 84be be70 f63e 20ba 153f
00000020: f521 edbe 4532 d1be cd3b e6bc fb11 83be
00000030: 27cb 9b3e 7986 a7be a8a7 173f 9aa0 eb3e
00000040: 2e09 09bf 536a d73e ecfd c5be 3d23 263e
