Code/Trained models/m_mu_k_y0_500_4001.pth (torch, 9490 bytes, 9 tensors)

net.0.weight f4 [20, 6]
00000000: 466d f03e 8612 e4bd 8fd7 40bd 2299 d7bb
00000010: 8b82 14be 54df 32be a917 d6be e376 b5bd
00000020: 50a2 8bbd 1384 0dbe e256 88be 37ef 6a3e
00000030: adee cebe 1c94 6f3f 852f 473e c5c3 a8be
00000040: 4c42 2bbe 7f82 403f 0186 1d3f 115e e63d
00000050: 7c1a d43e 66b9 2dbe 3690 2cba 323b a33e
00000060: 81ed a7be de8b 473f b464 afbd 4cc2 bbbe
00000070: facb b23d 3eb7 e53e 70b7 2ebd 4fe9 fdbd
00000080: f6e6 a9be 2f42 18be 9921 cf3e 610b fc3c
00000090: 4da0 a4bd 36c1 eebc 4fdd aabe 34e2 dfbe
000000a0: a3a9 9a3e 1fc8 99bd 5e31 f3be ec36 a63e
000000b0: 8659 0bbe e1e8 c5bc 9482 cebe 5e12 17bd
000000c0: 3b15 ffbe e92c 1e3e dd63 613e 5430 02bc
000000d0: 54c0 573b 7c76 46be 40f2 0c3e 24e8 c0be
000000e0: b6a4 d03d 13cc 4b3e 861f 393e 699e 56bd
000000f0: 29a2 49be 2a12 203f 5d2a adbd b52a c5bd
00000100: 53eb 9ebe 4b6c 3a3e 688a 873e 335b e23e
00000110: c6ab 31be 785d 26bc 4aed ee3e de5e 0a3e
00000120: 2fb2 8bbd 4f12 093f bdaf 00be dd7f 43be
00000130: 0f4e 02be 2ba8 86be 57c2 aebe d7c7 983e
00000140: da27 0abe dd81 b03d d8f8 993e e4b3 4c3c
00000150: 1bae a5be 631b ebbe 4b62 f5be c373 bb3e
00000160: 2fda aabd 9e56 0abe f75e 93be 45e3 893e
00000170: eb2b d6bd 7d2e 21bd 39e6 93bc 1171 843e
00000180: 4b1b cc3e 7566 973e 9112 503e 63b8 b6bd
00000190: d706 93bc 415a 40be f878 b23e bb10 28be
000001a0: ea79 7abe ec58 4d3e ea4c 7e3e da10 b0be
000001b0: 3d47 e4bd 0007 36bd 6e0b a23e 0117 5dbd
000001c0: 6fff 573e 3558 aebe b0d2 dabe aaac 53be
000001d0: f7e0 523e 0aaf 0d3e bf13 e8bd 0b30 f9be
0.4695837 -0.111363456 -0.047080573 -0.006579534 -0.14502923 -0.17468005 -0.41814926 -0.088605665
-0.06818068 -0.13819914 -0.26628786 0.22942816 -0.4041647 0.9358537 0.19451721 -0.3296186
-0.16724509 0.7519912 0.615326 0.112484105 0.41426456 -0.16965255 -0.00065827684 0.318811
-0.3279839 0.77947795 -0.085641295 -0.36671674 0.08730312 0.44866365 -0.04265541 -0.12398016
-0.33184022 -0.14868997 0.4045532 0.030767145 -0.080383874 -0.029144865 -0.3337197 -0.43727267
0.30207548 -0.07508873 -0.47498602 0.32463777 -0.13608369 -0.024158897 -0.40333998 -0.03688275
-0.49820885 0.1544682 0.22010751 -0.007946093 0.0032921033 -0.19381136 0.13764286 -0.3767711
0.10187666 0.19902067 0.18078431 -0.052397165 -0.19690765 0.62527716 -0.08455346 -0.09627286
-0.31038913 0.18205373 0.26472783 0.44210204 -0.17350683 -0.010154121 0.46665412 0.13512751
-0.06821095 0.5354356 -0.12567039 -0.19091745 -0.1272509 -0.26300177 -0.34132645 0.29839966
-0.13491765 0.086185195 0.30072665 0.012494061 -0.32359394 -0.45919332 -0.47926554 0.36611757
-0.083423965 -0.13509604 -0.2878339 0.26931205 -0.104575954 -0.039350975 -0.018054115 0.25867513
0.39864573 0.29570356 0.20319583 -0.08921888 -0.017947597 -0.18784429 0.34857917 -0.16412632
-0.24460569 0.20053452 0.24834028 -0.34387857 -0.111464 -0.04444027 0.31649345 -0.053977016
0.21093534 -0.34051672 -0.42738867 -0.20671335 0.2059363 0.13836303 -0.11331891 -0.48669466

net.0.bias f4 [20]
00000000: 94d1 ce3d 4627 d2be 8076 2b3e 4d6a 1f3d
00000010: 44a4 2abe 9ac9 c33e 2d3c 0cbf 8351 263e
00000020: adb6 493e 7547 b6be 21de 9b3e 3102 0cbe
00000030: 4512 973e 927b 203f 56ef 0bbe d175 393b
00000040: 5b0e a93e 12a7 99be 1f2f 16bd 40cf 673e
0.100985676 -0.41045588 0.16744423 0.038919736 -0.16664225 0.38239747 -0.5477932 0.16242032
0.19698592 -0.35601392 0.30442908 -0.13672711 0.29506126 0.62688553 -0.13665518 0.0028298984
0.33018765 -0.30010277 -0.036666032 0.22637653

net.2.weight f4 [20, 20]
00000000: 999b 17be 14a4 acbd 58e0 84bd df16 213e
00000010: 6fb1 3fbe 4ab9 c43d 4fcf ddbd 6ada 77be
00000020: a342 6e3d 638c 8dbd 981e 61be f475 3d3d
00000030: 046c 9c3d 6c6b efbe 2a5c d7be 4042 a5be
00000040: 4a50 403e adf8 923d 447f 183d 3757 9ebd
00000050: 2396 a03c 437c 0ebd 8b5b 9bbe a241 38bd
00000060: 8aca 3cbd 4425 57be 52db 69be 27c9 bd3d
00000070: 9a93 933d 10b5 cabd 6f92 e3bd 602f 993e
00000080: efde 43be 738c 3fbe 9099 98be 4f49 13be
00000090: 16e0 92bc 6353 41be 2073 0b3e f768 99be
000000a0: f4c5 3f3e bf93 86be 2a46 39be 120e 553e
000000b0: aebe db3d 48fb 3c3e 9cc0 fabd 260a 7abd
000000c0: b515 8fbe afb0 103e 07c7 113e 5e4c 9a3e
000000d0: 60df 23bd b136 81be 1b5c e33d 3b3e f2bd
000000e0: d3bd 8d3e 832a 71bd 5941 36be b242 b6be
000000f0: 553c 733e 2b95 45bd 9bfa ad3f e2bd d13d
00000100: dc5d ebbd bf8e a53d 1503 a63d 7940 fdbd
00000110: aeb4 b0bd 68bc 10bf 7c88 fb3e b334 84be
00000120: 0bee 853d 53e5 e33e f157 2f3f 93ad c63e
00000130: a4f3 823e 0913 d43d f61f 833d 1073 2cbc
00000140: 5793 983d 1696 8a3e fc9c a33d e644 58be
00000150: 8003 55bd a672 2fbe 1314 b73c 3a2c 31be
00000160: fdb7 263e b85e 343d 6f80 f73c cb4b 813d
00000170: 9091 22be 325c 263e 3ddc 903d 3f6e 76be
00000180: 886f da3d 4a5a 883e d13c c73d c54c c23d
00000190: e345 313e 24d2 f9bd c377 a2be 9b70 863e
000001a0: 8390 733e 36f8 8e3d 1847 50be cf0b c53d
000001b0: 8cdb 9bbd 28c2 b03e 0cc4 a03d bf0c 9d3e
000001c0: ed11 633e cff0 343e 8999 8d3d 152d 08be
000001d0: 7362 8d3e a50a 703e 7ab9 f33d 21e6 1cbe
000001e0: b5f0 ba3e 29cc b63d 6d3c b9be 87dd 973e
000001f0: b543 06bf 363e 26bd 362a e7bd b63a a2be
00000200: a216 98be a1a4 da3c cf44 a7be 0aad 003e
00000210: 1be3 3abe 2862 71be 48d3 b7bc 098c 2fbe
00000220: be9d 3ebd f177 7f3e f385 73bd 900d bdbe
00000230: eadd 13bd 792f 2fbe 659b b63c e432 abbd
00000240: bb4c 82bd fce2 0a3e 9455 29be 8999 033e
00000250: 4232 14be f784 07bd cac6 3ebe f253 67bd
00000260: 5203 a6bd 01fc 96be 7c8a aa3d 26c8 b0bc
00000270: f093 993e e29a 433e 73e9 4f3e 844f 92bc
00000280: ec5b 9d3e 2bdd b03e 2acb ae3e 62f3 8cbe
00000290: 7477 093e ce0e e9bd a9fa b13d bb3b 253d
000002a0: 228a a83e 02e2 7abe 9e8b a9bd 9086 4fbe
000002b0: 97e7 2fbd ca80 313e ca91 aebc 5534 18bd
000002c0: 49a3 373d 9df7 52be 9b7e f13c 9d62 a93e
000002d0: 03fb 0d3e f494 29be f713 773e 82b7 3f3d
000002e0: 19fc 70be 37d9 ef3c 34db 323d c48b a5bd
000002f0: 9985 703e 68c8 70be e3ba d43e c53e ccbd
00000300: 7f6d 2bbe f6bf 473e 68fc d7be 433d 7c3d
00000310: bd23 a63d 4380 3ebe e534 4fbe 0133 a93d
00000320: 62ac 843e a2d9 863d d41a 1bbe 0df8 373d
00000330: 6c73 f83d 091f 46be 91d0 343e b021 e53d
00000340: 352d f83d 6d37 a63e 8be8 abbe 5cb2 fd3d
00000350: 6a1e 0fbe fa78 94bd d678 aebd 7bfd 7fbc
00000360: 5cff a7bc 9348 9fbd f4fc 32be de80 333d
00000370: 0314 0abe 22a5 88be bff6 893e 94c1 803d
00000380: f63c 6cbe faa2 153e 9e33 133e b8c9 05be
00000390: 0f9e 1d3d 7330 0cbe 10de dc3d 57e5 fa3d
000003a0: 599c 4f3e 5ade 513d 8587 0a3d 8062 a63d
000003b0: 44f3 163e d1b0 6cbd 4355 433c b382 28bd
000003c0: 3dbb e9bd 3f33 86bd d945 febe 9b1b 51be
000003d0: 2d1e 18bf c35a 6f3e 0367 a73d 4dd7 b5be
000003e0: c0b0 b0bd d57b ea3d 483f 80be 6ee7 1abe
000003f0: 2f32 4ebd c4e8 63be 97ee 9abe 82be 89bd
-0.1480545 -0.08429733 -0.06488103 0.15731381 -0.1872003 0.096056536 -0.108305566 -0.24204412
0.05816902 -0.06911542 -0.21984327 0.046255067 0.0763779 -0.46761644 -0.42062503 -0.32277107
0.18780628 0.071763374 0.037230745 -0.07731479 0.01960284 -0.034786474 -0.3034328 -0.044984467
-0.046091594 -0.2101031 -0.2283757 0.092668824 0.07205887 -0.09897816 -0.11111914 0.29918957
-0.19128011 -0.18705921 -0.2980466 -0.14383434 -0.017929118 -0.18879466 0.13618135 -0.29962894
0.18727857 -0.26284596 -0.18093172 0.20806149 0.10729729 0.18455231 -0.122437686 -0.061044835
-0.2794625 0.141299 0.14236079 0.3013639 -0.04000795 -0.2523704 0.11101552 -0.11828276
0.27683887 -0.058878433 -0.17798366 -0.3559776 0.23753484 -0.04823796 1.3592104 0.102412954
-0.11492512 0.08083867 0.081060566 -0.12365813 -0.08628212 -0.56537485 0.49127567 -0.25821456
0.06539544 0.44510898 0.6849356 0.38804302 0.25576508 0.10355193 0.064025804 -0.01052548
0.07449978 0.2706763 0.07988927 -0.21120033 -0.05200529 -0.17133579 0.02234844 -0.17302027
0.16281123 0.044035643 0.03021261 0.063132845 -0.1587584 0.16246107 0.07073257 -0.24065493
0.10665804 0.26631385 0.09728397 0.09487299 0.17311816 -0.12198284 -0.31731996 0.26257786
0.23785596 0.06980936 -0.2033962 0.09621393 -0.076102346 0.3452313 0.07849893 0.30673787
0.22174807 0.17669986 0.0691405 -0.13298447 0.27614173 0.2344156 0.11900611 -0.15322162
0.3651177 0.08925659 -0.36178914 0.296612 -0.5244706 -0.040586673 -0.11287348 -0.31685418
-0.29704767 0.02668983 -0.32669684 0.12566009 -0.18250696 -0.235726 -0.022439614 -0.17143263
-0.046537153 0.24948098 -0.059453916 -0.3692441 -0.036100306 -0.17107953 0.022290895 -0.08359316
-0.063622914 0.1356315 -0.16536552 0.12851538 -0.14472297 -0.03308579 -0.1863052 -0.05647654
-0.08106102 -0.2948914 0.08327195 -0.021579813 0.2999568 0.19102052 0.20303898 -0.017860182
0.30734193 0.34543738 0.34139377 -0.27529436 0.13424474 -0.11379777 0.08690388 0.040340167
0.32917887 -0.24500278 -0.08278583 -0.20266175 -0.04294547 0.17334285 -0.021309752 -0.037159283
0.044833455 -0.2060227 0.029479316 0.33083048 0.13865285 -0.16560727 0.2412871 0.046805866
-0.23533668 0.02927838 0.04366608 -0.08083299 0.23488463 -0.23513949 0.41548833 -0.0997291
-0.16740988 0.19506821 -0.42184758 0.06158186 0.08112285 -0.18603615 -0.20235021 0.08261681
0.25912768 0.06584479 -0.15146953 0.044914294 0.1213139 -0.19347776 0.17657687 0.11188066
0.121179976 0.32464162 -0.33575854 0.12387535 -0.13976446 -0.07249637 -0.085191414 -0.015624399
-0.020507507 -0.07777514 -0.17479306 0.04382407 -0.13484196 -0.26688486 0.26946065 0.06286922
-0.2307013 0.14612952 0.14375159 -0.13065231 0.038480815 -0.13690357 0.107845426 0.12250774
0.20274486 0.05123744 0.033820648 0.08124256 0.14741236 -0.057785813 0.011922183 -0.04114027
-0.11412666 -0.06552743 -0.49662665 -0.20420687 -0.59421045 0.23374467 0.08173945 -0.35515824
-0.086274624 0.114494 -0.2504828 -0.15127346 -0.050340828 -0.22256762 -0.30260155 -0.067257896

net.2.bias f4 [20]
00000000: 67a2 4abd 7bf7 18bb 1fe1 67bd d32b a13d
00000010: 83ee 36be 12aa 1e3e 30d8 043e 6f5e 023d
00000020: f67a 3fbe 9460 4bbe 4874 0c3e fc21 ff3d
00000030: c026 e23d 4faa f73c 23d2 143c b939 553e
00000040: d5c9 873d 6c12 65be af2a 76be 6e0c 7d3d
-0.049471285 -0.002334087 -0.056611177 0.07869687 -0.17864423 0.15494564 0.12973094 0.03182834
-0.1869925 -0.1986106 0.13716233 0.12457654 0.11042547 0.030232577 0.009083304 0.208228
0.06630293 -0.22370309 -0.2403972 0.061779432

net.4.weight f4 [20, 20]
00000000: d033 f73d 5e73 f93d 8b52 c4bd 31e1 5d3d
00000010: 85fd d8bd 887b 23bd 77db 363e e17f 77be
00000020: 9ed2 fc3d 79ad 3e3e 1d3c bbbe 433d 893e
00000030: 9b49 d1bd a053 ddbb be98 fbbc d9b6 9dbe
00000040: 721e 163c 68ba 9a3e 21f2 a0bd 91c4 bbbe
00000050: 50f8 64bd 0a2d d33d 60d4 3abe 4d4c bfbe
00000060: 2522 b2bd adb9 013c faa2 2a3e af9e 983d
00000070: d05b ee3d fe87 053e a026 363e 156a 0cbe
00000080: e9e0 9cbe 6a15 653e 6453 823e 7cc2 793c
00000090: 4b6a 8fbe 7276 723e 14e7 9abe 378f 0abd
000000a0: 4dc5 a13d 5d0b 193e 4600 a1be f74f 9abe
000000b0: d7ee eb3d 3f5a 693e 5b0d 223d 9f22 ca3d
000000c0: 70b7 133d ef5d e0bd 12be 02bd 097f 41bc
000000d0: defe 55be dfdf 453e d89d a0bc 7747 b0bd
000000e0: 5c77 9dbe 2f9f a43e a7bc 04be dd25 acbe
000000f0: c98e 3d3d 0869 323d 656b 093a bd4d 153e
00000100: 9050 4e3e 2623 d4bd 10e5 86bd ff92 c7bd
00000110: dd37 ce3d 1582 e43d bb33 823d 7b34 883d
00000120: 67e4 7b3e 7e24 9cbd cb5d e03c bdd1 83bd
00000130: 36c4 173d 5ac8 42bd 8be5 2a3e 5cf9 cfbc
00000140: db6a 10be cd41 27be 17fd 4bbe 674e adbe
00000150: 824a 603c ea37 533d 59ae 473e 08e3 50be
00000160: d584 0ebd 720a 27be 6e8b 69bd 7b3f 3f3e
00000170: 1336 95be 3640 3b3e e5ab 4bbd be75 1c3e
00000180: 58b3 85bc f6c1 413e d5d0 cd3d ae49 15be
00000190: a0ab 7abe e4ef 203e c096 b7be 99c1 ac3d
000001a0: ad59 05bd 2230 d83c 5d36 7ebe 56f9 8cbe
000001b0: dadc a93e 614f 22be 5f34 423e 182d f43c
000001c0: 365e 703d 6971 89be a752 31be 3ba6 f93d
000001d0: a611 1cbe d5d3 77be 9015 563d be09 8d3e
000001e0: 7ba2 e6bd f233 91be 1e46 563e 3d09 9b3d
000001f0: fd9a 163e 6755 40bc d8f4 f6bc 911b 733d
00000200: 5423 f0bd daba 0bbe 7404 77be f10c 2f3e
00000210: dfbb c23c ac85 093d ed85 3ebe 81cd 353e
00000220: 727c 8b3e fa59 97be 185f 973e 6aa4 2d3e
00000230: f9bb 3abd d7fb 933e 701b e63e 35dd aa3e
00000240: 60ba d0be 1151 1e3f 7656 f23e 8c6e b93e
00000250: a42e c0bd b469 26be 3c0f 6b3d 1aba cf3e
00000260: 724f 993c 8e42 593b cd3e 113f d092 0ebe
00000270: 9dbc b33e 3efa 8d3e 20bd 68be ffe7 39bd
00000280: c317 bf3d b0a4 233d ba07 343e 066d 433d
00000290: 092e bebd 84c9 46be 29b8 9ebe 6d67 b13e
000002a0: 0d0a 69be 2a32 c43d d4f1 93bd ebc8 64bc
000002b0: 83ea 8f3e 4cb1 ab3d 7220 e7bd fcf1 143e
000002c0: 0e1a 783e f589 153d 3c95 d8bc 1deb 323d
000002d0: 8e0a a3be 71b4 54bc 9480 29be bed0 fb3d
000002e0: 5592 8b3e a60b a9bb bd10 63be 8566 8dbe
000002f0: ad0a 923e ad02 973d ec2d b33d 4a45 4ebe
00000300: 5560 2bbe b040 b43d e6ad 27be 7fe2 413e
00000310: ce2f a8bb 73d1 5b3d 174a 1ebd 6aae 56be
00000320: 1c86 2ebe 1f57 22bd 6aea de3d 3f42 04bf
00000330: 3747 86bd d385 04be f607 fe3d c9c3 febd
00000340: 56cd 133d 71af 593e cd90 42be 56bd 9a3d
00000350: b2c1 d7be 97b9 e9bb ae24 1cbe 4db7 f8bd
00000360: 3da9 92be 86dc 2f3e 9c0a 82be 9e48 bb3a
00000370: d1bf 44bd aaae 6e3c ba45 2fbd 346d 29bc
00000380: 784c f0bc a5a3 543e 52d7 323e e5ee 923d
00000390: b2aa 4f3e 92d5 d73d cda5 5bbd e64d 38bd
000003a0: e9ac 053c 7920 543e 08b9 d73d b77f 613d
000003b0: 1655 3cbe cf54 a73e ee76 eabd ab9c a2be
000003c0: 7b31 b3bd 71fb 0ebe a2af 2cbc 508a 98bd
000003d0: d0b3 c139 542e d5bc 8c44 11be 4b17 ea3c
000003e0: 9bd6 023d fec6 8cbd b1b8 aa3e e3ef 97be
000003f0: fa17 5f3d f9a3 173d 5f03 f9bd 4d22 8ebd
0.12070429 0.12180208 -0.09586056 0.054169837 -0.1059523 -0.03991273 0.17857157 -0.24169876
0.123448595 0.18620862 -0.365693 0.2680455 -0.10219117 -0.0067543536 -0.030712482 -0.30803564
0.009162532 0.30220342 -0.078586824 -0.36673406 -0.05590087 0.10311325 -0.18245077 -0.373629
-0.08697919 0.007917804 0.16663733 0.074521415 0.116386056 0.13040158 0.17788172 -0.13712342
-0.30640343 0.2237145 0.25454247 0.015244123 -0.28010783 0.23677996 -0.30254424 -0.033827987
0.0789896 0.14945741 -0.3144552 -0.30139133 0.115201645 0.22788332 0.039563518 0.09869885
0.03606361 -0.109554164 -0.031919546 -0.011810073 -0.20898005 0.19323681 -0.019606516 -0.08607381
-0.30755126 0.32152697 -0.1296259 -0.33622637 0.04627875 0.043557197 0.0005242138 0.14580436
0.2014792 -0.103582665 -0.06586659 -0.09744834 0.10069249 0.11157624 0.06357523 0.06650635
0.24598847 -0.07624148 0.027388474 -0.06436489 0.037052356 -0.04755435 0.16689126 -0.025387459
-0.14103262 -0.16333695 -0.19920765 -0.3384888 0.013689639 0.051566996 0.19500102 -0.20399106
-0.034794647 -0.16312578 -0.057017736 0.1867656 -0.29142818 0.18286213 -0.04972448 0.1527929
-0.01632087 0.18921646 0.10049597 -0.14578888 -0.24479532 0.15716511 -0.358572 0.08435363
-0.032556225 0.026390139 -0.24825425 -0.27533978 0.3317631 -0.15850593 0.1896529 0.029806659
0.058683597 -0.26844338 -0.17316686 0.12189909 -0.15241107 -0.24201901 0.052266657 0.27546495
-0.112614594 -0.28359944 0.20925185 0.075701214 0.14707561 -0.0117391115 -0.030146047 0.05935246
-0.11725488 -0.13645497 -0.24122792 0.1709478 0.023771225 0.033574745 -0.18605776 0.17754175
0.27243382 -0.29560834 0.29564738 0.1695725 -0.04558942 0.28903076 0.44942808 0.33371893
-0.40767193 0.6184245 0.4733159 0.36217153 -0.09383896 -0.1625126 0.057387576 0.40571672
0.01871464 0.0033151242 0.5673645 -0.13923192 0.35104838 0.27729982 -0.22728395 -0.045387264
0.09330704 0.03995198 0.17581072 0.047711395 -0.09286124 -0.1941281 -0.30999878 0.3464922
-0.2275774 0.095798805 -0.072238594 -0.013963918 0.28108606 0.08383426 -0.11285485 0.14545435
0.24228689 0.03650852 -0.026438348 0.043681253 -0.3184399 -0.012982474 -0.16552955 0.12295674
0.2726008 -0.0051588593 -0.22174354 -0.2761728 0.2852377 0.07373557 0.08748993 -0.20143619
-0.16735967 0.08801401 -0.1637493 0.18934058 -0.005132652 0.053666543 -0.038644876 -0.20964971
-0.17043346 -0.039633866 0.10884555 -0.51663584 -0.06556552 -0.12941675 0.12403862 -0.12439687
0.036084495 0.21258332 -0.1900055 0.07555644 -0.42139965 -0.0071327197 -0.15248367 -0.12144337
-0.28644744 0.17173967 -0.2539872 0.0014288609 -0.048034493 0.01456801 -0.042791106 -0.010340977
-0.029333338 0.2076555 0.1746495 0.07174472 0.20279959 0.10538782 -0.053624917 -0.044996165
0.008158901 0.20715512 0.10533339 0.05505344 -0.18391833 0.3268189 -0.11448465 -0.31760153
-0.08749672 -0.13963105 -0.010539921 -0.07448256 0.000369458 -0.026023068 -0.14186305 0.02857556
0.031942945 -0.06873892 0.33344033 -0.29675207 0.054466225 0.03702161 -0.12158846 -0.06940136

net.4.bias f4 [20]
00000000: 64f5 cfbd 758b 823c 1e9e 183e 22f3 553e
00000010: d36a 2f3e 7ccc 06be 7698 76be f85d 48bd
00000020: 994c b3bd a708 d43d 05b5 833e a686 d83d
00000030: e266 febd 8c33 99bc 23a6 753d 3a17 86bb
00000040: d296 35be fa44 9abd 1be0 a1be e4d7 0fb9
-0.101542264 0.015935639 0.14904067 0.20893529 0.17130594 -0.13163942 -0.24081597 -0.04891774
-0.08754844 0.10353213 0.25724044 0.10572557 -0.12421967 -0.018701337 0.059972893 -0.0040921243
-0.17733315 -0.075326875 -0.3161629 -0.00013717968

net.6.weight f4 [20, 20]
00000000: 565f 8ebd 1b01 89be c4c5 83bd 3763 1cbe
00000010: 1253 f63c 7327 dc3d 2000 7c3e df0c ea3d
00000020: 20bb 87bc e9fc 3fbe a03c e1be 6d87 a6be
00000030: c29f 843e 164c 37be 6ef6 353e d851 a8be
00000040: 15cd 8d3e cf7e 843d eaa4 9a3d 45cf 0fbe
00000050: c56b 97bd 33bc bc3d 4193 b9bc 0a38 4f3e
00000060: 7672 b6bd 1eed 143e 1633 45bc e6f3 adbe
00000070: b628 0d3e ad70 a33e f6bb 9f3c c0d5 2f3e
00000080: 9534 4e3d 62f9 c43e b6f4 883d 7849 adbd
00000090: ae3e afbe 4429 b6be a360 93be 4860 983d
000000a0: 4356 8ebe 4002 9c3d 2560 f3bd 898b 3bbe
000000b0: bcbd b6be ae15 4cbe a181 a03e 434f 053e
000000c0: b782 66bc e505 34be cd4e 15bf a4c1 3bbe
000000d0: 9853 433e 4d9a a33c f04d a13e 8368 b9bd
000000e0: cb1c da3d e1b9 4fbd ad30 f73e 4428 96be
000000f0: d731 5d3e c3a6 a23d a8e3 9d3e 261a 603e
00000100: 50d7 203d a921 dcbd 1384 3dbd 2e5b 8dbe
00000110: 9061 56bd 00bd 423e 8457 ba3e 6e6c 593d
00000120: 39c9 32be 1a1b d9bc 5062 b7be d783 133e
00000130: 1c9a aebe 9b1f b8bd 8900 a2be 5ff5 e4bc
00000140: 845c a53e 7825 5d3e ebc0 913e 5897 ea3d
00000150: 9dc4 79bd b3a6 91bd b36c 72be b22d 5e3d
00000160: 39d6 b63d de91 913e 5698 353b 7184 523b
00000170: c997 443e 6e33 40bd bc69 96be b90a 2f3e
00000180: 18cf abbe 481f 2cbe 49df 9cbd b622 b63e
00000190: 386e 3d3e 6ff7 513d 4f3a bd3e 36ae 233e
000001a0: 2325 7c3d 0c63 813c bf9f 97be a089 2dbe
000001b0: e5e7 0b3c 04f4 463e df43 e63e ec54 13bd
000001c0: 3aee f5bd 1241 533e 67d3 7ebe 98dd 803c
000001d0: c41e c0be 72f0 6a3d 7bf0 e9be ba79 9fbc
000001e0: 9610 bd3e ffbf b4bd 7670 873e 6884 8abd
000001f0: 0f78 953d 9198 efbd 424f ef3d 156a c93d
00000200: 3a95 c93d 0845 ac3d a115 373e c8e4 d73c
00000210: 57ef 13be e541 3b3e 4bf7 26be 7926 9f3e
00000220: 3a8d 24be 53bb e4bd 2309 b7be 5b4f 863e
00000230: 28b1 e03c 0482 653e e9b4 833e 7164 85bc
00000240: 3608 aa3e f657 943d d709 37be 693a 68be
00000250: 3ec4 77be c676 4c3e 3378 ea3e f506 883b
00000260: fe4e 16bc 483f de3c 7f89 583b 482e a13d
00000270: 2305 7abd b60d f93b 1dad 13be f075 853e
00000280: 2121 28be 0f93 b5bd 3c6d adbe 2bf7 e2bd
00000290: 4d77 4cbe de69 b63d 675f 5c3c f32b 363e
000002a0: 976e ed3d 141f c53b bab5 74be d150 59be
000002b0: 0811 423e 5d0c 41be 36ee b23e 99da 78bd
000002c0: 2baf 593e 0b91 75bd 84ca dc3e c1cd 3fbe
000002d0: b3a9 733c a04b 88be 0143 62be 4684 1e3d
000002e0: 67b9 94be d3a3 c5bc 00ce 8b3d 65f8 763c
000002f0: 4acf 6d3e d70b ab3c dd97 09bf 3154 8dbe
00000300: 810f 2a3e fb04 97be 877d 5a3e 3a4f 41be
00000310: b272 903e 17ba 5abd 7152 7f3e 67b0 10be
00000320: 0b5a a5be 151f 83be 1a23 febd 9aab 053e
00000330: 163e 26be ddbd 44bd 9834 9a3e 1762 8e3e
00000340: 67b1 f4ba 8299 8fbe accc 88be 1838 eebd
00000350: 98a8 f8bd 5d2a a4be 0a6a 673e 7163 1d3d
00000360: 7203 573c d0be 2d3d bc73 373e 9ca0 9bbe
00000370: cf89 b1be 7c1a d9bb 5110 1abb f840 6abe
00000380: 6c8e 28be 4eea 5abe a933 433e 96e3 92bd
00000390: 0e83 c9bd 723b 5dbe c746 a3be f709 0b3b
000003a0: 7f7a 08bd 0558 cebd c8da c33e 1149 0dbe
000003b0: 3733 933e 648c 0b3e fd1f 953e 33c4 3fbd
000003c0: 1cf0 04be 4e7c 64be 0d47 033e f5dc a73e
000003d0: 7f8c a5be 22eb 1a3e f6bc dd3d 78e8 7a3e
000003e0: c638 1fbe a10e bc3d 68b0 56be e328 9abe
000003f0: 0325 adbd d75c 5bbe 7a11 f03c a591 35bd
-0.06951778 -0.26758656 -0.06434205 -0.15272222 0.030068908 0.10749712 0.24609423 0.11428236
-0.01656872 -0.18748821 -0.43991566 -0.32525197 0.25903136 -0.17900118 0.17769787 -0.32874942
0.27695528 0.06469499 0.07550986 -0.14043911 -0.07393602 0.09215584 -0.022653224 0.20236221
-0.089085504 0.14543578 -0.012036106 -0.33975142 0.13785061 0.31921902 0.019498806 0.17171383
0.050343115 0.38471514 0.066873 -0.08461279 -0.34227508 -0.35578358 -0.28784665 0.07440239
-0.27800187 0.07617617 -0.118835725 -0.18314947 -0.3569163 -0.19930145 0.313489 0.13018517
-0.014069251 -0.17580374 -0.58323365 -0.18335587 0.19074857 0.019971037 0.31504774 -0.09053137
0.10650023 -0.050714377 0.48279324 -0.29327595 0.21601044 0.079419635 0.3083775 0.21884975
0.039267838 -0.10748608 -0.046268534 -0.27608627 -0.052339137 0.1901741 0.36394894 0.053081922
-0.17459573 -0.02650218 -0.35817194 0.14405762 -0.3410195 -0.08990403 -0.31641033 -0.027949033
0.32297146 0.21596324 0.28467497 0.11454648 -0.06097852 -0.071118735 -0.23674278 0.054242797
0.089275785 0.284316 0.0027709207 0.0032122398 0.19198526 -0.046924047 -0.29377544 0.17093934
-0.33556437 -0.16808808 -0.07659776 0.35573357 0.18499076 0.05126136 0.36958548 0.15984425
0.061558854 0.0157943 -0.29614064 -0.16947031 0.008539175 0.19429022 0.44973657 -0.03596966
-0.12008329 0.20630291 -0.24885331 0.015730664 -0.37523472 0.057358213 -0.45691285 -0.019467223
0.36926717 -0.08825683 0.26452988 -0.06763536 0.0729829 -0.116990216 0.11685039 0.09834687
0.09842916 0.08411604 0.17879345 0.026354209 -0.1444677 0.18286856 -0.16305272 0.3108404
-0.16069499 -0.11168542 -0.35749158 0.26232418 0.027428225 0.22412878 0.2572396 -0.016283246
0.3320939 0.0724334 -0.17874847 -0.22678532 -0.24195954 0.19967183 0.4579483 0.00415122
-0.009174107 0.027129784 0.0033040938 0.078701556 -0.061040055 0.0076005114 -0.14421506 0.26066542
-0.16418888 -0.0886594 -0.33872402 -0.110823 -0.19967385 0.08906911 0.01345048 0.17790203
0.11593359 0.0060156677 -0.23897448 -0.21222235 0.1895181 -0.18852372 0.34947366 -0.060755346
0.21258228 -0.059952777 0.43123257 -0.18730833 0.014872002 -0.26620197 -0.22095872 0.038700365
-0.290477 -0.024125969 0.06826401 0.01507387 0.23223606 0.02087967 -0.5374735 -0.27603295
0.16607477 -0.29495987 0.21336947 -0.18877879 0.28212506 -0.053400125 0.24933793 -0.14129792
-0.3229526 -0.2560965 -0.12409039 0.13053742 -0.16234621 -0.04803263 0.3011825 0.27809212
-0.0018668593 -0.28046805 -0.26718652 -0.11631793 -0.12141532 -0.3206357 0.22599044 0.038424913
0.01312338 0.0424183 0.17915243 -0.30395973 -0.34675452 -0.0066254716 -0.002350826 -0.22876346
-0.1646058 -0.21378443 0.19062676 -0.07172315 -0.0983945 -0.21604708 -0.31889936 0.0021215656
-0.033319946 -0.10075382 0.38252854 -0.13797404 0.2875001 0.13627774 0.29125968 -0.04681797
-0.1298222 -0.22313043 0.12820072 0.32785764 -0.32333753 0.15128759 0.10827057 0.24502742
-0.15549001 0.09182478 -0.20965731 -0.3010932 -0.08454325 -0.21422134 0.029305208 -0.04432835

net.6.bias f4 [20]
00000000: 59a6 213e 907a 2cbe 2c32 45bd a79a 613e
00000010: 2054 583e 723e e53c 50f2 e8bd 26b5 1f3e
00000020: abad b23d 20a9 0fbe db13 c1bd 2152 41be
00000030: a719 02bb b5e0 d33d 702d b13d 88ef 1fbd
00000040: 1b39 88be 7d76 1cbd 49d0 f4bd 0ae2 b6bd
0.15786113 -0.16843629 -0.04814355 0.22031651 0.21125841 0.027983878 -0.113743424 0.15596446
0.08724531 -0.1402936 -0.09427615 -0.18878986 -0.0019851716 0.10345594 0.08651245 -0.039046794
-0.26606068 -0.038198937 -0.1195379 -0.08929832

net.8.weight f4 [1, 20]
00000000: dde1 833e 19be 85be ee24 823e 1fb0 c6be
00000010: f791 9cbe 09a7 b8be 5666 d3be b4b4 8dbe
00000020: b91d 8b3e 45f4 ad3e 43f7 a73e 3cd3 933e
00000030: a26d ba3e 5a6f 97be 069b c93e e05f bbbe
00000040: 04e2 8a3e 6a82 a0be 598c adbe 2f09 973e
0.25758258 -0.26121596 0.254188 -0.38806245 -0.30580112 -0.36064938 -0.41289014 -0.27676928
0.27171114 0.33975425 0.32805833 0.28872097 0.36411768 -0.29577142 0.39376086 -0.36596584
0.2712556 -0.31349498 -0.3389614 0.29499194
