Code/Trained models/m_mu_500_norm_4001.pth (torch, 9490 bytes, 9 tensors)

net.0.weight f4 [20, 6]
0.7717182 -0.10450455 -0.21143539 -0.22530586 0.13884126 -0.37248862 0.5783956 -0.025914997
0.049830552 0.032212 -0.070162036 0.23305258 -0.45574012 -0.0042787204 0.1463823 -0.07364671
0.6047698 -0.14498848 0.6873793 -0.03151247 0.08153842 -0.08531774 0.4250197 0.21825485
0.41834098 -0.15159832 -0.00020861925 0.03836085 0.14540699 -0.1880939 0.6596656 0.027515385
-0.032060917 0.022393418 -0.094847575 -0.2002039 0.39733565 -0.014488707 -0.16917011 0.0046132277
-0.28144413 0.52643055 0.52596724 0.13729757 0.023695074 0.11212675 0.14814177 0.08975527
-0.7332506 -0.016374666 -0.026271982 -0.0340313 0.1939617 0.1170263 0.5173251 0.051570676
-0.11628198 -0.2915326 -0.3144865 -0.22838213 0.8116105 0.16944142 0.0717461 -0.13008527
-0.03125215 -0.122186325 -0.11064834 -0.0138523085 -0.14436208 0.14256924 -0.07194976 0.27570888
-0.19500938 -0.08860183 0.0891514 -0.02218948 -0.21109729 0.19759855 0.40461838 -0.057437506
-0.074784264 -0.10574343 -0.29511127 0.040840592 -0.6810819 0.33467993 0.025336808 0.08437974
0.05947324 0.3623912 -0.56337845 0.10162948 -0.057707995 -0.08407749 -0.04612461 -0.05656865
0.034756675 -0.1456045 -0.13206339 0.38259637 -0.42597273 0.26520202 -0.73663145 -0.0141505115
0.024322178 0.15179886 -0.009313187 -0.020924384 0.54965127 0.06553349 0.036022987 0.10825891
-0.20201166 -0.3283033 0.7754349 -0.015621665 0.0027264296 0.009968636 0.33990014 -0.02891026
00000000: 538f 453f 7b06 d6bd 8582 58be 94b6 66be
00000010: 672c 0e3e d4b6 bebe bc11 143f b04b d4bc
00000020: 1f1b 4c3d bbf0 033d 1db1 8fbd 56a5 6e3e
00000030: c556 e9be 8234 8cbb 3ee5 153e 16d4 96bd
00000040: 32d2 1a3f dc77 14be 17f8 2f3f 3813 01bd
00000050: 9dfd a63d 11bb aebd 2f9c d93e 337e 5f3e
00000060: ca30 d63e 973c 1bbe cec0 5ab9 4420 1d3d
00000070: 92e5 143e b09b 40be d8df 283f f267 e13c
00000080: 4f52 03bd 6772 b73c 723f c2bd 4002 4dbe
00000090: 946f cb3e 0b62 6dbc ee3a 2dbe 8f2a 973b
000000a0: 7219 90be 27c4 063f caa5 063f bc97 0c3e
000000b0: 2c1c c23c b6a2 e53d 7ab2 173e 9cd1 b73d
000000c0: 50b6 3bbf 2a24 86bc 5738 d7bc 6864 0bbd
000000d0: e59d 463e 7cab ef3d 6b6f 043f c63b 533d
000000e0: 3f25 eebd c343 95be 6004 a1be 01dd 69be
000000f0: b5c5 4f3f 0d82 2d3e 9fef 923d 1335 05be
00000100: 4102 00bd d33c fabd 999b e2bd cbf4 62bc
00000110: a7d3 13be acfd 113e 655a 93bd b729 8d3e
00000120: 8ab0 47be e074 b5bd 0295 b63d b6c6 b5bc
00000130: e329 58be 4657 4a3e 242a cf3e 9743 6bbd
00000140: 7e28 99bd 0390 d8bd d318 97be 7748 273d
00000150: 625b 2ebf 2b5b ab3e 238f cf3c 49cf ac3d
00000160: 369a 733d 578b b93e 9239 10bf 1e23 d03d
00000170: 385f 6cbd d230 acbd 29ed 3cbd 87b4 67bd
00000180: 045d 0e3d 5919 15be a03b 07be ace3 c33e
00000190: 1919 dabe 8fc8 873e e193 3cbf 8cd7 67bc
000001a0: 4e3f c73c 2971 1b3e 5696 18bc 9d69 abbc
000001b0: f2b5 0c3f 6c36 863d d78c 133d d9b6 dd3d
000001c0: 25dc 4ebe 5f17 a8be e782 463f 03f2 7fbc
000001d0: e6ad 323b 7d53 233c 6407 ae3e 36d5 ecbc

net.0.bias f4 [20]
-0.29184505 -0.22075815 -0.11943732 -0.017593041 0.2611682 -0.027917273 0.32818764 -0.36449224
0.11779853 0.20305522 0.26240504 -0.1104372 -0.08284406 0.046735384 -0.23836778 -0.13648196
-0.3316805 -0.115640074 0.20890985 0.16418009
00000000: b76c 95be 6d0e 62be 8e9b f4bd 481f 90bc
00000010: d7b7 853e c4b2 e4bc 3608 a83e ba9e babe
00000020: 5b40 f13d b5ed 4f3e f459 863e e62c e2bd
00000030: 26aa a9bd 9a6d 3f3d af16 74be edc1 0bbe
00000040: 07d2 a9be b4d4 ecbd 77ec 553e d31e 283e

net.2.weight f4 [20, 20]
0.07565245 0.19397004 -0.19406763 0.36154792 0.2774805 0.060580976 0.13216063 -0.19150917
-0.23498689 -0.044853203 0.04227819 -0.20805821 0.17280553 0.12879018 0.09452432 -0.37811464
0.066498995 -0.4357673 0.41768396 0.14779274 0.007369599 -0.13886078 0.21721415 -0.15663762
-0.62297577 -0.0013780253 -0.15572317 0.18878601 0.406964 -0.11979365 0.018223427 0.06530845
-0.13228044 -0.2337604 0.11939652 0.34073526 0.08676132 -0.096050166 0.017381798 -0.3670968
-0.036971048 0.22511655 0.16790073 0.5682667 0.44018513 0.45628992 -0.2956213 0.26147267
-0.645729 0.36526737 0.09875101 -0.25134748 -0.09451201 0.61831194 -0.19155903 -0.39408198
-0.019522818 -0.25719494 0.43853873 0.29766157 -0.518417 0.27348056 0.2767188 -0.13567595
-0.13794114 -0.0689415 0.3643447 0.10625367 0.13545099 0.045346126 0.036461093 0.28849342
0.07745158 -0.19474243 0.49530905 -0.09679354 0.20839505 0.14603402 0.09094491 -0.20937121
-0.129164 0.24822249 -0.14061476 -0.055736274 0.002439969 0.3647675 0.2948386 0.08654223
-0.21824932 -0.17273667 -0.1541414 0.340446 -0.10039781 0.026013533 0.14757517 -0.0024427725
0.21371524 -0.16225426 -0.005904873 0.27736315 -0.021359114 0.27501 -0.111363135 0.36090255
0.46992436 0.49861315 0.1771677 0.47169864 -0.38496533 0.15128891 0.2645725 0.101741284
-0.22403525 0.46149716 -0.0071982653 -0.201851 0.24632256 -0.43884513 0.34948942 0.6002732
-0.291757 -0.2593202 -0.34916124 -0.42096862 -0.48530355 -0.4174735 0.25071645 -0.040520497
0.53825885 -0.34705904 -0.1735274 0.12470557 0.052452616 -0.24395517 0.43014848 0.02164206
0.11544787 0.21040678 -0.5966603 -0.4986953 0.16393259 0.12419514 -0.2261255 0.22099446
0.23906341 0.14882171 0.092391774 0.21989968 -0.57358927 -0.053720854 -0.014497187 -0.24409384
-0.25589454 0.38031307 -0.036895413 -0.22638096 -0.054714475 -0.34508127 0.30043897 0.22810438
-0.03695231 -0.31522337 0.18540698 -0.07402296 -0.15146096 -0.27103907 -0.1972248 -0.08484408
0.5441044 -0.10379845 0.094139874 -0.25373116 -0.0045468486 0.06442335 -0.052563548 0.30968007
-0.11580699 0.044740718 -0.21845664 -0.14954005 -0.11909018 0.0043414813 0.14773948 0.20357797
-0.026236366 -0.24529995 0.061869647 -0.29287457 0.16980591 0.057594735 0.24120754 -0.09543904
0.07471597 -0.39531425 0.040383272 0.0017609779 -0.05410305 0.20564991 0.18818654 -0.36420637
-0.059720736 0.049138967 0.069296956 -0.4086231 -0.50005746 0.040203463 0.09295786 0.0011099766
0.09377912 0.010586608 0.070057005 -0.15327337 -0.07208113 0.16513963 0.22118086 0.31891093
-0.18252239 -0.1617034 -0.35041425 0.19557336 -0.014076129 -0.18038134 0.012489244 0.66580564
-0.15487657 0.036991894 0.28923994 -0.07287521 0.1827349 -0.22289015 -0.04094524 0.31436986
0.6536066 -0.12691106 -0.52045494 -0.14231732 -0.031775773 0.17625281 -0.055434477 -0.04158107
0.020095162 -0.4661032 0.15667121 -0.14012271 -0.17180258 -0.3758698 -0.2068919 -0.36315256
0.4623506 -0.08593141 0.23050985 0.0456478 0.03498664 -0.3010107 -0.09967716 0.1472354
00000000: acef 9a3d 15a0 463e aab9 46be cf1c b93e
00000010: ed11 8e3e c223 783d 1e55 073e fb1a 44be
00000020: 67a0 70be feb7 37bd e52b 2d3d 360d 55be
00000030: eff3 303e 93e1 033e f795 c13d 3e98 c1be
00000040: a030 883d e41c dfbe acda d53e fb56 173e
00000050: ad7c f13b 8531 0ebe 636d 5e3e 9d65 20be
00000060: 577b 1fbf db9e b4ba e575 1fbe 1f51 413e
00000070: 965d d03e 6056 f5bd 4c49 953c 70c0 853d
00000080: 8674 07be e35e 6fbe 2a86 f43d da74 ae3e
00000090: ebaf b13d f3b5 c4bd 4664 8e3c 1df4 bbbe
000000a0: f46e 17bd f484 663e 2bee 2b3e ed79 113f
000000b0: f25f e13e d59e e93e ad5b 97be bfdf 853e
000000c0: 7f4e 25bf 5304 bb3e f83d ca3d 9eb0 80be
000000d0: 838f c1bd b149 1e3f 0d28 44be 1dc5 c9be
000000e0: 51ee 9fbc 0eaf 83be 2688 e03e 1967 983e
000000f0: fab6 04bf a505 8c3e 16ae 8d3e a3ee 0abe
00000100: 7140 0dbe 3331 8dbd 638b ba3e 869b d93d
00000110: aab3 0a3e dcbc 393d 3a58 153d 69b5 933e
00000120: ef9e 9e3d 8f6a 47be 2699 fd3e b13b c6bd
00000130: 8365 553e f189 153e 5341 ba3d 6865 56be
00000140: 9143 04be 092e 7e3e 51fd 0fbe b84b 64bd
00000150: e3e7 1f3b cec2 ba3e 16f5 963e 0d3d b13d
00000160: c07c 5fbe e2e1 30be 3ed7 1dbe f04e ae3e
00000170: 5e9d cdbd 551a d53c f21d 173e ec16 20bb
00000180: 2bd8 5a3e fb25 26be aa7d c1bb 8b02 8e3e
00000190: 4ff9 aebc 1cce 8c3e 5b12 e4bd 38c8 b83e
000001a0: ed99 f03e 394a ff3e 736b 353e 7c82 f13e
000001b0: 2d1a c5be 7beb 1a3e 0c76 873e bc5d d03d
000001c0: 7f69 65be 5b49 ec3e 6ddf ebbb 07b2 4ebe
000001d0: fb3b 7c3e 4fb0 e0be 47f0 b23e 81ab 193f
000001e0: 2c61 95be 9ec5 84be 43c5 b2be 3389 d7be
000001f0: b579 f8be 16bf d5be e85d 803e d2f8 25bd
00000200: 55cb 093f b9b1 b1be 2bb1 31be a265 ff3d
00000210: 8ed8 563d 62cf 79be 6c3c dc3e b04a b13c
00000220: ef6f ec3d e074 573e bbbe 18bf fe54 ffbe
00000230: f2dd 273e 065a fe3d 718d 67be 5f4c 623e
00000240: 0acd 743e b864 183e e637 bd3d 622d 613e
00000250: bfd6 12bf 660a 5cbd 9c85 6dbc bcf3 79be
00000260: 9c04 83be 65b8 c23e a51f 17bd 69d0 67be
00000270: 491c 60bd 7eae b0be 23d3 993e 3294 693e
00000280: 4e5b 17bd f564 a1be 54db 3d3e 5a99 97bd
00000290: 9518 1bbe a2c5 8abe 4cf5 49be bcc2 adbd
000002a0: 6d4a 0b3f 4894 d4bd 68cc c03d 0de9 81be
000002b0: bbfd 94bb 64f0 833d e04c 57bd 638e 9e3e
000002c0: 372c edbd 0b42 373d 19b3 5fbe 0721 19be
000002d0: 8de5 f3bd fc42 8e3b 0549 173e be76 503e
000002e0: a6ed d6bc e92f 7bbe 076b 7d3d a8f3 95be
000002f0: 9ae1 2d3e 75e8 6b3d 1cff 763e 8b75 c3bd
00000300: b004 993d a166 cabe ee68 253d 9dd0 e63a
00000310: 299b 5dbd e495 523e f9b3 403e 4279 babe
00000320: bb9d 74bd f145 493d 90eb 8d3d 0c37 d1be
00000330: c403 00bf 63ac 243d b160 be3d a27c 913a
00000340: 440f c03d 7473 2d3c 0c7a 8f3d b2f3 1cbe
00000350: 469f 93bd 5d1a 293e 3c7d 623e 4b48 a33e
00000360: 26e7 3abe 9395 25be 7f69 b3be 6244 483e
00000370: 909f 66bc e3b5 38be b09f 4c3c 3d72 2a3f
00000380: f797 1ebe d084 173d 4217 943e 993f 95bd
00000390: dc1e 3b3e 513d 64be 32b6 27bd 16f5 a03e
000003a0: c352 273f f9f4 01be 893c 05bf a2bb 11be
000003b0: 5027 02bd 9e7b 343e 430f 63bd e950 2abd
000003c0: 9c9e a43c 14a5 eebe 6b6e 203e 547c 0fbe
000003d0: 04ed 2fbe 0272 c0be 78db 53be 22ef b9be
000003e0: 38b9 ec3e cffc afbd c60a 6c3e 30f9 3a3d
000003f0: 274e 0f3d 131e 9abe 8a23 ccbd e0c4 163e

net.2.bias f4 [20]
-0.053138595 -0.13885584 -0.21257919 0.07507797 0.22426872 0.074627474 0.14860573 0.23818962
0.025848968 -0.0019313293 -0.075179614 0.22555761 -0.08239945 -0.2697272 -0.2665317 0.051621567
0.21944863 0.054518677 -0.14372614 -0.053428214
00000000: dba7 59bd 3a30 0ebe 5cae 59be 7bc2 993d
00000010: b3a6 653e 4ad6 983d 1a2c 183e fbe7 733e
00000020: 37c1 d33c a824 fdba c5f7 99bd 93f8 663e
00000030: 0bc1 a8bd af19 8abe d876 88be 2371 533d
00000040: 24b7 603e fa4e 5f3d f22c 13be 8bd7 5abd

net.4.weight f4 [20, 20]
-0.63545716 0.43439138 -0.51123506 -0.007459121 0.2702556 -0.042123035 0.6954566 -0.7805286
0.43726337 0.27993262 0.09791739 0.56433415 -0.027191257 0.17109422 -0.5647605 0.47340772
-0.18917848 -0.03177568 -0.5520366 -0.09880502 -0.21881206 0.23302656 -0.32520434 -0.021247227
0.03856944 0.05416905 0.15134384 -0.5939168 0.41848585 0.15171961 0.1684396 0.14235923
0.35275245 0.1378561 -0.41204333 0.20639065 -0.12882273 0.07616513 -0.33764026 -0.4483084
0.15485278 -0.064668335 0.22404031 0.06166254 0.14136529 0.45206875 -0.29219264 0.5075204
-0.2552812 -0.11453365 -0.00036031118 -0.10978921 -0.28119996 -0.032842327 0.39094803 -0.25823292
0.40149942 0.06528273 0.32654682 0.29861915 -0.08045947 0.21374495 0.16646972 0.30820587
0.230675 -0.064129926 0.3490516 -0.20487566 0.09655909 0.21791796 0.11837736 -0.16648783
-0.22453389 0.071667604 -0.054451644 -0.032936484 0.15469792 -0.5204952 -0.367295 -0.054480825
0.14578843 0.027238324 0.24659671 0.13663906 0.1181271 -0.0028847111 0.07515696 -0.18942215
0.17656612 0.106514744 -0.070088066 -0.38599244 -0.020391392 -0.12980843 0.36125267 0.014943195
0.18045188 0.054094255 -0.11450919 -0.10032864 -0.11546667 -0.050742995 0.43646812 0.22468445
0.31951857 0.3139043 -0.47004977 0.23699681 -0.043328073 0.054402508 -0.019242847 -0.16447744
-0.42865866 -0.2367163 0.28277323 -0.32892582 0.35695955 -0.01781819 0.13649057 0.351484
-0.09031856 0.14128108 0.15383835 -0.044112522 0.2522831 0.35730833 -0.36820948 0.40980485
-0.4337877 -0.2602578 -0.21460631 -0.1729914 -0.28695428 -0.17439668 0.31160894 -0.44856092
0.25916192 -0.13828556 0.2530696 0.43869644 0.17895822 -0.44675025 -0.18830286 -0.1982771
-0.32253543 0.039761934 -0.07831329 0.19574255 0.10933504 -0.21510832 0.12901555 0.18259166
0.10094482 0.31500694 -0.27914503 0.2863058 -0.22042838 0.059977658 0.028136548 0.08049534
0.31825948 -0.06611806 0.39744908 -0.083157025 -0.07648891 0.1000147 -0.4167004 0.7569294
-0.2025558 -0.44662887 -0.17370562 -0.38620865 -0.49718827 -0.13598207 0.5201802 -0.64141965
0.5826737 0.10580189 0.3581364 0.14544456 0.43179694 -0.35171542 0.6929466 -0.15653795
0.027075047 -0.2634514 -0.68858933 0.07212588 0.026941638 -0.05710779 -0.48782748 0.05704541
-0.11896388 -0.21753748 0.5588469 -0.062309463 0.015901571 -0.014127167 0.46336856 -0.10395618
0.39435855 -0.25220776 1.0201757 -0.07963831 0.10332057 -0.19536734 -1.0482851 -0.063121706
0.124544665 0.22749647 -0.21165723 0.1164974 0.18139288 0.10994525 0.74562854 -0.30225718
-0.1949366 -0.089150965 0.40748277 -0.15134913 0.0050993306 -0.39613473 -0.42661452 -0.19308683
-0.26181573 -0.42939016 0.38050586 -0.33357325 0.13446198 0.17509142 0.30086428 0.039230596
0.11145215 0.040677432 -0.18632603 0.3509044 -0.17914905 0.052854843 -0.44803476 -0.4447422
0.05702706 -0.2775141 -0.3021739 -0.2814212 -0.17278881 -0.3881543 0.04616795 -0.34120214
0.07510952 0.3302526 0.060875654 -0.0032074123 0.27353442 0.17106253 -0.14337334 -0.10257429
00000000: 52ad 22bf 8c68 de3e 4de0 02bf a46b f4bb
00000010: f15e 8a3e 3489 2cbd 7209 323f b9d0 47bf
00000020: fce0 df3e 5453 8f3e ea88 c83d 3478 103f
00000030: 33c0 debc 5333 2f3e 2594 10bf 7f62 f23e
00000040: 01b8 41be 3727 02bd 4552 0dbf 495a cabd
00000050: 4510 60be 849e 6e3e 2f81 a6be aa0e aebc
00000060: fdfa 1d3d 5ee0 5d3d e1f9 1a3e ee0a 18bf
00000070: c743 d63e 635c 1b3e 6e7b 2c3e 9ec6 113e
00000080: f89b b43e 262a 0d3e 58f7 d2be 1258 533e
00000090: 1bea 03be 77fc 9b3d 2fdf acbe ae88 e5be
000000a0: ba91 1e3e d570 84bd d36a 653e dc91 7c3d
000000b0: 10c2 103e 8e75 e73e 469a 95be dbec 013f
000000c0: 38b4 82be 9e90 eabd 26e8 bcb9 2ad9 e0bd
000000d0: 71f9 8fbe ad85 06bd 572a c83e 1b37 84be
000000e0: 5591 cd3e f4b2 853d 2531 a73e 9ce4 983e
000000f0: efc7 a4bd f5df 5a3e 0a77 2a3e 29cd 9d3e
00000100: 1136 6c3e 8d56 83bd e4b6 b23e edca 51be
00000110: c6c0 c53d e325 5f3e d46f f23d c97b 2abe
00000120: 36ec 65be 77c6 923d b008 5fbd 68e8 06bd
00000130: 2269 1e3e 2c3f 05bf 170e bcbe 4927 5fbd
00000140: 9049 153e e822 df3c d983 7c3e 1ceb 0b3e
00000150: 9fec f13d 6c0d 3dbb e4eb 993d e1f7 41be
00000160: c0cd 343e 6724 da3d 558a 8fbd cda0 c5be
00000170: d90b a7bc 80ec 04be 1cf6 b83e 4dd4 743c
00000180: 61c8 383e f091 5d3d cb83 eabd 1a79 cdbd
00000190: ca79 ecbd e3d7 4fbd c078 df3e ae13 663e
000001a0: f097 a33e 10b8 a03e 5daa f0be 4baf 723e
000001b0: c778 31bd 2ad5 5e3d 2da3 9dbc c66c 28be
000001c0: 2679 dbbe c265 72be a7c7 903e f768 a8be
000001d0: 67c3 b63e 74f7 91bc 2fc4 0b3e b6f5 b33e
000001e0: f0f8 b8bd fdab 103e cd87 1d3e 55af 34bd
000001f0: 402b 813e 1ef1 b63e f485 bcbe f1d1 d13e
00000200: 6c19 debe 8340 85be c2c1 5bbe a824 31be
00000210: aceb 92be 0b95 32be 358b 9f3e c7a9 e5be
00000220: dfb0 843e bb9a 0dbe 5792 813e d29c e03e
00000230: d340 373e 73bc e4be 77d2 40be 2709 4bbe
00000240: 5d23 a5be 69dd 223d b862 a0bd bc70 483e
00000250: 0deb df3d 5b45 5cbe a71c 043e 4ff9 3a3e
00000260: 28bc ce3d 9748 a13e 19ec 8ebe ac96 923e
00000270: fab7 61be 22ab 753d 9e7e e63c beda a43d
00000280: e8f2 a23e e868 87bd 727e cb3e 3b4e aabd
00000290: 38a6 9cbd 82d4 cc3d c159 d5be 20c6 413f
000002a0: ca6a 4fbe 8aac e4be e3df 31be 24bd c5be
000002b0: 768f febe e23e 0bbe 882a 053f 1434 24bf
000002c0: 1b2a 153f a9ae d83d a75d b73e 6bef 143e
000002d0: 7d14 dd3e 0b14 b4be f364 313f 7c4b 20be
000002e0: 7dcc dd3c 1ae3 86be 6447 30bf bcb6 933d
000002f0: b6b4 dc3c dce9 69bd 86c4 f9be 73a8 693d
00000300: 56a3 f3bd 25c2 5ebe 9710 0f3f 3538 7fbd
00000310: 0344 823c a275 67bc a53e ed3e fae6 d4bd
00000320: 5de9 c93e 6021 81be 1e95 823f 6919 a3bd
00000330: bc99 d33d 600e 48be 352e 86bf f445 81bd
00000340: 4611 ff3d d6f4 683e acbc 58be 3096 ee3d
00000350: 0ebf 393e fa2a e13d 83e1 3e3f 74c1 9abe
00000360: 769d 47be c894 b6bd 95a1 d03e 44fb 1abe
00000370: 4918 a73b 2cd2 cabe 386d dabe 8eb8 45be
00000380: b60c 86be 07d9 dbbe aad1 c23e 1dca aabe
00000390: 67b0 093e 2a4b 333e e20a 9a3e 43b0 203d
000003a0: 0641 e43d 619d 263d 40cc 3ebe bea9 b33e
000003b0: d972 37be 527e 583d d064 e5be 40b5 e3be
000003c0: 3595 693d 5416 8ebe 8ab6 9abe 7116 90be
000003d0: 8def 30be 29bc c6be 9b1a 3d3d 0cb2 aebe
000003e0: 05d3 993d de16 a93e c058 793d 7333 52bb
000003f0: b40c 8c3e 042b 2f3e 76d0 12be 7812 d2bd

net.4.bias f4 [20]
0.24276242 0.037934314 0.28884172 0.2770533 0.032658756 0.029942477 0.3423791 -0.23795769
0.06882283 -0.21045534 -0.0707209 -0.3466151 -0.14853176 0.22892796 -0.12987968 -0.08252823
0.3434397 0.19115902 -0.081127934 -0.18475929
00000000: b696 783e 0361 1b3d 10e3 933e eed9 8d3e
00000010: 30c5 053d ed49 f53c 504c af3e 2eab 73be
00000020: fcf2 8c3d 9b81 57be 1fd6 90bd 8977 b1be
00000030: b618 18be 176c 6a3e 2eff 04be 9004 a9bd
00000040: 54d7 af3e 31bf 433e 6726 a6bd 8a31 3dbe

net.6.weight f4 [20, 20]
-0.049635433 -0.058115598 -0.15852283 -0.11386672 -0.16621906 -0.43294868 -0.43929875 0.21999602
0.078143455 0.1027396 -0.03754919 0.43986297 0.37998328 -0.4273724 0.00013544697 -0.38334432
0.0986279 0.23469171 0.18804592 0.044446856 0.4773852 0.80516636 0.02803997 -0.3160318
-0.37023348 0.10676486 0.026367068 0.18753609 -0.4918466 -0.32575208 -0.30094194 0.039209593
0.048008345 0.38165638 0.73366314 -0.04273389 0.07747548 0.34596038 0.79334766 0.10009416
0.37025994 -0.4162375 -0.2770988 0.42711732 0.10050206 0.11932364 -0.16524473 -0.2152547
0.4735156 0.4331006 0.32170585 -0.087272055 -0.02973012 -0.388128 0.07163709 -0.04184511
0.35698804 0.06711554 -0.086344846 -0.31714815 0.27282646 0.5037153 -0.07776599 -0.05683437
-0.07210936 -0.012908969 0.055007763 0.11765438 -0.57224584 0.057041597 0.04723949 -0.057874236
0.25191644 0.14451866 0.1592082 -0.1586754 -0.069536075 0.22932637 0.35250956 0.10986056
-0.7388205 -0.41731116 0.10171094 0.035565007 -0.005832814 0.023572076 -0.101370186 0.2345812
0.15317686 0.56286067 0.27889338 0.12618569 0.031646594 0.08654646 -0.1837981 -0.22897507
-0.5604799 -0.27781913 -0.41940868 0.11967222 0.472275 -0.09152258 0.0421482 -0.070560604
-0.1247144 -0.194438 -0.21823026 -0.036436114 0.35677585 -0.23369016 -0.10885264 0.12666792
0.2400328 -0.24425223 0.19898099 -0.11932479 0.6904042 0.20063734 0.14978625 -0.03605453
0.0006834968 -0.35510972 -0.08591794 0.39891717 -0.03775487 0.06489093 -0.15840892 -0.11068812
0.25057846 0.08111843 0.413883 0.07723321 0.1052927 -0.4525918 -0.15204395 -0.040536545
0.4927356 0.061557084 -0.07874056 -0.3792056 -0.21336907 0.088483565 -0.07880662 -0.27295202
-0.16033255 0.2895443 0.01612746 0.21579823 -0.111273736 -0.2621637 -0.07342146 -0.073880844
0.15603565 0.45866922 -0.029614383 -0.044536248 -0.1709151 0.05436924 0.11915699 0.36454722
-0.39620963 0.18221225 0.21545886 -0.20248573 -0.2850988 0.09097211 -0.09343787 0.043361716
-0.06099897 -0.28594312 -0.4396524 0.0243759 0.09229574 0.022487674 -0.06362156 -0.18288311
-0.3508106 -0.11800838 0.19921063 0.12552081 -0.3961782 0.0957483 -0.022698887 -0.37748817
-0.1638183 -0.11220588 -0.025860833 0.30745718 -0.17005458 -0.4031658 -0.3551541 0.13201818
-0.17237401 0.11541754 -0.055656716 0.05249247 -0.3393331 -0.16426517 0.33762267 -0.019986406
0.21306807 -0.18829578 -0.29203358 0.046107825 -0.17570908 0.007251934 -0.41568476 -0.0027268848
-0.19220428 0.04232044 0.16491814 0.33805513 0.19977419 -0.41507646 0.29407027 -0.25909188
0.12616776 -0.02570919 -0.10105894 -0.15610522 0.48761785 0.49516892 -0.29236963 -0.22836426
-0.28223744 -0.05031977 0.04971209 0.093627736 -0.36799672 -0.14285192 -0.05711229 -0.08202573
0.18082397 0.29735398 0.53132236 -0.005312269 0.25756484 0.48698562 0.34000444 0.25595915
0.4171085 0.0010983364 0.064287096 0.23327711 0.35923773 -0.1844235 -0.10503392 -0.44087893
0.35573414 0.2520785 0.65430653 0.15558612 -0.12635857 -0.123442024 0.0062561654 -0.2535084
00000000: 864e 4bbd 9f0a 6ebd cf53 22be f432 e9bd
00000010: 5435 2abe 73ab ddbe c4eb e0be a346 613e
00000020: ad09 a03d 2469 d23d 2ecd 19bd b835 e13e
00000030: 2b8d c23e 8ed0 dabe c506 0e39 b545 c4be
00000040: 6dfd c93d 0653 703e 1c8f 403e e80d 363d
00000050: d56b f43e 621f 4e3f 14b4 e53c ecce a1be
00000060: 3e8f bdbe 89a7 da3d c0ff d73c 7609 403e
00000070: 51d3 fbbe fac8 a6be 1015 9abe 3d9a 203d
00000080: 66a4 443d 7768 c33e 59d1 3b3f bb09 2fbd
00000090: 77ab 9e3d b821 b13e d518 4b3f 2bfe cc3d
000000a0: b692 bd3e 151d d5be e5df 8dbe 1faf da3e
000000b0: 06d4 cd3d f45f f43d ea35 29be ba6b 5cbe
000000c0: a370 f23e 5dbf dd3e a1b6 a43e b1bb b2bd
000000d0: 958c f3bc b7b8 c6be 77b6 923d c765 2bbd
000000e0: 23c7 b63e df73 893d 91d5 b0bd 3e61 a2be
000000f0: e9af 8b3e 7cf3 003f c643 9fbd 28cb 68bd
00000100: 12ae 93bd 2480 53bc d24f 613d c8f4 f03d
00000110: b47e 12bf 73a4 693d 327e 413d 890d 6dbd
00000120: 31fb 803e b3fc 133e 7907 233e ce7b 22be
00000130: ee68 8ebd 88d4 6a3e 227c b43e 93fe e03d
00000140: 5723 3dbf cfa9 d5be d34d d03d 9dac 113d
00000150: 3121 bfbb 3a1a c13c 2c9b cfbd 0e36 703e
00000160: 65da 1c3e a317 103f 1dcb 8e3e d236 013e
00000170: dc9f 013d 453f b13d 9235 3cbe 7178 6abe
00000180: 9c7b 0fbf 4f3e 8ebe bcbc d6be b516 f53d
00000190: 07ce f13e 3170 bbbd 97a3 2c3d 1482 90bd
000001a0: 436a ffbd c11a 47be c177 5fbe 093e 15bd
000001b0: 53ab b63e 794c 6fbe 22ee debd 3cb5 013e
000001c0: 29cb 753e 421d 7abe acc1 4b3e 8e60 f4bd
000001d0: 54be 303f e073 4d3e 9161 193e eaad 13bd
000001e0: b22c 333a f1d0 b5be bff5 afbd df3e cc3e
000001f0: daa4 1abd 89e5 843d f335 22be 74b0 e2bd
00000200: d24b 803e 6b21 a63d 79e8 d33e 722c 9e3d
00000210: b3a3 d73d 1dba e7be 69b1 1bbe a609 26bd
00000220: d747 fc3e 4823 7c3d bb42 a1bd 3d27 c2be
00000230: 6c7d 5abe df36 b53d 5d65 a1bd 5ec0 8bbe
00000240: 372e 24be 273f 943e bc1d 843c 36fa 5c3e
00000250: 7ce3 e3bd 523a 86be fe5d 96bd d74e 97bd
00000260: cfc7 1f3e b1d6 ea3e dd99 f2bc a46b 36bd
00000270: 5e04 2fbe 48b2 5e3d 9408 f43d efa5 ba3e
00000280: fddb cabe d995 3a3e 3fa1 5c3e 6b58 4fbe
00000290: 78f8 91be 964f ba3d 5b5c bfbd 0e9c 313d
000002a0: 0eda 79bd 2367 92be 1f1a e1be f8af c73c
000002b0: 8d05 bd3d 1238 b83c 054c 82bd b645 3bbe
000002c0: 729d b3be 61ae f1bd dffd 4b3e 8788 003e
000002d0: ded7 cabe af17 c43d 04f3 b9bc 2146 c1be
000002e0: fcbf 27be 32cc e5bd 19da d3bc 076b 9d3e
000002f0: ca22 2ebe bf6b cebe c2d6 b5be c62f 073e
00000300: d082 30be 0860 ec3d 4cf8 63bd 5802 573d
00000310: 11bd adbe 2135 28be e1dc ac3e 88ba a3bc
00000320: 842e 5a3e 9cd0 40be 6d85 95be 8fdb 3c3d
00000330: 15ed 33be a2a1 ed3b a2d4 d4be 89b5 32bb
00000340: 33d1 44be 3358 2d3d 4de0 283e 9015 ad3e
00000350: 9b91 4c3e e784 d4be 6190 963e b1a7 84be
00000360: 1f32 013e 149c d2bc fdf7 cebd 0cda 1fbe
00000370: 0ca9 f93e c886 fd3e 79b1 95be 52d8 69be
00000380: 6d81 90be 1a1c 4ebd e89e 4b3d e6bf bf3d
00000390: 116a bcbe c647 12be 94ee 69bd 1bfd a7bd
000003a0: eb29 393e c83e 983e be04 083f 8b12 aebb
000003b0: 8adf 833e 2e56 f93e 1015 ae3e 140d 833e
000003c0: 3f8f d53e 0ef6 8f3a f4a8 833d 32e0 6e3e
000003d0: 02ee b73e 84d9 3cbe 061c d7bd e2ba e1be
000003e0: c922 b63e 6f10 813e a280 273f f851 1f3e
000003f0: 2464 01be 2ccf fcbd 8500 cd3b dacb 81be

net.6.bias f4 [20]
-0.09626971 -0.26566833 -0.1471433 -0.24140294 -0.14066218 0.23341928 0.099039696 -0.27438614
-0.2025076 -0.02485532 -0.08682328 -0.13645065 0.10156258 -0.08894872 0.019446827 -0.05502137
0.22596118 0.17107429 0.17754139 0.032441076
00000000: 0e29 c5bd ae05 88be bcac 16be 5532 77be
00000010: bf09 10be 7705 6f3e 53d5 ca3d 577c 8cbe
00000020: 275e 4fbe 629d cbbc 67d0 b1bd b8b9 0bbe
00000030: 0b00 d03d bf2a b6bd f44e 9f3c 175e 61bd
00000040: 5e62 673e 192e 2f3e 69cd 353e efe0 043d

net.8.weight f4 [1, 20]
-0.2738616 0.31696546 -0.6814895 0.36653608 0.18120001 -0.30993477 -0.5291408 0.40132472
0.49177074 0.6096442 -0.15280357 0.58022267 -0.4906853 -0.25729933 -0.400583 0.50326097
-0.56053334 0.29668176 0.28995645 0.2750915
00000000: 9637 8cbe 4c49 a23e 1976 2ebf 9eaa bb3e
00000010: 7f8c 393e c5af 9ebe c575 07bf 6f7a cd3e
00000020: 60c9 fb3e a411 1c3f 8a78 1cbe 7989 143f
00000030: 1b3b fbbe bdbc 83be 3719 cdbe b6d5 003f
00000040: 1d7f 0fbf ace6 973e 2c75 943e cbd8 8c3e
