Code/Trained models/m_mu_y0_500_norm_4001.pth (torch, 9532 bytes, 9 tensors)

net.0.weight f4 [20, 6]
000000 03 fe 34 40 f5 6e 80 be 27 0f 70 bd f7 e1 c2 be
       2.8280036 -0.25084653 -0.0586082 -0.38063022
000010 9a 85 29 bc 20 c6 fe be 9d e7 0c bf ce 1e cf 3c
       -0.0103467945 -0.49760532 -0.55040914 0.025283244
000020 fa 4a 87 bd 0e d2 90 bd 53 21 bc 3a 33 2f c4 bc
       -0.066060975 -0.07071315 0.0014353193 -0.023948288
000030 2b a6 9c 3d be 5c c0 be 7c f4 6c 3c fd d9 00 bf
       0.076488815 -0.37570757 0.0144625865 -0.50332624
000040 39 1b 96 3e 94 19 a0 be bf b8 73 bd 74 a4 e8 3d
       0.29317644 -0.31269515 -0.05950236 0.11359492
000050 20 61 f2 3d eb 96 44 be 9e 8d f6 bc 5c 6f c8 be
       0.118349314 -0.19198196 -0.030096825 -0.3914746
000060 b8 5a 06 3f 91 93 75 39 b2 9a 98 bd 3d a5 2d be
       0.52482176 0.00023419994 -0.07451381 -0.16957565
000070 3f 5a 03 3d 64 40 88 3d 32 8b 26 3f e6 11 17 3d
       0.032068487 0.066529065 0.65056145 0.036882304
000080 7e f5 9c bd 40 fe 08 be 8e 4a 50 bd 7d fc 80 be
       -0.076640114 -0.13378239 -0.05085235 -0.25192633
000090 4c 25 00 be 47 93 fc bd 2f af fe 3d a0 09 aa 3e
       -0.12514228 -0.123327784 0.12435757 0.33210468
0000a0 0a ec f5 ba ff fc 7e be db d7 38 bf 00 7f ed bb
       -0.0018762362 -0.24901198 -0.7220437 -0.0072478056
0000b0 a1 9b bc bc 93 c3 a3 bd 64 ff c3 bb 07 f6 96 3e
       -0.023023428 -0.07996287 -0.0059813727 0.2948458
0000c0 03 2e 25 3f a3 d3 da bb 66 0c 05 3c f0 2c 30 3e
       0.64523333 -0.006678061 0.008120632 0.17204642
0000d0 da c2 73 3a c6 ee c6 be 29 15 22 bf 3e b1 24 bc
       0.00092987495 -0.38854045 -0.6331354 -0.010052023
0000e0 b5 ab 81 3c ef 33 45 3e 3a 00 88 bb af 76 d2 be
       0.015828947 0.19258092 -0.0041504176 -0.41106173
0000f0 df b7 b5 bd 95 04 ef bc 3d a9 39 3c 3e c5 8a be
       -0.08872961 -0.02917699 0.011331853 -0.2710361
000100 ea 1e c6 3d b7 ae 06 be 79 66 6d 3f 07 0a 16 bd
       0.09673865 -0.13152586 0.92734486 -0.036630657
000110 04 4f 77 3c cb 02 f6 bd 2b 0c 6a 3b 62 b5 09 3d
       0.015094522 -0.120122515 0.003571282 0.033620246
000120 d2 fd 56 bf 39 65 cf 3d dd 9c 5e bc 71 40 f6 3d
       -0.8398105 0.101267286 -0.013587204 0.1202401
000130 f5 82 23 bc 48 ee ea 3d 34 1b 2d 3f d3 8b db 3d
       -0.009979953 0.1147123 0.67619634 0.10720029
000140 c9 9b 92 bd 36 a1 0e 3e f4 18 be 3b 33 26 67 be
       -0.0715862 0.13928685 0.0058013145 -0.22573166
000150 48 49 a6 3e 86 42 00 3e c2 d9 f5 bd 1b f2 97 be
       0.32477784 0.12525377 -0.12004425 -0.296769
000160 c1 d5 32 3e 30 80 5a be 12 4b 15 3f c3 c5 33 bd
       0.17464353 -0.21337962 0.58317673 -0.043889772
000170 e1 e6 2b 3d 05 f6 77 3e 23 ca 19 bc b8 f5 88 be
       0.04196823 0.24214943 -0.009386572 -0.2674997
000180 1c a5 32 3f 00 27 df b9 80 bc bd bd 67 b1 b7 be
       0.69783187 -0.00042562932 -0.09264469 -0.35877535
000190 ed 21 88 3c 7f 17 80 bc b3 29 b2 3e a6 da e4 bd
       0.01661774 -0.015636204 0.3479744 -0.111745164
0001a0 b1 72 a6 3d 4e 4a 1f 3e 8e 0f d4 3d 9a cf 9c 3e
       0.081273444 0.15555689 0.10354529 0.30627137
0001b0 5c c1 e5 3e 0d 3d a2 3c 9b 4c 3a 3e ea 2d 6b bd
       0.44874084 0.019804502 0.18193285 -0.057416834
0001c0 7a d8 8c 3c 06 7d b7 3d 1b cc 33 3f 54 66 1e bc
       0.017193068 0.08959393 0.70233315 -0.009667952
0001d0 a6 9c a3 3d 0d 42 17 3e e3 46 36 3c 2c 95 cd 3c
       0.07988863 0.1477129 0.011125299 0.025095545

net.0.bias f4 [20]
000000 10 75 a1 bd 06 4f fe 3d 35 29 6b 3e b3 be 64 3e
       -0.07883656 0.12417416 0.22964938 0.22338371
000010 da 14 09 3e d9 2e a5 3c de 8c d1 3e f0 b9 d0 be
       0.1338686 0.02016394 0.40927786 -0.4076686
000020 dd cb 8e 3e 57 50 57 3e 51 bb d3 3d 68 f0 4c be
       0.2788991 0.21026741 0.10338462 -0.20013583
000030 55 24 65 be c7 46 24 3e 6f f3 4c be f7 be 1b 3d
       -0.22377141 0.16042624 -0.20014738 0.038023915
000040 68 a9 6c 3e ef 48 d9 be 45 e0 a1 bc 97 13 86 be
       0.23111498 -0.42438456 -0.01976026 -0.2618682

net.2.weight f4 [20, 20]
000000 f2 e6 00 3e 18 ef 95 be 48 b3 c3 3d e4 b1 89 3d
       0.12588099 -0.29283977 0.095556796 0.06723383
000010 3f 8d ae 3d fe f0 bd 3e fc b6 66 bc fb d8 fd be
       0.08523034 0.37097925 -0.014081713 -0.49579605
000020 25 df c1 3e d4 54 5e be ad e6 1d bd d2 fe 09 be
       0.37865558 -0.21712047 -0.038550068 -0.13476112
000030 91 77 56 be dd 44 16 bd 52 71 25 3e 5d 27 c0 3e
       -0.20944048 -0.036686767 0.1615651 0.37530032
000040 c9 9f 43 3e d9 4f d2 3d cf 88 75 bd 14 e9 d5 3d
       0.19103922 0.10269136 -0.059944924 0.10444847
000050 fc 5b bf 3e 91 c8 09 bf ef 42 ae 3e 43 20 29 3e
       0.37374866 -0.53821665 0.3403544 0.16516213
000060 19 fc 16 3f 55 df fd 3e e7 00 90 bd d2 45 02 bf
       0.5897842 0.4958445 -0.07031422 -0.5088779
000070 52 2c 21 3f 61 0d 80 be 86 52 4e 3e 32 8f 21 3f
       0.6295825 -0.25010207 0.20148668 0.63109124
000080 ac cb 68 bf ff 02 c7 bd 73 c5 0b 3e 60 ed cc 3e
       -0.9093578 -0.09717368 0.1364954 0.40024853
000090 58 c6 07 3f e4 ec b5 3d 9c 43 22 3e 22 3b 14 3f
       0.53037024 0.08883074 0.15846103 0.5790273
0000a0 e8 1c f3 bc 7c 97 ce 3d ae e9 07 bd 83 70 07 be
       -0.02967687 0.10087487 -0.03318184 -0.13226514
0000b0 1b 13 60 be 9a 1a dc bd ac 47 ce bd f6 14 ea 3e
       -0.21882288 -0.10747261 -0.10072264 0.45719117
0000c0 1f 62 e9 be ce f7 b1 3d 21 71 6d bd 86 14 a7 bd
       -0.45582673 0.08689843 -0.057969216 -0.081582114
0000d0 fd bc 3d 3e 25 07 0d be 0a 9b f1 3d 61 4c c5 be
       0.18529125 -0.13772257 0.117971495 -0.38534835
0000e0 d6 36 00 3d ce d1 2a bd 51 10 29 3e 09 b2 dc 3d
       0.031302296 -0.04170399 0.1651013 0.10776145
0000f0 63 11 5e 3e 68 f8 73 be 8e 08 65 be 54 11 8a bd
       0.2168632 -0.23825228 -0.22366545 -0.06741586
000100 51 75 f6 3d 64 ef ad 3e 88 42 6f be 60 a0 33 be
       0.12034095 0.33971703 -0.23365223 -0.17541647
000110 50 5d 9d 3e 8a be 8d be c9 44 ff bc 1b 0d cc 3d
       0.30735254 -0.27684432 -0.031160729 0.09963437
000120 6a 8c 7a be 5d b3 9d 3e d2 52 a9 3d ab 6c 8c 3e
       -0.24467626 0.30800906 0.0826775 0.27426657
000130 28 7b a1 bd 93 68 2d be 2d 86 5b bd b9 63 70 3e
       -0.07884818 -0.16934423 -0.053594757 0.23475541
000140 e3 10 f8 3d 60 6f b2 3e b2 93 84 bc 98 ce 0a 3e
       0.12112596 0.34850597 -0.016183708 0.13555372
000150 fd e6 c6 be 56 2e 9c be 10 1f 02 3e fe 70 17 3f
       -0.38848105 -0.30504102 0.12707162 0.5915679
000160 ec 4a 76 be 3a 5c 67 3e 50 4f 96 3c f1 b0 fc bd
       -0.24052018 0.22593775 0.018348366 -0.123384364
000170 2c 03 82 3e 1c ae c2 be 2a de ee bd 1d ae e6 be
       0.25393045 -0.3802346 -0.11663468 -0.45054713
000180 49 9b 2a 3e ee 24 65 3e 7a c7 0e bd 4a 8e dd be
       0.16660799 0.22377369 -0.034858204 -0.4327262
000190 d6 52 09 be 76 84 6c 3e eb 5d 9b bd a7 f5 4a be
       -0.13410506 0.23097405 -0.07586273 -0.19820271
0001a0 35 bb 85 bd 29 20 10 bf 4c ad dd bd 60 91 56 3e
       -0.065298475 -0.5629907 -0.108240694 0.20953894
0001b0 e3 fa 38 be 99 df 6a 3e f4 31 85 be 28 ee d0 be
       -0.18064456 0.22936858 -0.26014674 -0.408067
0001c0 c7 ae b1 3e 8a 4b 58 be 6a 83 c6 bc 62 55 8d be
       0.34703657 -0.21122566 -0.024232585 -0.27604204
0001d0 cf 8f a8 be b9 f5 5a be bd 68 05 3c 53 05 db be
       -0.32922217 -0.21382798 0.008142647 -0.427775
0001e0 38 7b 45 be 37 1d 64 3c b2 01 08 3e eb 05 e4 bd
       -0.19285285 0.013922981 0.13281897 -0.11133941
0001f0 22 8d ef bd 98 33 af be de cf 04 3e 94 17 12 3d
       -0.11696841 -0.3421905 0.1296992 0.035667017
000200 b7 37 f3 3c f0 e9 da 3e f5 c1 71 bc b8 31 93 3d
       0.029689653 0.42756605 -0.014755716 0.071872175
000210 b3 cb c4 3e cd 10 4f 3d 4e c4 79 bd 80 81 96 be
       0.3843666 0.05055313 -0.060978226 -0.29395676
000220 d3 e7 a0 be ce 81 5d be 05 c5 07 bc 8b 56 2b be
       -0.31426868 -0.21631548 -0.008286719 -0.16732232
000230 2e 62 e4 bd c2 af 0a be 57 d3 d5 bd 85 5e d3 3d
       -0.11151539 -0.13543609 -0.104407005 0.103207625
000240 8f 0e 80 bd 31 ec 05 be a7 f5 e8 3d 1f 4a 9b 3d
       -0.06252777 -0.13078381 0.113749795 0.07582497
000250 4a a1 4e be a2 1f be 3e 17 9b 8b 3e a8 f8 a7 3d
       -0.20178714 0.3713351 0.27266762 0.08201724
000260 8c 50 7e be b0 df 3a be 5c d3 80 3d 4c e1 35 3e
       -0.24835414 -0.18249393 0.062903136 0.17761725
000270 6b 64 4e 3e c7 b5 88 bd 84 98 59 bd b0 da 08 be
       0.20155494 -0.06675296 -0.053123966 -0.13364673
000280 f0 18 fc bd b0 58 88 3e fe 3b b2 bd f2 8a b6 bd
       -0.12309444 0.26630163 -0.08702849 -0.089132205
000290 7e c9 af be 2f 82 fd be 9d 43 55 3d 6f d2 66 3e
       -0.34333414 -0.49513385 0.052066434 0.22541212
0002a0 ba 9a d2 be 00 f9 12 3f d2 a0 21 3e b0 7c 01 be
       -0.41133672 0.57411194 0.15784004 -0.12645221
0002b0 ab 10 d3 3e 7f 20 2c bd b2 59 14 be 29 2a 02 bf
       0.41223654 -0.04202318 -0.14487341 -0.5084558
0002c0 e7 c2 4f be db f5 38 be 85 c9 05 3c 05 52 f1 be
       -0.20289193 -0.18062536 0.008165722 -0.47132888
0002d0 e6 2b 04 3e 6a 1e 4c 3d 92 d1 db 3e 12 d9 ce 3e
       0.12907371 0.049833693 0.42933327 0.40399987
0002e0 2d b4 3c 3d 4a 1c 57 3c c7 4d de 3c ca 14 6d 3e
       0.046070267 0.013129303 0.027136697 0.23152462
0002f0 ad 94 a3 be 66 10 0d 3e aa 29 f2 3d 38 bf 29 3e
       -0.31949368 0.13775787 0.11824353 0.1657685
000300 5a 40 64 be 6f 81 a4 bd 98 87 f3 3d 7e 9e 6a be
       -0.22290173 -0.080325 0.11891097 -0.22912022
000310 48 d3 2d 3e 9f 33 5f bd 65 89 0a 3e 1c 2a 3b be
       0.16975129 -0.05449259 0.13528974 -0.18277782
000320 af 13 ad 3d f9 8e 0c be 77 46 8b be 47 20 10 be
       0.0845102 -0.13726415 -0.27202198 -0.14074813
000330 1f 89 08 3e 09 28 75 3d 33 c0 50 be dc f1 37 be
       0.13333558 0.059852634 -0.20385818 -0.17963356
000340 0c 11 70 3c ff 9b 5e be 12 67 18 be 14 13 3d bd
       0.014652502 -0.21739195 -0.14883068 -0.046160772
000350 49 e6 77 3c 87 1b 9e 3e c7 ff ba bc 28 50 8a 3d
       0.015130588 0.30880377 -0.022827042 0.0675357
000360 18 e7 f7 3d 2f e4 39 3e 25 f1 ca 3d a1 94 72 3e
       0.121046245 0.18153451 0.09909276 0.2368951
000370 85 fe 99 3d b8 4e d9 bc 7c 67 8d 3d 4f b5 a9 3c
       0.07519249 -0.026526794 0.06904504 0.020716337
000380 f2 5c 89 3b d2 5f d2 3d c2 d2 b6 3d 27 ad f9 3e
       0.004191988 0.102721825 0.089269176 0.48764917
000390 e5 bf c3 be ea d5 00 3f 43 65 82 3e f7 4e 86 bc
       -0.3823234 0.50326407 0.25467882 -0.016395075
0003a0 f0 b4 00 3c 7c 7e 36 be 94 7a 4c bd 57 dd 58 be
       0.007855639 -0.17821687 -0.049921587 -0.21178184
0003b0 38 35 48 be 8c 5c 3e bc e2 7b 94 3c 7a de 81 be
       -0.19551551 -0.011618745 0.018125478 -0.2536505
0003c0 75 f1 2e ba 2f 6e 8f be 73 5f b5 bd d6 51 c9 3c
       -0.0006673553 -0.2801375 -0.08856096 0.024575155
0003d0 d1 ae 05 be 2d 3b 32 3e 29 79 00 3f 4a 1f 53 be
       -0.13054968 0.17405386 0.50184876 -0.20617405
0003e0 6b 62 26 3e 6b b2 90 bd 7d b0 ec 3c 0d 5f a9 3e
       0.16248481 -0.070652805 0.02889275 0.3308033
0003f0 d3 80 f3 be 10 21 99 be 06 1a 82 be 23 de 8d 3c
       -0.47559223 -0.29908037 -0.2541048 0.017317837

net.2.bias f4 [20]
000000 e7 28 61 3e 1d 89 30 bd 9b 89 37 be bd 5c 4b 3e
       0.2198826 -0.04309951 -0.17923586 0.19859596
000010 c2 ad 7d 3d 29 ed eb 3d 8e f0 a2 bd d9 cb 14 be
       0.061933286 0.11519844 -0.079560384 -0.14530887
000020 03 98 6a be 76 be ab bd 2e f5 8f 3e 79 7d d7 bd
       -0.2290955 -0.08385937 0.28116745 -0.10521979
000030 7e 47 83 3d 9d 83 f9 bc 81 20 84 3d b0 17 5d be
       0.064101204 -0.030458266 0.06451512 -0.21591067
000040 a9 a9 9f 3d cf 81 cf 3d 1b ee 86 bd c5 e0 ba bd
       0.07796032 0.10132181 -0.06588384 -0.09124903

net.4.weight f4 [20, 20]
000000 f5 a4 c7 be 5b c4 85 3e ca c4 be 3e 72 c2 0f 3e
       -0.3899304 0.2612637 0.37259513 0.14039019
000010 3e 6f 3e be 51 3c 40 bd 19 93 8a 3e a6 f6 14 3e
       -0.18597123 -0.046932522 0.27065352 0.14547214
000020 ed 34 22 3e e8 e0 35 bd ec 34 d2 3d ad d9 2c 3d
       0.15840502 -0.04440394 0.10264 0.04219978
000030 5c 17 0b be 86 33 90 3e 9c a5 68 3d 9a 96 4d be
       -0.1358313 0.2816431 0.056798562 -0.20076981
000040 64 6d 93 bd 24 41 4a be 63 7f 87 be 10 78 14 be
       -0.07198599 -0.19751412 -0.26464376 -0.14498925
000050 91 ec a6 3e 80 fd 0b 3c 3d c9 f3 3d 96 f3 58 be
       0.3260236 0.008544326 0.119036175 -0.2118667
000060 73 5b 45 bd 6e d1 31 3b f5 65 b0 be 7e 8c 74 3d
       -0.048182916 0.0027132886 -0.34452787 0.059704296
000070 b4 65 bf 3d a4 b4 8d bc 4a 78 6c be 3e 94 c3 3c
       0.0934557 -0.01729805 -0.23092762 0.023874398
000080 85 16 da 3e 47 bd aa bd 2c 0c 45 3e 27 6a b6 3d
       0.42595306 -0.08336883 0.19242924 0.08906966
000090 1e 28 04 3e 9c cd 0b 3e c2 9d bd 3e 38 63 2c 3e
       0.12905928 0.13652653 0.37034422 0.16834724
0000a0 36 5c 10 bf 35 5d 1f bf b3 2a 1f 3f f0 0c 37 3e
       -0.563907 -0.622516 0.6217453 0.17876029
0000b0 56 04 45 3c 8a a2 ff 3e 08 1e 7a 3e 3f cb 3d be
       0.01202496 0.49928695 0.24425519 -0.18534563
0000c0 77 79 f3 3e 94 c8 3c be 2a 7d b0 3e 3b 63 8c 3e
       0.47553608 -0.1843589 0.34470493 0.27419457
0000d0 ad 93 50 bd fc 12 3c bd ba 2f 0c bf bb 30 e2 3e
       -0.050922085 -0.045916542 -0.54760325 0.44177803
0000e0 bf 3e 5b be 9f a8 9b be 91 5f 26 3e 9e fc c6 be
       -0.21410654 -0.30402085 0.16247393 -0.38864607
0000f0 52 f1 5b 3e b3 a4 3f 3e 89 00 ad be 31 4a 27 3e
       0.21478775 0.18715172 -0.3378947 0.16336896
000100 6c 6e d8 be 7c 3c 94 bc 19 8f b5 be bd 6a 13 be
       -0.42271745 -0.018095247 -0.35460737 -0.14396186
000110 14 5b 50 be e6 be 0e be b7 d2 d6 3d 13 91 68 be
       -0.20347244 -0.1394001 0.104894094 -0.22711591
000120 ba f8 dd 3d ce 58 3e 3e ae a1 48 3e 1b b3 a1 be
       0.108384565 0.18588564 0.19592926 -0.3158196
000130 f4 cd 4f 3e 35 7c 12 3e 7f ab 5f 3d 48 55 97 3c
       0.20293409 0.14305194 0.05460691 0.018473282
000140 23 12 fa bd 8c ad 2c be b6 eb 0e bd 76 12 8c bc
       -0.122104906 -0.16863078 -0.03489276 -0.017098647
000150 7e d1 36 3c 7c 61 9c 3d 0e 9c 15 be 07 53 45 3d
       0.011158345 0.07635781 -0.14610311 0.048174884
000160 36 4f 7d 3e e4 c8 1d bd 1f 0b 22 be 82 b7 95 3e
       0.24737248 -0.038521662 -0.15824555 0.29241568
000170 5c 5f 97 3e cc 5d 24 be f8 36 93 be 99 ba e4 bc
       0.2956494 -0.16051406 -0.28752875 -0.027921008
000180 38 67 ae 3d 5a 20 fa bd 53 36 66 3e b7 06 cb 3d
       0.08515781 -0.12213202 0.2248166 0.0991339
000190 17 97 e5 3b 3c 82 4a 3e 9d 0e 55 be 41 cb 52 3e
       0.0070065367 0.19776243 -0.20806356 0.20585348
0001a0 95 7d 97 be a2 93 98 be c4 68 a4 be 2f 48 32 be
       -0.29588 -0.29800135 -0.3211118 -0.17410348
0001b0 54 f0 43 be 96 06 98 be 60 f3 58 3e 61 f2 0f be
       -0.19134647 -0.29692525 0.2118659 -0.14057304
0001c0 40 75 80 be c9 05 8e 3d 7f bd 56 3d 7d 8f 83 be
       -0.25089455 0.06934697 0.05242681 -0.2569541
0001d0 99 8a 25 3e 16 06 fa bc 01 8d 63 be b1 6f fd be
       0.16166152 -0.03052048 -0.22221757 -0.49499276
0001e0 5f 64 ae 3e 92 cc 01 3c bd 83 11 bd 6c ca 18 3e
       0.34060952 0.0079223085 -0.035526026 0.14920968
0001f0 d0 2d 8a be fe a5 4f 3e fe 95 22 be f1 9f 4c be
       -0.26988077 0.20278165 -0.1587753 -0.19982888
000200 62 4a a2 be 05 5a c2 bb f7 79 71 3e 6c c7 e3 3c
       -0.31697375 -0.0059311413 0.23581682 0.027805053
000210 41 fd 0c bd a0 c8 b3 bd 8a e4 9e 3e ce cd 94 bd
       -0.03442121 -0.087785006 0.31033736 -0.07265817
000220 13 dc 67 3e 3b 02 33 bd 66 b5 3b be cc da 8c be
       0.22642545 -0.0437033 -0.18330917 -0.2751068
000230 12 6d e6 3e 75 85 a5 3e e8 b8 bd be 74 d9 4a 3e
       0.4500509 0.32328382 -0.37055135 0.19809514
000240 12 6b a1 be 84 3a 10 be 18 55 96 bd 9f 2a a2 be
       -0.31527 -0.14084822 -0.07340449 -0.31673142
000250 a4 32 60 be 05 4e 97 be c4 75 29 3e 72 48 04 bf
       -0.21894318 -0.29551712 0.1654883 -0.5167304
000260 eb ee 9f 3c 96 64 aa 3e 65 fb d2 3e a7 59 18 be
       0.019523105 0.33279866 0.41207424 -0.1487795
000270 8f f1 e3 3e 47 07 d4 3e a6 64 de bd ee c3 0e be
       0.44520232 0.41411802 -0.10859041 -0.13941929
000280 02 95 a2 3e 2c 5a 08 3f 4b 2d 3e bd 7b 41 5d 3e
       0.3175431 0.5326259 -0.046429913 0.2160701
000290 d9 71 bf be bf 4a 9b be b1 73 38 be f7 c1 ec be
       -0.37391546 -0.30330464 -0.18012883 -0.46241733
0002a0 af 68 8a be d9 b5 68 be f3 69 58 3e 48 f3 90 be
       -0.27032992 -0.2272562 0.21134166 -0.2831061
0002b0 52 bd 88 bd 7d dc 7e 3e ec dd d3 3e 73 05 01 bf
       -0.06676735 0.24888797 0.4138025 -0.5039894
0002c0 bb b5 05 3f 7a fb f4 3e 3f 7f 08 bd cc 7c 87 be
       0.52230424 0.4784811 -0.033324476 -0.264624
0002d0 5f 7b 09 3f 7a 83 a3 3e b8 a9 08 bf 6e 1b 22 3e
       0.53703874 0.31936246 -0.5338397 0.15830776
0002e0 77 48 00 be bc 36 2d be 5d 5d 15 bf 07 b3 02 3e
       -0.12527643 -0.16915411 -0.58345586 0.12763606
0002f0 ff fb de be b9 38 8a 3e e2 b3 1c 3e 35 db a3 be
       -0.43551633 0.269964 0.15302995 -0.3200318
000300 e0 3a 9d bb 76 2e d6 3d 39 be e1 3e 49 ed cb be
       -0.004798278 0.104580805 0.4409044 -0.39829472
000310 a1 97 0d 3f 3b e3 fd 3e 96 e8 2c be a4 ff 62 be
       0.5530949 0.49587426 -0.168856 -0.22167832
000320 1d b7 fb 3e 10 f9 03 3f 37 d9 c7 be 78 9d da 3e
       0.49163142 0.51551914 -0.3903291 0.42698264
000330 f0 0f e0 be 6d 79 b9 be 27 c8 dd be 39 04 64 be
       -0.4376216 -0.36225453 -0.43316767 -0.22267236
000340 a9 dc fb be 54 7f 4d be 62 d8 ce 3c ae 85 81 be
       -0.49191788 -0.20068103 0.025249664 -0.25297302
000350 e9 1b 6a be d4 10 94 bb b4 58 84 3e 42 fa 84 be
       -0.2286221 -0.0045186076 0.25848925 -0.25972182
000360 35 f8 0a 3e ad 12 b2 3e 52 12 ee bd 03 cd b8 be
       0.13571246 0.34779873 -0.11624588 -0.36093912
000370 90 fe 89 be bb a6 99 be db d9 9d 3e 1f ef cb be
       -0.26952028 -0.30010018 0.30830273 -0.39830872
000380 62 29 b8 3e 29 46 90 3e 20 89 4a 3d c8 8d a9 3e
       0.35969073 0.28178528 0.04944718 0.33115983
000390 9f d8 13 3e 07 f4 9b bd b5 64 3c be 12 ef 31 3e
       0.14438103 -0.07614904 -0.18397792 0.17376354
0003a0 26 f2 8c 3d f3 4d 3f be 49 69 3e be 29 f8 65 3e
       0.06882124 -0.18682079 -0.1859485 0.22457947
0003b0 ba a5 c6 3d 3b 4e c9 bd c7 84 4b 3e 35 3b 96 3e
       0.096995786 -0.098293744 0.1987487 0.29342046
0003c0 87 85 a6 3e b7 72 c0 3e 79 06 d7 3d 43 47 9d 3c
       0.32523748 0.3758752 0.104992814 0.01919902
0003d0 b3 25 a6 be 42 d2 ab be eb 28 4c be 36 30 82 be
       -0.32450637 -0.3355885 -0.19937484 -0.25427407
0003e0 2e 53 bc bd 6b c0 87 bd 12 b0 e4 3d 20 0d e2 be
       -0.09195553 -0.06628498 0.11166395 -0.4415064
0003f0 3b 72 a1 be 29 c2 e9 3d 4e 44 7b 3e 32 c1 9a be
       -0.31532463 0.11413986 0.24537775 -0.3022552

net.4.bias f4 [20]
000000 c5 1f 68 3b 05 9a 6e be 58 be 86 3e d7 26 32 3e
       0.0035419327 -0.23300941 0.26317096 0.17397629
000010 91 41 2f bd ad 07 70 bd 92 c9 46 ba 6b 97 f2 bd
       -0.04278714 -0.05860107 -0.0007583137 -0.11845287
000020 04 1a b3 bd 4e f5 3d be 92 78 7f 3e a6 3e 31 be
       -0.087451965 -0.18550608 0.24948338 -0.17309055
000030 10 2c 25 3b 52 3e 92 3d 77 17 79 be 48 f6 8a bd
       0.0025203265 0.07140793 -0.24325357 -0.06785256
000040 39 4f e3 3d 7c 4e a6 bd b5 22 4e 3e 4a 4e fa 3d
       0.11099095 -0.081204385 0.20130427 0.12221964

net.6.weight f4 [20, 20]
000000 e2 74 b6 3e c9 19 70 bd 14 86 cc 3e cd 2c 48 3e
       0.3563605 -0.05861834 0.39946043 0.1954834
000010 96 15 86 be 05 8f 3a 3e 16 2e 43 3e ec 74 be be
       -0.26188344 0.1821862 0.19060549 -0.3719858
000020 5c ed 83 be e4 83 87 3d 49 e8 db be 96 03 d3 bd
       -0.25767028 0.06616953 -0.42950657 -0.10303418
000030 7a d7 f5 3d 54 a3 82 be 83 8b 22 3d 10 e1 8c be
       0.120039895 -0.25515234 0.03968383 -0.2751546
000040 0a 59 bb be 6c b8 96 3d d8 70 17 be 45 a5 09 3e
       -0.3659137 0.073593944 -0.1478914 0.13441952
000050 36 7c 06 3e a6 2f 72 3e f7 48 9f 3d f4 40 88 be
       0.1313332 0.23650989 0.07777589 -0.26612055
000060 b9 a0 a8 3d e0 94 4d be e7 7c 88 be 13 f9 25 be
       0.082337804 -0.20076323 -0.26657793 -0.16208296
000070 5c 5c b8 be fd dc 95 be a7 19 db be 88 d0 6d 3e
       -0.36007965 -0.29270163 -0.4279301 0.2322408
000080 27 c4 16 be 2e 84 c0 3e 00 2c 6c 3d ea 0b cf bc
       -0.14723264 0.37600845 0.05765915 -0.025274236
000090 31 cc e0 3c 1e 46 94 3e ba f9 a4 3d e8 77 a7 3d
       0.027441116 0.28959745 0.08055444 0.08177167
0000a0 40 f2 af be 23 1e 15 3d a8 c5 7b bd 37 df 82 be
       -0.3436451 0.036405694 -0.061467797 -0.25560924
0000b0 59 07 93 3e e5 69 08 be 75 a5 bc bd 79 74 5d 3e
       0.28716543 -0.13321646 -0.09211246 0.21626462
0000c0 dc 50 ce 3a 4d 55 01 bf 8b 8f bd 3e ac b8 32 3e
       0.0015740651 -0.50520784 0.37023577 0.17453259
0000d0 5e e9 06 bd 0a cb 85 3e 82 0b 74 3e 6f d6 3a 3e
       -0.0329374 0.2613147 0.23832515 0.18245862
0000e0 fe 84 1c 3e 0c 05 24 3e 80 50 19 be 49 c0 1c be
       0.15285107 0.1601755 -0.14972115 -0.15307726
0000f0 5a d4 42 3e 02 bc 07 be 33 2f a0 3e 55 7f 07 3e
       0.19026318 -0.13255313 0.3128601 0.13232167
000100 cd a2 a7 be bb 4f 0c 3e 74 e2 80 3e 64 0b 58 be
       -0.32741395 0.1370229 0.2517277 -0.21098095
000110 ec 85 85 be f4 75 06 bd 38 7d ab bd 4c 5b f8 3d
       -0.26078737 -0.032827333 -0.08373493 0.121267885
000120 99 11 59 3e e7 74 1f be 58 f1 72 3d 34 7b 14 3e
       0.21198119 -0.15571938 0.059312195 0.14500123
000130 d4 83 0b be 09 66 46 be 29 0f 3f be 75 3d 22 3e
       -0.13624507 -0.19374861 -0.18658127 0.15843756
000140 e9 0a ab bd ae e5 85 3e e3 66 28 bf 01 3e 2c 3d
       -0.0835169 0.26151794 -0.6578199 0.04205132
000150 70 2a 69 3b aa 7d 33 bd 2d c4 e7 3d 97 92 c5 bc
       0.0035578273 -0.043821014 0.113167144 -0.024117751
000160 84 64 9e 3e 03 fa 5d bd 43 64 17 bc 27 63 31 3e
       0.30936062 -0.054193508 -0.009240213 0.1732298
000170 64 1d a6 bd b7 a9 46 3e a7 40 1c 3b f7 d1 43 be
       -0.081110746 0.19400679 0.0023842247 -0.19123064
000180 2f 8f 07 3e 0e dd 22 3e 89 6f 36 be 9f 98 97 be
       0.13238214 0.15904638 -0.17815985 -0.29608628
000190 ef c0 fe bd 9e db bc 3d 27 b3 1d bf 29 55 58 be
       -0.12439143 0.09221576 -0.6160149 -0.21126236
0001a0 24 63 53 bd 6c 31 46 bd c9 b8 2e 3d fe cf ce 3e
       -0.05160822 -0.048386976 0.042656694 0.4039306
0001b0 ee 1d 32 3e 51 2a 19 be 46 6b 8b 3e a0 0b ef bc
       0.1739423 -0.14957549 0.2723028 -0.029180348
0001c0 83 b1 09 be 77 50 cf 3e d2 17 58 3e 2d 33 f1 3d
       -0.13446622 0.40491077 0.21102837 0.11777339
0001d0 cf dd ca 3c 63 99 01 3e 12 d0 a8 be bd 0b 9d bd
       0.02476397 0.12656169 -0.32971245 -0.076682545
0001e0 ce ba fb bd 85 7d e4 3d 86 4c 49 bf d9 a8 f3 bd
       -0.122914895 0.111567535 -0.7863239 -0.118974395
0001f0 15 3c 2c 3e d0 88 4d 3e ad 59 45 bd 38 ff d9 3e
       0.16819794 0.20071721 -0.048181225 0.4257753
000200 2d 32 0f 3e 48 cb e5 be a0 3d 85 3d 21 a3 a9 3d
       0.13983984 -0.44881654 0.06505895 0.082830675
000210 5e 63 b8 bd 3c 5a b2 3e af a3 dd 3c c0 e5 06 3d
       -0.09003328 0.34834468 0.02705559 0.03293395
000220 fa 40 fd 3d 76 79 55 3e eb 3d c9 be 4d d8 19 bf
       0.12365909 0.20847115 -0.39305052 -0.60095674
000230 11 4f 45 3e 6a f8 a8 bd b5 2f 2a 3f 9a 9e fe 3c
       0.19268443 -0.08250506 0.66479045 0.031081486
000240 f4 f7 b3 bb 7e 42 a9 bd a3 e4 c6 bc a8 2f a7 be
       -0.005492205 -0.082646355 -0.024278944 -0.32653546
000250 90 1e 27 be b8 e9 d6 3e d9 a2 31 be 36 23 c5 3d
       -0.16320252 0.41975188 -0.17347278 0.096258566
000260 16 60 72 3e 8a a2 b1 be 40 ed f3 bd eb 90 4c be
       0.23669466 -0.3469432 -0.11910486 -0.19977157
000270 b5 d6 f7 bd 26 59 1e be c9 cc 90 3e aa b2 97 3e
       -0.12101499 -0.15463695 0.2828124 0.29628497
000280 69 81 78 be f8 0a 15 be b7 d9 54 bf 8c 36 15 be
       -0.24268116 -0.14554965 -0.83144706 -0.14571589
000290 6c 1c 71 3d 08 da 96 3d af 58 9e 3e 59 9b 89 3d
       0.058864996 0.07365805 0.30927035 0.06719083
0002a0 2d 1c 69 3e 6e 27 f5 be 27 f5 4b 3e b2 07 0f 3e
       0.22764654 -0.47881645 0.19917737 0.1396778
0002b0 34 f8 73 be ac d8 e3 3e fd e0 e5 3d 85 3d 6c 3e
       -0.2382515 0.44501245 0.11224554 0.23070343
0002c0 e5 d6 a8 3e c5 ab f0 3d d5 9d 4e be 5e cf 0b bf
       0.32976452 0.117515124 -0.20177396 -0.5461329
0002d0 e3 d2 91 3d 8e 70 94 bc 37 31 42 3c 69 5d 59 3e
       0.071203016 -0.018120077 0.011852554 0.2122704
0002e0 18 b1 ae be 7d 23 7c 3e d0 8c a0 bd 9f 9f 98 be
       -0.34119487 0.24622913 -0.07839358 -0.2980928
0002f0 cc 0d 6e ba 6b ec 85 3e 5a fd 26 3d c2 3c 74 3d
       -0.00090810354 0.26156935 0.04076896 0.059628256
000300 ff 89 90 3e 70 0b f2 be 49 1f 6d bd cc 22 8b be
       0.28230283 -0.4727435 -0.057891164 -0.27174985
000310 96 95 03 be 6c 37 87 be 84 70 29 3e 40 c6 9f 3d
       -0.12850031 -0.2640947 0.16546828 0.07801485
000320 55 34 20 be d6 e3 45 be 6b a8 0a 3e 2d f4 02 be
       -0.15644963 -0.19325194 0.13540809 -0.12788458
000330 8f 53 4e 3e 4e 5a 0c 3c e5 3d db bd 25 4c b3 be
       0.20149063 0.008566452 -0.10705165 -0.3501903
000340 23 db 91 be 66 ab de bd d0 2c c8 be 7c 25 07 3e
       -0.284875 -0.108725354 -0.3909669 0.13197893
000350 02 b0 6b be a2 82 8c 3e bf 40 10 bd 46 c5 93 3e
       -0.2301636 0.27443415 -0.035217997 0.28861445
000360 b7 e8 60 3e e6 fa 80 bd 49 51 16 3e 06 ff 63 bc
       0.21963774 -0.06297855 0.14679445 -0.013915783
000370 3d d4 fd bd 9d 70 96 3d 0c 09 05 be 40 9d 5b 3e
       -0.12393997 0.07345698 -0.12991732 0.21446705
000380 68 9e 83 be 1c 10 85 3e 18 0f 88 3e 88 4d 00 3f
       -0.25706792 0.25988853 0.26574016 0.50118303
000390 2a 55 b5 3e 55 70 f2 bd 7b a2 bf 3e 3a 96 2e 3e
       0.35416538 -0.11837832 0.3742865 0.17049494
0003a0 50 59 b0 bc ab 2a 1f b9 0c 87 36 3e 1c e0 39 3e
       -0.021526963 -0.00015179317 0.17824954 0.18151897
0003b0 c3 a1 1f 3e 87 4b ec 3d 22 d8 97 bd f3 71 ee ba
       0.15589051 0.11537843 -0.07414271 -0.0018191918
0003c0 5c 43 0b be 22 43 50 3e ef 08 ad 3a 66 23 88 be
       -0.13599914 0.20338109 0.0013201515 -0.26589507
0003d0 fe 96 f1 3c ac b8 96 be ad e6 cc be 1c 5d e2 bd
       0.029490944 -0.29437768 -0.40019742 -0.110529155
0003e0 ef 9e be be fb b9 d2 bc 74 df 8c be fb 30 07 3d
       -0.37230632 -0.025723448 -0.2751423 0.033005696
0003f0 1a 8f d9 bd 0f 30 9e 3e 96 5d 0e 3d 57 8a ad 3e
       -0.106229976 0.3089604 0.03475722 0.33894607

net.6.bias f4 [20]
000000 b6 a3 1a 3e 4c a1 b6 bd da f6 67 3c 95 5f 6a 3e
       0.15101513 -0.08917484 0.014157975 0.22888024
000010 34 92 7a be 49 77 14 be 18 13 75 bd 25 8d a5 3d
       -0.24469835 -0.14498629 -0.059832662 0.08083562
000020 45 03 79 be 04 0c cf bd 90 78 d6 bc d4 dd 49 bd
       -0.24317653 -0.10109714 -0.026180536 -0.049283817
000030 77 b7 c7 3c 10 f6 95 3d 1f 2f cd 3d ba bd 4b bd
       0.024379475 0.07322323 0.10018753 -0.049741484
000040 0c a8 64 3d 59 d0 2b 3d ed a8 f9 3d d2 f7 43 3e
       0.055824324 0.041946743 0.12190423 0.19137505

net.8.weight f4 [1, 20]
000000 95 c7 06 bf 4e 97 40 be e5 f5 bc 3e fe fa cc be
       -0.5264829 -0.18807718 0.36906353 -0.40035242
000010 62 66 df 3e 2e 42 f3 3e d2 ca 0a 3f bf 22 29 bf
       0.436328 0.4751143 0.5421573 -0.66068643
000020 e4 44 ea 3e 17 30 82 be 8a 20 c6 be b9 79 b1 3e
       0.45755684 -0.25427315 -0.386967 0.3466318
000030 cd 23 cb be 78 c7 0c bf c1 8b 12 bf 13 cc ef 3e
       -0.3967575 -0.54991865 -0.572445 0.46835384
000040 4b 70 87 3e 3e e2 7f be 72 82 f2 be 44 5d eb be
       0.2645286 -0.24988648 -0.47365147 -0.45969594
