Code/Trained models/m_v0_500_norm_4001.pth (torch, 9490 bytes, 9 tensors)

net.0.weight f4 [20, 6]
0.3262382 0.111091726 -0.06058118 -0.38406378 0.29759735 -0.38689214 0.4605386 -0.037886668
0.074648105 0.098671034 -0.13662031 0.15182753 -0.03872089 0.18590632 -0.097718924 0.1047339
0.42639172 -0.020336483 0.7558731 -0.044438846 0.07714163 -0.097236685 0.43693772 0.09297364
0.45071003 -0.09154119 -0.062564045 0.092988536 0.090779364 -0.1267262 0.74035263 -0.015616644
-0.19154452 0.02877599 -0.1012301 -0.034806065 0.42160508 0.015194134 -0.3190761 -0.23958515
-0.03724611 0.1783444 0.5009199 0.15957446 0.075674295 0.056174472 0.20409396 0.023067297
-0.7334223 -0.0066931755 -0.13154143 -0.026494378 0.18642455 0.05745616 0.6112485 0.044921786
0.018778108 -0.14890283 -0.45711607 -0.08954322 0.28248984 0.123422 0.3234168 -0.16289823
0.0015607653 -0.12159348 0.121774636 0.11753616 0.060541682 0.0884112 -0.017791657 0.03806502
0.28282878 -0.12576382 0.022281261 -0.12237348 -0.11091312 0.04930129 0.38152027 -0.024395375
-0.22416815 -0.08025339 -0.3206023 0.114924185 -0.63715124 0.07065768 0.07488637 0.08116606
0.06268658 0.23861001 -0.32625556 0.25691473 0.24670602 -0.12548502 -0.0047173435 0.006868596
-0.4419055 -0.16785888 -0.2849007 0.3143619 -0.35773817 -0.11584324 -0.67506886 -0.042386718
0.15789321 0.42377388 -0.2812876 -0.060452208 0.3983152 0.050222017 0.042022455 0.17061824
-0.2643705 -0.19378728 0.7880435 -0.013559662 0.03582043 0.055971567 0.29389802 -0.07069698
00000000: b108 a73e 0f84 e33d f923 78bd 02a4 c4be
00000010: ae5e 983e ba16 c6be b7cb eb3e 0d2f 1bbd
00000020: 1be1 983d 0a14 ca3d 32e6 0bbe ad78 1b3e
00000030: cc99 1ebd 3a5e 3e3e dc20 c8bd ba7e d63d
00000040: 0450 da3e b298 a6bc e680 413f 8205 36bd
00000050: 6efc 9d3d 0724 c7bd 4db6 df3e f768 be3d
00000060: 77c3 e63e f379 bbbd 9421 80bd c670 be3d
00000070: 88ea b93d 83c4 01be c087 3d3f f4dc 7fbc
00000080: 3f24 44be a0bb eb3c ba51 cfbd ce90 0ebd
00000090: 9fdc d73e d1f0 783c f15d a3be cf55 75be
000000a0: 618f 18bd ea9f 363e 493c 003f 7d67 233e
000000b0: 20fb 9a3d 3417 663d 02fe 503e a1f7 bc3c
000000c0: 90c1 3bbf 6d52 dbbb ccb2 06be bd0a d9bc
000000d0: 14e6 3e3e 2757 6b3d c87a 1c3f e8ff 373d
000000e0: 8cd4 993c fc79 18be 1e0b eabe 7062 b7bd
000000f0: 82a2 903e acc4 fc3d e396 a53e cbce 26be
00000100: 9892 cc3a 0106 f9bd fb64 f93d ccb6 f03d
00000110: 8efa 773d ee10 b53d cfbf 91bc 11ea 1b3d
00000120: efce 903e 3bc8 00be 3187 b63c f29e fabd
00000130: 6b26 e3bd 26f0 493d a056 c33e cfd8 c7bc
00000140: 568c 65be e45b a4bd fc25 a4be 5f5d eb3d
00000150: 581c 23bf f9b4 903d 065e 993d 643a a63d
00000160: d261 803d 2f56 743e f80a a7be 548a 833e
00000170: 81a0 7c3e 257f 00be f293 9abb f611 e13b
00000180: 7041 e2be 33e3 2bbe 81de 91be 0bf4 a03e
00000190: 7529 b7be 383f edbd 50d1 2cbf b29d 2dbd
000001a0: c2ae 213e e4f8 d83e ee04 90be bc9c 77bd
000001b0: f8ef cb3e 9ab5 4d3d bd1f 2c3d 8cb6 2e3e
000001c0: 925b 87be 2c70 46be 38bd 493f 5829 5ebc
000001d0: 71b8 123d 7142 653d cd79 963e 94c9 90bd

net.0.bias f4 [20]
-0.45060202 -0.15429884 0.05894268 -0.0295119 0.31579623 -0.021534707 0.08398939 -0.42044395
0.12533607 0.34568617 0.2295912 -0.1645953 -0.18302852 0.07222559 -0.24158223 -0.17788951
-0.399915 0.1563342 0.27126864 0.21018276
00000000: 4fb5 e6be 8400 1ebe e16d 713d f1c2 f1bc
00000010: 0bb0 a13e 8e69 b0bc a102 ac3d 6e44 d7be
00000020: 1958 003e c7fd b03e f519 6b3e ac8b 28be
00000030: d46b 3bbe 03eb 933d 5561 77be ab28 36be
00000040: a9c1 ccbe 1316 203e b9e3 8a3e 263a 573e

net.2.weight f4 [20, 20]
0.09934463 -0.14894973 -0.18292604 -0.32259017 -0.3858057 -0.4840257 -0.0023663042 -0.3479807
0.39793602 -0.4035778 0.06762377 -0.038646437 -0.049658287 -0.43571422 0.20814438 0.06835189
0.14469035 -0.24719784 0.034901213 -0.42679733 0.035347503 -0.17410448 0.11599693 -0.2890511
-0.46519747 -0.358241 -0.31517816 -0.11228684 0.40096202 -0.30269226 -0.2823029 -0.0756476
-0.105371155 -0.17762288 0.087519184 0.07270829 0.14320953 -0.21895827 0.011898515 -0.36332625
-0.11430067 0.108577974 0.123560525 0.6394518 0.19673964 0.43687788 0.14714547 0.1854821
-0.49693146 0.29422322 -0.059233077 -0.07291698 0.18425085 0.7056705 -0.22604164 -0.10153089
-0.18874447 0.02539548 -0.008228625 0.23413688 0.0923561 0.0033871194 0.1327803 0.19376433
0.2056456 0.32869306 0.6434133 0.09162948 -0.1820957 0.30627468 0.4538694 -0.06584935
0.21846975 0.4140652 -0.0012347916 -0.11642265 -0.32106072 -0.31323797 -0.08908087 0.10663023
-0.04062582 0.25931808 -0.17400329 0.16754726 0.070479885 0.48536655 0.33162332 0.094464734
-0.2662697 0.06118855 -0.029326791 0.2843979 0.07781977 0.27682418 0.019593846 0.09565519
-0.03179564 -0.048787717 -0.02338495 0.39085287 -0.0141260885 0.26186064 0.016301341 0.3709822
0.4602696 0.43601114 0.28014725 0.48318085 -0.3138895 0.3620641 0.3500862 0.14723846
-0.030008314 0.46694198 -0.07173737 -0.12781782 0.119585834 -0.057449605 0.31566742 0.5767036
-0.14931129 -0.28379267 -0.24838564 -0.34599376 -0.44219035 -0.41857937 -0.1641009 -0.11390909
0.47459823 -0.20932554 -0.12357932 -0.2828465 -0.07411259 -0.23592067 0.21313643 0.112475
0.13378288 -0.1472401 -0.28667557 -0.5239595 0.067929275 0.04019965 -0.16351297 0.19577163
0.05500251 0.15104944 0.15670857 0.19843192 -0.33777854 -0.07756957 0.023352139 -0.11878669
-0.2603878 0.34900808 -0.13031748 -0.13216184 -0.14152047 -0.14437796 0.20219739 0.08079434
-0.2755584 -0.1646921 0.27216673 -0.5225285 -0.25426048 -0.34860232 -0.43797576 0.01581863
0.3937941 -0.36496225 -0.18295619 0.006365507 -0.38660467 -0.21184577 0.26921135 0.22729436
0.033076514 0.058555223 0.046068788 -0.00060804706 -0.22770046 0.13994685 0.349705 -0.39849585
0.06823766 -0.10368434 0.07415167 0.045093298 -0.07006941 0.061868846 0.3540731 0.19415604
-0.26089367 -0.5155477 0.45490837 0.25454703 -0.07574572 0.13969053 0.16218735 -0.13426673
0.024229383 0.13833773 0.022255743 0.012833472 -0.34696263 0.04228691 0.3412528 0.10202491
0.19910152 -0.091209784 -0.010268879 -0.15100771 0.07543877 0.39732933 -0.08263082 0.3586808
-0.45578733 -0.34363684 -0.31326166 0.10236315 0.20973763 -0.26983613 -0.051118985 0.18531483
-0.4616051 -0.021929843 0.23567207 -0.14045297 0.39101154 0.075061105 -0.0065276036 0.0040528616
0.23367423 0.124118105 -0.33686095 0.16086385 -0.3937216 -0.11911859 -0.20579667 -0.17422916
-0.026084412 -0.37699565 0.07217105 -0.30147594 -0.2301962 -0.4602788 -0.26875713 -0.33984992
0.54539126 -0.31916556 0.0052671432 0.124673344 -0.1723626 -0.34627494 -0.04209254 0.20120375
00000000: 3375 cb3d 4786 18be f750 3bbe 8a2a a5be
00000010: 5388 c5be 37d2 f7be ff13 1bbb 872a b2be
00000020: 45be cb3e c0a1 cebe 557e 8a3d ba4b 1ebd
00000030: 7d66 4bbd ef15 dfbe cd23 553e 13fc 8b3d
00000040: b529 143e 6e21 7dbe 93f4 0e3d 2e85 dabe
00000050: 8bc8 103d 7248 32be cc8f ed3d 81fe 93be
00000060: 5d2e eebe 5d6b b7be 085f a1be a5f6 e5bd
00000070: e54a cd3e 7bfa 9abe 018a 90be 21ed 9abd
00000080: d5cc d7bd c6e2 35be 423d b33d 15e8 943d
00000090: 85a5 123e 9936 60be fdf1 423c e605 babe
000000a0: 7816 eabd 215e de3d 4d0d fd3d 1db3 233f
000000b0: 1e76 493e 75ae df3e 4dad 163e 05ef 3d3e
000000c0: cd6d febe 6da4 963e 629e 72bd 7f55 95bd
000000d0: 41ac 3c3e d2a6 343f 7677 67be 6def cfbd
000000e0: 3b46 41be 2f0a d03c 5bd1 06bc 94c1 6f3e
000000f0: 3225 bd3d 6ffa 5d3b 8ff7 073e 286a 463e
00000100: c394 523e 754a a83e bcb6 243f 3da8 bb3d
00000110: 4c77 3abe 09d0 9c3e 9261 e83e 06dc 86bd
00000120: 89b6 5f3e 5b00 d43e bbd8 a1ba 006f eebd
00000130: 1262 a4be ba60 a0be 0870 b6bd f360 da3d
00000140: 4367 26bd 57c5 843e eb2d 32be 8291 2b3e
00000150: c257 903d f781 f83e 88ca a93e ba76 c13d
00000160: 8154 88be d8a0 7a3d bd3e f0bc 9a9c 913e
00000170: f95f 9f3d e6bb 8d3e 4683 a03c dee6 c33d
00000180: 253c 02bd a1d5 47bd cb91 bfbc de1d c83e
00000190: 1c71 67bc 9912 863e 648a 853c 61f1 bd3e
000001a0: 75a8 eb3e da3c df3e 766f 8f3e 7b63 f73e
000001b0: 20b6 a0be 7760 b93e 803e b33e aec5 163e
000001c0: ffd3 f5bc 0513 ef3e 0beb 92bd ade2 02be
000001d0: 6be9 f43d 4750 6bbd 299f a13e d9a2 133f
000001e0: 0fe5 18be 464d 91be ce58 7ebe 1826 b1be
000001f0: c666 e2be 0950 d6be 110a 28be 2b49 e9bd
00000200: 8afe f23e 6f59 56be 2817 fdbd 42d1 90be
00000210: 57c8 97bd 3095 71be 7040 5a3e 4b59 e63d
00000220: 61fe 083e 1cc6 16be 24c7 92be 3622 06bf
00000230: 811e 8b3d 63a8 243d f26f 27be 5c78 483e
00000240: 504a 613d b4ac 1a3e 3678 203e bd31 4b3e
00000250: 4ff1 acbe cbdc 9ebd fc4c bf3c 7046 f3bd
00000260: 8d51 85be 30b1 b23e f271 05be 6f55 07be
00000270: beea 10be d1d7 13be d50c 4f3e 8177 a53d
00000280: fe15 8dbe 0ca5 28be 7059 8b3e 6ec4 05bf
00000290: 6e2e 82be 017c b2be 5c3e e0be 1296 813c
000002a0: 619f c93e 55dc babe de58 3bbe be95 d03b
000002b0: 0cf1 c5be 19ee 58be 12d6 893e dabf 683e
000002c0: 3d7b 073d 9ad7 6f3d a0b2 3c3d 5965 1fba
000002d0: 4f2a 69be 3a4e 0f3e 890c b33e a607 ccbe
000002e0: 30c0 8b3d 7558 d4bd d5dc 973d c0b3 383d
000002f0: 8d80 8fbd 306a 7d3d 1249 b53e d7d0 463e
00000300: db93 85be effa 03bf c0e9 e83e fd53 823e
00000310: 9220 9bbd 090b 0f3e 7114 263e 387d 09be
00000320: b37c c63c 68a8 0d3e ad51 b63c 7c43 523c
00000330: 16a5 b1be 0a35 2d3d b0b8 ae3e 70f2 d03d
00000340: 45e1 4b3e 32cc babd cd3e 28bc c4a1 1abe
00000350: a47f 9a3d c06e cb3e 593a a9bd 03a5 b73e
00000360: f55c e9be 2bf1 afbe d563 a0be c5a3 d13d
00000370: 76c5 563e f627 8abe 2462 51bd 2cc3 3d3e
00000380: 8157 ecbe 37a6 b3bc 0554 713e e7d2 0fbe
00000390: aa32 c83e a3b9 993d 82e5 d5bb decd 843b
000003a0: 4c48 6f3e a231 fe3d 0a79 acbe 7eb9 243e
000003b0: e195 c9be 73f4 f3bd 5dbc 52be 2169 32be
000003c0: faae d5bc 9305 c1be 6ace 933d 0e5b 9abe
000003d0: 8db8 6bbe aaa9 ebbe 899a 89be cf00 aebe
000003e0: c39e 0b3f ab69 a3be 0098 ac3b bd54 ff3d
000003f0: d27f 30be f34a b1be 3a69 2cbd 5b08 4e3e

net.2.bias f4 [20]
-0.07952208 -0.19187975 -0.22609153 -0.29592392 0.0966107 0.11977768 0.01810595 0.22765908
0.27393714 0.14676367 -0.17821501 -0.090295434 -0.06169627 -0.2214405 -0.20237939 0.069626324
0.20323366 0.023753786 -0.14887382 -0.29077664
00000000: 79dc a2bd 207c 44be 8a84 67be 5783 97be
00000010: d5db c53d 004e f53d ee52 943c 761f 693e
00000020: 7d41 8c3e 3749 163e ff7d 36be d0ec b8bd
00000030: 3ab5 7cbd 4cc1 62be 8b3c 4fbe 3f98 8e3d
00000040: 7c1c 503e 4d97 c23c 6172 18be ade0 94be

net.4.weight f4 [20, 20]
-0.13553792 -0.17035791 0.17683496 0.10330953 0.26784736 -0.04350868 0.0973366 -0.15443066
-0.009764626 0.08348107 -0.19074845 0.016781187 -0.32483873 -0.005337979 0.09174811 -0.13593836
0.25687376 -0.061056476 -0.06352075 0.036972895 -0.08713175 0.28933638 -0.032702416 -0.22094622
-0.02220791 0.16296548 -0.06985177 -0.072768845 0.23871388 -0.1890801 0.15988143 0.08081688
0.16588026 0.28121144 -0.23559047 -0.059272774 0.027662354 0.12849283 0.09492237 -0.1710307
0.2290603 -0.032983247 -0.20669404 -0.012043002 -0.117237814 0.014402765 0.056843832 0.30090427
-0.21925746 0.10813774 -0.10970889 -0.2029774 0.04354711 0.4563241 0.6189428 0.29941776
0.45338118 0.21649866 0.21069205 0.043839145 0.020859305 -0.024832075 0.1381833 0.34224743
0.03756632 -0.10568197 0.21176355 -0.2798083 0.22407752 0.19654521 0.119925186 -0.06818589
-0.20366395 -0.13891722 -0.43861097 0.24958083 0.14737982 -0.28434172 -0.10657163 -0.2488549
-0.11573819 -0.6086567 0.77542084 0.62977844 0.5361182 0.42482153 -0.19724686 0.087415226
-0.41528633 -0.18873146 0.3212467 0.07949732 -0.4198283 0.22630464 0.54084516 -0.3646138
0.33796632 0.24969618 -0.43662766 -0.053482905 -0.4479749 -0.41145042 0.43628368 0.26167518
0.21533303 0.31931806 -0.5276886 -0.042431492 -0.021985348 0.3259203 -0.11097481 -0.23982106
-0.35037613 0.023978993 0.2817076 -0.31437477 0.470938 -0.0584203 -0.2924036 0.04375011
-0.32424513 -0.3073793 0.3822857 0.19616689 0.41113386 0.23535536 -0.3654008 0.32671028
-0.65338767 -0.26132438 -0.1454267 -0.0673009 -0.40082464 0.010415899 0.43966523 -0.46166417
0.26594722 0.04347928 -0.20187712 0.32339868 0.369661 0.18092665 -0.50049627 -0.426232
-0.4003147 -0.0013972006 0.18616328 0.0579364 0.42224103 -0.07636164 0.13494793 0.14790598
0.30390492 0.032507084 -0.5098011 0.29502186 -0.45848137 -0.19812784 0.14421901 0.035905678
0.2292532 0.34542084 -0.6210282 -0.6965409 -0.3712115 -0.104314305 0.03608614 -0.032292645
1.3418262 0.087418124 -0.23315354 -0.42596796 0.13589442 -0.7169136 -0.988204 0.21102776
0.5253756 0.057213075 0.014125281 -0.10879749 -0.11166296 -0.1454376 0.10598278 -0.06061567
0.1493973 -0.14162436 -0.19954717 -0.028603956 0.009651827 0.07743723 -0.3073484 -0.27130046
-0.17599513 -0.26743957 0.06346493 0.018792758 0.049908727 -0.20071955 -0.14358671 -0.47987315
-0.36941755 -0.28609553 0.47386816 0.15217926 0.22889082 0.07162689 -0.23742096 -0.09159141
-0.061428923 0.18561736 0.009490874 0.17760673 0.015108797 0.1899499 0.25961456 -0.34220126
-0.030335762 -0.15291925 -0.08596426 -0.17009993 -0.0018833176 0.034105066 -0.15067713 -0.05140644
-0.008062597 -0.17999439 0.25569865 0.048311405 -0.09220856 -0.0545599 0.4601391 0.2855872
-0.08606911 -0.012901211 -0.035124548 0.097592466 -0.14674124 0.1512013 -0.0732143 -0.07661265
-0.29377005 -0.14640406 -0.021349354 -0.1020312 0.18735951 -0.03623005 -0.32654476 -0.06441167
-0.13482018 0.31859785 -0.034541663 -0.21160051 -0.12854369 -0.057972435 0.03305017 -0.30528924
00000000: 74ca 0abe 4e72 2ebe 3914 353e f293 d33d
00000010: 4a23 893e 2836 32bd 6958 c73d 1223 1ebe
00000020: cffb 1fbc 20f8 aa3d 9053 43be b378 893c
00000030: 4351 a6be 37ea aebb 6fe6 bb3d 6d33 0bbe
00000040: f584 833e 5b16 7abd 2b17 82bd e470 173d
00000050: 2272 b2bd e623 943e f8f2 05bd ba3f 62be
00000060: 5ded b5bc 6ce0 263e 720e 8fbd d507 95bd
00000070: 6971 743e 379e 41be f5b7 233e 5283 a53d
00000080: 84dc 293e f2fa 8f3e a13e 71be 02c8 72bd
00000090: 299c e23c a093 033e a966 c23d ac22 2fbe
000000a0: c98e 6a3e 7119 07bd 9aa7 53be 0350 45bc
000000b0: 611a f0bd 93f9 6b3c 14d5 683d 2010 9a3e
000000c0: 0785 60be 5277 dd3d 0eaf e0bd 4fd9 4fbe
000000d0: 745e 323d 50a3 e93e 0973 1e3f 494d 993e
000000e0: 9421 e83e d3b1 5d3e a8bf 573e ad90 333d
000000f0: 22e1 aa3c a36c cbbc ec7f 0d3e 0e3b af3e
00000100: 24df 193d ca6f d8bd 8bd8 583e 0943 8fbe
00000110: 9474 653e 2643 493e 569b f53d 0ba5 8bbd
00000120: 488d 50be 5140 0ebe 9e91 e0be 1e92 7f3e
00000130: bcea 163e 3d95 91be 3a42 dabd d2d3 7ebe
00000140: 2508 edbd edd0 1bbf fb81 463f 2939 213f
00000150: 0b3f 093f 3582 d93e 15fb 49be c106 b33d
00000160: 69a0 d4be d242 41be 737a a43e 7ecf a23d
00000170: bcf3 d6be 67bc 673e d474 0a3f a9ae babe
00000180: ec09 ad3e 5bb0 7f3e a98d dfbe e410 5bbd
00000190: f75c e5be a1a9 d2be 9360 df3e 4afa 853e
000001a0: 4380 5c3e a87d a33e 9a16 07bf a5cc 2dbd
000001b0: 9e1a b4bc 07df a63e c346 e3bd a793 75be
000001c0: 8064 b3be 986f c43c fb3b 903e bbf5 a0be
000001d0: c91e f13e 204a 6fbd edb5 95be 5133 333d
000001e0: 7503 a6be d260 9dbe f4ba c33e f9df 483e
000001f0: 2380 d23e ff00 713e d015 bbbe 9246 a73e
00000200: 6a44 27bf 4fcc 85be bdea 14be 0ed5 89bd
00000210: e338 cdbe 72a7 2a3c cd1b e13e 3f5f ecbe
00000220: 3c2a 883e 5417 323d e0b8 4ebe 8394 a53e
00000230: 3544 bd3e d644 393e 8620 00bf 153b dabe
00000240: 0cf6 ccbe 4622 b7ba 96a1 3e3e b84e 6d3d
00000250: fa2f d83e 7e63 9cbd ca2f 0a3e aa74 173e
00000260: 6d99 9b3e 2626 053d 5382 02bf 1b0d 973e
00000270: 12be eabe 06e2 4abe 26ae 133e d511 133d
00000280: 5ac1 6a3e 00db b03e b4fb 1ebf 8150 32bf
00000290: 6f0f bebe bda2 d5bd 0fcf 133d 4b45 04bd
000002a0: f6c0 ab3f 4608 b33d cdbf 6ebe 7918 dabe
000002b0: e827 0b3e a687 37bf f0fa 7cbf a917 583e
000002c0: 047f 063f 4258 6a3d b96d 673c 38d1 debd
000002d0: 8daf e4bd 98ed 14be 800d d93d 2348 78bd
000002e0: 9bfb 183e fa05 11be 1856 4cbe d852 eabc
000002f0: b222 1e3c 6997 9e3d c55c 9dbe e5e7 8abe
00000300: 1138 34be d7ed 88be e7f9 813d 45f3 993c
00000310: 186d 4c3d 6d89 4dbe 6508 13be efb1 f5be
00000320: 4c24 bdbe 1d7b 92be d99e f23e e1d4 1b3e
00000330: 5b62 6a3e 1eb1 923d 7b1e 73be 4794 bbbd
00000340: e59c 7bbd 7a12 3e3e 9c7f 1b3c 8ade 353e
00000350: e38a 773c 3a82 423e 33ec 843e 0135 afbe
00000360: b482 f8bc dd96 1cbe 080e b0bd ad2e 2ebe
00000370: a7d9 f6ba c1b1 0b3d 1b4b 1abe 8f8f 52bd
00000380: fc18 04bc 7350 38be efea 823e 2ee2 453d
00000390: d7d7 bcbd 347a 5fbd 5a97 eb3e 7c38 923e
000003a0: 0045 b0bd 9a5f 53bc c2de 0fbd 8fde c73d
000003b0: 5643 16be 83d4 1a3e 61f1 95bd 18e7 9cbd
000003c0: 0769 96be f2ea 15be d7e4 aebc bcf5 d0bd
000003d0: 2cdb 3f3e f665 14bd e030 a7be 44ea 83bd
000003e0: 4d0e 0abe 421f a33e 8f7b 0dbd cead 58be
000003f0: f5a0 03be 8174 6dbd 9d5f 073d df4e 9cbe

net.4.bias f4 [20]
0.22131775 -0.07358755 0.31345534 0.23626436 -0.2120923 0.084537916 0.14164726 -0.13496701
0.36527175 -0.13510078 -0.10172934 -0.41617075 0.017843861 0.14950314 -0.1587976 -0.12500302
0.36724824 0.1990326 0.1991106 -0.22570588
00000000: 1fa1 623e 12b5 96bd 387d a03e 49ef 713e
00000010: b92e 59be 3722 ad3d fb0b 113e cb34 0abe
00000020: e604 bb3e dc57 0abe 7957 d0bd 5514 d5be
00000030: 4a2d 923c 5a17 193e d79b 22be cb00 00be
00000040: f607 bc3e 34cf 4b3e a6e3 4b3e 711f 67be

net.6.weight f4 [20, 20]
-0.089979045 -0.269263 0.32851812 -0.15532158 -0.1572793 -0.3789552 -0.027919823 0.04485076
0.23701581 -0.04867517 -0.19620283 0.22509143 -0.086395115 -0.38585868 0.17096452 -0.31570047
0.09434506 0.079007074 -0.11219725 0.029617943 0.074144505 -0.0967029 -0.01418243 -0.48653272
-0.7362174 0.27174836 -0.29880208 0.12481486 0.87137413 0.002450472 -0.43165773 0.05175564
-0.102355406 0.5192301 0.64107156 0.23558615 -0.4173229 0.1337453 0.7025517 -0.010277398
0.2824428 -0.38695073 -0.13393672 0.4265396 0.3668429 0.031457696 0.33930916 -0.3464821
0.06869375 0.25722197 0.21773744 -0.17995268 0.10449422 -0.43934587 0.088654056 -0.18514758
0.3025932 0.2002925 -0.22544967 -0.2568775 0.05448782 0.2714516 -0.38093388 -0.053687457
-0.16259815 0.1392581 -0.35669404 0.12054636 -0.06634853 0.059074387 0.18149851 0.0219556
0.11113588 0.22340715 0.5523662 0.048813276 -0.48325905 0.03259851 0.33903542 0.13936289
-0.08870419 -0.20492442 -0.08782167 0.019697273 -0.28634337 0.11021111 -0.04024712 0.20080036
0.24247733 0.0042325263 0.08869686 0.08407698 -0.036659762 0.2920586 0.30809364 -0.07675538
-0.31617606 -0.13639435 -0.056423265 0.007601508 0.1239284 -0.012804753 0.42844322 0.045699485
0.20752566 -0.23617235 0.22052637 -0.18730082 -0.019398272 -0.08359986 -0.07107196 -0.007861524
0.17084546 -0.27186856 -0.112630926 -0.0915226 0.5980338 0.16919534 -0.11922611 -0.1626083
-0.12679107 -0.12947963 0.3452487 0.30872628 0.29192123 0.016094983 0.2416279 -0.1548812
-0.20613104 -0.020855369 0.21812215 -0.017369172 0.12236084 -0.47547406 -0.29630628 -0.123084426
0.52125925 0.14081518 -0.20487738 -0.32660726 -0.09267569 -0.10629306 -0.47236624 -0.17070967
-0.317507 0.34298688 -0.2681609 0.20009877 0.24018727 -0.25274304 0.16412576 0.059213202
0.013280581 0.44192216 0.33238858 0.01716878 -0.2831093 -0.03656353 0.15758504 0.27007395
-0.13791604 -0.070156686 0.19755507 -0.17413372 -0.44892764 0.29843873 -0.23782746 -0.043558173
0.41856173 -0.11290827 -0.15047339 0.005374961 -0.023876308 0.19429685 0.2819981 0.023995565
-0.39408943 -0.1781138 0.3506947 0.0076910034 -0.25192192 0.15171407 -0.22027396 -0.31704658
-0.36262476 0.023113498 -0.47636577 0.38541523 0.1578672 -0.15417926 -0.067286156 0.20212626
-0.29388803 0.2319323 -0.011755787 0.22632843 -0.30321327 -0.23167802 0.46956033 -0.041412737
0.3445234 -0.322033 -0.021358464 0.33592173 0.1866389 0.014859886 0.08275458 -0.21068135
-0.43505517 0.14969257 0.34190106 0.14222041 0.20619412 -0.42785698 -0.13708192 -0.15259166
0.62401915 -0.046418354 -0.41203246 -0.33116162 0.18373024 0.25479653 -0.34669003 -0.08996534
-0.012153575 0.23172802 0.12788676 -0.10697433 -0.020587383 -0.14870726 0.12001788 -0.25678077
0.054959714 0.530966 0.14918125 0.34083852 0.1546158 0.19706832 0.33328396 0.07975167
0.2625803 -0.04560734 0.41042766 0.19146916 0.33013016 -0.35242322 0.37790772 -0.5187847
-0.27835137 0.15404557 0.22604446 -0.06396302 0.04309587 -0.18560514 -0.38590115 -0.36913046
00000000: ef46 b8bd d7dc 89be 8733 a83e 9f0c 1fbe
00000010: d30d 21be 6a06 c2be 1db8 e4bc 6eb5 373d
00000020: 46b4 723e 9d5f 47bd 65e9 48be 5e7e 663e
00000030: ecef b0bd 458f c5be 5311 2f3e 7ea3 a1be
00000040: fc37 c13d 76ce a13d acc7 e5bd 54a1 f23c
00000050: 13d9 973d 2c0c c6bd 6c5d 68bc d11a f9be
00000060: be78 3cbf 9a22 8b3e 96fc 98be ef9e ff3d
00000070: 6012 5f3f 1998 203b 3e02 ddbe b9fd 533d
00000080: b69f d1bd 44ec 043f 441d 243f 7f3d 713e
00000090: 59ab d5be 87f4 083e 6eda 333f 8862 28bc
000000a0: 589c 903e 681e c6be b526 09be 6663 da3e
000000b0: d5d2 bb3e c9d9 003d eeb9 ad3e 1a66 b1be
000000c0: 4faf 8c3d 99b2 833e 90f6 5e3e 8445 38be
000000d0: 1101 d63d f1f1 e0be 4290 b53d 5497 3dbe
000000e0: 7fed 9a3e 7a19 4d3e 47dc 66be 7385 83be
000000f0: 9f2e 5f3d b4fb 8a3e c409 c3be 61e7 5bbd
00000100: 2180 26be ad99 0e3e 9aa0 b6be 03e1 f63d
00000110: bde1 87bd fcf7 713d bfda 393e 3bdc b33c
00000120: 359b e33d d8c4 643e df67 0d3f 6ef0 473d
00000130: bb6d f7be 0486 053d 0d96 ad3e 25b5 0e3e
00000140: 8baa b5bd b5d7 51be d9db b3bd 2d5c a13c
00000150: 999b 92be 5db6 e13d 2ada 24bd 9c9e 4d3e
00000160: fa4b 783e 01b1 8a3b b3a6 b53d 8d30 ac3d
00000170: 8c28 16bd b488 953e 73be 9d3e ed31 9dbd
00000180: d4e1 a1be f6aa 0bbe 151c 67bd 1216 f93b
00000190: 2cce fd3d 07cb 51bc e95c db3e 622f 3b3d
000001a0: 9b81 543e 2ad7 71be aad1 613e c9cb 3fbe
000001b0: 20e9 9ebc 6736 abbd 2d8e 91bd 9fcd 00bc
000001c0: 1df2 2e3e 5b32 8bbe 0bab e6bd 3370 bbbd
000001d0: be18 193f 8b41 2d3e d22c f4bd ca82 26be
000001e0: 85d5 01be 4f96 04be 70c4 b03e 5f11 9e3e
000001f0: b376 953e a0d9 833c 4e6d 773e 2d99 1ebe
00000200: 0414 53be e1d8 aabc 6a5b 5f3e cb49 8ebc
00000210: 5298 fa3d 5671 f3be 75b5 97be b013 fcbd
00000220: 3f71 053f db31 103e 60cb 51be 1139 a7be
00000230: c1cc bdbd 2db0 d9bd fdd9 f1be 84ce 2ebe
00000240: 4790 a2be fa9b af3e 634c 89be b1e6 4c3e
00000250: a7f3 753e 8967 81be 9510 283e 8b89 723d
00000260: cb96 593c 9f43 e23e d62e aa3e 8ba5 8c3c
00000270: b4f3 90be a4c3 15bd f95d 213e 2247 8a3e
00000280: dd39 0dbe 4fae 8fbd e04b 4a3e 1c50 32be
00000290: d8d9 e5be f6cc 983e 0b89 73be 0e6a 32bd
000002a0: b94d d63e 733c e7bd b215 1abe 7120 b03b
000002b0: 3f98 c3bc c1f5 463e 0e62 903e 5992 c43c
000002c0: 17c6 c9be 7763 36be 418e b33e d004 fc3b
000002d0: e9fb 80be ef5a 1b3e 7f8f 61be ee53 a2be
000002e0: f4a9 b9be 8558 bd3c 37e6 f3be 2555 c53e
000002f0: f0a7 213e 2be1 1dbe 53cd 89bd 30fa 4e3e
00000300: 7e78 96be a97f 6d3e 589b 40bc a4c2 673e
00000310: c53e 9bbe 013d 6dbe 366a f03e 67a0 29bd
00000320: 5f65 b03e 82e1 a4be f2f7 aebc effd ab3e
00000330: 451e 3f3e e176 733c 3c7b a93d dabc 57be
00000340: 8dbf debe 0249 193e a80d af3e 3aa2 113e
00000350: 8d24 533e 1210 dbbe 345f 0cbe fd40 1cbe
00000360: b8bf 1f3f 2c21 3ebd ebf5 d2be 048e a9be
00000370: c823 3c3e b174 823e 5b81 b1be c03f b8bd
00000380: ca1f 47bc 1c4a 6d3e bff4 023e 5c15 dbbd
00000390: dfa6 a8bc b746 18be efcb f53d c578 83be
000003a0: 701d 613d 63ed 073f f8c2 183e 6382 ae3e
000003b0: 9b53 1e3e 47cc 493e 32a4 aa3e d854 a33d
000003c0: ed70 863e c3ce 3abd 9323 d23e 7e10 443e
000003d0: d206 a93e d170 b4be 1f7d c13e 13cf 04bf
000003e0: 1284 8ebe 1fbe 1d3e 3378 673e 0bff 82bd
000003f0: 4c85 303d 460f 3ebe d694 c5be abfe bcbe

net.6.bias f4 [20]
-0.10417219 -0.18079568 -0.15362506 -0.2610616 -0.11864424 0.26995242 0.091439515 -0.30032748
-0.15603599 -0.0029945474 -0.0023572133 -0.061966483 0.10764524 -0.015334683 -0.028065475 -0.06978424
0.2125391 0.074331634 0.13051401 -0.11713802
00000000: 3b58 d5bd 8122 39be e34f 1dbe dea9 85be
00000010: c0fb f2bd 3437 8a3e a444 bb3d 86c4 99be
00000020: e6c7 1fbe 2b40 44bb 7a7b 1abb 91d0 7dbd
00000030: 1c75 dc3d 523e 7bbc 91e9 e5bc 0aeb 8ebd
00000040: daa3 593e 2f3b 983d 77a5 053e 0fe6 efbd

net.8.weight f4 [1, 20]
-0.30170894 0.38524356 -0.3721338 0.33961546 0.11494046 -0.28170037 -0.52038276 0.3823943
0.48898667 0.5945863 -0.33806625 0.2913575 -0.38639113 -0.38638228 -0.38087583 0.45332402
-0.2890971 0.42258647 0.33504957 0.51337254
00000000: 9879 9abe a53e c53e 5288 bebe 14e2 ad3e
00000010: e765 eb3d 083b 90be ce37 05bf 30c9 c33e
00000020: 765c fa3e cf36 183f 0517 adbe cf2c 953e
00000030: 0fd5 c5be e6d3 c5be 2802 c3be 161a e83e
00000040: 8904 94be 415d d83e 9e8b ab3e 626c 033f
