Code/Trained models/TESTP2.pth (torch, 39962 bytes, 13 tensors)

param_encoder.0.weight f4 [32, 5]
000000 6f 51 fc 3d 91 91 be bd 0c fc 35 3a ae 73 82 3e
       0.1232022 -0.09305108 0.000694216 0.25478882
000010 49 89 88 be d8 5a fa 3d 31 99 df bd 5b 2b af be
       -0.2666724 0.12224358 -0.10917891 -0.34212765
000020 3b 31 49 bd 20 c6 da be cd 94 d5 bd 18 e7 eb bd
       -0.049119215 -0.42729282 -0.10428772 -0.11518687
000030 4f d3 52 bd 94 94 cb 3e 74 50 32 3e 67 56 5f 3e
       -0.05147105 0.39761794 0.17413503 0.21810304
000040 ea a2 26 be a1 9c 15 be f8 ac 6a bf e9 89 b4 be
       -0.16273084 -0.1461053 -0.9167018 -0.35261467
000050 3e 06 df bd 14 37 9b 3d d1 1e e6 3d d6 37 4a 3e
       -0.108898625 0.07578865 0.112363465 0.19747862
000060 78 35 0e bf b9 72 46 3e 81 ab 1d 3e ae 4f 7a 3e
       -0.55550337 0.193797 0.15397455 0.24444458
000070 03 16 03 bf a1 90 47 be 43 df c0 bd f9 d1 56 3d
       -0.5120546 -0.19488765 -0.09417584 0.05244634
000080 52 42 92 3d 0c 34 f2 3e 0a c9 84 3e 01 cf 8f 3b
       0.07141556 0.47305334 0.2593463 0.0043886905
000090 94 d2 62 bd 73 9b 0e 3e 05 c8 59 be a5 3d 2e 3e
       -0.055376604 0.13926487 -0.21267708 0.17015703
0000a0 45 49 dc 3d 76 a0 93 3e 37 10 bc be c0 44 27 be
       0.107561626 0.2883336 -0.3673112 -0.1633482
0000b0 80 1f 3d bd a0 66 84 bd 66 a9 92 3d fe 80 c1 bd
       -0.04617262 -0.06464887 0.071612164 -0.094484314
0000c0 c2 a0 b0 3e 8a ca 30 bf 59 ab b7 bd d5 10 33 bd
       0.34497648 -0.6905905 -0.08968229 -0.043717224
0000d0 8f 8e b0 3d a9 20 0f bf 10 b9 b8 bd c2 8f d8 3c
       0.08620941 -0.5590921 -0.09019673 0.026435737
0000e0 a9 ba 9d bd ef 66 82 3d 72 1c 1c 3f cf 0d 78 3e
       -0.07701618 0.06367289 0.60980904 0.24224018
0000f0 aa aa 60 be de 68 16 3e a2 d0 7d 3d f3 88 aa 3d
       -0.21940103 0.14688441 0.061966546 0.08326902
000100 5f e5 a0 3c de c4 5d be 75 f8 08 be 34 f3 83 3e
       0.019640623 -0.2165713 -0.13376029 0.25771487
000110 51 57 09 3f ee 85 08 be 79 5e bb 3d 1d 20 6e bd
       0.5364886 -0.1333234 0.091488786 -0.058136094
000120 ff 16 9c bd 3c 2e d3 be 62 43 95 3e 1b 03 24 be
       -0.07621574 -0.41246212 0.29152972 -0.1601681
000130 1b e4 44 bc 8d c5 a7 3d cc 7f 16 3e 4c 97 dc be
       -0.012017275 0.08191977 0.14697188 -0.4308418
000140 b0 85 03 3e 6a e2 ef 3b 33 93 82 be 7b b6 d3 bd
       0.12843966 0.007320692 -0.2550293 -0.1033754
000150 32 2d 1f bc fe 79 1a be d2 e8 e9 bd 5d f1 d8 bd
       -0.009715365 -0.15085599 -0.1142136 -0.105929114
000160 e2 41 9d 3c 1b dc e0 bc 7b 51 aa bc a4 7f 42 3e
       0.019196454 -0.027448704 -0.020790806 0.18994004
000170 a3 8f d9 bd 8e 3c 06 3f 7b a0 2c bf e1 6d d0 bc
       -0.106231 0.5243615 -0.67432374 -0.02544302
000180 ba 6e 83 3d 30 5c af bd e7 fe db 3e 3f 62 e7 be
       0.06417604 -0.08562505 0.42967913 -0.45192143
000190 14 38 fc 3c 3d 27 d4 bd 25 de 06 3e 62 e3 88 be
       0.030788459 -0.103590466 0.13170679 -0.2673598
0001a0 70 cf 98 bb 59 7e 5f 3d 96 49 e2 3e e0 f9 9d be
       -0.0046634004 0.054563854 0.44196767 -0.30854702
0001b0 50 a1 9d 3e 9a 78 93 be ac f9 8d bc 8b 50 14 be
       0.30787134 -0.2880295 -0.017330967 -0.1448385
0001c0 dd 85 ee 3d 8c f7 81 3d 74 59 43 3e 9e 7c b7 3c
       0.11646626 0.06346044 0.19077092 0.02239829
0001d0 9e 21 1e bc fd 01 81 3d e6 95 b4 bd b7 88 5e be
       -0.00965157 0.06299207 -0.08817653 -0.2173184
0001e0 9e 97 e9 bd de 08 9c bd 89 98 ca 3d 86 0d da be
       -0.11405872 -0.07618879 0.09892375 -0.42588443
0001f0 48 5f 74 3d 4e 31 79 3c bd 9e b0 bc b4 fc b0 bc
       0.05966118 0.015209509 -0.021560067 -0.021604873
000200 cd 81 80 3e 39 79 69 be ae 1f ec be 90 9c 00 3f
       0.2509903 -0.22800149 -0.4611792 0.50238895
000210 08 c5 c8 3c e8 38 d3 bc 16 d2 9d be 6d 6c 60 3e
       0.024508014 -0.025783971 -0.30824345 0.21916361
000220 3c c4 bd be ef 4a a7 bd a6 18 71 3e 7a 6f 8d be
       -0.37063777 -0.08168589 0.23544559 -0.27624112
000230 48 0a 52 3e b8 25 40 3e 96 e5 39 3e d0 c6 88 3e
       0.20511734 0.18764389 0.18153986 0.26714182
000240 3f 7c 2c be 26 20 77 3d a5 91 95 be bf 33 31 3e
       -0.16844271 0.060333394 -0.2921268 0.17304896
000250 a4 05 c6 bd f0 80 18 3d 4d 97 b9 3e 4c 95 0b be
       -0.096690446 0.03723234 0.36248246 -0.13631171
000260 70 57 9b be 40 1d d0 be 0c 58 52 3e 6d c3 3a 3d
       -0.30340147 -0.40647316 0.205414 0.04559653
000270 9e 1e 18 3e 16 95 38 be a8 0d 6e 3e 56 fd 06 bf
       0.1485543 -0.18025622 0.23247397 -0.5273031

param_encoder.0.bias f4 [32]
000000 b8 6e dd 3e 7e 4a 0a bc 0e d5 c7 be 71 e2 84 be
       0.43248534 -0.008440612 -0.39029735 -0.2595401
000010 e5 60 dd be 8f ad 9c 3d ba 9d bc be 65 c7 65 bd
       -0.43237987 0.07650291 -0.36839086 -0.05609836
000020 7a 91 55 3e ac b1 2d bf 29 54 2c be f6 ab 09 bf
       0.20856276 -0.6784923 -0.1682898 -0.53778017
000030 bd 29 58 3e 53 14 74 be d7 e8 2d 3e 75 e8 0e be
       0.21109672 -0.23835878 0.16983353 -0.13955863
000040 37 73 d2 be 6c 85 da 3e 39 c2 f4 bd 2a 41 2b bf
       -0.41103527 0.42679918 -0.119511075 -0.6689631
000050 bb 81 bd 3e 88 53 ce 3d e8 30 60 3e a5 8a 3b 3e
       0.3701304 0.10074526 0.21893656 0.18314607
000060 e2 47 e6 3e 46 01 d7 3e 4f 42 2b be 69 81 00 bf
       0.44976717 0.4199316 -0.16724513 -0.50197464
000070 e4 8c 8c 3e 5f e6 09 bf f7 47 a9 3e e4 b3 0c be
       0.2745124 -0.53867143 0.33062717 -0.13740498

param_encoder.2.weight f4 [32, 32]
000000 7b c2 2d 3e 23 2d 06 3e 56 81 65 be 35 99 b1 bd
       0.1696872 0.13103156 -0.22412619 -0.086718
000010 70 9a f6 bd 52 15 25 be 7f e8 b6 3d 1d d0 27 be
       -0.12041175 -0.16121414 0.08931064 -0.16387983
000020 a4 1b 06 bd e5 dc 48 be 07 9f 47 ba 28 74 66 bd
       -0.032741204 -0.19615515 -0.00076149445 -0.05626312
000030 33 a3 0e 3e bc 21 f4 3d e0 21 0f ba 7f c1 2a 3e
       0.13929443 0.11920497 -0.0005460065 0.16675375
000040 dd c3 db 3d d0 09 95 3e 4c d1 04 3e de c4 0c bd
       0.10730717 0.2910905 0.12970465 -0.034367435
000050 32 9e 15 3e ec 28 03 3e 5c 9c a4 bd c5 1e 99 3e
       0.14611128 0.12808579 -0.08037636 0.29906288
000060 f7 f1 92 bd 3f 6a 13 3f 22 24 b7 3d 3f aa 37 bd
       -0.071750574 0.57583994 0.08942439 -0.044840094
000070 7d 1b 98 3e c5 24 08 bd 8e fc b0 3d 44 4a 2b be
       0.29708472 -0.03323819 0.08641921 -0.16727549
000080 df d9 ae bd d9 61 14 be 3f 71 a3 bd f8 90 31 3e
       -0.08537649 -0.14490451 -0.07980584 0.17340457
000090 65 c7 34 bc 1c ef db 3d e3 cf 95 3d b1 9e 31 3e
       -0.0110338675 0.10738966 0.07315042 0.17345692
0000a0 45 6b 83 3d 60 fe ee bd 28 76 34 3e e5 54 34 be
       0.064169444 -0.11669612 0.17623198 -0.1761051
0000b0 70 a0 b8 3c 91 d7 82 3d 99 34 f3 3d 9a b2 f4 bd
       0.02253744 0.06388772 0.118752666 -0.11948128
0000c0 35 d5 53 3d d1 12 a2 3d 23 15 08 be 6d 03 6f 3c
       0.051717002 0.07913745 -0.13289313 0.014588219
0000d0 ac 0c 8a bb fc 55 01 3e 4a 01 1f be 58 a0 21 3d
       -0.0042129364 0.12630457 -0.15527835 0.039459556
0000e0 3c af 37 3e be 09 d8 bd 83 e6 21 3e 55 4d 1c bd
       0.1793794 -0.10548733 0.1581059 -0.038159687
0000f0 09 15 b6 3d 65 9d ed bc 43 ec 08 3e 67 7c 33 be
       0.08890731 -0.029005716 0.13371377 -0.17527924
000100 30 02 5e 3d 98 bf b8 bd 4c 30 ee bd 03 45 23 be
       0.054201305 -0.090209186 -0.11630306 -0.15944295
000110 93 9d 62 bd 5e 8b 30 3d 3b b1 ff bd 6f 39 97 3d
       -0.055326056 0.04310166 -0.12484976 0.073840015
000120 c4 e8 5d bd 38 db b8 3a 4f 89 1e bd b3 55 d5 3d
       -0.05417706 0.0014103418 -0.038705166 0.104167365
000130 56 75 0e 3e e0 62 c9 3d 3a 45 f3 bd 45 34 22 3d
       0.13911948 0.09833312 -0.11878438 0.03960063
000140 36 7c 80 be a6 67 17 3e 10 eb 00 be fa 97 d8 bd
       -0.25094765 0.14785632 -0.12589669 -0.10575862
000150 d2 e3 ff 3d 9b 99 15 be 58 3f 80 3d 56 d9 9c bd
       0.12494625 -0.14609377 0.06262082 -0.07658641
000160 07 2b 06 3e fc a4 6f bd 62 b6 fc bc ea 57 89 3d
       0.13102351 -0.05850695 -0.030848686 0.067062214
000170 05 2e b9 bd d7 ae 14 be 3b 1f 50 be 7d b2 11 3e
       -0.09041981 -0.14519821 -0.20324413 0.14228244
000180 7a 06 0e 3e 1f 09 c6 bd 3c 87 4e 3e c2 e1 0d be
       0.13869658 -0.096697085 0.20168775 -0.13855651
000190 31 47 df 3d 15 b4 1f be b2 04 33 3e 51 89 b7 bd
       0.109022506 -0.1559604 0.1748226 -0.08961738
0001a0 61 26 c9 bd 7a 7e 8a 3d ca b8 20 be 54 59 24 3e
       -0.09821773 0.06762405 -0.15695491 0.16049701
0001b0 16 20 bf bd cd cd 81 3d d8 7b d8 3d 96 4b 75 3d
       -0.09332292 0.063380815 0.10570496 0.059886537
0001c0 d5 f9 79 3b ca 04 88 bc 76 bb 2e be 23 93 bb bd
       0.0038143296 -0.016603846 -0.17063698 -0.091589235
0001d0 9d 2c 3d be 4c 03 15 bc 50 dc d5 bd 5f 8d 42 be
       -0.1847405 -0.009095024 -0.10442412 -0.18999241
0001e0 84 f5 8e bd cf d2 1d be 76 7b 8f 3d 94 58 04 bd
       -0.06980422 -0.15412448 0.0700597 -0.032311037
0001f0 c2 58 32 3e d1 81 f4 3d 8b b9 55 bd fb b5 1e bc
       0.17416671 0.11938823 -0.0521789 -0.009686942
000200 99 39 27 be 45 5a 83 3d db d9 d6 bd 0a 0b 13 3e
       -0.16330566 0.06413702 -0.104907714 0.1435968
000210 79 24 21 be d9 60 c4 3b 04 bd c3 bd da 3a f8 bd
       -0.1573657 0.0059929905 -0.09557536 -0.121206
000220 08 66 e0 b9 2c e7 b4 3d 89 15 7f 3d 9b d3 c2 bd
       -0.0004280063 0.08833155 0.062276397 -0.09513017
000230 a5 ef 10 be af 09 5b 3d f8 3b f0 bd 23 07 02 3c
       -0.14153917 0.053476032 -0.11730188 0.007936272
000240 31 57 2a 3e b1 89 33 bd b2 a2 af bd b6 87 20 3d
       0.16634823 -0.043832485 -0.085759535 0.039191924
000250 d5 7c 90 bd 20 08 eb 3c 37 83 b3 3d 10 5f 94 ba
       -0.0705506 0.028690398 0.087652616 -0.0011319835
000260 d3 84 c9 3d 37 50 16 be 5c 7a 09 be 2a f8 22 be
       0.09839787 -0.14679037 -0.13425583 -0.1591498
000270 1c d3 c0 3c 8a 1c 13 be 05 9e fd 3d 54 a3 b9 3d
       0.023538165 -0.14366356 0.123836555 0.090643555
000280 43 37 5a 3d df 0f fc bc ec a0 8a bd 29 e6 54 3c
       0.053275358 -0.030769287 -0.06768975 0.012994328
000290 4c a0 2e be 76 da e0 bd 10 2f 9d bd 9c 59 9b bd
       -0.17053336 -0.10979168 -0.07674992 -0.07585451
0002a0 17 df ea bd 74 bd 82 bc c3 73 46 be 38 59 49 3e
       -0.11468332 -0.015959479 -0.19380097 0.1966294
0002b0 72 29 d0 ba 1a 7a 10 bd 8a e6 ae 3c 69 a8 14 3e
       -0.0015881492 -0.035272695 0.021350164 0.14517368
0002c0 b7 b9 47 3e e6 b4 42 bc 4a 7d 3e bd 33 16 2d bd
       0.19504438 -0.01188395 -0.046506204 -0.0422575
0002d0 cf 51 35 bc e0 b5 fa 3d 0f 54 f3 3d 7f ff 9d 3d
       -0.011066868 0.12241721 0.11881267 0.07714748
0002e0 d1 6b f0 3d 93 67 2d be 9a 32 c5 bd 61 c5 c2 3d
       0.11739314 -0.16934042 -0.09628792 0.09510303
0002f0 1b bb 2f 3d b2 34 34 be 61 49 f8 3d 69 e2 f0 bc
       0.042903047 -0.17598227 0.12123371 -0.029404836
000300 f8 d0 5a 3d db 81 23 3d bc 35 0d 3d b3 49 bc 3d
       0.053421944 0.03991876 0.034475073 0.091937445
000310 b2 c6 18 3d 35 ec 94 3d b7 eb 14 3e 9f cf 8b bd
       0.037298866 0.072716154 0.14543043 -0.0682671
000320 79 71 02 bd 6e d5 1a be 1f 75 bd 3d 47 87 08 be
       -0.031846497 -0.1512048 0.09250855 -0.13332854
000330 b3 e9 f2 bc c0 77 06 be 5e d8 43 3e 73 bf d5 3d
       -0.029652452 -0.13131618 0.19125506 0.10436907
000340 c6 34 0b be 97 c0 f8 3b fe 17 b3 3c a0 bd 62 bd
       -0.1359435 0.007591318 0.021862026 -0.05535662
000350 d2 a4 f2 bd 64 36 a2 bd ca 30 e7 bd c3 cd 76 bd
       -0.11847843 -0.079205304 -0.11288603 -0.060254823
000360 25 b5 3b 3e 31 cd c8 bd fc cc 50 3d f7 a6 5f 3c
       0.1833082 -0.09804762 0.05097674 0.013650647
000370 39 ae 50 bd 18 3e e9 3d 6c c2 d6 3c cb 9c e5 ba
       -0.0509474 0.113887966 0.026215754 -0.0017518041
000380 78 44 df bd f4 33 13 3e 1c 8d 84 bd 1b 17 2b 3c
       -0.10901731 0.14375287 -0.06472227 0.0104425205
000390 0f 5a 83 3c 0b 2d de bd a9 5d f5 bd 5b d3 76 3d
       0.016034154 -0.10848435 -0.11980755 0.060260158
0003a0 15 a9 39 3d 97 ea 0a 3e 0f 38 18 3e 44 01 6f 3c
       0.045327265 0.13566051 0.14865135 0.014587704
0003b0 f7 c7 dd 3e d2 be 82 bb 42 80 25 be a8 e1 75 3d
       0.43316624 -0.0039900327 -0.16162208 0.060029656
0003c0 85 fc 7f be 92 00 81 3d e3 34 48 3e d3 83 8d bd
       -0.24998672 0.06298937 0.19551425 -0.06909909
0003d0 66 b0 ec bb 13 87 88 3d f6 6a 23 be 67 b4 cd 3d
       -0.007223177 0.06666388 -0.15958771 0.10044175
0003e0 13 35 73 3d f4 c3 ab 3c 77 70 54 bc 6a e5 01 3e
       0.059376787 0.020967461 -0.012966267 0.12685171
0003f0 23 43 0f be 2a ea 4f 3d 4c 61 9f bc c1 4b 23 be
       -0.13990454 0.050760426 -0.019455574 -0.15946867

param_encoder.2.bias f4 [32]
000000 99 e1 c8 3d 36 ca f4 bd cf 91 67 bd 49 f4 66 3d
       0.09808654 -0.11952631 -0.05653554 0.056385312
000010 5d 6e de bd 63 2a d0 3d f2 66 0f bd 52 36 91 bd
       -0.10860894 0.101643346 -0.035010286 -0.07090439
000020 9e f9 af 3c be 8f 63 be 28 a8 07 be 0c 27 f1 bc
       0.021481331 -0.22222802 -0.1324774 -0.029437564
000030 07 43 2e be d9 83 51 3e 8d 9b 3a be cb e6 06 3e
       -0.17017756 0.20460452 -0.182234 0.13173978
000040 3d cb e9 3d 2d 42 df bc 6e 51 36 3d a8 be fd bc
       0.11415718 -0.027253235 0.04451125 -0.030974701
000050 ab 6f 64 3e 2c e4 30 3e 88 01 c1 bc a8 d7 46 be
       0.22308223 0.1727454 -0.0235603 -0.19418204
000060 e4 1a 0c be 72 2e 32 be ef 2d 70 3d ef ad 57 be
       -0.13682133 -0.1740053 0.058637556 -0.21062444
000070 25 5b 00 be 93 ea c1 3d a8 e3 29 be ca b3 2c bc
       -0.12534769 0.094685696 -0.1659075 -0.010540912

coord_encoder.0.weight f4 [16, 1]
000000 37 9a fa 3e 4e c6 98 3e 39 16 8e 3f d6 b6 82 3f
       0.48945782 0.29838794 1.1100532 1.0212047
000010 5c ad 44 3f 89 74 43 bf 88 6b 8e be 6a d7 93 3f
       0.76827025 -0.76349694 -0.27816415 1.1550114
000020 1a 8a 40 bf 41 2a 57 bd 94 97 57 3f fc 6d a6 3f
       -0.75210726 -0.05253053 0.84215665 1.3002315
000030 ce 87 10 3f 36 15 21 3f 8b c0 97 3f 91 18 64 3f
       0.5645722 0.6292299 1.1855634 0.89099985

coord_encoder.0.bias f4 [16]
000000 8d ff ff be 40 f8 ae 3e 01 57 ac 3d 22 fe c0 3e
       -0.49999657 0.34173775 0.08415032 0.37693888
000010 6e cb 10 bf a9 92 14 bc 28 4e ca 3e 8f fd 21 3f
       -0.5656041 -0.00906817 0.39512753 0.63277525
000020 77 ea 05 3f f8 ad 3c bf 3f f5 08 3e ef 95 0f be
       0.5231089 -0.73702955 0.13374804 -0.14022039
000030 3a 88 b9 3d 8e 8d 65 3e 45 93 7e 3e 2d 15 1a bf
       0.09059186 0.2241728 0.24860866 -0.6018856

coord_encoder.2.weight f4 [16, 16]
000000 41 b2 8d 3e ac 9e 25 3d 5a 34 7a 3e 4b 58 0b 3e
       0.2767506 0.040434524 0.24434033 0.136079
000010 5a ed 96 3e 32 d7 2f be f0 91 8d 3d a7 75 7c bd
       0.2947796 -0.17171934 0.06912601 -0.06163564
000020 5e 76 e7 bd ba 1b af bc 31 19 65 3d 75 a9 ba 3e
       -0.113018736 -0.021375526 0.055932228 0.3645741
000030 b3 25 bc bd 0c 58 99 bd bf 51 4c be 09 46 d2 3e
       -0.09186878 -0.07487497 -0.19953059 0.41069058
000040 42 10 99 3e d7 dd aa 3c 44 be d0 3d e8 ef 10 3e
       0.29895216 0.020857735 0.1019254 0.14154017
000050 93 cb 46 3e c8 a1 d9 3c 94 5a 81 3d 47 8f 33 3e
       0.19413595 0.026566401 0.063161045 0.17535125
000060 d2 2f ac be 2d b5 ab bd d1 26 d5 bc f9 52 90 be
       -0.33630234 -0.08384166 -0.026019486 -0.28188303
000070 bb 64 95 3d 4a 75 d0 3c 6d c6 bc 3c 75 ce 8a 3e
       0.072946034 0.025446553 0.023043836 0.2711064
000080 a5 80 60 bd b8 6d 42 bd 2f 78 60 3e d7 15 0e 3e
       -0.054810185 -0.047467917 0.21920846 0.13875519
000090 82 66 94 3e 55 70 28 be b9 58 30 be 4c 98 9d bc
       0.28984457 -0.16449101 -0.17221345 -0.01923766
0000a0 78 df f4 be 40 46 15 3e b4 02 06 be 50 8d d0 3e
       -0.47826743 0.1457758 -0.13086969 0.40732813
0000b0 92 a8 87 3b 2c 70 d3 3d 6f 9f a9 3e 6a 58 82 3e
       0.004139968 0.103241295 0.3312945 0.2545808
0000c0 74 74 db 3d 94 95 5f 3d c1 51 66 be d0 ff 19 be
       0.10715571 0.05458601 -0.22492124 -0.15038991
0000d0 c7 81 81 be 45 3a 9f 3e 96 f9 4f bd 82 cf 24 be
       -0.25294325 0.31099144 -0.050775133 -0.16094783
0000e0 b0 16 64 3e d0 d6 d3 bd fe e4 83 be b5 c2 1e be
       0.2227428 -0.103437066 -0.25760645 -0.15503962
0000f0 f0 f9 9e 3d 0e 0e 11 be fa ac 37 be 10 e2 c4 be
       0.077625155 -0.14165518 -0.17937079 -0.38453722
000100 35 9d 56 3d 8f 9b 3f 3c f1 fa 00 3c 93 e3 d7 3d
       0.052396018 0.011694803 0.007872329 0.10541453
000110 8a 6d f3 bd 96 82 84 3e 57 34 2c be 49 1c 1f be
       -0.11886127 0.2588088 -0.16816841 -0.15538134
000120 f7 6d 37 be a9 d1 8f bd b6 74 7e be 7a 59 a4 be
       -0.17913042 -0.070224114 -0.24849209 -0.32099515
000130 b4 93 55 be 37 de 1f be 58 ff a8 be 44 b1 4c 3e
       -0.20857126 -0.15612112 -0.33007312 0.19989496
000140 a0 58 ee bd 56 27 07 3e d8 36 3a bd 3d 23 c4 bd
       -0.116379976 0.13198599 -0.04546246 -0.09577034
000150 34 16 63 be 12 60 92 3d 18 3f ba 3e 2c fc 27 3d
       -0.22176439 0.0714723 0.36376262 0.041011974
000160 49 87 35 3f 65 e8 5d bd 21 92 80 3e dd e4 07 3e
       0.70909554 -0.054176707 0.25111488 0.13270898
000170 0c 9d 35 be 9a 5c 18 be 0e de fd bd 98 c9 28 bf
       -0.1773569 -0.14879075 -0.12395869 -0.6593261
000180 9f b2 d0 be 8d 15 42 3d cb 82 f9 bd 5a 2f 0b 3e
       -0.40761277 0.047383834 -0.1218315 0.13592282
000190 9e c5 ea be 7d 58 47 3e 16 e2 d1 3e c8 ef 98 3e
       -0.45853895 0.1946735 0.40992802 0.2987044
0001a0 b6 56 14 3f 8f 6e a3 be a9 4a 04 be d4 d5 ca bd
       0.5794481 -0.31920287 -0.12919106 -0.09904066
0001b0 37 18 6b be 32 9d cb bd 29 77 19 be a5 be 52 be
       -0.22958456 -0.09942092 -0.14986862 -0.20580538
0001c0 85 68 7b be 19 52 58 be 50 c2 bc be 35 46 13 be
       -0.2455159 -0.21125068 -0.36867 -0.1438225
0001d0 a1 c7 b5 be 93 78 74 bd 15 59 bf 3e 54 77 41 be
       -0.35503867 -0.0596853 0.37372652 -0.18893176
0001e0 83 d3 67 3e 8e 43 35 3c 91 68 17 be 07 8c 46 be
       0.22639279 0.01106347 -0.14785983 -0.19389354
0001f0 5e c5 ec bb 1b a1 47 be e4 74 84 be 33 74 81 be
       -0.0072256764 -0.1949505 -0.2587043 -0.25283965
000200 34 d1 6e be 77 8c c9 bd 6e 45 f6 3d a9 3d b2 bb
       -0.23321992 -0.09841245 0.120249614 -0.0054394794
000210 cd 89 ee bd e4 04 56 be 41 71 bf bd e8 11 56 3e
       -0.11647377 -0.20900303 -0.09347773 0.20905268
000220 59 b7 9f 3d c2 66 59 be d1 bc 16 3e 01 b6 b8 bd
       0.07798643 -0.21230605 0.14720465 -0.090190895
000230 6b 9b 96 3e ab d0 9c 3d 0c 2e 36 bd 92 0d 8c 3e
       0.2941545 0.07656988 -0.044477507 0.27354103
000240 f6 9d e7 3d 44 37 e7 bd 3c a9 dd 3e 60 60 65 3e
       0.113094255 -0.11289838 0.43293178 0.22400045
000250 a4 88 f6 3c 2d d9 5f be 47 00 ab bc d6 0f a1 3e
       0.030094452 -0.2186019 -0.020874156 0.31457394
000260 3f e0 f9 be 0e 89 ae bd 04 e6 fe 3e c7 86 07 3f
       -0.488039 -0.08522235 0.49784863 0.5294003
000270 28 ae 7f 3e f9 fa f9 3d be 26 f9 3e 06 0b 8b 3e
       0.24968779 0.12206072 0.4866237 0.27156848
000280 ee 43 29 3e 9e f8 9c be a8 c2 99 be a2 28 ab bd
       0.1652982 -0.3065843 -0.30031323 -0.083573595
000290 5c ea 1e bd 57 b2 ae 3d 94 05 e7 bd cd a7 96 bc
       -0.03879772 0.085301094 -0.11280361 -0.01839056
0002a0 3a b3 16 be 23 97 a3 bc a3 bb a7 be 04 59 37 be
       -0.14716807 -0.019969529 -0.32760343 -0.1790505
0002b0 70 6d c5 3c 17 4a 01 be ad e7 a7 be 99 25 76 be
       0.024100035 -0.1262592 -0.32793942 -0.2403778
0002c0 4b dd f4 3d ab 56 e1 3c 19 85 7b 3e 47 a4 90 3e
       0.11956271 0.027507147 0.24562491 0.28250334
0002d0 54 86 26 bd ce 9b bc be 04 c8 a8 3d a6 76 b8 3e
       -0.04065545 -0.3683762 0.08241275 0.36028022
0002e0 6d b1 6c be 3c 2c 38 be be b4 7a 3d 82 ee 83 3e
       -0.23114558 -0.17985624 0.061207525 0.25767905
0002f0 a9 6d 2f 3e 5d a9 4a 3e 2f 5e d4 3e 0c 0b fb bd
       0.17131676 0.1979117 0.41478106 -0.122579664
000300 14 6f 58 3e aa 54 94 3e 09 1c 7f bd 46 e8 1e be
       0.21136123 0.28970844 -0.062282596 -0.15518293
000310 c9 3a ca 3e 25 a9 21 3e a3 af 48 bd bb a8 10 be
       0.39497975 0.1578718 -0.048995625 -0.14126866
000320 1a a2 90 be a3 0e 78 be 7f 06 48 3d 3c 0b 18 3d
       -0.28248674 -0.24224333 0.04883432 0.03712009
000330 ef d6 9a 3e 02 36 25 3d be 0a c7 3d c8 93 b1 3e
       0.30242106 0.04033471 0.09718846 0.3468306
000340 0b 9a 54 3e 59 03 dc 3d d6 e7 a8 3d 01 9d 95 3c
       0.20761888 0.10742826 0.08247344 0.018263342
000350 e5 c6 33 bd 84 87 54 be c0 a7 b0 bd d5 48 89 3e
       -0.043890852 -0.2075482 -0.08625746 0.2681338
000360 17 31 67 be 79 0e 0b 3e 98 4d 30 3e 6a 90 ab bd
       -0.2257732 0.1357974 0.172171 -0.08377154
000370 3c 51 86 3e de f6 ef 3d 59 19 37 3d d1 2d 0d 3d
       0.26233852 0.11717008 0.044701908 0.034467522
000380 81 be b5 bd a1 dc 6a bd 1e 41 93 bd d0 86 35 bd
       -0.08874226 -0.057339314 -0.071901545 -0.04431802
000390 16 25 cd 3e ab 43 51 be 28 90 7f be 38 24 f8 bd
       0.40067357 -0.2043597 -0.24957335 -0.12116283
0003a0 c3 5d ea be 01 53 4e 3d 34 c3 73 bd 57 d9 2a bc
       -0.4577466 0.050372127 -0.059512332 -0.010427794
0003b0 f2 23 93 3e 06 be b9 bc 79 99 73 be c5 fd dd 3e
       0.28738362 -0.022673618 -0.23789014 0.43357673
0003c0 27 ad bb bd 77 b0 0a be cf 43 59 3e 05 fd 5d bd
       -0.091638856 -0.13543878 0.21217273 -0.054196376
0003d0 ad 94 64 be ab e2 df 3d e1 fc 9e 3a 40 05 81 3e
       -0.2232234 0.10931905 0.0012129807 0.25199318
0003e0 db cb 98 3e fe 29 42 bc c4 8d be bd c5 74 b7 3d
       0.2984303 -0.011850832 -0.093043834 0.08957819
0003f0 23 01 df 3d e6 36 43 be 21 ea f5 3d e9 8d 3e bd
       0.10888889 -0.19063911 0.12007547 -0.046522055

coord_encoder.2.bias f4 [16]
000000 5d 60 6b 3e 67 fd 31 be f7 54 5f be ec a1 33 bd
       0.22985978 -0.17381822 -0.21809755 -0.043855593
000010 65 87 7c be 6a 47 56 3e a6 f2 b2 3e 90 09 e5 bd
       -0.24661024 0.2092568 0.3495075 -0.111834645
000020 ae d3 8b 3e fe 7c e2 3d 15 28 08 3e ad b6 1c be
       0.27309936 0.110589966 0.1329654 -0.1530406
000030 a6 3a 29 3e 82 25 fe 3d 24 bc 1e 3e f6 43 48 be
       0.16526279 0.12409498 0.15501457 -0.19557175

decoder.0.weight f4 [64, 48]
000000 8d 9c f7 3c ba 40 63 bb f8 6d 45 bc e2 12 63 bc
       0.030226016 -0.0034676031 -0.012050144 -0.0138594825
000010 92 50 5c 3d 22 2e b6 be 61 2b eb bd 4e 65 69 3d
       0.053787775 -0.35582072 -0.11482883 0.056981377
000020 85 68 d4 bc 58 73 e5 3d 72 c0 d7 3d 7a 2c 6e 3d
       -0.025928745 0.11203641 0.10534753 0.058147885
000030 30 13 dc 3d 80 fe 61 bc bf 25 bd 3c 17 81 01 39
       0.10745847 -0.013793588 0.023089288 0.00012350488
000040 49 a3 1f 3e 15 ec 14 3b 7d ea 19 3d 33 07 bb bd
       0.15589632 0.0022723724 0.03757714 -0.091322325
000050 58 18 08 3e bb b3 3e be 14 fa 97 3d a3 fa b7 bc
       0.13290536 -0.18623249 0.074207455 -0.02245838
000060 66 8a a1 bd 10 e2 82 3d 97 67 d0 3d c7 fa 31 be
       -0.078877255 0.06390774 0.10176008 -0.1738082
000070 14 62 2b 3c 70 ad bf bd 84 ab 37 3e 94 74 02 be
       0.010460395 -0.093592525 0.17936522 -0.12739784
000080 7f 7f 89 be d4 8a 56 be 5c 55 75 be fe 7c 69 3e
       -0.26855084 -0.20951396 -0.23958343 0.22801587
000090 38 78 ce 3c 43 71 a1 3d 2f 53 44 3e 7b 1e c4 3d
       0.02520381 0.07882931 0.19172357 0.09576126
0000a0 de 28 16 bc 37 89 e6 bd 98 59 d8 3d d4 de 83 be
       -0.009165017 -0.112566404 0.10563964 -0.25755942
0000b0 60 ee 34 bc 53 f9 73 bd d0 e9 f2 bc 72 c1 33 be
       -0.011043161 -0.059563946 -0.029652506 -0.17554262
0000c0 68 27 3e bc d3 56 b9 3b 71 94 d2 3d 54 2d ff bd
       -0.011606075 0.005656102 0.10282219 -0.124598175
0000d0 2c d6 6a bc b8 21 d1 3d 9c 22 37 3d f5 c8 c4 bd
       -0.014333289 0.102115095 0.04471074 -0.09608642
0000e0 71 67 fc bc 21 0a 24 be 7d b0 b7 3c d2 07 a6 bd
       -0.030811043 -0.16019489 0.022423023 -0.0810696
0000f0 3c 74 07 be 46 24 f4 3d a1 16 cb bd 5f cb 80 3d
       -0.13227934 0.11920981 -0.099164255 0.0628879
000100 cf 2d ae 3d 52 3b 39 3d c3 a8 f5 bd bf 15 ab bd
       0.08504831 0.045222588 -0.11995079 -0.08353757
000110 07 f4 00 be e0 12 43 3c f7 8d 80 3d 88 40 f0 bd
       -0.12593089 0.011906356 0.06277078 -0.11731058
000120 f3 32 7a 3c 0c 77 14 be 6b 52 d3 bd 4d e0 f9 bd
       0.015270936 -0.14498538 -0.10318454 -0.12200985
000130 64 e2 be bc 36 cd 22 3e 1a 5f fc 3d bd dd 48 be
       -0.02330131 0.15898594 0.12322827 -0.19615836
000140 55 42 4d 3e 21 d7 f0 bc 36 3d 2c 3e a8 78 9f bd
       0.20044835 -0.029399456 0.16820225 -0.07786685
000150 ad ac 93 3b df 01 04 3e f0 99 0a be 17 d0 6c bc
       0.0045066685 0.12891339 -0.13535285 -0.014453909
000160 81 7b 0e 3d e3 30 06 be f7 7a d7 bd 97 e9 0e bd
       0.03478575 -0.13104586 -0.105215006 -0.034890737
000170 50 0a a7 3e fe a0 3e 3d c2 7c 38 bd ef db 8a 3d
       0.32625055 0.046540253 -0.045040853 0.0678023
000180 a5 72 a5 bd 5b af 66 bd c8 c4 0a 3e 07 c1 58 be
       -0.08078507 -0.056319576 0.13551629 -0.21167384
000190 c7 fa 4a 3c d8 c6 90 be b9 f5 25 3c ed e7 cd 3d
       0.012388892 -0.28276706 0.010129386 0.10054002
0001a0 e1 64 ce bd 38 37 e4 3c 24 69 67 3d 13 f8 20 bd
       -0.10077835 0.027858362 0.056496754 -0.039299082
0001b0 08 db e1 bd 72 01 c6 3d 25 27 51 3d e5 ca b0 3c
       -0.11028105 0.096682444 0.05106272 0.021581123
0001c0 70 7a 42 3e 62 e3 2c 3e 59 63 35 3d ba 5e 6e bd
       0.18992019 0.16883615 0.0442842 -0.058195807
0001d0 79 06 29 3d 7e 2d 92 bd 66 04 f6 3c 0e 6d fe 3d
       0.04126594 -0.07137583 0.030031394 0.12423144
0001e0 17 9e cc 3d 92 9a 0c 3e b1 50 25 3e 32 09 4b 3d
       0.09991091 0.13730839 0.16144063 0.049569316
0001f0 d0 2d 09 be f9 d8 ec bb d3 4b 5a 3d ae b6 97 bd
       -0.13396382 -0.0072280136 0.053294968 -0.0740789
000200 88 9b d8 bd 58 c0 10 be b5 f7 ac be 93 ef 85 3d
       -0.1057654 -0.14135873 -0.33782735 0.06539836
000210 5a 6d 02 3e 3b 75 f0 3d 3c 35 a5 3d 5f cf 4a 3e
       0.12737027 0.1174111 0.08066794 0.19805668
000220 44 cb 1f 3b 38 9d 51 be 30 7b 48 3e 42 80 ea bd
       0.002438263 -0.2047013 0.19578242 -0.114502445
000230 f7 05 1c 3b 4e 4b fc bd 01 b6 0c be 97 c2 46 bd
       0.0023807266 -0.12319051 -0.13741304 -0.04852542
000240 6b 43 92 bd a2 c1 a5 3d 3b 9c 73 3d 67 02 96 bd
       -0.07141765 0.08093573 0.059475165 -0.07324677
000250 74 7b 4e bd dd 70 36 bd 0a d7 d7 bb b9 e3 19 3e
       -0.050410703 -0.04454123 -0.006586914 0.15028276
000260 86 76 07 bc c2 ca 09 3d e0 cb 28 bc d6 86 be bb
       -0.008268004 0.03364063 -0.010302514 -0.0058144135
000270 c8 9b 06 be db 47 33 ba b0 3a 2d 3d 51 f9 84 3c
       -0.13145363 -0.00068390154 0.042292297 0.016232165
000280 4b 27 eb 3d 59 aa d2 3d bc 99 26 bd 5b ea c1 3d
       0.11482104 0.102863975 -0.040673956 0.09468528
000290 f5 ec fc bd be 6f 87 3c d0 26 11 3d 55 e5 95 3d
       -0.123498835 0.016532775 0.035437405 0.07319132
0002a0 d0 76 4a 3d 64 9e 92 bc fc c7 12 bd c0 f2 11 bd
       0.049429715 -0.017897792 -0.03583525 -0.035631895
0002b0 2e 3e c9 3c 1c 41 0f be 94 b8 93 3d de c7 e9 3d
       0.024565782 -0.13989681 0.0721294 0.11415075
0002c0 02 4e 12 bc 13 97 a8 bd 24 45 ac 3d 64 dd c2 bc
       -0.008929731 -0.0823194 0.08411625 -0.023787208
0002d0 e6 70 d0 3d da 6a 92 3c 24 ef c5 3d 03 2b 6a bb
       0.10177784 0.017873216 0.09664753 -0.0035731203
0002e0 b3 11 c0 3d b9 88 68 be 38 3f 3d 3d 28 b6 21 be
       0.09378376 -0.22708406 0.04620287 -0.15792143
0002f0 c9 80 47 3d f3 30 24 ba 16 8f 53 3e a3 d6 ad bd
       0.048706803 -0.00062633975 0.20660052 -0.08488204
000300 87 bc c0 3d f0 8c 51 3d ef d5 bd 3d 7a 1f b3 bd
       0.09410959 0.0511598 0.0926932 -0.08746238
000310 1a ce 1c 3d e8 be 77 be 41 60 82 bd 01 f8 aa 3c
       0.03828249 -0.24193919 -0.06366015 0.02087021
000320 b3 7a 24 3e 46 61 94 3d 01 2f 76 3c 9f af 0e bd
       0.16062431 0.07245116 0.015025855 -0.034835454
000330 26 be d1 3d f5 af c2 3d 28 ff 3a bd 5f da f5 3c
       0.10241346 0.095062174 -0.045653492 0.030011354
000340 6e 7a 01 3e 05 97 1b be e5 89 cb 3c 42 06 a5 3d
       0.1264436 -0.15194328 0.024846027 0.08057834
000350 6c 3f e2 3c 43 c2 f5 3c 93 69 2a bd 9b 20 c2 bd
       0.027618133 0.029999858 -0.04160459 -0.09478875
000360 40 06 3c be 87 cf 29 bd 3b 08 03 3d 8d ce d6 bd
       -0.18361759 -0.04145768 0.03199027 -0.10488615
000370 90 7f e3 bd e7 c9 c9 3b 06 03 8d 3d b0 65 1f be
       -0.11108315 0.006158102 0.06885342 -0.15566134
000380 e3 ff 02 be ba 88 c2 bb 9f e4 16 be 79 02 0d 3e
       -0.12792926 -0.005936709 -0.1473565 0.13770474
000390 84 4a 87 3d 20 b6 0f 3e 8f ba 0b be 71 ae fa 3d
       0.066060096 0.14034319 -0.13645385 0.12240303
0003a0 41 e4 01 3d 5b d9 1a be 41 bb 92 3d 3f b4 60 be
       0.03171182 -0.15121977 0.07164622 -0.21943758
0003b0 8e a9 2b 3e cf 27 4d 3c 66 54 2b 3e 1c dc 89 bd
       0.16763899 0.012521698 0.16731414 -0.06731436
0003c0 b8 76 c9 bd 4c 1a c4 3d 93 5f 23 be a9 ef ab 3d
       -0.09837097 0.09575328 -0.15954427 0.08395321
0003d0 0b 60 8c 3d 77 83 0a bc 94 29 82 bd f1 74 84 bd
       0.06854256 -0.008454195 -0.06355587 -0.06467617
0003e0 86 fd ad bd b3 37 f8 bc 41 b9 5d 3d 08 93 78 3d
       -0.084956214 -0.030299997 0.05413175 0.060687095
0003f0 da 4a f7 3d d2 34 dd bd 7c 6b 61 3d 23 21 85 bd
       0.12074824 -0.1080109 0.055034146 -0.06500461

decoder.0.bias f4 [64]
000000 4f d3 b6 3d 6e 84 ae 3d 30 ef 0a bc 1b 19 dd 3d
       0.08927023 0.08521353 -0.008479878 0.10795804
000010 d9 53 33 bd 09 48 e0 bd 21 90 8f 3d b5 ee 40 be
       -0.043781135 -0.109512396 0.07009912 -0.1884106
000020 2b 05 85 bd 29 40 85 3d 38 1b 31 3e df 58 76 3d
       -0.06495126 0.06506378 0.1729554 0.060143348
000030 71 32 80 3d 6c dd 09 3e 54 c4 ba 3d 3d 6d 28 be
       0.06259621 0.13463372 0.09119478 -0.16447921
000040 3a 4e 58 3d 51 b8 92 3d dd c3 00 3e 40 bf c6 3d
       0.052808978 0.07164062 0.12574716 0.09704447
000050 0a 01 17 be 9a 72 15 3e 28 f0 c0 ba 14 f6 e5 bd
       -0.1474649 0.14594498 -0.001472001 -0.11228576
000060 82 ca 11 be 51 7b 93 3d 01 54 1d 3e 28 99 cc 3d
       -0.14237407 0.07201255 0.15364076 0.0999015
000070 52 a7 cc 3d f3 1d 3e be 29 81 30 be 79 e5 12 bd
       0.09992851 -0.18566112 -0.1723677 -0.035863373
000080 b0 4f aa bd 46 6d 06 be aa 61 14 be d6 a0 d3 3d
       -0.083159804 -0.13127622 -0.14490381 0.103334114
000090 05 38 e3 3c 7d 95 c5 3d 72 74 ea bd b4 19 b8 bd
       0.027736673 0.09647653 -0.114479914 -0.089892775
0000a0 27 9c 91 3a ed df f5 3d 6e 71 76 3d 49 1f 75 3d
       0.0011109159 0.12005601 0.06016677 0.05984429
0000b0 d9 97 1b bd 7d 51 3d bc 93 c4 61 bd 4e f7 f0 3d
       -0.03798661 -0.011555073 -0.05511911 0.117659196
0000c0 fd fd e8 3d 15 9d 28 3e e6 a8 1d 3b 0c 9e 55 3e
       0.113765694 0.16466172 0.002405697 0.20861071
0000d0 cf d2 84 bd 5c 48 46 3b 39 78 12 3c f8 a4 98 bd
       -0.06485521 0.0030255532 0.008939796 -0.0745334
0000e0 ed f4 81 3d f4 42 b8 bd da fc 2c 3d da f4 a9 3d
       0.06345544 -0.08997145 0.042233326 0.08298655
0000f0 d4 72 e6 3d ab e3 de 3d f3 80 67 3d 03 aa 4d 3e
       0.112523705 0.10883268 0.05651946 0.20084386

decoder.2.weight f4 [64, 64]
000000 4d a6 06 3d ad 93 c6 3d b9 3d 3e 3d 49 85 dd 3d
       0.03287344 0.09696136 0.046445582 0.10816438
000010 82 1a 31 bd 50 57 1a be 91 7e f8 3d 4d 53 bc bd
       -0.04323817 -0.1507237 0.121335156 -0.09195576
000020 30 b3 a3 bd 0b 78 97 bd eb b4 0c 3c a4 b4 2d bd
       -0.07993162 -0.07395943 0.008588056 -0.0424086
000030 8f 96 17 3f 54 9d dc 3a ef 52 4d 3d a7 dd 8b bd
       0.5921411 0.0016831555 0.05012792 -0.06829386
000040 c4 12 84 3e 41 69 05 be 54 e2 9a 3c 91 01 cc bd
       0.25795567 -0.13028432 0.01890675 -0.09961236
000050 4e 3d 2e 3e 14 4a 87 bd a5 c4 0a 3f 12 06 79 3e
       0.17015573 -0.06605926 0.54206306 0.24318722
000060 c7 c5 70 be 49 2a fb bd c3 9f 7a bc e9 80 a7 bd
       -0.23512946 -0.12263925 -0.015296879 -0.081788845
000070 bc f9 d0 bd 2a 55 1b bf 15 93 f8 bd 8c 98 1b 3e
       -0.10203883 -0.60676825 -0.12137429 0.15194911
000080 b3 2a d4 3e 4b 19 de bd 71 b2 b2 bd 3b 51 30 3d
       0.41438827 -0.10844668 -0.08725441 0.043046217
000090 f4 d4 04 be aa eb 23 3e 67 85 1f 3e da 53 8a 3c
       -0.1297186 0.16007867 0.15578233 0.016885687
0000a0 a6 56 ec bb 99 31 49 bb cd 72 10 3d db 71 46 bc
       -0.0072124777 -0.0030699729 0.035265733 -0.012112106
0000b0 34 6c f0 bd 07 76 c1 bd ac b1 47 bd 88 b1 82 be
       -0.11739388 -0.0944634 -0.048753425 -0.2552607
0000c0 99 ce d7 3d d3 4b 81 3f 9a e7 c2 3d de 6c 89 bb
       0.10537452 1.0101265 0.09516831 -0.004193886
0000d0 bd 85 1b 3e 6a 2e 77 be cf a0 3c bd 7f 59 1b bd
       0.15187736 -0.241388 -0.046051797 -0.037927147
0000e0 4e 37 c9 3c dd 22 a3 3d 71 10 cb 3e 3a f9 40 3e
       0.024562504 0.07965634 0.3966098 0.18845072
0000f0 d8 bc 8d 3d e7 a9 84 3d 44 7d 65 bc 64 ea be 3d
       0.06920785 0.06477719 -0.014006916 0.0932205
000100 d2 52 60 3e ee 01 d1 bd e1 fb 96 3e 46 29 51 3e
       0.21906593 -0.10205446 0.29489043 0.20425901
000110 61 4c 01 3e 33 31 d0 3d 21 4c 1e 3e 70 1c b7 3e
       0.12626792 0.10165634 0.15458728 0.35763884
000120 9f e0 22 3e 9c 4a d9 3d 23 e1 dd be f2 56 75 3e
       0.15905999 0.10609934 -0.43335828 0.23958948
000130 20 eb 70 be 7c 2e af bd 80 56 0a be d2 1b cf 3d
       -0.23527193 -0.08553788 -0.1350956 0.10112728
000140 db 36 10 3e d8 9f 84 3e 1c 2a 19 3e 8a f9 26 3e
       0.14083426 0.259032 0.1495747 0.16306129
000150 e9 d8 a0 be 39 0b 92 bd 7f 1b 32 3c 14 fd f2 bd
       -0.3141549 -0.07131047 0.010870813 -0.11864677
000160 16 1a b2 b7 fb 7d 35 3e e3 e2 c6 bd 49 91 27 be
       -2.12314e-05 0.17723839 -0.09711244 -0.16364016
000170 0f aa 17 3e 8d 65 95 bc 74 ad 82 3d 45 69 a2 bd
       0.14810966 -0.0182369 0.0638074 -0.07930235
000180 88 18 97 3c c3 b9 10 3e f4 57 61 3d 97 db 36 be
       0.018444315 0.14133362 0.05501552 -0.17857204
000190 31 d3 5f be 97 06 49 3d de ee 34 bc a6 86 8b be
       -0.21857907 0.04907855 -0.0110432785 -0.27251166
0001a0 0a e8 57 be 20 a1 47 3e c7 4f 85 3e 28 a8 a5 3e
       -0.2108461 0.19495058 0.26037428 0.32354856
0001b0 56 33 80 be c6 54 a2 bd 41 fd d5 3e 35 38 6f bc
       -0.25039166 -0.079263255 0.4179478 -0.014600803
0001c0 ad f4 12 be a3 ed 60 be 8d 70 d8 3e ce 84 2b 3e
       -0.14351149 -0.21965651 0.4227337 0.1674988
0001d0 e5 f7 67 3e 5e 77 ce 3e ef 5b 9e 3e 48 be 57 bd
       0.22653158 0.40325445 0.30929515 -0.0526717
0001e0 6a 84 c9 bc 94 ba aa 3d 74 90 3c 3c 52 15 8d 3e
       -0.024599273 0.08336368 0.01150905 0.2755533
0001f0 98 98 31 bc ba a5 83 3e 30 bb 0a bd 5e f0 3b be
       -0.010839604 0.25712377 -0.033869922 -0.18353412
000200 22 cf 92 3d dd 2d 41 be 2f 37 0f 3e 1c 6d 7f bd
       0.07168414 -0.18865152 0.13985895 -0.062359914
000210 4d de 9e 3d 84 37 b0 3d 58 4f 27 be c0 e6 8d 3e
       0.07757244 0.08604339 -0.16338861 0.2771511
000220 80 5e ea 3d de 47 a6 3d cb 25 c3 bb 31 91 80 bd
       0.11443806 0.08119176 -0.005955433 -0.06277693
000230 37 07 1d 3e ce cb 81 be ed 40 dc bd bf be 1b bd
       0.15334783 -0.25350803 -0.10754571 -0.038023707
000240 f6 02 78 3e da 17 8a bc 2d 5d d0 bc 5c 5b 8b 3d
       0.2421988 -0.016857076 -0.025435055 0.06804535
000250 01 7e 3e 3e bc a3 58 3b d4 ab 05 3e 23 0f 92 3b
       0.18602754 0.0033056578 0.13053828 0.004457371
000260 b2 a5 bd 3d 98 ba 85 be b9 7e 0e be e9 5d 30 3d
       0.092601195 -0.26118922 -0.13915528 0.04305831
000270 6d a0 f5 bc c3 63 dc be 67 6e 3b 3e 3a ee 14 be
       -0.029983724 -0.43044862 0.18303834 -0.14544001
000280 aa 19 66 3e e9 1e fa 3c 8d ad 79 bd 4a ee 06 be
       0.22470728 0.030532317 -0.060956527 -0.13176838
000290 b6 41 9a 3d e6 b8 36 bc 11 57 80 3e 9c d3 f9 bd
       0.075320646 -0.011152482 0.25066426 -0.121985644
0002a0 74 59 5b bd 47 11 a1 be fd 18 28 3d 15 d7 99 3d
       -0.053552106 -0.31458494 0.041039456 0.07511727
0002b0 8e 21 f8 bd 34 fc a4 3e 34 ef b9 3d ee 09 ab bd
       -0.12115775 0.32223666 0.090788275 -0.08351503
0002c0 2c f6 ac bd 6b ad 46 3e 17 e3 64 3c d0 f7 c1 3c
       -0.08445391 0.19402091 0.013970158 0.023677737
0002d0 25 a9 90 3e 94 36 64 be 2c 92 6e bc ec a4 2e 3d
       0.28254047 -0.22286445 -0.014561217 0.04263775
0002e0 e6 01 dc 3d 27 92 8c be d1 cc f9 bd 33 d1 28 bb
       0.107425496 -0.27455255 -0.12197269 -0.0025759458
0002f0 62 b8 9b be ca 29 14 bd 96 4e 27 be 8e dc db bc
       -0.3041411 -0.036172666 -0.16338572 -0.026838567
000300 2c ff b6 3d d9 24 47 bb c4 2d b3 bb b3 92 6d 3d
       0.08935389 -0.0030386953 -0.005468102 0.05800123
000310 a2 74 3a 3c 46 4b 02 3e d2 e3 a2 bc 0b 64 5d bd
       0.0113803465 0.12724027 -0.019884024 -0.054050487
000320 f0 02 91 3d db c6 d4 bc 40 76 a1 ba 7e dc 6c 3d
       0.070806384 -0.025973728 -0.0012318566 0.057827465
000330 dd 5d 3e bc f6 6e 97 3b 20 6f 9a bd d6 86 4f 3c
       -0.011619058 0.004621382 -0.07540727 0.012666425
000340 84 d0 22 be 65 4b 99 bd 2d 6c bb bd 9b 93 18 3c
       -0.15899855 -0.074850835 -0.09151492 0.009312536
000350 f9 53 83 3c 47 19 df 3c 04 65 d0 bd 36 9f 69 bd
       0.016031252 0.027233733 -0.10175517 -0.0570366
000360 5c 44 98 3d d8 f1 e3 3d 99 98 e9 bd 31 cd 94 3d
       0.074349135 0.111301124 -0.11406059 0.072657
000370 cc 37 b1 bc 51 e3 bd 3e d4 74 7f bd 52 32 d0 3d
       -0.021633051 0.3708749 -0.062367275 0.10165848
000380 95 1a 41 be 31 87 b3 bc 9a da e2 3c 8d 0d fd bc
       -0.18857796 -0.02191505 0.027692128 -0.03089025
000390 13 ea a0 3d 97 cf 03 be aa d1 84 bd b4 f1 81 3d
       0.07857146 -0.12872158 -0.06485303 0.06344929
0003a0 3f c1 1d bb 1d 56 8b bd 6c db 1b 3d cf 96 2d be
       -0.0024071482 -0.06803534 0.038051054 -0.1695206
0003b0 56 2b 42 3c 0c 76 08 3e 78 59 0d be ed 05 d3 3c
       0.011851152 0.13326281 -0.13803661 0.025759662
0003c0 0a a5 df 3d 1b 23 fa be 78 0a 69 be 10 49 53 3d
       0.109201506 -0.48854908 -0.227579 0.05158335
0003d0 81 d5 48 3d 3d b0 0e be 24 a6 d0 3c 9c b9 b7 bc
       0.04903174 -0.13934417 0.025469847 -0.022427373
0003e0 44 4e 1b ba 08 74 bf 3a 94 af 01 3c a7 ff a3 bc
       -0.0005924443 0.0014606724 0.007915396 -0.020019365
0003f0 2c ad 1e bc 7b 3a c1 bd 06 c2 90 bd 32 c3 1c be
       -0.009684842 -0.094349824 -0.07068257 -0.15308836

decoder.2.bias f4 [64]
000000 65 d7 70 3d d8 90 1a be eb 52 d2 bd 2c 4d f9 3a
       0.058799166 -0.15094316 -0.102697216 0.0019020191
000010 cf 22 f5 3d 28 68 90 3d 04 f8 a5 bd 2b 97 c1 bd
       0.1196953 0.07051116 -0.08103946 -0.09452661
000020 35 c8 13 be a7 81 19 bd 15 b9 09 3e f0 2d a8 bd
       -0.14431842 -0.03747716 0.1344951 -0.08211887
000030 45 bf a4 3d 14 77 27 3d 40 7d f9 bd 83 63 c6 bd
       0.08044294 0.040885046 -0.12182093 -0.09686949
000040 50 26 be bc 95 cb b5 bd d3 d1 17 3e 29 e1 02 be
       -0.023211628 -0.08876721 0.14826135 -0.12781204
000050 08 6c e3 bd 52 be 0e bd 59 3f 09 3d f1 3e 1e 3e
       -0.1110459 -0.034849472 0.03350768 0.15453698
000060 65 82 99 bd c7 b4 4c bc d0 58 46 bd 03 e9 92 3c
       -0.07495574 -0.012494273 -0.048424542 0.017933374
000070 3e 96 62 bb e9 4c 92 bc 54 17 86 3d b3 d0 1b bc
       -0.0034574415 -0.01785894 0.06547418 -0.009510207
000080 e4 e9 42 3d 41 8d ea 3d ce 2a 5f bc fb 07 c0 bd
       0.047586337 0.11452723 -0.013621045 -0.09376522
000090 85 d6 f9 bc ed 48 73 bd 89 db 1b 3d 1a c8 69 3d
       -0.030497799 -0.05939572 0.038051162 0.057075597
0000a0 d8 83 70 3d 59 db c9 bd ed da 22 bd 90 fa c8 3d
       0.058719486 -0.0985629 -0.039759565 0.09813416
0000b0 5b 5e 50 3d 44 0e a8 bd 68 aa a4 bd 93 7d a4 3c
       0.050871234 -0.08205846 -0.08040315 0.02007941
0000c0 4b 5c ec 3d 3f 9d 9f bd 20 33 9c 3c f6 88 36 3e
       0.11541041 -0.07793664 0.019067347 0.17825684
0000d0 ba 4b 52 bc 35 41 5a 3c f1 27 77 3d 3e 66 0c 3e
       -0.012835437 0.013321211 0.060340825 0.13710877
0000e0 49 f5 bb 3c 07 62 5c 3c 71 ca 4e 3e 29 31 0a bc
       0.02294411 0.013451106 0.20194413 -0.008434572
0000f0 ec a2 9e bd 52 18 13 be d7 71 07 3e a6 6e 35 3d
       -0.07745919 -0.14364746 0.1322702 0.044294976

decoder.4.weight f4 [1, 64]
000000 5d 04 96 be a4 4c 86 be 53 74 ad 3e e7 05 5e 3e
       -0.29300204 -0.26230347 0.3387781 0.21681939
000010 04 10 2d be b3 0a 15 3e e1 8f 21 3e d0 1b 77 3e
       -0.1690064 0.14554863 0.15777542 0.24131703
000020 fe df 29 be 89 ee 1c be 9f 61 0a be 67 d0 16 3e
       -0.16589352 -0.15325369 -0.13513802 0.14727937
000030 54 5c 65 be e6 95 26 3e c7 d7 82 3e f7 4e 80 3e
       -0.22398502 0.16268119 0.2555525 0.25060245
000040 87 3b 66 3e d7 22 50 be e3 85 24 3e ac 92 5f be
       0.22483645 -0.2032579 0.16066699 -0.21833295
000050 1f 70 3a 3e 0d 00 61 be 00 cb 62 be d2 ab 90 be
       0.18206833 -0.21972676 -0.22147751 -0.28256088
000060 a8 12 11 be 5d c1 94 3e 8b e2 93 3e d8 cb 09 3e
       -0.14167273 0.29053774 0.28883776 0.13456666
000070 e8 96 44 3f 02 bc 79 be f7 2b 41 be 9e f3 4b be
       0.76792765 -0.24388126 -0.18864428 -0.19917151
000080 13 15 1a 3e e5 94 66 be a0 4a c7 3d 47 f0 e6 3e
       0.15047102 -0.22517736 0.097310305 0.45105192
000090 18 a3 06 3e 26 e2 3e 3e 57 e0 da 3d b5 59 89 be
       0.13148153 0.18640956 0.10687321 -0.26826254
0000a0 2e 74 7c be 8b a5 7d bd ef c4 46 be ed c1 46 be
       -0.24653694 -0.061925452 -0.19411062 -0.19409914
0000b0 81 1d ba 3c 43 17 27 be e1 44 2b 3e ac 67 0c 3e
       0.022719147 -0.16317467 0.16725494 0.13711423
0000c0 31 ef 8a be f4 1c 46 be 63 bb ed be d3 e3 e9 bd
       -0.27135614 -0.19346982 -0.46432027 -0.11420407
0000d0 ce cd 9d be 0e 32 6b 3e 07 ed 2a be bd 15 9f be
       -0.3082108 0.22968313 -0.16691981 -0.31071272
0000e0 23 ff 12 3f 1a 46 98 3e c1 92 70 be d2 83 10 3e
       0.5742056 0.29740983 -0.23493482 0.14112785
0000f0 a0 4f 12 3e 4e 5d 01 3e 4c 40 27 3e c2 36 72 3e
       0.14288187 0.12633249 0.16333121 0.23653701
