Code/Trained models/TEST.pth (torch, 21026 bytes, 27 tensors)

param_encoder.0.weight f4 [10, 5]
0	0xbc855501	-0.016275885
1	0xbc568c6c	-0.013095003
2	0x3d58f256	0.052965485
3	0xbbcaf8f9	-0.0061942306
4	0xbddc161a	-0.10746403
5	0x3db59030	0.08865392
6	0x3e278de5	0.16362722
7	0xbe73861f	-0.23781632
8	0x3d961126	0.073274896
9	0x3e1ca1c0	0.15296078
10	0x3c4ff790	0.012693301
11	0x3c3cabaa	0.011515537
12	0xbd5c5de7	-0.05380049
13	0xbcebaa3b	-0.028767696
14	0x3ea6373b	0.32464013
15	0xbe006a4e	-0.12540552
16	0xbe149fc5	-0.14514072
17	0x3e736c5f	0.23771809
18	0x3c1f5775	0.009725441
19	0xbcb1a15b	-0.021683386
20	0xbe1c1fdf	-0.15246533
21	0x3c98c5a1	0.018648924
22	0x3d8be400	0.06830597
23	0xbc00bbc5	-0.007857268
24	0xbbb39057	-0.005479853
25	0x3c1b25db	0.009469475
26	0xbb836513	-0.0040098517
27	0xba958dc8	-0.0011410052
28	0x3d31e614	0.04343231
29	0xbe1f9e9d	-0.1558785
30	0xbe7895d8	-0.24275911
31	0x3e21dcf2	0.1580694
32	0x3df1e12f	0.118105285
33	0xbd8e4ddf	-0.069484465
34	0x3da7e66f	0.081982486
35	0x3d125e38	0.035734385
36	0x3c00c7be	0.007860122
37	0xbdc071e6	-0.093967244
38	0x3c6fdbac	0.014639776
39	0xbd125e12	-0.035734244
40	0xbe3a0d3e	-0.18169114
41	0x3ddbef27	0.10738974
42	0x3e197a35	0.14988025
43	0xbe282e8b	-0.16424005
44	0xbe9bb05c	-0.3040799
45	0x3bf7059d	0.007538511
46	0xb9ca685f	-0.00038606205
47	0x3cf3c2aa	0.029755909
48	0x3de56443	0.11200764
49	0xbc9d84b1	-0.019228311

param_encoder.0.bias f4 [10]
0	0x3deab00f	0.11459362
1	0x3e666299	0.2249855
2	0x3fe16a27	1.761052
3	0x3f45ed01	0.77314764
4	0x3e1b163f	0.15145205
5	0x3f0f75c2	0.5603906
6	0x3e7dc774	0.24783117
7	0xbeb917e5	-0.36151043
8	0xbf02a6df	-0.51035875
9	0xbdd63266	-0.104588315

param_encoder.2.weight f4 [10, 10]
0	0xbf1f1ee6	-0.6215652
1	0x3e0b9fb8	0.13635147
2	0x3e1ae659	0.15126933
3	0x3ec545bd	0.3852977
4	0xbe15f9a1	-0.14646007
5	0x3da40b13	0.08009925
6	0x3e2feb2f	0.17179559
7	0xbafbb27a	-0.001920297
8	0x3d388fda	0.045059063
9	0xbd74690a	-0.059670486
10	0x3ddbaaeb	0.107259594
11	0xbc67dfdf	-0.014152496
12	0xbe3dabb4	-0.18522531
13	0xbdbb5ddd	-0.091487624
14	0x3f32b073	0.6980049
15	0xbdd30e57	-0.103054695
16	0x3e86ce07	0.2632906
17	0x3e1a58c7	0.15072928
18	0xbe948b1c	-0.29012382
19	0x3ea39c1c	0.3195504
20	0xbdbe85ca	-0.09302862
21	0x3de49120	0.11160493
22	0xbe4504ab	-0.19240062
23	0xbe3a3724	-0.18185097
24	0xbe57b583	-0.21065335
25	0xbe18a9b3	-0.14908485
26	0xbc73392b	-0.014845173
27	0x3f20a092	0.6274501
28	0xbe8a2de2	-0.2698813
29	0x3e6b10e3	0.2295566
30	0x3bee6c0b	0.0072760633
31	0xbe3da0fd	-0.18518443
32	0xbce890a2	-0.028389279
33	0xbe0b135d	-0.13581605
34	0xbea97b07	-0.33101675
35	0x3ecd6c5b	0.4012173
36	0xbd603fd1	-0.05474836
37	0x3ec3c85b	0.38238797
38	0x3eaf325d	0.34218112
39	0xbf3a52b8	-0.7278247
40	0xbed4985f	-0.415225
41	0x3e93260f	0.28739974
42	0xbda7f0da	-0.08200236
43	0xbd92ced1	-0.07168353
44	0xbdc97ce1	-0.09838272
45	0xbcfe4b3a	-0.03104173
46	0x3e45afb1	0.19305302
47	0x3e842421	0.25808814
48	0xbd96fa10	-0.073719144
49	0x3c4a07e7	0.012330986
50	0x3ec0cc6c	0.37655962
51	0x3ebff1ba	0.3748911
52	0xbe6249ab	-0.22098415
53	0xbcaac4d0	-0.0208458
54	0x3e5461b8	0.20740402
55	0x3eab2aa3	0.33430967
56	0xbe0a6c74	-0.13517934
57	0xbe4cecb2	-0.20012167
58	0xbda2e91b	-0.079546176
59	0xbe6bdd26	-0.2303358
60	0xbddf8278	-0.10913557
61	0xbdf908c6	-0.121598765
62	0xbe614911	-0.22000529
63	0x3ea5eb83	0.32406244
64	0xbe066c52	-0.13127258
65	0x3d706577	0.058690514
66	0xbe167936	-0.14694676
67	0x3ea9cb30	0.33162832
68	0x3d8712da	0.065953925
69	0x3eda5209	0.42640713
70	0xbebabc78	-0.36471915
71	0xbc09f20a	-0.008419523
72	0x3e0e47f3	0.13894634
73	0x3c545ac5	0.012961094
74	0x3e503e58	0.20336282
75	0x3cc6b6bf	0.024257062
76	0xbe51d843	-0.20492654
77	0xbe9ceab3	-0.3064781
78	0xbe3e87d4	-0.18606502
79	0xbd90dacf	-0.070729844
80	0x3eb376c3	0.35051546
81	0xbda25d53	-0.079279564
82	0x3e994f2c	0.29943216
83	0x3d8effbd	0.06982372
84	0xbe12e469	-0.14344944
85	0xbe51ff5d	-0.2050757
86	0xbdf9f61a	-0.12205143
87	0xbf3f2354	-0.7466328
88	0xbc8598f4	-0.016308285
89	0x3e95a1c1	0.2922497
90	0xbcd7029a	-0.026246358
91	0xbe8ef03b	-0.27917656
92	0xbe8ea8c1	-0.27863124
93	0x3e1639e2	0.14670518
94	0xbea9a6df	-0.33135125
95	0x3d890a5f	0.06691431
96	0x3d271413	0.04079063
97	0x3e804d3b	0.25058922
98	0xbe144a49	-0.14481463
99	0xbe873f87	-0.26415655

param_encoder.2.bias f4 [10]
0	0xbc471327	-0.012150562
1	0x3d032c7c	0.032024845
2	0xbe9f73af	-0.31142947
3	0xbedd0653	-0.43168887
4	0xbe05841f	-0.13038681
5	0x3e171338	0.14753425
6	0x3e546ead	0.20745344
7	0xbeaac462	-0.33352953
8	0x3d78b1a8	0.0607163
9	0x3e953b47	0.29146788

param_encoder.4.weight f4 [10, 10]
0	0xbe63c7c2	-0.2224417
1	0x3e207a6b	0.15671699
2	0x3eff9ebd	0.49925795
3	0xbd44f0c9	-0.048081193
4	0x3cd5a962	0.026081745
5	0x3edd56a8	0.43230176
6	0x3ad5553c	0.0016276012
7	0xbe95ae55	-0.29234567
8	0xbf11261a	-0.56698763
9	0x3e46915c	0.19391388
10	0xbc061f20	-0.008186132
11	0x3e615418	0.22004735
12	0xbe631012	-0.22174099
13	0x3c0127b1	0.007882998
14	0x3cf548a4	0.029941864
15	0x3e833eba	0.25633794
16	0xbe767a27	-0.24070035
17	0xbe8c7dfb	-0.27439865
18	0xbe922a3c	-0.28547847
19	0xbd0a9442	-0.033832796
20	0x3db03314	0.086034924
21	0xbef28b0c	-0.4737171
22	0x3e2b9ae4	0.16758305
23	0xbf079c06	-0.5297245
24	0x3d300ed0	0.042982876
25	0xbd8ab07e	-0.067719445
26	0x3f218443	0.6309244
27	0xbeb11029	-0.34582642
28	0xbeb67166	-0.3563339
29	0x3ea9d98d	0.3317379
30	0xbdec6263	-0.11542203
31	0xbd2067f2	-0.03916163
32	0xbd3c2398	-0.045932382
33	0x3e8cca15	0.27497926
34	0xbe9bb362	-0.30410296
35	0x3ca0401b	0.019561818
36	0xbe3ff8ed	-0.18747301
37	0xbe6962ac	-0.22791547
38	0x3e1bcaad	0.15214033
39	0x3f080b8c	0.5314262
40	0xbf086cbf	-0.53290933
41	0x3eb1c95b	0.34723935
42	0x3e5c2d46	0.21501645
43	0xbdf62437	-0.12018626
44	0xbe4bfa86	-0.19919786
45	0x3d77870a	0.060431518
46	0x3eae119a	0.33997804
47	0xbf0026b1	-0.5005904
48	0x3da1ebe0	0.07906318
49	0xbd10608d	-0.035248328
50	0xbe7467c9	-0.23867716
51	0xbd1c0e00	-0.03809929
52	0x3dd7aa9d	0.10530589
53	0x3f076f89	0.52904564
54	0x3d334ab7	0.043772426
55	0xbe061673	-0.13094501
56	0x3e3524b5	0.17689784
57	0xbec95aa9	-0.3932698
58	0xbed3cda8	-0.4136784
59	0x3f2a5056	0.6652883
60	0x3cc24fc0	0.023719668
61	0xbd9ac7f1	-0.07557667
62	0xbd38fa66	-0.045160674
63	0x3e23c3a7	0.15992604
64	0x3e5d1a9c	0.21592182
65	0xbf18289c	-0.59436965
66	0xbde5e2a8	-0.11224872
67	0x3e7e78f1	0.24850823
68	0xbd0988a1	-0.033577565
69	0xbe879e53	-0.2648798
70	0x3e3b7cb8	0.18309295
71	0xbdd812c8	-0.10550457
72	0x3de3f214	0.11130157
73	0x3e46aedf	0.19402646
74	0x3e9c1d2b	0.30491003
75	0x3e0b10f6	0.13580689
76	0xbddd3997	-0.10802
77	0xbe6c2f8f	-0.23065017
78	0xbe77b879	-0.24191464
79	0x3ee161be	0.44019884
80	0x3f0b6251	0.54446894
81	0xbbc6ed2d	-0.006070754
82	0x3ef35c70	0.47531462
83	0x3e859a3c	0.26094234
84	0x3eaf66df	0.34258172
85	0xbf0df843	-0.5545694
86	0x3dbff9b1	0.09373797
87	0x3e27465b	0.16335432
88	0xbea37cf2	-0.31931263
89	0x3dcc2256	0.099674866
90	0x3f0f0fb8	0.5588336
91	0xbf5b655f	-0.85701555
92	0x3e34e44d	0.17665215
93	0x3d84cb95	0.06484143
94	0x3e5e3fe4	0.2170406
95	0xbabc550f	-0.0014368611
96	0x3ec182b8	0.37795043
97	0x3f075b96	0.52874124
98	0xbe822579	-0.25419214
99	0x3edbfe68	0.42967534

param_encoder.4.bias f4 [10]
0	0x3e55ee57	0.208917
1	0x3e4b5b89	0.19859137
2	0x3d7cec5c	0.061748847
3	0xbe81fd20	-0.25388432
4	0xbddecbfe	-0.10878752
5	0xbe015d25	-0.12633188
6	0xbc3f25cd	-0.011666727
7	0x3eb15bec	0.34640443
8	0xbd241740	-0.040061235
9	0xbe0ba5a2	-0.13637403

param_encoder.6.weight f4 [10, 10]
0	0xbd9b8da8	-0.07595378
1	0xbddc60a2	-0.10760619
2	0x3e6babb7	0.23014723
3	0xbe15abc4	-0.14616305
4	0x3ce6524c	0.028115414
5	0xbe275f30	-0.16344905
6	0x3d898491	0.06714738
7	0xbef1af5b	-0.47204098
8	0x3cfc4b0b	0.030797502
9	0xbc590b44	-0.013247315
10	0x3d1bea5c	0.0380653
11	0x3e7e975a	0.24862424
12	0x3ea0ffc3	0.3144513
13	0xbe658c7a	-0.22416869
14	0x3e63c6f4	0.22243863
15	0xbe2db9c2	-0.16965392
16	0x3dc30da4	0.09524086
17	0x3ea7648c	0.326939
18	0x3e8909a5	0.2676517
19	0x3dc1d342	0.09464122
20	0xbea0f1ac	-0.3143438
21	0xbf09704e	-0.5368699
22	0xbceee353	-0.029161131
23	0x3e6d6264	0.23182064
24	0xbf1349db	-0.5753457
25	0x3d5c16c7	0.05373266
26	0x3eb97928	0.36225247
27	0xbd8654d5	-0.06559149
28	0x3e9f07f4	0.31060755
29	0x3f02dff9	0.51123005
30	0x3c9a2a46	0.018818986
31	0x3e9c8e9a	0.30577546
32	0x3db675a9	0.08909161
33	0x3da954e9	0.082681485
34	0xbd4dbe86	-0.050230525
35	0x3e458ffa	0.19293204
36	0xbeb94c42	-0.36190993
37	0x3e782ea1	0.24236538
38	0xbef4098f	-0.47663543
39	0xbe300a84	-0.17191511
40	0x3e5b9399	0.21443023
41	0x3f058fbe	0.5217246
42	0x3d9adeba	0.07562013
43	0x3ee67402	0.45010382
44	0x3f12beb6	0.5732225
45	0x3edb3675	0.42814985
46	0xbe4bc16e	-0.19898006
47	0xbceebcf4	-0.029142834
48	0xbeaea34d	-0.34108964
49	0xbed9dc9f	-0.42551133
50	0xbea3106f	-0.31848475
51	0x3d9ff361	0.07810093
52	0x3ef50bdc	0.4786061
53	0x3e669b88	0.22520268
54	0x3da97265	0.08273772
55	0x3e45d59a	0.19319764
56	0xbd0dc230	-0.03460902
57	0xbe5a0135	-0.21289523
58	0x3d004f26	0.03132548
59	0xbd947b21	-0.072500475
60	0xbf251336	-0.6448244
61	0xbef07718	-0.4696586
62	0xbe339ea2	-0.17540982
63	0xbdce96c9	-0.10087354
64	0x3e67acd0	0.22624516
65	0xbf26ca4b	-0.65152425
66	0xbe3e8e8d	-0.18609066
67	0xbf23d83b	-0.64001817
68	0xbf4656f3	-0.77476424
69	0xbe942170	-0.2893176
70	0xbe0703f6	-0.13185105
71	0xbecbc6a9	-0.39800003
72	0x3d605989	0.054772887
73	0xbcd8e62f	-0.026476948
74	0xbeadab8d	-0.33919945
75	0xbe293453	-0.16523866
76	0x3e9a6dd8	0.3016193
77	0xbe138317	-0.14405476
78	0x3eb9fca4	0.36325562
79	0x3e57b5de	0.2106547
80	0x3eb61aec	0.35567415
81	0xbe7a5cc2	-0.24449447
82	0x3ee83e34	0.45359957
83	0x3e022c55	0.12712224
84	0x3db12a64	0.086506635
85	0x3e2caa83	0.1686192
86	0xbea82874	-0.32843363
87	0x3eec3ef9	0.46141794
88	0x3bf5bd00	0.007499337
89	0x3e56009a	0.20898667
90	0xbe605180	-0.2190609
91	0xbe7d9b16	-0.24766192
92	0xbedc0173	-0.42969856
93	0xbe2baaca	-0.1676437
94	0x3e4c9c79	0.19981565
95	0xbdecd54c	-0.11564121
96	0x3e83bbda	0.25729257
97	0xbeaa76e0	-0.3329382
98	0xbe4266d6	-0.18984541
99	0xbec832e5	-0.3910133

param_encoder.6.bias f4 [10]
0	0xbddd5aa2	-0.108083025
1	0x3e805298	0.25063014
2	0x3d1bbe21	0.038023118
3	0x3edde238	0.43336654
4	0xbe708966	-0.23489913
5	0x3e9b7330	0.3036132
6	0x3d4cdb80	0.05001402
7	0xbe868b3b	-0.262781
8	0x3e72b317	0.2370113
9	0xbd8cebdc	-0.06880924

coord_encoder.0.weight f4 [10, 1]
0	0xbf3dd53a	-0.7415348
1	0xbf7b0119	-0.9804855
2	0xbf430394	-0.76177335
3	0x3f7c8684	0.98642755
4	0xbf2e869f	-0.68174165
5	0xbf0f67f4	-0.56017995
6	0xbecc60fd	-0.39917746
7	0xbf7ded00	-0.9918976
8	0x3f8de18a	1.1084454
9	0x3f5bc8c0	0.85853195

coord_encoder.0.bias f4 [10]
0	0xbf02f2bb	-0.5115163
1	0xbd870006	-0.06591801
2	0x3da370a6	0.0798047
3	0xbf592933	-0.8482849
4	0x3f5e6d61	0.8688565
5	0x3f177636	0.5916475
6	0x3e6fbe34	0.234124
7	0xbf3e58f4	-0.7435448
8	0xbf54c50a	-0.8311316
9	0x39dd6670	0.00042228727

coord_encoder.2.weight f4 [10, 10]
0	0x3d08940b	0.03334431
1	0xbeacafce	-0.33727878
2	0xbcb48323	-0.022035187
3	0xbc8746f5	-0.016513327
4	0xbe51ff32	-0.20507506
5	0xbcab3c2c	-0.020902716
6	0xbd9a531f	-0.07535385
7	0xbe9403f6	-0.28909272
8	0x3df8a430	0.12140691
9	0x3ecf3019	0.40466383
10	0x3e2676ea	0.162563
11	0x3dbcc333	0.09216919
12	0xbdb7caae	-0.08974205
13	0x3ea8cf12	0.32970482
14	0x3e6c56e8	0.23080027
15	0xbc4be022	-0.012443574
16	0x3e53416b	0.20630424
17	0x3e5edf08	0.21764767
18	0x3e656526	0.22401866
19	0xbe751f61	-0.23937751
20	0x3e133fa0	0.1437974
21	0x3e284e32	0.16436079
22	0x3e7d9095	0.24762185
23	0xbe2e8398	-0.17042387
24	0x3e83c991	0.2573972
25	0x3cd6f607	0.026240362
26	0xbc406e60	-0.011745065
27	0xbe0d9a66	-0.1382843
28	0xbeb9c865	-0.362857
29	0xbee07468	-0.4383881
30	0x3ea9d9aa	0.33173877
31	0x3e9274c9	0.28604725
32	0x3dd21005	0.10256962
33	0xbe2cb8ba	-0.16867343
34	0x3e14fab0	0.14548755
35	0x3da8ff33	0.082518004
36	0x3e08684c	0.13321036
37	0xbe3aa18b	-0.18225686
38	0xbd280302	-0.041018493
39	0xbeee39f5	-0.46528593
40	0xbef30701	-0.4746628
41	0x3db7ee23	0.08980968
42	0xbe91cd50	-0.28476954
43	0xbe55b552	-0.2086995
44	0x3eb967d4	0.36212027
45	0x3de982cb	0.114019
46	0xbe1718b6	-0.1475552
47	0xbe33ac7c	-0.17546266
48	0xbea97c46	-0.33102626
49	0x3e884b2a	0.26619846
50	0xbe6fd02e	-0.23419258
51	0xbeaf45ea	-0.34233028
52	0xbe92ffec	-0.28710878
53	0x3ed25ab1	0.41084817
54	0xbccbd0c2	-0.024879817
55	0xbe33ea24	-0.17569786
56	0xbed116fe	-0.40837854
57	0xbd78e812	-0.060768194
58	0x3ec3e1a0	0.38258076
59	0x3ea419b7	0.3205087
60	0x3ed1a3e5	0.40945354
61	0x3eccbcad	0.39987698
62	0x3d1f99ac	0.038964912
63	0x3e1f05ca	0.15529552
64	0x3d137821	0.036003236
65	0x3e75711f	0.23968934
66	0x3e890f99	0.26769713
67	0x3e6f0c5f	0.23344563
68	0x3e4301fb	0.19043724
69	0xbd197a3c	-0.037470087
70	0x3cb8940e	0.022531535
71	0x3e999f23	0.30004224
72	0x3ea9ff2c	0.33202493
73	0xbc27bae7	-0.010237432
74	0x3ea3a175	0.3195912
75	0x3e7a8888	0.24466145
76	0xbcf77d64	-0.030211158
77	0x3e833864	0.2562896
78	0xbeb192e7	-0.3468239
79	0xbe786a1d	-0.24259229
80	0x3dd9388d	0.10606489
81	0x3e297227	0.16547452
82	0xbcc719d1	-0.024304302
83	0xbf0e4323	-0.5557119
84	0x3e8123c6	0.25222605
85	0x3e9c1dac	0.30491388
86	0x3f0d2a56	0.55142725
87	0xbdd830e5	-0.10556201
88	0xbef5fb14	-0.4804312
89	0xbeadc2c6	-0.33937663
90	0xbe9430de	-0.28943533
91	0xbe1da8a1	-0.15396358
92	0xbedee58c	-0.43534505
93	0x3e59a01e	0.21252486
94	0x3e832db2	0.256208
95	0x3eb4cf21	0.35314277
96	0x3de9e0fd	0.11419866
97	0xbc5314c6	-0.012883371
98	0xbdb72c47	-0.08943992
99	0x3e55c419	0.20875587

coord_encoder.2.bias f4 [10]
0	0x3e5e2d26	0.2169691
1	0xbd155722	-0.03646005
2	0x3e61a45d	0.22035356
3	0x3e1e8bb6	0.15482983
4	0x3e4236ac	0.18966168
5	0xbc3a4837	-0.011369756
6	0x3cb4ce7b	0.022071114
7	0xbeb6e67e	-0.35722727
8	0x3e6bec57	0.23039375
9	0x3d779b47	0.06045082

coord_encoder.4.weight f4 [10, 10]
0	0x3e4bc4c5	0.1989928
1	0xbe717bda	-0.23582402
2	0xbebb143e	-0.3653888
3	0xbedd44f2	-0.43216664
4	0x3e5d1bbd	0.21592613
5	0x3ed08c32	0.4073196
6	0xbeae0b35	-0.33992925
7	0xbe4847e4	-0.19558674
8	0xbd8779b0	-0.06615007
9	0xbe41f419	-0.18940772
10	0xbefa79be	-0.48921007
11	0x3e546b94	0.20744163
12	0x3e3d24c1	0.18471052
13	0x3e8b6da8	0.272321
14	0x3dc267d4	0.0949246
15	0xbe1870d3	-0.14886789
16	0x3e3586ad	0.17727156
17	0x3e9e2a08	0.30891442
18	0xbdf6949e	-0.12040065
19	0xbe99926f	-0.29994532
20	0x3ddc2506	0.10749249
21	0x3d4063ee	0.0469703
22	0xbe2ee68b	-0.17080133
23	0xbe4a011d	-0.19726987
24	0x3eb441aa	0.35206348
25	0x3ec0e227	0.3767254
26	0x392f85db	0.00016739166
27	0xbe269e67	-0.16271363
28	0xbe2f019e	-0.1709046
29	0x3e98190d	0.29706612
30	0x3d2563ab	0.040378254
31	0x3e3777b6	0.1791676
32	0xbeb6de67	-0.35716555
33	0xbddfb8fc	-0.10923955
34	0xbe249cce	-0.16075441
35	0x3e9bc085	0.30420318
36	0xbd93fddd	-0.07226155
37	0xbedb95a9	-0.4288762
38	0xbee398c1	-0.4445248
39	0x3e3e96b4	0.18612176
40	0x3ebfcc12	0.3746038
41	0x3d721e3b	0.05911086
42	0xbec0c70d	-0.37651864
43	0x3df7fc4d	0.121086694
44	0x3e0581a6	0.13037738
45	0x3d83daaa	0.06438191
46	0xbe310a8e	-0.17289183
47	0xbed20f1e	-0.41027158
48	0xbe0d9f1d	-0.13830228
49	0x3ea2070b	0.31645998
50	0x3e979d4d	0.29612198
51	0x3e355e33	0.17711715
52	0xbedc7581	-0.43058398
53	0xbeadbbd6	-0.3393237
54	0x3df5cd34	0.1200203
55	0x3ef7b385	0.4837915
56	0xbdef0df2	-0.11672582
57	0xbe3d2b3e	-0.18473527
58	0xbf239d04	-0.6391146
59	0xbe352744	-0.1769076
60	0x3da189e1	0.078876264
61	0xbeb1aaa9	-0.34700516
62	0x3efe507c	0.4967078
63	0x3f06c204	0.52639794
64	0x3ec06036	0.37573403
65	0xbe6d3092	-0.2316306
66	0x3e17af9e	0.14813086
67	0x3deabdc6	0.11461978
68	0x3f31eb74	0.694999
69	0x3ee11cd3	0.43967304
70	0x3eae112b	0.33997473
71	0xbec9d7b3	-0.39422378
72	0x3e6f2166	0.23352584
73	0x3e035f22	0.12829259
74	0x3e7d8f40	0.24761677
75	0x3d9c803b	0.076416455
76	0xbebc08b6	-0.36725396
77	0xbdc183cc	-0.094489664
78	0x3e114b7b	0.1418895
79	0xbb4dbd86	-0.0031393482
80	0x3eea39e3	0.4574729
81	0xbb4039f2	-0.0029331413
82	0xbdfea315	-0.12433449
83	0xbeb2d9f0	-0.34931898
84	0x3ea28e3f	0.3174915
85	0x3e20c9ad	0.15701933
86	0xbf0da8cb	-0.5533568
87	0xbf10e553	-0.5659992
88	0x3dec2254	0.11529985
89	0x3e34e692	0.1766608
90	0xbe8826d4	-0.26592124
91	0x3e882f2a	0.26598483
92	0xbe032bbc	-0.12809652
93	0x3e8bf930	0.27338552
94	0xbe30f498	-0.17280805
95	0xbe9435fe	-0.28947443
96	0x3e23e2c8	0.16004479
97	0x3ef4f953	0.4784647
98	0x3e831a0b	0.25605807
99	0xbe500560	-0.2031455

coord_encoder.4.bias f4 [10]
0	0xbe2d41fe	-0.16919705
1	0xbe99bd56	-0.30027264
2	0x3cad4640	0.021151662
3	0xbd9d317c	-0.07675454
4	0xbd86f60c	-0.065898985
5	0x3e3026ad	0.17202254
6	0x3ef35d15	0.47531953
7	0xbe3b2a72	-0.1827791
8	0xbd210275	-0.039308984
9	0xbe1952fe	-0.14973065

decoder.0.weight f4 [20, 20]
0	0x3da38aa8	0.07985431
1	0x3e9c938a	0.30581313
2	0xbe2f68bd	-0.17129798
3	0x3e97ea79	0.29671076
4	0x3de50aa4	0.1118367
5	0x3e8bdfef	0.27319285
6	0xbd0d52e0	-0.034502864
7	0xbe617bfa	-0.2201995
8	0xbc1ab5d1	-0.0094427625
9	0x3d14556e	0.036214285
10	0x3ea0364e	0.3129143
11	0xbd83e952	-0.06440987
12	0x3e21abe9	0.15788235
13	0x3e6b6e84	0.22991377
14	0x3ea9cd05	0.3316423
15	0x3edcc604	0.43119824
16	0xbeda6abb	-0.42659554
17	0xbcfdd430	-0.030984968
18	0x3ed80187	0.42188665
19	0xbe9c421c	-0.30519187
20	0x3e9e9823	0.30975446
21	0x3cb10c66	0.021612357
22	0x3ed3fd22	0.41404063
23	0xbeb45635	-0.3522202
24	0xbe9f0707	-0.3106005
25	0x3d38057e	0.044927113
26	0xbeb320a8	-0.34985852
27	0x3eeb9797	0.4601409
28	0x3e2518af	0.16122697
29	0xbe4e7ad3	-0.20164041
30	0xbe32a195	-0.17444451
31	0x3d493fd8	0.04913315
32	0x3d8d27c7	0.068923526
33	0xbe8751aa	-0.26429492
34	0xbe25f66a	-0.16207281
35	0x3e24b8c8	0.16086113
36	0x3e62a89f	0.22134636
37	0xbe5d2506	-0.21596155
38	0xbde22a3b	-0.11043211
39	0x3e4e878e	0.20168898
40	0x3d81fec6	0.06347422
41	0xbe68f1f2	-0.22748545
42	0xbe50c64a	-0.20388141
43	0x3e50f854	0.2040723
44	0x3b9a0138	0.0046998523
45	0xbdfc09e1	-0.12306572
46	0x3ef545e0	0.47904873
47	0xbcb8898b	-0.022526523
48	0xbb4171eb	-0.0029517363
49	0x3e5270da	0.20550862
50	0xbdb41ebb	-0.08794924
51	0x3d39567e	0.0452485
52	0x3e267d28	0.16258681
53	0x3f008d8d	0.5021599
54	0x3e05f711	0.1308253
55	0x3eeb111e	0.45911497
56	0xbf314482	-0.6924516
57	0xbe793329	-0.24335922
58	0x3de5e2ce	0.112249
59	0xbe4868b8	-0.19571197
60	0x3d3893a2	0.04506267
61	0xbdc98b54	-0.09841028
62	0x3e57f141	0.21088125
63	0xbe953062	-0.29138476
64	0xbd94d549	-0.072672434
65	0xbe8d64f0	-0.27616072
66	0xbe926cde	-0.28598684
67	0x3c9da7c9	0.019245045
68	0xbecc9b4f	-0.3996224
69	0x3e509ef5	0.20373137
70	0xbe56b491	-0.20967318
71	0x3e7f616f	0.24939512
72	0xbe93e32e	-0.28884262
73	0xbe17c079	-0.14819516
74	0xbe76e0f1	-0.24109246
75	0xbe970c68	-0.29501653
76	0xbdadd29a	-0.08487435
77	0xbde5d493	-0.11222186
78	0xbe802aff	-0.25032803
79	0x3c86f60c	0.016474746
80	0x3ea0db10	0.3141713
81	0x3f42923f	0.76004404
82	0x3d39b586	0.04533913
83	0xbe67cdc6	-0.2263709
84	0xbe81de50	-0.25364923
85	0x3e2b36d0	0.16720128
86	0xbe6bd5bc	-0.23030752
87	0xbe0ff804	-0.14059454
88	0x3e17a555	0.14809163
89	0xbe72c975	-0.23709662
90	0x3e3bc89b	0.18338244
91	0xbea7f173	-0.328014
92	0x3e9b3390	0.30312777
93	0x3e93980b	0.28826937
94	0x3ec2a530	0.38016653
95	0x3cf4be61	0.029875936
96	0x3dc473d0	0.09592402
97	0x3d42e9db	0.047586303
98	0x3efbcf25	0.49181476
99	0xbef751b0	-0.4830451
100	0xbe5bb56a	-0.21455923
101	0x3eb46cd7	0.35239288
102	0x3eba22c6	0.36354655
103	0x3e0d2ef7	0.13787447
104	0xbeb70ca7	-0.3575184
105	0x3d7bf395	0.061511595
106	0xbec236b8	-0.37932372
107	0x3ddb5ab5	0.1071066
108	0x3eee14fd	0.46500388
109	0xbed28e86	-0.41124362
110	0xbed5cfbe	-0.41760057
111	0x3dd3b487	0.10337167
112	0x3d33f4b4	0.04393454
113	0xbf0fce6d	-0.56174356
114	0xbe95e66c	-0.2927736
115	0xbce348bd	-0.027744645
116	0x3f1d3d4e	0.6142167
117	0x3d1f99f1	0.03896517
118	0x3dffa0bd	0.1248183
119	0xbb982f9b	-0.004644347
120	0x3e0196ed	0.1265523
121	0x3e0b05f8	0.13576496
122	0xbe308ead	-0.17241926
123	0x3ec04193	0.3755003
124	0x3d9a1c11	0.075248845
125	0x3d85067d	0.06495378
126	0x3d670d2e	0.056409054
127	0xbe8db0e8	-0.2767403
128	0x3e3006ec	0.1719014
129	0xbee1022c	-0.4394697
130	0xbebff11a	-0.37488633
131	0x3e1339ff	0.14377593
132	0xbe6d5485	-0.23176773
133	0xbdc1efd0	-0.09469569
134	0xbd93c4eb	-0.072152935
135	0xbc93af5b	-0.018027952
136	0x3e8b2b2a	0.2718137
137	0xbe8d10e7	-0.27551958
138	0xbdc7a5e3	-0.09748437
139	0x3ea720fd	0.32642356
140	0xbe660e0b	-0.22466294
141	0x3d95b39d	0.07309649
142	0x3e40650c	0.18788546
143	0x3d7bc2ad	0.061464954
144	0x3e9eaa49	0.30989292
145	0x3e9e480a	0.30914336
146	0x3c9818fc	0.018566601
147	0xbe61272f	-0.21987604
148	0x3d9f492c	0.07777628
149	0xbea847c7	-0.32867262
150	0x3e9f9bcf	0.3117356
151	0xbe47ec0f	-0.19523643
152	0x3e90a8ab	0.28253683
153	0x3dd720d6	0.1050431
154	0x3e9d7b26	0.30758017
155	0x3e4b241c	0.19837993
156	0xbc97119e	-0.018441018
157	0x3da1c1ed	0.078983165
158	0x3e9df70b	0.3085254
159	0xbecff830	-0.4061904
160	0x3e458bd4	0.19291621
161	0x3e510f7f	0.20416068
162	0xbe6f1091	-0.23346163
163	0x3d9c3e6b	0.07629093
164	0xbcab2cdb	-0.020895412
165	0x3e9079da	0.28217965
166	0xbc1f629b	-0.009728099
167	0xbdc7e8d3	-0.097612046
168	0x3bb32b51	0.00546781
169	0x3e4f5b71	0.20249726
170	0x3c77b682	0.015119197
171	0x3e60fd80	0.21971703
172	0xbda891c6	-0.08230929
173	0xbdc24030	-0.09484899
174	0xbc170cb4	-0.009219337
175	0x3d97ac89	0.07405955
176	0x3e251d7f	0.16124533
177	0xbde461ec	-0.111514896
178	0xbe83c4b5	-0.25736013
179	0xbdd6497c	-0.10463235
180	0xbe9b5059	-0.30334738
181	0x3e8fb31e	0.28066343
182	0xbd773b37	-0.060359206
183	0xbabbade8	-0.0014318796
184	0x3ea09fe9	0.31372002
185	0xbda51d4e	-0.0806223
186	0xbdde7e57	-0.10863941
187	0x3d96e929	0.073686905
188	0x3e566e3c	0.20940489
189	0xbe09cd00	-0.13457108
190	0x3b9d8f92	0.0048083747
191	0x3e0aaa41	0.13541509
192	0x3d060f3a	0.032729365
193	0xbe17c71a	-0.14822045
194	0x3e4aa779	0.19790448
195	0x3dc5d1af	0.096591346
196	0xbbf65862	-0.0075178603
197	0x3e7e4a17	0.2483295
198	0x3e0a2c18	0.13493383
199	0xbe58e4a1	-0.21180965
200	0x3ddddd31	0.108332045
201	0x3dfa014f	0.12207281
202	0xbe8db20e	-0.27674907
203	0xbd046b96	-0.032329164
204	0x3e6e5ebf	0.2327833
205	0x3db519a0	0.08842778
206	0xbe4c4098	-0.19946516
207	0x3e4773cf	0.19477771
208	0x3e2b2ee7	0.1671711
209	0xbdb02f65	-0.0860279
210	0x3e8aaf44	0.27086842
211	0xbe9e52f7	-0.30922672
212	0x3d822b5d	0.06355927
213	0xbd888d87	-0.06667619
214	0x3ccd60e4	0.025070615
215	0x3dce5bb9	0.100760885
216	0x3d84fc03	0.0649338
217	0x3e4f0b49	0.20219149
218	0x3dfbef5a	0.12301512
219	0xbeb5758f	-0.35441253
220	0x3dac19f7	0.0840339
221	0xbd8ca373	-0.06867113
222	0x3dfff006	0.12496953
223	0xbe7e9e00	-0.2486496
224	0xbe7c8297	-0.24659191
225	0x3db2c90e	0.087297544
226	0xbdc38241	-0.09546328
227	0x3e6a45f5	0.22878249
228	0x3e3b2f21	0.18279697
229	0x3cc3d798	0.023906514
230	0xbe0401b1	-0.1289127
231	0xbda54307	-0.08069425
232	0x3e31f1f3	0.17377453
233	0x3e3741dc	0.17896217
234	0x3dd975bc	0.10618159
235	0x3dc031bd	0.09384487
236	0xbe19e412	-0.15028408
237	0x3d8f10fe	0.06985663
238	0xbe46bf36	-0.19408879
239	0x3df7daf4	0.12102309
240	0xbd6ef612	-0.05834014
241	0xbe72fdab	-0.23729579
242	0xbc3fb89e	-0.011701731
243	0xbc81e24f	-0.015854983
244	0xbd65b212	-0.056078024
245	0x3e373164	0.17889935
246	0xbe9f1291	-0.31068853
247	0xbe23923f	-0.15973757
248	0x3de75e99	0.1129734
249	0xbe3fc6c6	-0.1872817
250	0xbeb1e6d4	-0.3474642
251	0x3e9814c1	0.29703334
252	0xbce98c3d	-0.028509254
253	0x3d26551f	0.04060852
254	0xbe56e5be	-0.20986077
255	0xbe87f30a	-0.26552612

decoder.0.bias f4 [20]
0	0x3e7c693b	0.24649517
1	0xbb8cd1d4	-0.0042974744
2	0xbe5a6972	-0.21329287
3	0xbeadb5a7	-0.33927652
4	0x3e2f9cff	0.17149733
5	0x3d24be7b	0.04022072
6	0xbd9a9d3a	-0.0754952
7	0x3e9b9e2c	0.30394113
8	0xbe172ed6	-0.1476396
9	0x3e9216f4	0.28533137
10	0x3e7e94d3	0.2486146
11	0x3d8febd2	0.07027401
12	0x3c52b2c9	0.0128600085
13	0xbdbaeb64	-0.091269284
14	0x3e176630	0.14785075
15	0x3db7d324	0.08975819
16	0xbda08632	-0.07838096
17	0x3e9b828f	0.30373046
18	0x3db67866	0.08909683
19	0xbdda60c8	-0.10662991

decoder.2.weight f4 [20, 20]
0	0xbe10ab25	-0.14127786
1	0x3e8eece3	0.27915105
2	0x3e9f4bf2	0.3111263
3	0x3e937c06	0.2880556
4	0xbe028c95	-0.1274894
5	0x3e66e1e4	0.22547108
6	0x3c9ce8b4	0.01915393
7	0xbecf1266	-0.40443724
8	0xbe2dbf1e	-0.16967437
9	0xbe93663a	-0.2878893
10	0xbe4564c8	-0.19276726
11	0x3d804120	0.062624216
12	0x3d508e5b	0.05091701
13	0xbdb26ac8	-0.08711773
14	0xbec67f94	-0.3876921
15	0xbe2f3c46	-0.17112836
16	0x3ea7ae4a	0.3275016
17	0x3ca15935	0.019695858
18	0xbe742df9	-0.23845662
19	0x3e0ff38a	0.14057747
20	0x3da5593e	0.08073662
21	0x3e990fd0	0.29894876
22	0x3dfbb2f7	0.12289994
23	0xbdf29e5d	-0.11846612
24	0xbe1882fe	-0.1489372
25	0x3e8627a9	0.26202133
26	0xbdc58c4b	-0.096458994
27	0x3c9277d1	0.017879399
28	0xbe322e8f	-0.17400573
29	0x3ce9cae7	0.028539134
30	0x3ddabe50	0.106808305
31	0xbc4d1928	-0.012518205
32	0x3e86fdc3	0.2636548
33	0x3e515460	0.20442343
34	0xbd202e81	-0.03910685
35	0xbe0fb0ad	-0.1403224
36	0x3df95314	0.12174049
37	0xbe1e68da	-0.15469685
38	0x3c5cc923	0.013475689
39	0xbdc3e3a7	-0.095649056
40	0x3e07ba6e	0.13254711
41	0xbdd5a8d2	-0.104325905
42	0xbe7dd79a	-0.24789277
43	0xbd9e082e	-0.07716404
44	0x3e0ffd61	0.140615
45	0xbe952db6	-0.29136437
46	0x3dc456b3	0.09586849
47	0xbdbdc5f3	-0.092662714
48	0x3d25bfbb	0.04046605
49	0x3c67f212	0.014156835
50	0xbe2a37f2	-0.16622904
51	0xbdc39001	-0.09548951
52	0xbe1a6ea5	-0.1508127
53	0xbda020e7	-0.078187756
54	0x3dbe22ab	0.09283956
55	0x3bcd7de9	0.006271113
56	0xbde4ed11	-0.11178029
57	0x3e4c5e0f	0.19957756
58	0x3e34cb5b	0.17655699
59	0xbe5aee5c	-0.2137999
60	0xbd812b17	-0.06307047
61	0x3e255bd5	0.16148312
62	0x3d9bd448	0.07608849
63	0x3d4f3bb4	0.050594047
64	0xbe34c283	-0.17652325
65	0x3e2f3f63	0.17114024
66	0xbdf10208	-0.117679656
67	0xbe0ea9ee	-0.1393201
68	0xbd7f0ab1	-0.062266055
69	0x3d2f8df4	0.042859986
70	0x3d465f03	0.048430454
71	0xbe47ae76	-0.19500145
72	0xbe028072	-0.1274431
73	0xbd46fc83	-0.048580658
74	0x3ba006fc	0.004883645
75	0xbe8e1787	-0.27752325
76	0x3d17e6d9	0.037085388
77	0xbe2dbae9	-0.16965832
78	0xbe397d2b	-0.18114154
79	0x3ea1588c	0.31512868
80	0xbe0e543d	-0.13899322
81	0xbe485bb1	-0.19566227
82	0xbda021fd	-0.07818983
83	0xbe8a5856	-0.2702052
84	0xbbc65a53	-0.006053248
85	0xbe3bda93	-0.18345098
86	0xbe06201d	-0.13098188
87	0x3df503f5	0.11963645
88	0x3e910854	0.28326666
89	0x3dd9e182	0.10638715
90	0xbd2a0d80	-0.04151678
91	0xbdb05167	-0.08609276
92	0xbe317fe0	-0.17333937
93	0x3e60f25d	0.21967454
94	0xbc967f78	-0.018371329
95	0x3dc353d2	0.09537472
96	0xbe8bcd03	-0.2730485
97	0xbd3eed31	-0.046612922
98	0xbed587c4	-0.41705143
99	0x3e1274a4	0.14302307
100	0x3e340eb0	0.17583728
101	0xbe9d10ef	-0.30676982
102	0x3f412815	0.75451785
103	0x3dc22e83	0.09481528
104	0xbd1da2ec	-0.038485453
105	0xbf4c4486	-0.7979206
106	0xbe4858dc	-0.19565147
107	0xbdd08837	-0.10182231
108	0x3c759774	0.0149897225
109	0xbe8ac75d	-0.27105227
110	0xbe725dbf	-0.23668574
111	0x3d30bf09	0.043150935
112	0xbd8ae12b	-0.06781229
113	0xbd340133	-0.043946456
114	0xbe9a1277	-0.30092213
115	0xbc75d927	-0.015005386
116	0x3f116fc2	0.56811154
117	0xbe4e7c68	-0.20164645
118	0x3b747062	0.003729843
119	0xbebb3064	-0.36560357
120	0x3ea65c9e	0.32492536
121	0xbdb3408d	-0.087525465
122	0x3e68446a	0.22682348
123	0xbd4fb077	-0.0507054
124	0x3e6d67f1	0.23184182
125	0xbdaa6443	-0.08319905
126	0xbd8e964a	-0.06962259
127	0x3e8da93e	0.27668184
128	0xbd23c25e	-0.039980285
129	0xbd789475	-0.060688455
130	0x3dadeee6	0.08492832
131	0x3e04be01	0.12963106
132	0xbe214366	-0.15748367
133	0x3e6ae164	0.22937542
134	0xbe2a905e	-0.16656634
135	0x3ea2514d	0.31702653
136	0x3db39f03	0.087705635
137	0x3d335e6b	0.043791216
138	0x3e9c03e9	0.30471733
139	0xbe88e529	-0.26737335
140	0xbd4a27a1	-0.0493542
141	0xbe8e894c	-0.27839124
142	0x3f19adf7	0.60031074
143	0xbe1ca3d3	-0.15296869
144	0x3e1530aa	0.14569345
145	0xbe4ae126	-0.1981245
146	0x3e004178	0.12524974
147	0xbd0aa979	-0.033853028
148	0x3d0ee85d	0.034889568
149	0x3e701bd6	0.23448119
150	0x3dd24c21	0.10268427
151	0xbd463d75	-0.048398454
152	0xbd1d467d	-0.0383973
153	0x3d8bc9f8	0.06825632
154	0xbe1ff869	-0.15622105
155	0x3e0ae007	0.13562022
156	0x3e55e22b	0.20887057
157	0x3df0e8b0	0.117631316
158	0xbd0b1f0f	-0.033965167
159	0xbe8c27c6	-0.27374095
160	0x3d62caed	0.055369306
161	0xbe9002cd	-0.28127137
162	0xbdd32783	-0.10310271
163	0xbdfcd329	-0.12344963
164	0x3eaa56b1	0.33269265
165	0xbec13080	-0.37732315
166	0xbec89425	-0.39175525
167	0x3ca61a42	0.020276193
168	0xbdc89864	-0.09794691
169	0x3d1e1519	0.03859434
170	0x3eb9b662	0.3627196
171	0x3dc79ee9	0.097471066
172	0xbeb182f0	-0.3467021
173	0x3ddda312	0.10822119
174	0x3e5689fe	0.20951077
175	0x3eb10be2	0.34579378
176	0xbd743fcc	-0.059631154
177	0x3eca1ae5	0.39473644
178	0x3e91bd74	0.28464854
179	0xbea64748	-0.32476258
180	0xbe22aa27	-0.1588522
181	0x3d5ca983	0.053872596
182	0xbc085adf	-0.008322447
183	0x3db62f2b	0.08895715
184	0xbe821308	-0.25405145
185	0x3ea1ea70	0.31624174
186	0xbe0fd7e9	-0.14047207
187	0x3e13b3a5	0.14423998
188	0x3e98eeea	0.29869777
189	0x3df53fa5	0.1197503
190	0xbe026c27	-0.1273657
191	0xbe8d9752	-0.2765451
192	0x3e444531	0.1916702
193	0xbe5ecd2d	-0.21757956
194	0xbe3dd708	-0.18539059
195	0xbe30fbe3	-0.17283587
196	0xbe34af2b	-0.17644946
197	0xbb0f59bc	-0.0021873554
198	0x3e1c8e46	0.15288648
199	0x3e2f8d70	0.17143798
200	0xbd603b1f	-0.054743882
201	0xbdaf8d08	-0.085718215
202	0xbe0df7bd	-0.13864036
203	0xbdda16f1	-0.10648907
204	0x3e807be4	0.2509452
205	0xbe819b3a	-0.2531374
206	0xbd279681	-0.040915016
207	0xbcb3c8f6	-0.021946412
208	0x3eb2b242	0.34901625
209	0xbc2a5c75	-0.01039802
210	0x3e8a238f	0.26980254
211	0xbe6a4436	-0.22877583
212	0xbe75bc15	-0.23997529
213	0x3e112003	0.14172368
214	0x3eb3503c	0.3502215
215	0xbdee5b71	-0.11638535
216	0x3d1c002f	0.038086113
217	0xbc4ec281	-0.0126196155
218	0xbe21cb84	-0.15800291
219	0x3dbca656	0.092114136
220	0xbdf07e14	-0.117427975
221	0xbf119cc1	-0.5687981
222	0xbd3b354c	-0.045705125
223	0xbe8d546f	-0.2760348
224	0x3cbdf05f	0.023185907
225	0xbd5bab50	-0.053630173
226	0x3d344270	0.044008672
227	0x3e0df0ae	0.13861343
228	0x3eacd216	0.33754033
229	0xbe401954	-0.18759662
230	0xbd765b9f	-0.06014597
231	0xbf528146	-0.82228506
232	0x3dfd3f49	0.12365586
233	0x3e980a75	0.29695478
234	0x3e976c50	0.29574823
235	0x3cb8a487	0.02253939
236	0x3e4e2e8d	0.20134945
237	0x3e589b45	0.2115298
238	0xbf364805	-0.71203643
239	0x3eec70e8	0.4617989
240	0x3d9d62da	0.0768487
241	0x3d3b5230	0.045732677
242	0xbe5c8aaf	-0.21537279
243	0xbced1bc5	-0.028943906
244	0xbe225ad5	-0.15854962
245	0xbe1d84c5	-0.15382679
246	0xbe743ed9	-0.238521
247	0x3e78ccf2	0.2429693
248	0xbe23fcfe	-0.16014478
249	0x3d0ededb	0.0348805
250	0xbe1d8b08	-0.15385067
251	0x3dd31862	0.10307385
252	0xbb6f402b	-0.0036506753
253	0xbd376dd7	-0.044782486
254	0x3dfa0e9b	0.12209817
255	0x3e941dfa	0.2892912

decoder.2.bias f4 [20]
0	0xbe444739	-0.19167794
1	0xbe4aa8ef	-0.19791006
2	0x3daabbfc	0.083366364
3	0xbe005c81	-0.12535287
4	0x3e793263	0.24335627
5	0xba0eb75b	-0.0005444192
6	0xbdc32405	-0.095283546
7	0x3d775954	0.060387924
8	0xbc64d6a5	-0.013967191
9	0xbe762f4e	-0.24041483
10	0x3d1953ec	0.03743355
11	0xbcb981c5	-0.022644887
12	0x3e54e02c	0.2078864
13	0xbe0dc809	-0.13845839
14	0x3d8d5510	0.0690099
15	0xbd84ef80	-0.064909935
16	0x3cac7545	0.021052012
17	0x3e4a76b8	0.1977185
18	0x3d2ccd9d	0.042188276
19	0xbdb96372	-0.09052171

decoder.4.weight f4 [20, 20]
0	0xbdce0108	-0.100587904
1	0x3e0e4fc5	0.13897617
2	0xbd5d48a9	-0.054024372
3	0x3dc3a7b4	0.09553471
4	0x3e4ebae6	0.20188484
5	0xbe3b75bc	-0.18306631
6	0xbd30478f	-0.043036994
7	0x3e3048c4	0.17215258
8	0x3ea0bf31	0.31395867
9	0x3e472af9	0.19449987
10	0xbd9bb01c	-0.076019496
11	0xbbf35b87	-0.0074266824
12	0xbe32d615	-0.17464478
13	0x3d0156de	0.031576984
14	0xbb66399b	-0.003512955
15	0x3e838159	0.25684622
16	0x3e891ca7	0.26779673
17	0xbe332074	-0.17492849
18	0x3ddba82d	0.10725436
19	0xbe362b20	-0.17789888
20	0x3e313b73	0.17307834
21	0x3dc2ca6f	0.095112674
22	0x3dfdf5d6	0.12400405
23	0x3e369cd1	0.17833258
24	0xbdef3a2e	-0.11681019
25	0x3e452efa	0.19256201
26	0x3ccda6b4	0.025103904
27	0xbe80de8d	-0.25169793
28	0xbe187d10	-0.14891458
29	0xbe50d85f	-0.20395039
30	0xbde8ba69	-0.1136368
31	0xbd9ff5b1	-0.07810534
32	0x3cd0c105	0.025482664
33	0xbe1c0d55	-0.15239461
34	0x3d2738a7	0.040825512
35	0xbc907253	-0.017632639
36	0xbe1dc69d	-0.15407796
37	0xbcda3071	-0.026634427
38	0xbe66313e	-0.22479722
39	0xbd02f230	-0.03196925
40	0x3ea3fbb4	0.32027972
41	0xbe0e8567	-0.13918076
42	0x3e0f4036	0.13989338
43	0xbd9718e6	-0.07377796
44	0xbe1cf986	-0.1532956
45	0x3e05ae77	0.13054834
46	0xbe77e75e	-0.24209353
47	0x3cd9cf3d	0.026588077
48	0x3d365bb6	0.044521056
49	0x3d860601	0.06544114
50	0xbd8c8fa6	-0.06863336
51	0xbe1d86f6	-0.15383515
52	0xbe15e447	-0.14637862
53	0x3de6ae83	0.11263754
54	0x3e3d7035	0.18499835
55	0x3dc1fb5e	0.094717726
56	0xbe2d6dae	-0.1693637
57	0x3dcf70e8	0.10128957
58	0xbdec9d45	-0.11553434
59	0x3dd927d3	0.10603299
60	0x3e297805	0.1654969
61	0xbe622f9b	-0.22088473
62	0xbe4e8890	-0.20169282
63	0xbe57bc10	-0.21067834
64	0xbd844c44	-0.06459859
65	0x3c6182a8	0.013764061
66	0xbdf4d7ae	-0.119552
67	0x3d72d871	0.059288446
68	0xbe29756b	-0.16548698
69	0xbdbb2267	-0.09137421
70	0x3d961e21	0.073299654
71	0xbdece4ff	-0.11567115
72	0xbd084b68	-0.033275038
73	0xbe57138d	-0.21003552
74	0xbe7a2dc6	-0.24431524
75	0x3b43b1fe	0.002986073
76	0xbe090008	-0.13378918
77	0x3e346ab5	0.1761883
78	0xbdf70eb9	-0.12063355
79	0x3e131900	0.14365005
80	0x3e8e2b80	0.27767563
81	0xbde93d8b	-0.113886915
82	0xbd56807c	-0.052368626
83	0x3d952e54	0.07284227
84	0xbe36953b	-0.17830364
85	0x3e1b8fae	0.15191528
86	0xbdc6b324	-0.09702137
87	0xbcaca980	-0.021076918
88	0xbe92b050	-0.2865014
89	0x3e1d623d	0.15369506
90	0xbe81c290	-0.25343752
91	0xbdc84bfc	-0.09780118
92	0x3d79c2f7	0.06097695
93	0xbe5e41bb	-0.21704762
94	0x3dc4b0e8	0.09604055
95	0x3e6e52ca	0.23273769
96	0xbd73c85a	-0.059517242
97	0x3dd1881c	0.10231039
98	0xbdb4c5d2	-0.08826794
99	0x3d29eed7	0.04148754
100	0xbdb1f5b9	-0.08689446
101	0x3d6785a2	0.056523927
102	0xbdb8786e	-0.09007345
103	0xbd5f41f0	-0.054506242
104	0x3e4bbb91	0.1989577
105	0x3dc221de	0.09479116
106	0xbe44d790	-0.19222856
107	0x3ecd3dfd	0.40086356
108	0x3e7cce68	0.24688113
109	0xbd6e9e3b	-0.05825637
110	0x3d5e614f	0.05429202
111	0x3e3380b0	0.17529559
112	0xbe5a2e35	-0.21306689
113	0x3e29d725	0.16585977
114	0x3e0a1579	0.13484754
115	0xbd8058bd	-0.062669255
116	0xbdaf5bf7	-0.08562463
117	0xbdf14a92	-0.11781801
118	0x3e309eb9	0.17248048
119	0x3c920523	0.017824715
120	0x3d9386cd	0.072034456
121	0xbd401cb7	-0.046902385
122	0x3e25ad31	0.16179349
123	0x3d18046f	0.037113603
124	0x3d0eed67	0.034894373
125	0xbe7e8690	-0.24856019
126	0x3e6a66f9	0.22890843
127	0x3c03e1e1	0.008049459
128	0xbdc2a769	-0.09504587
129	0xbe53e996	-0.20694575
130	0xbd2db14e	-0.04240542
131	0x3dd342e8	0.10315496
132	0x3e3ee39a	0.1864151
133	0xbe479734	-0.19491273
134	0x3d3b4544	0.045720354
135	0xbd6387ff	-0.055549618
136	0x3b82b7a8	0.0039891787
137	0xbcd5587a	-0.026043165
138	0x3d9d1d32	0.07671584
139	0xbe68a307	-0.2271844
140	0xbdf6e0bf	-0.12054586
141	0xbe369476	-0.17830071
142	0x3e21fb89	0.1581861
143	0x3dfe11ec	0.12405762
144	0x3dbbfd88	0.091792166
145	0xbda7f964	-0.08201864
146	0xbe0ddb22	-0.13853124
147	0x3e805975	0.2506825
148	0x3d5ba96a	0.053628363
149	0x3cd7d0b7	0.02634464
150	0x3d739fea	0.059478678
151	0x3cf17aa8	0.029477432
152	0xbe3f6798	-0.18691862
153	0x3e868c58	0.2627895
154	0xbe06e865	-0.13174589
155	0x3d9b6c89	0.07589061
156	0xbded3d9f	-0.11584019
157	0x3e43076e	0.19045803
158	0xbe059c4b	-0.13047902
159	0x3e09e4d1	0.13466193
160	0x3d4fca4c	0.050730035
161	0xbd8ae3ca	-0.067817286
162	0x3d87170b	0.06596192
163	0xbe404194	-0.18775016
164	0xbe2bcbeb	-0.16777007
165	0x3d7698af	0.060204204
166	0x3e67851b	0.2260937
167	0xbeabebbb	-0.33578286
168	0xbdc56561	-0.09638477
169	0xbe7c4660	-0.24636221
170	0xbe2103c1	-0.15724088
171	0x3d4698e4	0.04848565
172	0xbda66b5d	-0.08125947
173	0x3e5a8a64	0.21341854
174	0x3e0a22ca	0.13489833
175	0xbe0ca18a	-0.13733497
176	0x3dd4b7b8	0.10386604
177	0x3e015e0a	0.1263353
178	0x3e39ff11	0.18163706
179	0xbd2d653c	-0.042332873
180	0x3db0d448	0.086342394
181	0xbe0c63f4	-0.13710004
182	0xbdb8124a	-0.08987863
183	0x3e5da5c5	0.21645267
184	0x3e620414	0.22071868
185	0xbec51a8f	-0.38496825
186	0x3e36cc1a	0.17851296
187	0xbeb9f0ed	-0.36316624
188	0xbea1b895	-0.31586137
189	0x3defff34	0.11718598
190	0x3d37e53b	0.044896346
191	0xbc3733f6	-0.011181822
192	0x3e45d790	0.19320512
193	0xbe181364	-0.14851147
194	0x3e2815fc	0.16414636
195	0x3e01142e	0.12605354
196	0xbe3c8782	-0.18411067
197	0x3dd362fa	0.10321613
198	0xbe62cf65	-0.22149427
199	0xbda140b9	-0.07873673
200	0x3eace03c	0.33764827
201	0x3e1dfc4f	0.1542828
202	0xbe32eef3	-0.17473964
203	0x3e5d129d	0.21589132
204	0xbea12050	-0.31469965
205	0x3f203e22	0.6259481
206	0xbe1cd4a0	-0.15315485
207	0x3e6bef69	0.23040546
208	0xbe73c089	-0.23803915
209	0x3dc724e4	0.09723833
210	0xbe6d2eee	-0.23162434
211	0xbee64eb2	-0.44981915
212	0xbe790d3c	-0.24321455
213	0xbd8851de	-0.0665624
214	0x3e0407f1	0.12893654
215	0x3d6e3f2c	0.058165714
216	0xbdfc0ca8	-0.123071015
217	0xbe031fb7	-0.12805067
218	0x3ef7bcf7	0.48386356
219	0xbed3e6c7	-0.41387007
220	0xbe6f4eb5	-0.23369868
221	0x3de62ad4	0.112386376
222	0xbe11755e	-0.14204928
223	0x3d32424f	0.043520268
224	0x3d85b64e	0.065289125
225	0x3e2a9f4a	0.16662326
226	0x3e06e1e1	0.13172103
227	0x3e282a10	0.16422296
228	0x3d710a68	0.058847815
229	0xbe5dc5eb	-0.21657531
230	0xbe06ae70	-0.1315248
231	0xbd9daa62	-0.076985136
232	0x3e08763e	0.13326356
233	0xbe0ab160	-0.13544226
234	0xbdbfddbf	-0.093684666
235	0xbd0309b1	-0.031991664
236	0x3d9455ec	0.07242951
237	0xbe057124	-0.13031441
238	0x3e449fda	0.19201604
239	0x3c43761c	0.011930015
240	0x3ea1c8f4	0.31598628
241	0xbe6cfaab	-0.23142497
242	0x3d6149ec	0.055002138
243	0x3d5b0dc5	0.05347993
244	0x3dd0a215	0.10187165
245	0xbe39b0ef	-0.18133901
246	0xbcc383b4	-0.023866512
247	0xbe08f81b	-0.13375895
248	0xbe9d05d9	-0.30668524
249	0xbe62bc24	-0.22142082
250	0xbcb4757e	-0.02202868
251	0x3dc5e13c	0.09662101
252	0xbe4ecf8f	-0.20196365
253	0xbdff7bad	-0.12474761
254	0xbe1ec424	-0.15504509
255	0xbce4a011	-0.027908357

decoder.4.bias f4 [20]
0	0xbcfae833	-0.0306283
1	0xbd05cf04	-0.03266813
2	0xbdf500fd	-0.11963079
3	0x3ddd470b	0.10804566
4	0x3e2bce6b	0.16777961
5	0x3e7cff39	0.24706735
6	0x3e311728	0.1729399
7	0xbd4c2ae1	-0.04984558
8	0xbe0d41df	-0.13794659
9	0x3dd01896	0.101609394
10	0x3becd7d0	0.0072278753
11	0xbd486cd5	-0.048931915
12	0x3e215835	0.15756305
13	0xbe109f0f	-0.14123176
14	0xbdda69af	-0.10664689
15	0x3e47f9e3	0.19528918
16	0x3e5d5208	0.21613324
17	0xbe5d9ec6	-0.21642599
18	0x3d9ba72d	0.076002456
19	0x3e709527	0.23494397

decoder.6.weight f4 [20, 20]
0	0xbda037a2	-0.07823111
1	0x3e3a1c78	0.18174922
2	0x3db1c7ca	0.08680685
3	0x3dcdbca4	0.10045746
4	0x3e55af06	0.20867547
5	0xbe2aa1cd	-0.16663285
6	0x3ce8d8b8	0.028423652
7	0xbde5380f	-0.11192333
8	0x3e97d481	0.29654315
9	0x3c44338c	0.01197518
10	0x3e4cff31	0.20019223
11	0xbd659271	-0.05604786
12	0x3e8a1e1d	0.269761
13	0xbe170e30	-0.14751506
14	0xbd314ce9	-0.043286238
15	0x3e3e8fbb	0.18609516
16	0x3dc49958	0.095995605
17	0x3d8716f8	0.06596178
18	0x3e3e5b80	0.18589592
19	0xbd06489f	-0.0327841
20	0xbe301841	-0.17196752
21	0x3e1cef87	0.15325747
22	0xbe7a8db0	-0.24468112
23	0x3da0ec1e	0.07857536
24	0x3e17de34	0.14830858
25	0x3e348aa3	0.1763101
26	0x3e5a7ac6	0.21335897
27	0xbe2505a2	-0.1611543
28	0xbd43d952	-0.047814675
29	0x3ddf82c5	0.10913614
30	0xbdd75d46	-0.10515837
31	0x3d04690d	0.032326747
32	0x3e70a6e0	0.23501158
33	0x3b7e0e79	0.003876595
34	0xbea82518	-0.328408
35	0x3e30cef1	0.17266442
36	0xbdac9591	-0.08426965
37	0xbe0d49fd	-0.13797756
38	0xbe151f6c	-0.14562768
39	0xbd2322ba	-0.03982804
40	0xbda12004	-0.078674346
41	0xbde19053	-0.11013856
42	0x3e176b53	0.14787035
43	0xb9f185b6	-0.00046066724
44	0x3db51189	0.08841235
45	0x3beb03b8	0.007172074
46	0x3e213472	0.15742663
47	0xbe3a22c4	-0.18177325
48	0xbdaa019f	-0.083010904
49	0xbe74eaa2	-0.2391763
50	0xbe085bc5	-0.13316257
51	0xbd730395	-0.059329588
52	0xbe7887f8	-0.24270618
53	0x3cc24d1b	0.023718407
54	0xbe3a3e03	-0.18187718
55	0xbb98522d	-0.004648468
56	0x3dafb21e	0.08578895
57	0x3dfeb87d	0.12437532
58	0xbe0af1fb	-0.1356887
59	0xbc15da79	-0.009146326
60	0xbe100d81	-0.14067651
61	0xbe2624dc	-0.16224998
62	0x3db591f2	0.088657275
63	0x3e093550	0.13399243
64	0x3e209890	0.15683198
65	0xbc714c80	-0.014727712
66	0x3dad5f37	0.084654264
67	0x3ddbd24d	0.10733471
68	0x3d6b8474	0.057499364
69	0x3e87b25e	0.2650327
70	0x3e2e83db	0.17042486
71	0xbe53a197	-0.2066711
72	0xbbf1e05f	-0.0073814834
73	0xbe8d0608	-0.27543664
74	0xbe9dd6fd	-0.30828086
75	0x3e91d3e7	0.2848198
76	0xbd5de5fb	-0.054174405
77	0xbe0232e2	-0.12714723
78	0xbe381cde	-0.17979762
79	0x3e6182be	0.2202253
80	0xbe08c5f6	-0.13356766
81	0x3e823ca8	0.25436902
82	0x3e24edc6	0.16106328
83	0xbd2ea2dd	-0.042635787
84	0x3d735b06	0.05941298
85	0x3dbb7a3f	0.09154176
86	0x3e817836	0.25287026
87	0xbd2f3ad0	-0.042780697
88	0x3ceac76c	0.028659545
89	0x3ecc54cf	0.39908454
90	0x3e54fed0	0.20800328
91	0xbdf373a8	-0.11887294
92	0x3e380874	0.17971975
93	0xbe9a8040	-0.30175972
94	0xbbd0c32f	-0.006370924
95	0x3e27d28e	0.16388914
96	0xbd83b7e9	-0.064315625
97	0xbdedb34f	-0.11606466
98	0x3e3a8ea7	0.1821848
99	0x3cdbf6f8	0.026851162
100	0xbe8e1980	-0.2775383
101	0x3e2a6674	0.16640645
102	0x3db5941e	0.08866142
103	0xbd6e9648	-0.058248788
104	0x3e5b7fdc	0.21435493
105	0xbe487979	-0.19577588
106	0x3d84081a	0.06446858
107	0xbe127268	-0.14301455
108	0xbd2702a1	-0.04077399
109	0x3e8ba2e9	0.27272728
110	0x3e7bcabe	0.24589059
111	0xbe3358ef	-0.17514394
112	0xbd8533d8	-0.06504029
113	0xbe5b4bbd	-0.2141561
114	0xbe7e2868	-0.24820101
115	0x3da5ff5c	0.081053466
116	0x3e3a4914	0.1819194
117	0x3d489621	0.0489713
118	0xbddde9d6	-0.10835616
119	0xbdac9c0a	-0.084281996
120	0x3d81220b	0.06305321
121	0xbdc14905	-0.094377555
122	0xbe4e2a60	-0.20133352
123	0x3cf29605	0.02961255
124	0x3c8b84e8	0.017031148
125	0xbdc4d1ed	-0.09610353
126	0xbe102290	-0.14075685
127	0x3e381517	0.17976795
128	0xbd83dfde	-0.06439184
129	0xbe01eeb9	-0.12688722
130	0xbddc6a9b	-0.10762521
131	0x3e2783b7	0.16358839
132	0x3bb131f0	0.0054075643
133	0x3e63107b	0.22174256
134	0x3c45144e	0.012028767
135	0xbe2e93c1	-0.17048551
136	0x3e346855	0.17617925
137	0xbdb9d583	-0.09073927
138	0x3e60c469	0.21949925
139	0x3d1829de	0.037149303
140	0xbd2c3baa	-0.042049088
141	0xbcefb276	-0.029259901
142	0xbe68fe83	-0.22753339
143	0xbde6d314	-0.11270729
144	0x3e188fb9	0.14898576
145	0xbe5f3fae	-0.21801636
146	0xbbb17104	-0.005415084
147	0xbd853257	-0.06503742
148	0x3e223a5e	0.15842578
149	0xbd504cf9	-0.050854657
150	0x3cad596e	0.021160807
151	0xbb67fe8d	-0.0035399527
152	0x3e15e54c	0.14638251
153	0xbe3a1cdd	-0.18175073
154	0x3e0b614e	0.13611338
155	0x3cf6d083	0.030128723
156	0x3e57ffae	0.21093628
157	0x3e324252	0.17408112
158	0x3e1bc852	0.15213135
159	0x3e1eab47	0.15495025
160	0x3db5e11a	0.08880825
161	0xbdda389b	-0.10655328
162	0xbe49d764	-0.19711071
163	0x3dd2c7ba	0.10292001
164	0x3d1bbeb8	0.03802368
165	0xbdcf1a4a	-0.10112436
166	0xbdf607eb	-0.12013229
167	0x3c2b11ff	0.010441302
168	0x3ea2ad8d	0.31773034
169	0x3e02c994	0.12772208
170	0x3e591c9b	0.21202318
171	0x3dded17b	0.10879799
172	0x3e21121a	0.15729561
173	0xbe89f383	-0.26943597
174	0xba4b1b51	-0.0007747906
175	0x3e62bd32	0.22142485
176	0xbd728c72	-0.05921597
177	0x3ddd7804	0.10813907
178	0x3e4e1dcf	0.20128559
179	0xbd91f792	-0.071272984
180	0xbdbc601a	-0.091980174
181	0x3cb16dcb	0.021658799
182	0x3e2dc60e	0.16970083
183	0xbd264b2e	-0.04059904
184	0x3e072271	0.13196732
185	0xbd53dc33	-0.05172367
186	0xbd839764	-0.0642536
187	0x3e4d4b43	0.20048241
188	0xbe2c0d8e	-0.16802046
189	0x3bd3d6e8	0.006464828
190	0xbd84ca9e	-0.06483959
191	0x3d793f25	0.060851235
192	0xbe108869	-0.14114536
193	0x3e0870a6	0.13324222
194	0x3e77b530	0.24190211
195	0xbe8183cc	-0.25295866
196	0xbe0ae207	-0.13562785
197	0x3dbbb14b	0.09164675
198	0xbd9493f5	-0.07254783
199	0xbe1538ba	-0.1457242
200	0xbe8293f2	-0.25503498
201	0xbca80d67	-0.020514203
202	0x3e3134a1	0.17305233
203	0xbdd3c3ee	-0.10340105
204	0x3e055a5e	0.13022754
205	0x3e4c75ab	0.19966762
206	0x3e619dc3	0.22032838
207	0xbccbeb9a	-0.024892617
208	0x3dc627fa	0.09675594
209	0x3ebf3b73	0.37350044
210	0x3e176999	0.14786376
211	0xbe49b95f	-0.1969962
212	0xbcc86536	-0.024462324
213	0xbe437ee8	-0.1909138
214	0xbe0fdd5b	-0.14049284
215	0xbbf735a7	-0.0075442377
216	0x3d759219	0.059953783
217	0x3d34c6c6	0.044134878
218	0xbe12ba43	-0.14328866
219	0xbe089631	-0.13338543
220	0x3e2409b0	0.1601932
221	0xbe9c00c9	-0.3046935
222	0x3dc7c241	0.09753848
223	0x3bfb6836	0.007672335
224	0xbe709775	-0.23495276
225	0x3c02dcd5	0.007987221
226	0x3e0a3660	0.13497305
227	0x3ca7a775	0.020465592
228	0xbd216228	-0.03940025
229	0xbe9fb194	-0.3119017
230	0xbd63a6ba	-0.055578925
231	0xbe878eab	-0.26476035
232	0x3df42cd0	0.1192261
233	0xbdc7fc82	-0.09764959
234	0xbd0a853b	-0.033818465
235	0x3c9a770c	0.018855594
236	0xbd129bba	-0.035793044
237	0x3d94b252	0.072605744
238	0xba15bdb1	-0.0005712165
239	0xbd47e533	-0.048802566
240	0x3d6f670d	0.058447886
241	0x3e14ab8c	0.14518565
242	0x3dc8e15e	0.098086104
243	0xbd4c60d5	-0.049897034
244	0xbc7eb5eb	-0.015546302
245	0x3d99a83b	0.075027905
246	0x3c497200	0.012295246
247	0x3c9ce6d3	0.019153034
248	0xbe32a437	-0.17445455
249	0xbe67dbe9	-0.22642483
250	0xbe83f8ab	-0.25775656
251	0xbd4a7af4	-0.049433663
252	0xbe9c08e2	-0.30475527
253	0x3e9d1965	0.30683437
254	0x3e921f44	0.2853948
255	0xbdb786cf	-0.089612596

decoder.6.bias f4 [20]
0	0x3a7d2e3b	0.0009658073
1	0xbe41961a	-0.18904915
2	0xbdd72314	-0.105047375
3	0x3e2b753e	0.16743943
4	0xbc3f08ea	-0.01165984
5	0x3dbfc722	0.093641534
6	0xbe17b50f	-0.14815162
7	0x3e376ba6	0.17912158
8	0x3e6f5a75	0.2337435
9	0xbe353688	-0.17696583
10	0x3e7f7219	0.24945869
11	0x3e1bd51d	0.15218015
12	0xbdec33b6	-0.115333006
13	0x3e0ef854	0.13961917
14	0xbe75e504	-0.24013144
15	0xbc959018	-0.018257186
16	0x3bec906f	0.0072193663
17	0x3e3ee5fa	0.18642417
18	0x3e6d5660	0.2317748
19	0xbe45eed2	-0.19329384
