Code/Trained models/v0_500_norm_4001.pth (torch, 9462 bytes, 9 tensors)

net.0.weight f4 [20, 6]
0	0x3eee10ee	0.4649729
1	0xbe32a589	-0.17445959
2	0xbe4d949f	-0.20076226
3	0x3dde3dda	0.10851641
4	0xbe6567cd	-0.22402878
5	0xbd972da8	-0.07381755
6	0xbeb75c75	-0.35812727
7	0xbd16f400	-0.03685379
8	0xbd5d1e3b	-0.05398391
9	0x3bd24830	0.006417297
10	0xbc2ac1a8	-0.010422148
11	0xbe6cbc18	-0.23118627
12	0xbeed0277	-0.46290943
13	0xbdbf4d7b	-0.0934095
14	0xbd2e74fa	-0.042592026
15	0x3e0121f4	0.12610608
16	0xbe3fe740	-0.18740559
17	0xbd17fab1	-0.037104312
18	0x3db5e145	0.088808574
19	0x3df631cb	0.12021216
20	0xbef933af	-0.48672244
21	0xbe86470b	-0.26226076
22	0xbe7a4fcf	-0.24444507
23	0xbeb9a80e	-0.36261028
24	0x3f089212	0.53347886
25	0x3d90eb7c	0.07076165
26	0x3e9c3752	0.30510956
27	0xbddd06ec	-0.10792336
28	0xbd8eb61b	-0.069683276
29	0xbd7ee3b5	-0.062228877
30	0xbcd67cec	-0.026182614
31	0xbe8ac7ec	-0.27105653
32	0xbe478bc6	-0.19486913
33	0xbee4b6b6	-0.44670647
34	0x3dc03286	0.093846366
35	0x3ed79246	0.42103785
36	0x3efcb90b	0.49359927
37	0xbe93d02e	-0.28869766
38	0xbd85eb34	-0.06539002
39	0xbdecd6dd	-0.115644194
40	0xbe83fd05	-0.25778976
41	0x3e326c3c	0.174241
42	0xbeb174c7	-0.34659407
43	0x3e0ce6cb	0.13759916
44	0xbde7e9a5	-0.11323861
45	0xbe0ebfe5	-0.1394039
46	0x3c808ccc	0.015692137
47	0x3da99c3e	0.08281754
48	0x3ed22ff0	0.41052198
49	0xbe336b2d	-0.17521353
50	0x3ed5f7f1	0.41790727
51	0xbd1ded1b	-0.0385562
52	0xbe8b098e	-0.27155727
53	0xbd6f79e8	-0.05846587
54	0x3f2c51c2	0.6731225
55	0x3e1847c1	0.14871122
56	0x3dbf0675	0.093274035
57	0xbcadb852	-0.021206055
58	0xbe82ec80	-0.2557106
59	0xbe113685	-0.14180954
60	0xbec7971c	-0.38982475
61	0x3e8d77d8	0.27630496
62	0x3ec5f01c	0.3865975
63	0x3eda999d	0.42695323
64	0xbeaa0823	-0.33209333
65	0xbcffb621	-0.031214776
66	0xbe252c4a	-0.16130176
67	0x3e8d8c40	0.27646065
68	0x3ea7aca5	0.32748905
69	0x3eb29c35	0.34884802
70	0x3e85a79a	0.26104432
71	0x3e9fed97	0.31235954
72	0x3ea33d3d	0.3188266
73	0x3dd900c7	0.105958514
74	0xbe6925ea	-0.2276837
75	0x3dc4e59e	0.096141085
76	0xbd4b1c4b	-0.04958753
77	0xbd67653c	-0.05649303
78	0xbf23874e	-0.63878334
79	0x3de32239	0.11090512
80	0x3b424e83	0.0029648847
81	0x3da3b81b	0.079941
82	0xbef4eab2	-0.47835308
83	0xbde81c28	-0.113334954
84	0xbed97912	-0.42475182
85	0x3e9a4f23	0.30138502
86	0x3ed10662	0.40825182
87	0x3e8ca237	0.2746751
88	0xbe7e00eb	-0.24805038
89	0xbeb71514	-0.3575827
90	0x3eeb286c	0.45929277
91	0x3e355283	0.17707257
92	0xbecde7f9	-0.40216044
93	0x3dc1fb3f	0.094717495
94	0x3ecb2e7b	0.396839
95	0x3d3e6806	0.046485923
96	0xbedcdab4	-0.43135607
97	0x3e91c4ac	0.2847036
98	0x3dfe9b5e	0.12431978
99	0x3e619f25	0.22033365
100	0xbe67826d	-0.22608347
101	0x3c174169	0.009231904
102	0xbf150140	-0.5820503
103	0x3e9a1a5a	0.3009823
104	0xbe8d4980	-0.2759514
105	0x3e127413	0.14302091
106	0x3e3d27f5	0.18472274
107	0xbda86f00	-0.082242966
108	0x3ea3e642	0.3201161
109	0x3e298733	0.1655548
110	0xbe30687d	-0.17227359
111	0xbec61bfa	-0.3869322
112	0xbe1e6fc8	-0.15472329
113	0x3e8ad1b5	0.2711312
114	0xbed6ee80	-0.41978836
115	0xbd23532d	-0.039874244
116	0xbea36571	-0.3191333
117	0x3e0d5d8f	0.13805221
118	0x3ed33681	0.4125252
119	0x3e13edec	0.14446229

net.0.bias f4 [20]
0	0xbe4a7232	-0.19770125
1	0xbe5e4939	-0.2170762
2	0xbdac0628	-0.08399612
3	0xbeb12364	-0.34597313
4	0x3eef4c96	0.46738118
5	0xbef83987	-0.4848139
6	0x3de475e3	0.111552976
7	0x3eeacf41	0.45861247
8	0x3e676d07	0.22600184
9	0x3e9366e4	0.28789437
10	0xbeb5fb50	-0.355433
11	0x3ed9e93a	0.4256075
12	0xbe1b16d8	-0.15145433
13	0xbe27c016	-0.16381869
14	0x3ee0ff40	0.4394474
15	0xbe5f07d6	-0.21780333
16	0xbda191ee	-0.07889162
17	0x3e8a971a	0.27068406
18	0xbe91fbbd	-0.28512374
19	0xbee9ff35	-0.4570252

net.2.weight f4 [20, 20]
0	0x3ed64b5e	0.41854376
1	0x3dcfca28	0.1014598
2	0xbea6917a	-0.32532865
3	0x3d885004	0.06655887
4	0x3ebded63	0.37095174
5	0x3da0ef6b	0.07858165
6	0x3e3997a5	0.18124254
7	0xbefae915	-0.49005952
8	0x3eea625e	0.45778173
9	0x3edc23de	0.42996114
10	0xbec0159f	-0.37516496
11	0x3c3b936f	0.011448725
12	0x3e2c3fcf	0.16821216
13	0xbdec5f46	-0.115416095
14	0xbea859ea	-0.328811
15	0x3e921326	0.28530234
16	0xbc1e3dcd	-0.009658289
17	0xbdeca2ce	-0.1155449
18	0xbcaffe40	-0.02148354
19	0xbe8e2768	-0.2776444
20	0xbe76852a	-0.24074236
21	0x3e4b0e3a	0.19829646
22	0x3ea7313a	0.32654744
23	0x3e36b4cd	0.17842408
24	0xbeada430	-0.33914328
25	0x3e18ef16	0.14934954
26	0xbee09c0b	-0.4386905
27	0x3e29c6a4	0.16579682
28	0xbecc0b26	-0.39852256
29	0xbe883253	-0.26600894
30	0x3b2cb78c	0.002635452
31	0xbc4a240d	-0.012337697
32	0xbe151132	-0.1455734
33	0x3e771c3b	0.24131863
34	0x3e88f111	0.2674642
35	0xbe0289ae	-0.12747833
36	0x3dcfe2cc	0.1015068
37	0x3e26cd3d	0.1628923
38	0x3e1abfdf	0.15112256
39	0x3d886bfa	0.0666122
40	0x3e9c5ed3	0.30541095
41	0x3d247305	0.040148754
42	0xbeb4a1fe	-0.3527984
43	0xbd948cf0	-0.07253444
44	0x3e729752	0.23690537
45	0xbc9a0b2c	-0.018804155
46	0x3e438459	0.19093455
47	0xbe86e9ac	-0.26350152
48	0x3ea0927f	0.31361768
49	0x3ed23ac3	0.41060457
50	0xbe0555f7	-0.13021074
51	0x3e03da28	0.12876189
52	0x3e9c9845	0.30584922
53	0xbe9fd4e6	-0.31217116
54	0xbe813f25	-0.25243488
55	0x3c37bc48	0.011214323
56	0xbe408ad7	-0.18802963
57	0xbe3cbf10	-0.1843226
58	0x3cf2f042	0.02965558
59	0xbe812627	-0.2522442
60	0x3e39f57c	0.18160051
61	0xbe5a0453	-0.21290712
62	0xbe559887	-0.20858966
63	0x3e72391b	0.23654597
64	0x3e073fce	0.13207933
65	0xbe2d7b46	-0.16941556
66	0x3eaf1d47	0.34202024
67	0xbe4e4a34	-0.20145494
68	0x3ef0210b	0.4690021
69	0x3ed04cef	0.40683696
70	0x3e6fd082	0.23419383
71	0xbe1044a9	-0.14088692
72	0x3ea635f7	0.32463047
73	0xbcf04b0c	-0.02933266
74	0xbdd43625	-0.1036189
75	0x3ef9170f	0.48650405
76	0x3e407325	0.18793924
77	0xbd079d48	-0.03310898
78	0x3da0b887	0.07847696
79	0xbe3285ec	-0.174339
80	0xbf0b205a	-0.5434624
81	0xbdd27c34	-0.10277596
82	0x3eb3e7de	0.35137838
83	0xbebb682b	-0.3660291
84	0xbe77d12b	-0.24200885
85	0xbe586800	-0.21133423
86	0xbc0bb695	-0.008527418
87	0x3f20a32e	0.6274899
88	0xbe85091d	-0.25983515
89	0xbeef1791	-0.46697667
90	0x3e155a81	0.14585306
91	0x3d9b6f4f	0.0758959
92	0xbe4e05c1	-0.20119382
93	0x3e946ad7	0.28987762
94	0x3e9841f8	0.2973783
95	0xbe3aecfa	-0.18254462
96	0x3db6c0b5	0.08923475
97	0x3e76f5f8	0.24117267
98	0xbc5eba7a	-0.013594264
99	0x3f1161be	0.5678977
100	0x3e1e7d68	0.15477526
101	0xbe257713	-0.16158704
102	0xbcd65c10	-0.026166946
103	0xbe02f15f	-0.12787388
104	0x3eb851b9	0.3599985
105	0xbd6f09d8	-0.058358997
106	0x3c7cfc63	0.015441033
107	0xbe4b615a	-0.19861355
108	0x3e42dbb4	0.19029123
109	0x3e8f9b0a	0.28047973
110	0x3d88486b	0.06654438
111	0xbe0edfb1	-0.13952519
112	0x3e0b2094	0.13586646
113	0xbe531429	-0.20613159
114	0x3bdf59ad	0.00681611
115	0x3eecf1fd	0.46278372
116	0x3d07deb4	0.03317137
117	0x3e374e7d	0.17901035
118	0xbd0d2333	-0.034457397
119	0xbe676cfa	-0.22600165
120	0xbe720821	-0.23635913
121	0x3eb15704	0.346367
122	0x3bb83e55	0.005622665
123	0xbe3004bb	-0.17189305
124	0x3a93fe92	0.0011291078
125	0x3e41afcf	0.18914722
126	0xbed17fc2	-0.40917784
127	0x3ea0db60	0.3141737
128	0xbe9b4c4a	-0.3033164
129	0xbefc3b8b	-0.49264178
130	0xbc6e4a6c	-0.014544111
131	0x3d2ecb34	0.04267426
132	0xbe7526cf	-0.23940586
133	0x3ea37ee4	0.31932747
134	0xbe33c787	-0.17556582
135	0xbe0a19c4	-0.13486391
136	0x3e293f90	0.16528153
137	0x3e28bbc1	0.16477872
138	0x3d941ccc	0.07232055
139	0x3e13e9fa	0.14444724
140	0x3da530b8	0.08065933
141	0xbdc933ca	-0.09824331
142	0xbe1e50a2	-0.15460446
143	0xbe2853c2	-0.16438201
144	0xbd0893e6	-0.033344172
145	0x3e534621	0.20632221
146	0x3edbd84f	0.42938468
147	0xbe91975c	-0.2843579
148	0x3e9477e9	0.28997734
149	0x3e78c6c8	0.24294579
150	0x3e4109c0	0.18851376
151	0x3db6a8c0	0.08918905
152	0x3e74cd53	0.2390645
153	0xbe7c69ce	-0.24649736
154	0x3dcdc6fc	0.10047719
155	0x3edce15f	0.43140694
156	0xbe3ef8e4	-0.18649632
157	0xbe7f26f5	-0.24917205
158	0x3db549bf	0.088519566
159	0x3d0ddfbf	0.03463721
160	0x3cd6d5b9	0.026224958
161	0xbe5dd6d7	-0.21663986
162	0x3d7b1457	0.061298694
163	0xbd2735cc	-0.04082279
164	0x3da22058	0.07916325
165	0xbe1ee3e0	-0.15516615
166	0x3dd69ec5	0.10479502
167	0xbea0b63e	-0.3138904
168	0x3e192cec	0.14958543
169	0x3e6dc87b	0.23221008
170	0x3ea92aa7	0.33040354
171	0x3ef2ccc5	0.47421852
172	0x3e8f248d	0.27957574
173	0xbe109626	-0.14119777
174	0x3ed25b32	0.41085202
175	0x3d459d84	0.04824592
176	0x3e1595dd	0.1460795
177	0x3e6148a2	0.22000363
178	0xbedd0217	-0.43165657
179	0x3d61a678	0.055090398
180	0x3d826b86	0.06368165
181	0xbdbd143c	-0.09232375
182	0xbdfa2b5e	-0.12215303
183	0xbd41e8cd	-0.047341157
184	0xbd44664e	-0.047949128
185	0xbe38a64f	-0.18032192
186	0x3ed600c1	0.4179745
187	0x3e22129d	0.15827413
188	0x3c16ea7c	0.009211179
189	0x3e5dfb8b	0.21677987
190	0xbe145e51	-0.14489104
191	0x3d037bba	0.032100417
192	0x3e83828c	0.25685537
193	0xbd8af4de	-0.06784986
194	0xbe677280	-0.22602272
195	0x3ed72dba	0.42027074
196	0x3e498a53	0.19681673
197	0xbd65e029	-0.05612198
198	0x3e6d1975	0.23154242
199	0xbcf1a1c4	-0.029496081
200	0xbe89c47b	-0.26907715
201	0xbd02adee	-0.031904154
202	0x3e3ce326	0.18446025
203	0x3dad5004	0.084625274
204	0xbe0104a9	-0.12599434
205	0xbe29609d	-0.16540761
206	0xbec2c2b3	-0.3803917
207	0x3e66455e	0.22487399
208	0xbed7ff1a	-0.42186815
209	0xbe53d523	-0.20686774
210	0xbadeffcb	-0.0017013488
211	0xbda37807	-0.07981878
212	0xbc889c0c	-0.016675971
213	0x3e6441d2	0.22290733
214	0x3e72f7ff	0.23727416
215	0xbe89fd88	-0.26951241
216	0xbe3abb0d	-0.18235417
217	0x3e6e814f	0.23291515
218	0x3a2b6628	0.0006538355
219	0x3b96ebad	0.0046057315
220	0x3e0a6163	0.13513713
221	0xbdcca570	-0.09992492
222	0xbebf7cc9	-0.3739989
223	0x3ded1132	0.11575545
224	0x3eb6391a	0.3559044
225	0xbe308e80	-0.1724186
226	0x3dedc83b	0.116104566
227	0xbea077b2	-0.3134132
228	0x3ef5de9c	0.480214
229	0x3ef49a40	0.47773933
230	0xba1a58c5	-0.00058878615
231	0x3e4bb76c	0.19894189
232	0x3da3147b	0.07962891
233	0xbee26bc3	-0.4422284
234	0x3ccf0a80	0.025273561
235	0x3eb71ece	0.3576569
236	0x3e41bd69	0.1891991
237	0xbda677fc	-0.08128354
238	0x3e3e517c	0.18585771
239	0x3d2431b5	0.040086467
240	0x3e4b6633	0.19863205
241	0xbe9c2aff	-0.30501553
242	0x3ec31531	0.38102105
243	0xbe996e34	-0.2996689
244	0x3e57ce25	0.21074732
245	0xbe59d857	-0.21273933
246	0xbea0f0cf	-0.31433722
247	0xbcbdc92a	-0.023167212
248	0xbb9e11f9	-0.00482392
249	0xbdae526b	-0.08511814
250	0x3dee9359	0.11649198
251	0x3e65d2f2	0.2244375
252	0x3e9a24cf	0.30106208
253	0xbd8aaf4f	-0.06771719
254	0x3ea82d2c	0.32846963
255	0xbc840231	-0.016114326

net.2.bias f4 [20]
0	0xbe7e415b	-0.24829619
1	0x3e7494a7	0.23884831
2	0x3d025a84	0.031824604
3	0x3e7a5fdd	0.24450631
4	0x3da067a7	0.0783227
5	0x3e0a9ede	0.13537166
6	0x3d75ed13	0.060040545
7	0xbc250446	-0.01007182
8	0x3dc5a040	0.09649706
9	0xbe01cb1b	-0.12675135
10	0xbce96c31	-0.028493972
11	0xbb8b5e06	-0.004253152
12	0x3e937db3	0.28806838
13	0xbd9cefc4	-0.07662919
14	0x3e217bdd	0.15769906
15	0x3c06f616	0.008237382
16	0xbe4543d9	-0.19264163
17	0xbe6a943d	-0.22908111
18	0xbe25e1b4	-0.1619938
19	0xbe0dfb1b	-0.1386532

net.4.weight f4 [20, 20]
0	0x3e71db67	0.23618852
1	0xbe265282	-0.16242412
2	0x3ee67ea5	0.45018497
3	0x3e2f173c	0.17098707
4	0xbe021df9	-0.12706746
5	0x3dfb38cf	0.12266695
6	0xbe7065c5	-0.23476322
7	0x3ea74258	0.32667804
8	0xbc8d8912	-0.017277274
9	0x3e7eabfc	0.24870294
10	0xbea45695	-0.32097307
11	0x3ea0d9f0	0.31416273
12	0xbdcf9c20	-0.101372
13	0xbdc05d7c	-0.09392831
14	0xbe181f68	-0.1485573
15	0xbe9a9731	-0.30193475
16	0xbe24f90f	-0.16110633
17	0x3e9eff08	0.31053948
18	0x3e8c6d91	0.27427343
19	0xbecfbff5	-0.4057614
20	0xbf12b782	-0.5731126
21	0x3ed2bf79	0.41161707
22	0xbf2d5d89	-0.6772085
23	0xbc97dba1	-0.018537344
24	0x3ea9789b	0.33099827
25	0xbe726c1d	-0.23674054
26	0x3ed60374	0.4179951
27	0xbecc02d5	-0.3984591
28	0x3ec43101	0.38318637
29	0xbe027d9c	-0.12743229
30	0x3e9773e5	0.29580608
31	0xbd93c3e2	-0.07215096
32	0x3eae1b09	0.34005
33	0xbeea0612	-0.45707756
34	0x3f567efc	0.8378751
35	0x3d9373ed	0.071998455
36	0x3e36a7e7	0.17837487
37	0xbf33be82	-0.70212567
38	0xbe643e59	-0.22289409
39	0x3f013802	0.50476086
40	0xbf450fb3	-0.7697708
41	0x3f0fa64a	0.5611311
42	0xbf549355	-0.8303731
43	0xbde452ff	-0.11148643
44	0x3f33ee2e	0.7028531
45	0x3dc7b06a	0.09750445
46	0x3e44ae7d	0.19207187
47	0xbea216d3	-0.31658038
48	0x3f0c7925	0.5487235
49	0xbe7c1203	-0.24616246
50	0x3f0d52d0	0.55204487
51	0xbd32dabd	-0.043665636
52	0x3e8d42f8	0.27590156
53	0xbf8d9cb6	-1.1063449
54	0x3f267ffb	0.6503903
55	0x3ace8143	0.0015755076
56	0xbe192d6c	-0.14958733
57	0xbf284072	-0.65723336
58	0x3e98792a	0.2977994
59	0x3ec8aede	0.39195913
60	0xbe188d7d	-0.14897723
61	0xbe8fb6f9	-0.28069285
62	0x3e7ce3c7	0.24696265
63	0x3e95b541	0.29239848
64	0x3e960910	0.2930379
65	0x3dc9cd86	0.098536536
66	0xbd9d6820	-0.07685876
67	0x3d4dc1a2	0.05023349
68	0x3e3d6642	0.1849604
69	0x3e87a119	0.26490095
70	0xbdf59785	-0.11991791
71	0x3d639ae5	0.05556764
72	0xbbd122c8	-0.00638232
73	0xbe26f067	-0.16302644
74	0xbe9481e4	-0.2900535
75	0xbed3779d	-0.41302195
76	0xbe63f431	-0.2226112
77	0x3db8f04b	0.09030207
78	0x3ed94759	0.42437246
79	0xbe9dbe05	-0.30809036
80	0xbe5b63be	-0.21424767
81	0x3eb13bb7	0.3461587
82	0xbecc5f8f	-0.39916655
83	0xbe2fcd24	-0.17168099
84	0x3e638580	0.22218895
85	0xbe497962	-0.1967521
86	0x3ea8e0d6	0.32984036
87	0xbeda3c67	-0.42624208
88	0x3e24deaf	0.16100572
89	0xbf0febf3	-0.56219405
90	0x3eef40ff	0.46729276
91	0xbe979518	-0.29605937
92	0x3e498abc	0.19681829
93	0xbecb5325	-0.39711872
94	0x3ebf6b10	0.3738637
95	0x3d673e1f	0.056455728
96	0x3d9247fe	0.07142638
97	0xbef75449	-0.48306492
98	0xbd95010d	-0.07275591
99	0x3e656263	0.22400813
100	0x3db2a0f8	0.087221086
101	0xbe7a1f52	-0.2442601
102	0x3eb41e54	0.3517939
103	0x3eb3e5b9	0.35136202
104	0xbe6f4a31	-0.23368146
105	0x3e5586f2	0.20852259
106	0xbec90dd4	-0.39268363
107	0x3ebab0c9	0.36463
108	0x3e668e85	0.22515304
109	0xbd9f383a	-0.07774396
110	0xbeb91603	-0.36149606
111	0x3e962613	0.29325923
112	0x3b8c730f	0.004286177
113	0x3e4cff5e	0.2001929
114	0x3d8eb16d	0.06967435
115	0xbe08b1ff	-0.1334915
116	0xbd902f67	-0.07040291
117	0xbe285fcd	-0.16442795
118	0x3ed646bf	0.4185085
119	0xbe8319d9	-0.25605658
120	0x3d296c14	0.041362837
121	0xbe6b3850	-0.229707
122	0x3eb1aac5	0.347006
123	0x3ec28bec	0.37997377
124	0x3c694939	0.014238649
125	0x3e400458	0.18751657
126	0xbec6240a	-0.3869937
127	0x3e4f47a0	0.20242167
128	0xbd95c093	-0.07312121
129	0x3e02eb44	0.12785059
130	0xbedc175c	-0.42986572
131	0x3dc59f4c	0.09649524
132	0x3e717a8b	0.23581903
133	0x3e844d92	0.2584043
134	0xbe588109	-0.21142973
135	0xbeb439c2	-0.35200316
136	0xbd171a4f	-0.036890324
137	0x3e18167f	0.14852332
138	0x3e371465	0.17878874
139	0xbe939e29	-0.28831604
140	0xbd4b0a41	-0.049570326
141	0xbdc3edcb	-0.0956684
142	0x3edbc4f6	0.42923707
143	0x3d8ebd99	0.06969757
144	0x3aac92d8	0.0013166321
145	0x3e841742	0.25798994
146	0xbc7a2986	-0.015268689
147	0x3e12b496	0.143267
148	0xbce54852	-0.027988587
149	0x3e916cf6	0.28403443
150	0xbd9f2645	-0.07770971
151	0x3ebe92b4	0.372213
152	0xbdf68660	-0.12037349
153	0x3e392532	0.18080595
154	0x3cf9dd9e	0.030501183
155	0xbebb5603	-0.3658906
156	0xbb373a9a	-0.0027958513
157	0x3da1ce27	0.079006486
158	0x3ea8500f	0.3287358
159	0xbeb2fb63	-0.34957418
160	0xbd82fda3	-0.063960336
161	0x3ebb50f1	0.3658519
162	0xbec430c9	-0.3831847
163	0xbed5f1b7	-0.41785976
164	0xbe20200d	-0.15637226
165	0xbd70442e	-0.05865877
166	0x3ea4782e	0.3212294
167	0xbec06c3b	-0.37582573
168	0xbd012637	-0.031530585
169	0xbe6f02e2	-0.23340943
170	0x3e4b0a09	0.19828047
171	0xbcf1416b	-0.029450139
172	0x3d8d8814	0.069107205
173	0x3d64ca50	0.055857003
174	0x3e110ca1	0.14164974
175	0x3e99825e	0.29982275
176	0x3dfe081a	0.12403889
177	0xbe455448	-0.19270432
178	0xbedb5fc8	-0.42846513
179	0x3f051477	0.5198435
180	0xbe80bfee	-0.2514643
181	0x3f01df40	0.5073128
182	0xbf005401	-0.5012818
183	0xbe888acd	-0.26668397
184	0x3ec32d44	0.38120472
185	0xbe110eb9	-0.14165772
186	0x3eeaec5c	0.45883453
187	0xbe2f0d28	-0.17094862
188	0x3de11f79	0.10992331
189	0xbe9bf201	-0.30458072
190	0x3f38cbec	0.7218616
191	0xbe09ff86	-0.1347638
192	0x3cccf0e9	0.025017219
193	0x3c3f28c6	0.011667436
194	0x3eb89a5a	0.3605526
195	0x3ebaa745	0.36455742
196	0x3ef7b181	0.48377612
197	0xbed67053	-0.41882572
198	0xbe3406b2	-0.17580679
199	0x3f2154da	0.630201
200	0xbeafbec4	-0.3432523
201	0xbdcd7f5f	-0.1003406
202	0xbec969b0	-0.39338446
203	0xbeaf4a3b	-0.3423632
204	0xbe0c169d	-0.13680501
205	0xbedb39ea	-0.42817622
206	0x3eda01a3	0.42579374
207	0x3ea1526c	0.31508195
208	0xbe2f0fa5	-0.17095812
209	0x3ec99030	0.3936782
210	0x3d96de7d	0.07366655
211	0xbeea6bf4	-0.45785487
212	0xbed5b4b6	-0.41739434
213	0x3ab4eb0a	0.0013802957
214	0x3c97ae31	0.018515678
215	0x3e61be8a	0.22045341
216	0x3ed68b1b	0.41903004
217	0xbbcfefa6	-0.006345707
218	0xbecd927d	-0.40150824
219	0xbeaf7980	-0.34272385
220	0x3f297559	0.66194683
221	0xbe810419	-0.2519844
222	0x3e3fb242	0.18720344
223	0xbdf89fd7	-0.12139862
224	0xbf2e00e6	-0.6797012
225	0xbe4851d3	-0.19562463
226	0x3cd4af2a	0.025962431
227	0x3eaabc8e	0.3334698
228	0xbeff36e3	-0.49846563
229	0x3e10761a	0.14107552
230	0xbeb9b1f6	-0.36268586
231	0xbe8470a4	-0.25867188
232	0xbee85298	-0.45375514
233	0x3f968e6c	1.1762214
234	0xbec05e46	-0.37571925
235	0xbd9ff4e3	-0.0781038
236	0x3c3845e2	0.01124713
237	0x3e53a2f2	0.20667627
238	0x3d46f636	0.04857465
239	0xbe8daa02	-0.27668768
240	0xbe0a0a24	-0.13480431
241	0xbbb66453	-0.005566159
242	0xbc98fc86	-0.0186751
243	0xbe81a02b	-0.2531751
244	0xbce4c4ee	-0.027925935
245	0xbe7a442b	-0.24440067
246	0x3dd766dc	0.10517666
247	0xbe0941ac	-0.13403958
248	0x3d85d8d5	0.06535498
249	0xbe18290f	-0.14859413
250	0x3e342adf	0.17594479
251	0xbea9587a	-0.33075315
252	0xbe3112d6	-0.17292342
253	0x3e1a4fce	0.15069506
254	0x3d9df775	0.07713214
255	0x3eea266a	0.45732433

net.4.bias f4 [20]
0	0xbb774ae6	-0.0037733852
1	0x3e9bbb05	0.30416122
2	0x3ea1cc3d	0.31601134
3	0x3b9c450c	0.004768973
4	0x3cbb4597	0.022860331
5	0xbc8c7c1b	-0.017149022
6	0xbd3ee098	-0.046600908
7	0x3e2d7d8c	0.16942424
8	0xbd8c8af5	-0.068624415
9	0x3e38ea4d	0.18058129
10	0xbd98bf0e	-0.07458316
11	0xbe851357	-0.25991318
12	0xbe3f25fa	-0.1866683
13	0x3bee9659	0.0072811064
14	0xbd961d76	-0.07329838
15	0x3e41b8c8	0.18918145
16	0xbde419bb	-0.1113772
17	0xbc0020e9	-0.007820346
18	0xbd0cbadf	-0.0343579
19	0x3e6ae3d8	0.22938478

net.6.weight f4 [20, 20]
0	0xbead1e7c	-0.3381232
1	0x3e4e1fb9	0.20129289
2	0x3e9c4e36	0.3052842
3	0xbd0511c4	-0.032487646
4	0x3ec08dd6	0.37608212
5	0xbe979b87	-0.29610845
6	0xbee96a7d	-0.45589057
7	0xbe865f54	-0.26244605
8	0x3e9b2f21	0.30309394
9	0x3eb10349	0.3457282
10	0xbe21db48	-0.15806305
11	0xbdb10898	-0.08644217
12	0x3e7a8c55	0.24467595
13	0x3d9c0fb9	0.07620186
14	0x3e28085c	0.16409439
15	0xbea724aa	-0.3264516
16	0xbeab0d41	-0.3340855
17	0xbe370f3c	-0.17876905
18	0xbedc1c66	-0.42990416
19	0xbe2bc815	-0.16775544
20	0x3e912b19	0.28353193
21	0xbd1d477a	-0.038398243
22	0xbea815de	-0.32829183
23	0x3df2d33b	0.11856695
24	0xbe9427a6	-0.289365
25	0xbd0edcd9	-0.034878585
26	0x3ddcc5cb	0.107799135
27	0x3e8085cb	0.25102076
28	0xbdf01c05	-0.11724094
29	0xbee92b8c	-0.45541036
30	0xbe4bae2a	-0.19890657
31	0xbe82474e	-0.25445026
32	0xbe92b3d2	-0.28652817
33	0xbf0315a6	-0.5120491
34	0xbe178c3c	-0.14799589
35	0xbed598b9	-0.4171808
36	0x3e9d3e38	0.30711532
37	0xbd3af5d1	-0.045644585
38	0xbebf3cdc	-0.3735112
39	0x3ce19323	0.02753598
40	0xbe7504e5	-0.23927648
41	0x3e467fbf	0.19384669
42	0x3e6b4fa5	0.229796
43	0xbebc991d	-0.36835566
44	0x3ea847cc	0.32867277
45	0xbe81daab	-0.25362143
46	0xbeddf18a	-0.43348342
47	0xbeaaac4e	-0.33334583
48	0x3ecd12e5	0.40053478
49	0x3e7cb223	0.24677329
50	0x3e0d8092	0.13818577
51	0xbdc13746	-0.09434371
52	0x3e03439f	0.12818764
53	0x3c905688	0.017619386
54	0x3ed3d8da	0.41376382
55	0xbecc9257	-0.39955398
56	0xbeb3954e	-0.35074848
57	0xbf161c9a	-0.5863739
58	0xbdaa4c6b	-0.08315357
59	0xbd504774	-0.050849393
60	0x3e20389c	0.15646595
61	0xbf381ea0	-0.7192173
62	0xbee83fac	-0.45361078
63	0xbd90d623	-0.07072093
64	0xbcfae654	-0.030627407
65	0x3b0781f7	0.002067683
66	0x3daed3a9	0.08536465
67	0x3ea05b02	0.31319433
68	0xbd940217	-0.07226961
69	0xbd415489	-0.04719976
70	0x3dcae064	0.0990608
71	0x3ea45745	0.3209783
72	0x3e3770a4	0.17914063
73	0xbf1d21d2	-0.6137973
74	0xbecff81d	-0.40618983
75	0x3dafbac8	0.085805476
76	0x3e0b3d23	0.1359754
77	0x3e4169a5	0.18887956
78	0xbeea490c	-0.45758855
79	0xbe77684c	-0.2416088
80	0xbe9bcf74	-0.30431712
81	0xbaa2e39d	-0.0012427453
82	0x3f1a035c	0.60161376
83	0xbe2d0f5e	-0.16900393
84	0x3f3189e9	0.6935106
85	0xbd3dd600	-0.046346664
86	0x3dd11328	0.10208732
87	0xbebd55c4	-0.36979496
88	0x3e6305be	0.22170159
89	0x3edbf3d6	0.4295947
90	0x3d9ed289	0.07755
91	0x3e7ddcbb	0.24791233
92	0xbe1c3169	-0.15253223
93	0x3eff1ffd	0.49829093
94	0x3e40cd06	0.1882821
95	0x3e5318bb	0.20614903
96	0x3e0d38e6	0.13791236
97	0x3d2948a9	0.04132906
98	0xbcc61c72	-0.024183486
99	0x3e48063d	0.1953363
100	0xbed8f62b	-0.4237531
101	0x3e2555ec	0.16146058
102	0x3d60a5c8	0.0548456
103	0xbe515e92	-0.20446232
104	0x3e626a88	0.22110951
105	0x3cd65a71	0.026166173
106	0xbe9906db	-0.29888043
107	0xbe955b4b	-0.29171214
108	0x3ecd879c	0.40142524
109	0x3e035e16	0.1282886
110	0x3d8fa8de	0.07014631
111	0xbd89d16c	-0.06729397
112	0x3e27aded	0.16374941
113	0x3ea5d780	0.32390976
114	0x3e4870bf	0.19574259
115	0xbe9174f1	-0.28409532
116	0xbdce0712	-0.10059942
117	0xbe854442	-0.2602864
118	0xbe79574a	-0.24349704
119	0xbea9ca32	-0.33162075
120	0x3ee36424	0.4441234
121	0xbe132aef	-0.14371847
122	0xbe07988d	-0.13241787
123	0x3de25041	0.110504635
124	0xbe8f0dbe	-0.27940172
125	0x3e9b94ea	0.3038705
126	0x3e448839	0.1919259
127	0x3eb72f62	0.35778338
128	0xbea42c6f	-0.3206515
129	0xbe56d785	-0.20980652
130	0x3e02e609	0.12783064
131	0x3e1a2f7a	0.15057173
132	0xbe817b62	-0.25289446
133	0xbd1e5d0e	-0.038662963
134	0xbe712b1b	-0.235516
135	0x3e83d9dc	0.2575215
136	0x3ed01ac9	0.40645435
137	0x3eff8ded	0.49912968
138	0x3eb17eda	0.34667093
139	0x3e778b34	0.24174196
140	0xbe8c469f	-0.2739763
141	0x3de9c2b1	0.114140876
142	0x3e76e087	0.24109088
143	0xbd4c7df9	-0.049924824
144	0x3eb9c254	0.36281073
145	0xbe8aa93c	-0.2708224
146	0xbd8c5d07	-0.06853681
147	0xbed1c409	-0.40969875
148	0x3eff69be	0.49885362
149	0x3ecb32d2	0.3968721
150	0x3e1e8344	0.15479761
151	0xbd842fa7	-0.064544015
152	0x3e0b065c	0.13576645
153	0x3ea20ea6	0.316518
154	0x3e80c0ea	0.25147182
155	0xbe2b52b3	-0.16730766
156	0xbe27bb2f	-0.16379999
157	0xbf041743	-0.51597995
158	0xbeac6f49	-0.33678654
159	0xbe82de5b	-0.2556027
160	0x3da6ee74	0.0815095
161	0x3e7ecb6e	0.2488229
162	0xbeeae88c	-0.45880544
163	0x3e50884a	0.2036449
164	0x3e73319a	0.2374939
165	0x3e1077b3	0.14108162
166	0xbd8f227d	-0.06989
167	0xbe1e877a	-0.15481368
168	0x3e9dd2bf	0.3082485
169	0xbcfdf446	-0.031000268
170	0xbe38b5d8	-0.18038118
171	0xbf1b5eb6	-0.6069139
172	0xbe1c3ff7	-0.15258776
173	0x3dd15613	0.102214955
174	0x3e9aa7cc	0.30206144
175	0xbcf0b02c	-0.02938088
176	0x3d9d30cf	0.07675325
177	0x3d859b90	0.06523812
178	0xbeb8c8dd	-0.36090747
179	0xbe24603a	-0.16052333
180	0xbed40798	-0.41412044
181	0xbd9fd78d	-0.07804785
182	0x3f3f0fe4	0.7463362
183	0xbc039bc9	-0.008032748
184	0x3f23787d	0.63855726
185	0xbd8cdf30	-0.06878507
186	0xbe974c8b	-0.29550585
187	0xbeb52980	-0.35383224
188	0x3ec15d35	0.37766424
189	0x3f089f6d	0.53368264
190	0x3e637b71	0.22215058
191	0xbb882668	-0.004154969
192	0xbdf36b49	-0.118856974
193	0x3e3caa6f	0.1842439
194	0x3e9ecdef	0.3101649
195	0x3e0b966f	0.13631605
196	0x3e2ba6cf	0.16762851
197	0x3ceb5734	0.028728105
198	0xbd0aa2eb	-0.033846777
199	0x3e59ef4a	0.21282688
200	0x3e43a3c4	0.1910544
201	0xbc9d634a	-0.019212384
202	0xbf0ca762	-0.54942906
203	0x3d89a644	0.06721166
204	0xbe81875f	-0.25298592
205	0x3ea9d41a	0.33169633
206	0x3ba34bfb	0.004983423
207	0x3ed466f3	0.41484794
208	0xbe576eb4	-0.21038324
209	0xbf186042	-0.5952188
210	0xbf0d6fcb	-0.5524871
211	0xbe7a4a01	-0.24442293
212	0xbe85a28c	-0.26100576
213	0xbecf8fc8	-0.40539384
214	0x3d156657	0.036474552
215	0xbe920577	-0.28519794
216	0x3e1da643	0.15395455
217	0xbd5cb9f2	-0.05388827
218	0xbedf4112	-0.43604332
219	0x3eaba53c	0.335245
220	0x3d508c36	0.050914966
221	0xbed1d343	-0.40981492
222	0x3e14dc55	0.14537175
223	0xbea59093	-0.32336864
224	0xbdb407a7	-0.08790522
225	0x3dec5fc2	0.11541702
226	0x3d3e725a	0.046495773
227	0xbceadbdd	-0.028669292
228	0x3e5c580a	0.21517959
229	0x3d4e7b59	0.050410602
230	0x3d897b4b	0.067129694
231	0x3eb46a9a	0.3523758
232	0x3e623266	0.22089538
233	0x3e17c862	0.14822534
234	0x3d81deea	0.063413456
235	0x3ebfeb12	0.37484032
236	0xbe9acf3a	-0.30236226
237	0xbf0c8fda	-0.54907
238	0xbddf1660	-0.108929396
239	0x3e7079be	0.23483941
240	0x3df14fba	0.11782785
241	0xbe91f446	-0.28506678
242	0x3e98ba34	0.29829562
243	0xbe102eee	-0.14080402
244	0xbe1f347f	-0.1554737
245	0xbd6b5b53	-0.05746014
246	0xbd114f58	-0.03547606
247	0x3de95d01	0.11394692
248	0x3e064b23	0.131146
249	0xbe278961	-0.16361
250	0x3e1b0648	0.15139115
251	0x3e70a484	0.23500258
252	0x3dc9c527	0.09852057
253	0xbe9f51e6	-0.3111717
254	0x3d762a84	0.06009914
255	0xbd57f5fa	-0.052724816

net.6.bias f4 [20]
0	0xbb1709ad	-0.0023046539
1	0x3d8af3ca	0.0678478
2	0xbc55d64d	-0.013051582
3	0xbe93a452	-0.28836304
4	0xbd7b2102	-0.061310776
5	0x3e13cd59	0.14433803
6	0x3d7fac78	0.06242034
7	0xbdf8f079	-0.121552415
8	0x3e8e5fba	0.2780741
9	0xbe16010d	-0.14648838
10	0xbdc1f32e	-0.09470211
11	0xbe1def7c	-0.15423387
12	0xbe8dcb3e	-0.27694124
13	0xbe09dd43	-0.13463311
14	0xbea991d4	-0.3311907
15	0xbe8b2b55	-0.27181497
16	0xbd124e8a	-0.035719432
17	0x3d81817b	0.063235246
18	0xbd346434	-0.044040874
19	0xbea8484d	-0.3286766

net.8.weight f4 [1, 20]
0	0xbebe32e6	-0.37148207
1	0xbf0aaf0d	-0.54173356
2	0xbe9ccbb2	-0.30624157
3	0x3f25e716	0.64805734
4	0x3f04c2ba	0.5185963
5	0xbe9e6d68	-0.30942845
6	0x3eaaeea5	0.33385196
7	0xbe9540b0	-0.29150915
8	0xbf18ec9d	-0.59736043
9	0x3efa2822	0.48858744
10	0xbf0f5909	-0.5599523
11	0x3ef036e5	0.4691688
12	0x3eb39c12	0.3508001
13	0xbea86909	-0.32892635
14	0xbebfae77	-0.37437794
15	0x3f11d24d	0.5696152
16	0xbed07732	-0.4071594
17	0x3f1f348c	0.62189555
18	0xbf244e3d	-0.6418188
19	0x3f57c603	0.84286517
