Code/Trained models/terzaghi/all_plain.pt (torch, 108992 bytes, 27 tensors)

net.0.weight f4 [50, 11]
0	0x3f844b2f	1.0335444
1	0x3f0a8b9c	0.54119277
2	0xbcd7aff8	-0.026329026
3	0x3e292dda	0.16521397
4	0x3ce734d4	0.028223433
5	0xbd8be973	-0.06831636
6	0xbd9d2462	-0.07672955
7	0xbe38fba9	-0.1806475
8	0xbd5fc571	-0.054631654
9	0xbd7788ba	-0.060433127
10	0x3cb7088e	0.022342946
11	0xbee8bc61	-0.45456222
12	0xbe93badf	-0.2885351
13	0xbe115008	-0.14190686
14	0x3e75978a	0.23983589
15	0x3e7d1b7f	0.2471752
16	0xbd1d47da	-0.0383986
17	0xbc0a3ef9	-0.008437865
18	0xbd631ee9	-0.0554494
19	0xbe34102a	-0.17584291
20	0xbd41e8bd	-0.047341097
21	0x3cce2121	0.025162281
22	0xbf21fbb0	-0.6327467
23	0xbf0e8fd2	-0.556882
24	0x3dd81aad	0.10551963
25	0xbe404ad2	-0.18778542
26	0x3e27f21f	0.16400956
27	0x3d128279	0.03576896
28	0x3d16e134	0.036835864
29	0xbb637560	-0.0034707412
30	0x3d5caede	0.053877704
31	0xbcb7a01b	-0.022415211
32	0xbd8de00d	-0.069275
33	0x3daa606a	0.08319171
34	0xbe63a22e	-0.22229835
35	0x3df24115	0.1182882
36	0xbe30586a	-0.17221227
37	0xbd51c97e	-0.05121755
38	0x3e3e389a	0.1857628
39	0xbe7bbe94	-0.24584419
40	0x3cda5695	0.026652614
41	0x3bc98ed2	0.0061510587
42	0xbccc4b75	-0.024938324
43	0x3df04c90	0.11733353
44	0x3fc4c23d	1.5371777
45	0x3e6fbd94	0.23412162
46	0xbc6fe55a	-0.014642084
47	0xbed1da39	-0.40986803
48	0x3c5ee7d9	0.0136050815
49	0x3d3f431b	0.046694856
50	0x3d42d9d8	0.047571033
51	0xbcb77261	-0.022393407
52	0xbd4b7e22	-0.049680836
53	0xbc672457	-0.014107785
54	0x3d8506d8	0.06495446
55	0x3e123e76	0.1428164
56	0xbd27870f	-0.040900286
57	0xbbf33bec	-0.0074229147
58	0x3dae1498	0.08500022
59	0xbd9365bc	-0.07197139
60	0xbe04c2ed	-0.12964983
61	0x3e388c30	0.18022227
62	0x3eae975d	0.34099856
63	0x3cea4d59	0.028601335
64	0x3e809efd	0.25121298
65	0x3d1d026b	0.038332384
66	0xbf40a596	-0.75252664
67	0x3ecd722c	0.4012617
68	0x3b065d5a	0.002050242
69	0x3dd93838	0.10606426
70	0xbd030df2	-0.03199572
71	0xbc8e847e	-0.017397162
72	0xbe5a4520	-0.21315432
73	0x3cb7751e	0.022394713
74	0x3db13352	0.08652367
75	0x3cc33558	0.023829147
76	0xbc35877b	-0.011079664
77	0xbe86e093	-0.26343212
78	0xbf53df51	-0.8276263
79	0x3e0584e8	0.13038981
80	0xbe14654b	-0.14491765
81	0xbdbe77ed	-0.09300218
82	0x3d6e8a12	0.058237143
83	0x3d9e9b47	0.077444606
84	0x3d899635	0.06718103
85	0x3da10812	0.078628674
86	0xbb532b75	-0.0032221947
87	0xba7b3b88	-0.0009583761
88	0xbf88302d	-1.0639702
89	0xbcacdf3a	-0.021102536
90	0xbde6eaec	-0.112752765
91	0x3de6b5a4	0.11265114
92	0x3cc3d391	0.023904594
93	0xbcc9c93f	-0.024632094
94	0xbd39e68c	-0.045385882
95	0x3b8f90a9	0.0043812585
96	0x3cc79edb	0.02436774
97	0x3d0a8186	0.03381493
98	0x3d01bfd8	0.031677097
99	0x3dda989c	0.10673639
100	0xbe0401d4	-0.12891322
101	0x3e33e827	0.17569028
102	0xba44c825	-0.00075066305
103	0xbdfca77b	-0.12336632
104	0xbe975fcc	-0.29565275
105	0xbbc8310c	-0.0061093625
106	0x3ea81b03	0.32833108
107	0xbe1fb4a1	-0.15596248
108	0x3e4b6642	0.19863227
109	0x3e65e9cc	0.22452468
110	0x3ec52822	0.3850718
111	0x3ed69ec1	0.41917995
112	0x3d224c12	0.039623328
113	0xbdc473bc	-0.09592387
114	0xbd313f2f	-0.043273147
115	0xbd167eb1	-0.036741916
116	0x3ca866f0	0.020556897
117	0x3e10bba3	0.14134078
118	0xbe1c1a59	-0.15244426
119	0xbd700607	-0.058599498
120	0x3cde82d5	0.027161995
121	0xbf473663	-0.7781736
122	0x3e79394d	0.24338265
123	0x3d559045	0.05213954
124	0x3cb0e259	0.021592306
125	0x3e5b222c	0.21399754
126	0x3dd54377	0.104132585
127	0xbdf304db	-0.118661605
128	0x3d4e53e1	0.050372962
129	0x3d126913	0.035744738
130	0xbcad3ba0	-0.021146595
131	0x3c3bf927	0.011472977
132	0xbecf761b	-0.40519795
133	0xbf260f73	-0.64867324
134	0x3d6e5798	0.058189005
135	0xbd9b7128	-0.07589942
136	0x3d977d28	0.073969185
137	0xbc4c23a9	-0.012459674
138	0xbd3a3742	-0.045462854
139	0x3dbc08c4	0.091813594
140	0x3b4d9a6b	0.0031372558
141	0x3d9129b2	0.07088031
142	0xbd9bf8d5	-0.0761582
143	0xbf888bc6	-1.0667655
144	0xbe5ec456	-0.21754584
145	0x3e05ac60	0.13054037
146	0xbe08f2a7	-0.13373815
147	0xbc249cb7	-0.010047129
148	0x3cbca9c3	0.023030167
149	0xbe0bf56c	-0.1366784
150	0xbd804bb0	-0.06264436
151	0x3d839156	0.06424205
152	0x3d7549d5	0.059884865
153	0x3d75f418	0.06004724
154	0xbec4d3dd	-0.3844289
155	0x3db22dcf	0.087001435
156	0xbe5d3665	-0.21602781
157	0x3ea5974f	0.32342002
158	0x3c912273	0.017716622
159	0x3cd81a37	0.026379688
160	0x3cab8030	0.020935148
161	0xbe83bb99	-0.25729063
162	0x3d84ccb7	0.06484359
163	0xbca90193	-0.020630633
164	0xbd86aad9	-0.06575555
165	0xbea367dd	-0.3191518
166	0xbea0df73	-0.31420478
167	0xbe083788	-0.13302433
168	0x3de8fba9	0.11376125
169	0xbdf1097e	-0.117693886
170	0xbe363189	-0.17792334
171	0x3e17d945	0.14828975
172	0xbd1c0eac	-0.03809993
173	0x3c72243a	0.014779145
174	0x3dfd0ea2	0.123563066
175	0xbdb703c5	-0.08936266
176	0xbe8249ee	-0.2544703
177	0x3b228737	0.0024799833
178	0x3e2cbf7c	0.1686992
179	0x3e4e2e96	0.20134959
180	0xbdc45136	-0.09585802
181	0xbda510cf	-0.080598466
182	0x3caa2f42	0.020774487
183	0xbded3d99	-0.115840144
184	0xbd01c86f	-0.03168529
185	0xbd88a663	-0.06672361
186	0x3b077a11	0.0020672122
187	0xbfc76699	-1.5578185
188	0xbe2ca0bf	-0.16858195
189	0x3db593d9	0.0886609
190	0x3cacadb7	0.021078927
191	0x3e048351	0.12940718
192	0xbdde4c05	-0.10854343
193	0xbcba0c95	-0.022711078
194	0xbe4f08c6	-0.2021819
195	0xbd74f6d5	-0.05980571
196	0xbd62231b	-0.05520926
197	0xbdad4ddd	-0.08462117
198	0x3f2cd146	0.67506826
199	0xbf2c58d0	-0.6732302
200	0xbd2a3995	-0.04155882
201	0x3d30bdd3	0.04314978
202	0x3e093847	0.13400374
203	0x3b08685d	0.0020814158
204	0xbc37c32f	-0.011215969
205	0x3c43ff7b	0.011962767
206	0xbd8032d0	-0.06259692
207	0x3d384a80	0.044992924
208	0x3d17c7f9	0.037055943
209	0x3f361ce0	0.7113781
210	0x3ca8d562	0.020609561
211	0xbb11e426	-0.0022261231
212	0x3d1244fb	0.035710316
213	0x3e1187e2	0.14211991
214	0x3e8b65f5	0.27226225
215	0x3d1e9009	0.03871158
216	0x3d77f3fd	0.06053542
217	0x3dfd7873	0.123764895
218	0x3dc9b8db	0.098497115
219	0x3bf02fdc	0.007329924
220	0xbf735301	-0.9504853
221	0xbf03b722	-0.51451313
222	0x3e150d63	0.14555888
223	0xbd935523	-0.07193973
224	0xbe6600ba	-0.22461215
225	0x3d3a2837	0.045448508
226	0xbcb80ce5	-0.022467086
227	0xbdf57d79	-0.11986823
228	0x3d91cafd	0.07118795
229	0xbd288827	-0.04114547
230	0x3c61f77e	0.013791917
231	0x3f31aed3	0.69407386
232	0x3e2f03e5	0.1709133
233	0x3d00ed0b	0.03147606
234	0xbb75ee16	-0.0037525943
235	0xbdac9576	-0.08426945
236	0xbe531d97	-0.20616756
237	0x3e91e547	0.28495237
238	0xbd5e0d44	-0.05421187
239	0x3d792caa	0.06083361
240	0x3b9be7cd	0.0047578574
241	0xbc8f7a94	-0.017514504
242	0xbee92c34	-0.45541537
243	0x3e0b2ad2	0.13590553
244	0xbc8fe798	-0.017566487
245	0xbeab4d15	-0.33457246
246	0x3ea29d13	0.31760463
247	0x3d024766	0.031806372
248	0xbcd02b01	-0.02541113
249	0xbcb18228	-0.021668509
250	0xbdd11c76	-0.102105066
251	0xbe090ba5	-0.13383348
252	0x3e6033f0	0.21894813
253	0xbfa82cfb	-1.3138727
254	0xbe6d8a1c	-0.23197216
255	0xbe227d27	-0.15868054

net.0.bias f4 [50]
0	0x3e18ad1e	0.14909789
1	0x3e4c77d9	0.19967593
2	0xbd1b598c	-0.037927195
3	0x3d936774	0.071974665
4	0x3dae7b7c	0.085196465
5	0x3e08d83c	0.13363737
6	0xbc95141a	-0.018198062
7	0x3e1c552c	0.15266865
8	0xbdb5573e	-0.08854531
9	0x3de3b52b	0.111185394
10	0xbe266eee	-0.16253254
11	0x3dae1d0c	0.08501634
12	0x3e33e7e3	0.17568927
13	0x3e07b58b	0.13252847
14	0xbe0e83e6	-0.13917503
15	0x3e23a774	0.15981847
16	0x3dbdd530	0.09269178
17	0xbdabb7be	-0.083846554
18	0xbe2a2d6b	-0.16618888
19	0xbb8a5f63	-0.0042227968
20	0xbd3e983d	-0.046531904
21	0x3df4748c	0.11936292
22	0x3d38e3c7	0.0451391
23	0xbe2c20d3	-0.16809396
24	0x3df7e71d	0.12104628
25	0xbcce0c56	-0.025152367
26	0xbc41b559	-0.011823022
27	0xbf208748	-0.6270642
28	0xbdc97905	-0.09837536
29	0x3ee00f9e	0.43761915
30	0x3e39cc92	0.18144444
31	0xbe29d391	-0.16584612
32	0x3e3267c8	0.17422402
33	0x3dbbf928	0.09178382
34	0x3e3e3cb2	0.18577841
35	0xbe3d9e18	-0.18517339
36	0xbca68aa7	-0.020329786
37	0xbe3c9fc6	-0.18420324
38	0xbde55cdb	-0.111993514
39	0xbda91de4	-0.08257654
40	0x3e682c5b	0.2267317
41	0xbe07fe62	-0.13280633
42	0x3f0a7a6a	0.5409304
43	0xbcf2a506	-0.029619705
44	0xbc8bd4f3	-0.017069316
45	0x3f050ad8	0.5196967
46	0x3d3e5e75	0.0464768
47	0x3eb911b6	0.36146325
48	0x3b8b08c7	0.0042429897
49	0x3d8f378d	0.06993017

net.2.weight f4 [50, 50]
0	0xbe6cdc59	-0.23130931
1	0x3c9daa74	0.019246317
2	0x3f054437	0.5205721
3	0x3dab73fc	0.08371732
4	0xbedf50fa	-0.43616468
5	0x3cc40a25	0.023930619
6	0x3e3cb453	0.18428163
7	0x3e2662f2	0.16248682
8	0x3e8afea5	0.27147403
9	0xbe0af098	-0.13568342
10	0xbdab9fbf	-0.083800785
11	0x3ea46822	0.32110697
12	0x3e89f09e	0.2694139
13	0x3e6dee17	0.23235355
14	0x3d6d18d8	0.05788502
15	0x3e9bf138	0.30457473
16	0x3dedfd94	0.11620632
17	0x3f01311a	0.5046555
18	0x3db7d096	0.089753315
19	0x3d9045fd	0.07044599
20	0x3f03c94c	0.5147903
21	0xbe800730	-0.25005484
22	0x3e4c7329	0.19965805
23	0x3f02ce03	0.510956
24	0x3e4b66b2	0.19863394
25	0x3e499165	0.1968437
26	0xbe1eb495	-0.15498574
27	0xbdf41307	-0.11917692
28	0xbdc3d830	-0.09562719
29	0x3dba68a8	0.09101993
30	0xbe56cccd	-0.20976563
31	0xbe865546	-0.26236933
32	0xbecdc7d6	-0.40191525
33	0x3e80ce62	0.25157458
34	0x3ebee66b	0.3728517
35	0x3e1db429	0.15400757
36	0xbefbda31	-0.49189904
37	0xbe44fb4d	-0.19236489
38	0xbf06cd2f	-0.52656835
39	0x3dafbab5	0.085805334
40	0x3c5c1cb6	0.01343458
41	0x3da671a0	0.08127141
42	0xbc8c9a79	-0.017163502
43	0xbeac4297	-0.33644554
44	0xbe3b424a	-0.18287006
45	0xbda249ab	-0.07924207
46	0xbce6df07	-0.02818252
47	0xbec102f5	-0.3769757
48	0x3d817483	0.06321051
49	0x3ed25939	0.41083696
50	0xbe631916	-0.22177538
51	0xbb4f2949	-0.0031610301
52	0x3dd20592	0.10254969
53	0x3d617ab9	0.055048678
54	0xbd9a02c1	-0.075200565
55	0xbe0f54ce	-0.13997194
56	0xbe845b1e	-0.25850767
57	0x3ed2519b	0.41077885
58	0xbc78dbcf	-0.015189125
59	0xbdffbd6e	-0.12487303
60	0xbe8a11ca	-0.26966697
61	0x3d99623b	0.07489439
62	0x3d0d6f91	0.034530226
63	0xbd8eff6b	-0.06982311
64	0xbe048834	-0.12942582
65	0xbdcd4db9	-0.1002459
66	0xbe440cf9	-0.19145574
67	0x3c2847b8	0.010271005
68	0xbc4df79c	-0.012571242
69	0x3d9b4de7	0.07583218
70	0xbdac31d7	-0.08407944
71	0x3d390a5b	0.04517589
72	0xbdfa925a	-0.122349456
73	0xbd39ec88	-0.04539159
74	0x3d7e5730	0.062094867
75	0xbe1b6a5a	-0.15177289
76	0x3e8b57a3	0.272153
77	0x3e7d688f	0.24746917
78	0x3cde67aa	0.02714904
79	0xbc05713c	-0.008144673
80	0x3e218fe8	0.15777552
81	0x3e02e419	0.12782325
82	0xbe9d3230	-0.30702353
83	0xbdda3b29	-0.10655815
84	0xbd6c9c5b	-0.0577663
85	0x3ba16366	0.0049251793
86	0xbe3bf1ce	-0.1835396
87	0xbd4e2d3d	-0.05033611
88	0xbd89e6fd	-0.06733511
89	0x3d75673f	0.059912916
90	0x3e5e83d6	0.21729979
91	0xbcad1b57	-0.0211312
92	0xb9455bd3	-0.00018821591
93	0xbe082cac	-0.13298291
94	0xbd5a5f8c	-0.053313777
95	0x3e1c5449	0.15266527
96	0x3e710867	0.23538361
97	0xbe4b5b5a	-0.19859067
98	0x3e3b1583	0.18269925
99	0x3dafe2db	0.08588191
100	0x3e0ee230	0.13953471
101	0xbd771a2a	-0.060327686
102	0xbe1e2c88	-0.15446675
103	0x3e1266f3	0.14297085
104	0xbea7fdc7	-0.32810804
105	0x3da464ad	0.08027015
106	0x3e6d04ab	0.23146312
107	0x3c6348fb	0.01387238
108	0xbc0da7ed	-0.008645994
109	0xbe3c19ca	-0.18369213
110	0x3e26fcf5	0.16307433
111	0x3d276603	0.04086877
112	0x3ea2b3d5	0.31777826
113	0x3e1cb0c6	0.15301809
114	0x3d8901f1	0.066898234
115	0x3cc81000	0.024421692
116	0x3e0768f4	0.1322363
117	0x3e43d771	0.19125153
118	0xbd9879cd	-0.07445107
119	0xbe7fe00b	-0.2498781
120	0xbdbb8151	-0.091555245
121	0x3e424ac1	0.18973829
122	0x3e13f463	0.14448695
123	0x3ce10b6c	0.027471267
124	0xbcb242a8	-0.0217603
125	0x3e83ffca	0.2578109
126	0x3e199883	0.14999585
127	0xbdd3b475	-0.10337154
128	0xbd92c086	-0.07165627
129	0x3dffb21f	0.12485146
130	0x3dc3d521	0.095621355
131	0x3e9e5016	0.30920476
132	0xbe8e4114	-0.27784026
133	0x3e860b8b	0.26180682
134	0x3e1f9860	0.1558547
135	0x3ddb3a77	0.10704511
136	0x3bf591f2	0.0074942047
137	0x3dec76c5	0.11546091
138	0x3c92d79c	0.017925076
139	0xbde17f44	-0.11010602
140	0x3db557c3	0.0885463
141	0xbe62ff85	-0.22167785
142	0x3bbe4da2	0.0058075944
143	0xbdb76497	-0.08954733
144	0x3e754f23	0.2395597
145	0xbed3ccd4	-0.4136721
146	0xbd92fe89	-0.07177455
147	0xbde99295	-0.114049114
148	0xbe2de5cd	-0.16982193
149	0x3c12e927	0.008966721
150	0x3c092b2c	0.008372109
151	0x3e33c793	0.175566
152	0xbed72771	-0.4202228
153	0xbddf0c9e	-0.108910784
154	0x3e95dd7a	0.29270536
155	0xbbad5097	-0.005289148
156	0x3e962798	0.29327083
157	0xbd55228b	-0.052034896
158	0x3aec4a00	0.0018027425
159	0xbe2d1170	-0.16901183
160	0xbd0fbdb8	-0.03509304
161	0xbdf37510	-0.11887562
162	0xbdbec1ca	-0.09314306
163	0xbe10c473	-0.1413744
164	0xbe121b7e	-0.142683
165	0x3ce62e4f	0.028098254
166	0xbd983112	-0.074312344
167	0xbeb405ac	-0.35160577
168	0xbe85f027	-0.26159784
169	0xbda4efaa	-0.08053525
170	0x3db88e31	0.09011496
171	0x3c77f1ae	0.0151333045
172	0xbc4f05df	-0.012635677
173	0x3e5b0ee2	0.21392396
174	0xbe2daf61	-0.16961433
175	0xbda9844a	-0.08277185
176	0xbd09c766	-0.033637427
177	0xbe9cec16	-0.3064887
178	0xbe33b3b7	-0.17549025
179	0xbd6b21fb	-0.057405453
180	0x3cb3125e	0.021859344
181	0xbcdb0cda	-0.026739527
182	0xbcdbe8b9	-0.02684437
183	0xbdb3cd2d	-0.087793685
184	0xbe0e7e62	-0.13915399
185	0xbd862bb4	-0.065513045
186	0x3e4bb51f	0.19893311
187	0x3e820c29	0.25399902
188	0x3ee6b295	0.45058122
189	0x3d7dafa0	0.061935067
190	0xbda0b98a	-0.07847889
191	0xbe098c0d	-0.13432331
192	0x3dfbfd2f	0.1230415
193	0xbdb1bd6b	-0.08678707
194	0xbe0b58ee	-0.13608143
195	0xbcf4950a	-0.029856224
196	0x3d128ce8	0.03577891
197	0xbe0f97b1	-0.1402271
198	0xbe34d268	-0.17658389
199	0x3c8764f0	0.016527623
200	0xbef51511	-0.47867635
201	0x3e56324d	0.20917626
202	0x3d392c96	0.045208536
203	0xbe144a02	-0.14481357
204	0xbed1403f	-0.40869328
205	0xbdb76de4	-0.08956507
206	0x3e8be82b	0.27325568
207	0x3e21f681	0.1581669
208	0x3ee61d54	0.4494425
209	0x3d259305	0.040423412
210	0x3ba2982c	0.004961988
211	0x3d7bb660	0.061453223
212	0x3e0376bc	0.12838262
213	0x3ef6f494	0.48233473
214	0x3e1fea2a	0.1561667
215	0x3dbf1500	0.09330177
216	0xbd1009c3	-0.03516556
217	0x3eec312a	0.4613126
218	0xbeb3b15b	-0.3509625
219	0xbeadf41a	-0.33975297
220	0x3de04aad	0.10951743
221	0xbd8df314	-0.06931129
222	0x3e429cc5	0.19005115
223	0x3eb4fe7f	0.35350415
224	0x3d13dd39	0.036099646
225	0x3ed687ac	0.41900384
226	0x3ee3c20c	0.44483984
227	0xbd809081	-0.06277562
228	0xbe7cdeae	-0.2469432
229	0x3d31edcd	0.043439675
230	0xbed067a5	-0.40704075
231	0xbd801dd4	-0.06255689
232	0xbe518d66	-0.20464095
233	0x3ddbbfd4	0.10729948
234	0x3e2a3dbd	0.16625114
235	0x3c01398b	0.0078872545
236	0xbea52787	-0.3225672
237	0x3d3c09f6	0.045907937
238	0xbe91e56a	-0.28495342
239	0xbea5c773	-0.3237873
240	0xbe02982f	-0.12753366
241	0x3db25a0d	0.08708582
242	0x3e268ff7	0.16265856
243	0xbe9fcc3e	-0.31210512
244	0x3e13088c	0.14358729
245	0xbdcd7b12	-0.100332394
246	0x3e8c79e7	0.27436754
247	0xbed16004	-0.40893567
248	0xbda45c56	-0.08025424
249	0x3defbf56	0.11706416
250	0xbcfe9c10	-0.031080276
251	0xbde2a391	-0.11066354
252	0x3e4b8bfa	0.19877616
253	0x3e39bef3	0.18139248
254	0xbe23411b	-0.15942805
255	0x3d225500	0.039631844

net.2.bias f4 [50]
0	0xbd8935cd	-0.06699715
1	0xbdd20524	-0.10254887
2	0x3b543415	0.0032379676
3	0x3e18a398	0.14906156
4	0xbd6eca77	-0.058298554
5	0xbcc7ea46	-0.024403702
6	0x3b5505bf	0.0032504646
7	0x3e3f5e00	0.18688202
8	0x3daebf6c	0.085326046
9	0x3ddb460c	0.1070672
10	0x3e9dd2b3	0.30824813
11	0xbdea8c50	-0.11452544
12	0xbe4e89fd	-0.20169826
13	0x3cca24ac	0.02467569
14	0x3ef40b7c	0.47665012
15	0x3e092973	0.13394718
16	0x3e2ac126	0.16675243
17	0xbd846136	-0.06463854
18	0xbd0722dc	-0.03299223
19	0xbe8b0ed9	-0.27159765
20	0x3da5af23	0.08090045
21	0xbe70601f	-0.23474167
22	0x3d8ef8fc	0.06981084
23	0x3d9d39e2	0.07677056
24	0x3cbb8434	0.022890188
25	0xbe780df6	-0.24224076
26	0x3e8d9e63	0.27659902
27	0x3da69212	0.081333295
28	0x3db945e6	0.09046535
29	0x3e04e05d	0.12976213
30	0xbce3d16d	-0.027809823
31	0x3dcc103e	0.099640355
32	0xbe98e2f4	-0.29860651
33	0x3c3fe808	0.011713035
34	0xbf004339	-0.50102574
35	0x3d839218	0.064243495
36	0xbe0e0a8d	-0.13871212
37	0x3e7d3a23	0.24729209
38	0x3e18a19d	0.149054
39	0xbd8d1b56	-0.068899795
40	0x3e28d1ef	0.16486333
41	0x3d6a01dd	0.057130683
42	0x3e76d230	0.24103618
43	0x3c4658cb	0.012106131
44	0x3f269bc8	0.65081453
45	0x3e495234	0.19660264
46	0x3e9286bb	0.28618416
47	0xbe76ce74	-0.24102193
48	0xbdb5bb51	-0.088736184
49	0xbe233867	-0.15939485

net.4.weight f4 [50, 50]
0	0xbe24f620	-0.16109514
1	0x3e16427f	0.14673804
2	0x3e06f3ff	0.13179015
3	0x3a9624ea	0.0011455093
4	0x3d0035fb	0.03130148
5	0x3e28c301	0.16480638
6	0xbe20ff54	-0.157224
7	0xbe2cd6a4	-0.16878754
8	0x3e0d8ad3	0.13822488
9	0xbe7651e3	-0.24054675
10	0xbe1889ff	-0.14896391
11	0xbe0c549f	-0.13704155
12	0x3e27a647	0.16372024
13	0xbc85696a	-0.016285617
14	0xbe40fe81	-0.18847086
15	0xbda5d2b3	-0.08096828
16	0xbe1adbcc	-0.15122908
17	0xbe308008	-0.1723634
18	0x3dec3416	0.11533372
19	0xbe2ae392	-0.16688374
20	0xbe16ea84	-0.14737898
21	0xbea7ec7f	-0.3279762
22	0xbddfcdec	-0.10927948
23	0x3e22319f	0.15839241
24	0x3d0e489c	0.034737214
25	0x3e38c4a4	0.18043762
26	0x3e904a06	0.28181475
27	0xbddb4793	-0.10707011
28	0xbe03f381	-0.12885858
29	0xbdbbf143	-0.091768764
30	0x3e28332d	0.16425772
31	0xbc41f220	-0.011837512
32	0x3e069a24	0.13144737
33	0x3e2f84ed	0.17140551
34	0x3e9692b2	0.29408795
35	0xbe0c6391	-0.13709857
36	0x3e277d65	0.16356428
37	0x3e08d764	0.13363415
38	0xbdb6c3f0	-0.08924091
39	0x3e204671	0.15651871
40	0xbd50d0bd	-0.05098032
41	0x3cd3ec78	0.025869593
42	0xbd2ca375	-0.042148072
43	0x3cb55ec5	0.022139916
44	0x3d0076e1	0.03136337
45	0x3db85ba3	0.09001853
46	0x3d84b2f1	0.06479443
47	0xbdbecb85	-0.09316162
48	0xbe1a5b89	-0.1507398
49	0xbe892e32	-0.26793057
50	0x3d2093a0	0.039203286
51	0x3e29f58b	0.16597573
52	0x3d932e98	0.071866214
53	0x3e23c39c	0.15992588
54	0xbdaeef70	-0.08541763
55	0x3e2117ad	0.15731688
56	0xbc02bb90	-0.007979289
57	0xbe8cd156	-0.2750346
58	0x3ceeff7d	0.02917456
59	0x3da4ad05	0.08040813
60	0x3e03f34b	0.12885778
61	0xbe225088	-0.15851033
62	0x3d79e3d5	0.061008293
63	0xbd7f6c33	-0.062359046
64	0xbb4b2f13	-0.00310034
65	0x3e29fbf7	0.16600023
66	0xbe257568	-0.16158068
67	0x3e0490e5	0.12945898
68	0x3e711933	0.23544769
69	0x3d88ac46	0.066734836
70	0x3d402395	0.046908934
71	0xbd8fe5cf	-0.070262544
72	0xbe583c06	-0.21116647
73	0xbd50303f	-0.05082726
74	0x3e509004	0.20367438
75	0x3d3e8f6c	0.046523497
76	0xbd9ce84d	-0.07661495
77	0xbd7ba98f	-0.061441
78	0x3d15d666	0.03658142
79	0x3db3db78	0.08782095
80	0xbe197d66	-0.14989242
81	0xba100a62	-0.0005494711
82	0x3e84b3b0	0.2591834
83	0xbde8f82b	-0.11375459
84	0xbe9d08cc	-0.30670774
85	0xbd23c59d	-0.03998338
86	0xbe320769	-0.17385639
87	0xbe24567c	-0.16048616
88	0xbc98a2f0	-0.018632382
89	0x3d33aa54	0.04386361
90	0x3d55535f	0.052081462
91	0xbdf214d3	-0.11820378
92	0xbe266825	-0.16250665
93	0x3e3ac34b	0.18238561
94	0x3ebe15cf	0.37126014
95	0xbe5eb662	-0.21749261
96	0x3ddf3456	0.10898654
97	0x3cf35a77	0.029706223
98	0x3e121859	0.142671
99	0x3e866bbe	0.26254076
100	0x3eab2a7c	0.3343085
101	0x3e1e6fa2	0.15472272
102	0x3d99ef9a	0.075164035
103	0x3cd93850	0.02651611
104	0x3d5a39ce	0.053277783
105	0xbe2cf6d1	-0.16891028
106	0xbdb9318b	-0.09042653
107	0x3d14ae54	0.036299065
108	0x3dab1c6e	0.08355032
109	0x3e4db535	0.20088656
110	0x3df12184	0.11773971
111	0x3e0856db	0.13314383
112	0x3db0a1f2	0.086246386
113	0xbd8c0bd2	-0.06838192
114	0xbc29acbb	-0.010356124
115	0xbe2e421a	-0.17017403
116	0x3e3988cd	0.18118592
117	0xbdcc310e	-0.09970294
118	0x3e02bae3	0.12766604
119	0xbc0a188b	-0.008428703
120	0x3d2f71e8	0.04283324
121	0x3cd4e37b	0.025987377
122	0x3dbd4227	0.09241133
123	0xbd96c84a	-0.07362421
124	0x3ddb0bbc	0.106955975
125	0x3de03c4f	0.10949003
126	0x3e5fc34e	0.21851847
127	0xbe1ae6c1	-0.15127088
128	0xbd3a950c	-0.0455523
129	0x3e435da9	0.19078697
130	0x3e6c3abf	0.23069285
131	0xbe50ce20	-0.2039113
132	0x3d71c914	0.059029654
133	0x3df2db90	0.118582845
134	0x3b7cc968	0.0038572196
135	0x3e4af10d	0.19818516
136	0x3e5f5fba	0.2181386
137	0x3e8f013f	0.27930638
138	0xbe1c7f9b	-0.15283053
139	0x3c48624e	0.012230469
140	0xbdc2648b	-0.09491833
141	0xbc45d053	-0.012073594
142	0x3cf18546	0.029482495
143	0xbd8b4e8b	-0.0680209
144	0x3ef39af5	0.4757916
145	0xbcc44569	-0.023958879
146	0x3e1a1631	0.15047528
147	0xbd66f9b0	-0.056390464
148	0xbe40a559	-0.18813075
149	0x3ca7f7ee	0.020503964
150	0x3e6b84fe	0.22999951
151	0xbcdd00c4	-0.026977904
152	0xbdd4475c	-0.10365173
153	0xbd73b3ea	-0.05949775
154	0x3d4660cd	0.04843216
155	0xbcb0578a	-0.021526117
156	0x3d58d86c	0.05294077
157	0xbd54f0c0	-0.05198741
158	0xbdee97c4	-0.11650041
159	0x3d85b563	0.065287374
160	0xbe33014e	-0.17480966
161	0x3ecd049c	0.4004258
162	0xbcc72de2	-0.02431387
163	0x3e886114	0.26636565
164	0x3e28929a	0.16462174
165	0xbd1c059b	-0.038091283
166	0x3d60665d	0.05478512
167	0x3d71977d	0.05898236
168	0x3ef3d2b6	0.47621697
169	0xbec1dd7e	-0.37864298
170	0x3d624ebf	0.05525088
171	0x3d6f0af9	0.058360074
172	0x3ceaec3d	0.0286771
173	0xbd6c484d	-0.05768614
174	0xbe7b51bc	-0.24542898
175	0xbcb85f0d	-0.022506261
176	0x3e5f80f3	0.21826534
177	0xbe41a4b0	-0.1891048
178	0xbe34c3f1	-0.1765287
179	0xbd9b0c1f	-0.07570671
180	0xbc933d2c	-0.017973505
181	0xbcb9410e	-0.022614028
182	0x3e231cb4	0.15928918
183	0xbdcfa036	-0.1013798
184	0x3ec0f0ae	0.37683624
185	0x3e101ebf	0.14074229
186	0x3e5edc12	0.21763638
187	0x3dc10e42	0.094265476
188	0xbd68e2f9	-0.056857083
189	0xbd28f496	-0.04124888
190	0x3df34373	0.11878099
191	0xbd46b2f8	-0.04851052
192	0xbd85c9a5	-0.06532601
193	0x3ea0bfad	0.31396237
194	0x3d830ad7	0.06398552
195	0xbd7c5184	-0.061601177
196	0x3e8af4c8	0.27139878
197	0xbd398bb4	-0.045299247
198	0x3c87cf79	0.016578423
199	0xbe880462	-0.26565844
200	0xbebe7aa1	-0.37202933
201	0xbc871542	-0.016489629
202	0x3d9660da	0.07342692
203	0x3e07faf7	0.13279329
204	0xbe1f2faf	-0.15545534
205	0x3d692022	0.05691541
206	0x3e238667	0.15969239
207	0xbe9bd937	-0.3043916
208	0x3e91ff2e	0.28515
209	0x3e1c8aa4	0.15287262
210	0x3e53b0ec	0.20672959
211	0xbe3144a2	-0.17311338
212	0xbd4764ad	-0.048679996
213	0xbdbbeaa2	-0.09175612
214	0x3e60479d	0.21902318
215	0x3d65e570	0.05612701
216	0x3dc93368	0.09824258
217	0xbdd93187	-0.1060515
218	0xbe84635d	-0.25857058
219	0xbc905c67	-0.017622186
220	0xbc643baa	-0.013930241
221	0x3e6e8091	0.23291232
222	0xbd644db9	-0.055738185
223	0x3d06ec7b	0.03294037
224	0xbc13fae0	-0.009031981
225	0xbe4780b3	-0.19482689
226	0x3d1d99ec	0.03847687
227	0x3dce4a3c	0.10072753
228	0xbe298c1f	-0.16557358
229	0xbe211249	-0.15729631
230	0xbd21aac1	-0.039469484
231	0xbde351ac	-0.11099562
232	0x3e8c8d34	0.2745148
233	0xbe743f94	-0.23852378
234	0x3cde1fe0	0.027114809
235	0xbe93a638	-0.28837752
236	0x3e3fb6b6	0.18722042
237	0x3e0fd65e	0.14046618
238	0x3d5cfa94	0.053949907
239	0xbbd85fbc	-0.0066032093
240	0x3e74b91a	0.23898736
241	0xbe83444f	-0.25638053
242	0xbec20821	-0.37896827
243	0x3d671f96	0.056426607
244	0xbe1683cd	-0.14698716
245	0x3c64eb77	0.013972155
246	0x3e47511d	0.19464536
247	0x3e475799	0.1946701
248	0x3e18d5d5	0.1492532
249	0x3d62e4a7	0.05539384
250	0x3e15a5bc	0.14614004
251	0xbe44d70f	-0.19222663
252	0xbd34c2e4	-0.044131175
253	0x3db1b8fb	0.0867786
254	0xbd087d57	-0.03332266
255	0x3d513a2c	0.051080868

net.4.bias f4 [50]
0	0xbdefe518	-0.11713618
1	0xbdb8edaf	-0.090297095
2	0x3c6f7722	0.014615806
3	0x3d930d34	0.07180253
4	0x3c3a8748	0.011384793
5	0xbe0e883f	-0.13919161
6	0x3c8e434c	0.017366074
7	0xbe32a897	-0.17447124
8	0xbdc4dacc	-0.09612045
9	0x3da4c236	0.08044855
10	0x3db7903a	0.08963056
11	0x3eec2ed3	0.46129474
12	0x3e0bceee	0.13653156
13	0x3d92283d	0.07136581
14	0x3cdfb6d9	0.027308868
15	0x3e4ebd86	0.20189485
16	0xbd898e46	-0.0671659
17	0x3df91d0d	0.12163744
18	0x3d0f7530	0.035023868
19	0xbd8fe72f	-0.07026517
20	0xbd0b1e6a	-0.033964552
21	0x3d8b8eca	0.06814344
22	0x3d5a4065	0.053284068
23	0xbd16d9ab	-0.036828678
24	0xbdcfc8c4	-0.10145715
25	0xbc3d32dd	-0.011547771
26	0xbd711298	-0.058855623
27	0x3e29e59b	0.16591494
28	0x3e08e9a2	0.13370374
29	0xbddb48ab	-0.1070722
30	0xbdee6213	-0.116398
31	0x3dd0fe6a	0.10204776
32	0x3e2ffbf2	0.17185953
33	0xbd3fa096	-0.046784006
34	0xbe8020ee	-0.25025123
35	0xbd82aca7	-0.06380587
36	0x3c883cf7	0.016630633
37	0x3d7d09bb	0.061776858
38	0x3de2c32b	0.110723816
39	0xbdc1ecbf	-0.09468984
40	0x3e53cc32	0.20683363
41	0x3dbf0a83	0.09328177
42	0x3de7c970	0.11317718
43	0x3e304968	0.17215502
44	0xbd5fd9ed	-0.05465119
45	0x3e19034a	0.14942661
46	0x3da6f3fe	0.081520066
47	0x3cee1954	0.029064812
48	0x3d4d52fd	0.050127972
49	0x3bcb5612	0.0062053287

net.6.weight f4 [50, 50]
0	0x3dc20cde	0.094751105
1	0xbcf78eb6	-0.030219417
2	0x3dfb622d	0.12274585
3	0x3d43fc85	0.047848243
4	0xbe81d7ae	-0.25359863
5	0x3e23ad0b	0.1598398
6	0x3e4439bd	0.1916265
7	0xbd8945c7	-0.06702762
8	0x3e44c998	0.19217527
9	0x3e05fcdf	0.13084744
10	0xbd51c9e8	-0.051217943
11	0xbdea330b	-0.11435517
12	0xbe8787ca	-0.26470786
13	0xbd72e6b4	-0.059302047
14	0x3d0bc02b	0.034118813
15	0x3c2a2fc9	0.010387369
16	0xbd71e74a	-0.059058465
17	0x3d05f642	0.032705553
18	0x3dd30eae	0.10305534
19	0x3e5a8b23	0.21342139
20	0xbcd978a2	-0.02654678
21	0x3da6736e	0.08127485
22	0x3dea02ed	0.11426339
23	0x3deb46f5	0.11488143
24	0xbd981224	-0.07425335
25	0x3e354ac9	0.1770431
26	0xbddf89db	-0.10914966
27	0x3e3af245	0.18256481
28	0x3d879a17	0.06621187
29	0x3d53ca70	0.05170673
30	0xbe0732f3	-0.1320303
31	0x3e5740ee	0.21020862
32	0x3e6c48e9	0.23074688
33	0x3dd7496e	0.105120525
34	0xbdc382de	-0.09546445
35	0xbd5c0640	-0.053716898
36	0x3e0f5656	0.13997778
37	0x3da76862	0.08174206
38	0xbd97d063	-0.074127935
39	0xbe60e13e	-0.21960923
40	0x3e475292	0.19465092
41	0xbe1574db	-0.14595358
42	0xbd8b16f1	-0.06791485
43	0x3eb984a3	0.36234006
44	0x3e215a22	0.15757039
45	0xbd0970f0	-0.03355497
46	0x3d3c9a9c	0.046045884
47	0x3d32c932	0.043648906
48	0xbdfb8870	-0.12281883
49	0xbe36bc68	-0.17845309
50	0xbdef8af4	-0.11696425
51	0xbdd6f07f	-0.1049509
52	0xbe1e7e44	-0.15477854
53	0xbe5d09dd	-0.21585794
54	0x3e3f63af	0.1869037
55	0xbd309aba	-0.04311631
56	0x3c9d6634	0.019213773
57	0x3e8209b9	0.25398043
58	0x3df76f54	0.12081781
59	0x3e1d1f3e	0.15343949
60	0x3e2b161b	0.16707651
61	0x3e0da1c9	0.13831247
62	0xbe193b9b	-0.14964144
63	0x3d1a504b	0.03767423
64	0xbe08df2d	-0.13366385
65	0x3e59223d	0.21204467
66	0xbd7290fd	-0.059220303
67	0x3e0869f9	0.13321675
68	0x3d3feb79	0.046855424
69	0xbdef5fa0	-0.11688161
70	0xbcc68e91	-0.024237903
71	0xbd9c7e7d	-0.07641313
72	0xbe3a702e	-0.18206856
73	0xbde85847	-0.113449626
74	0xbe96994c	-0.2941383
75	0x3e976ed1	0.29576734
76	0xbe1637e5	-0.1466976
77	0xbdf37a51	-0.118885644
78	0x3e33275e	0.17495486
79	0x3d78d96d	0.06075423
80	0xbdb6ee75	-0.08932201
81	0xbe04058d	-0.12892742
82	0x3d9d36d0	0.0767647
83	0xbdbc1261	-0.09183193
84	0x3dcb5938	0.099291265
85	0x3d461475	0.048359353
86	0x3e24b1f4	0.16083509
87	0xbb468a41	-0.0030294808
88	0x3d8532fe	0.065038666
89	0x3e2b2bce	0.16715929
90	0x3e81c073	0.2534214
91	0xbe265dd9	-0.16246738
92	0xbe78b16b	-0.2428643
93	0x3e8ec9f0	0.2788844
94	0x3e0951fd	0.13410182
95	0xbe22c2df	-0.1589465
96	0x3d0a0ab9	0.033701632
97	0x3e683055	0.22674687
98	0xbe747da9	-0.2387606
99	0xbd8c11bf	-0.06839322
100	0x3d875112	0.0660726
101	0xbe41c18b	-0.18921487
102	0xbe0cc0a0	-0.13745356
103	0x3d096022	0.033538945
104	0xbd646d39	-0.055768225
105	0xbe47bea3	-0.19506316
106	0x3daa16ea	0.08305152
107	0xbe554104	-0.20825583
108	0xbe976596	-0.2956969
109	0x3e959ecf	0.29222724
110	0xbe196e2a	-0.1498343
111	0xbe746d70	-0.23869872
112	0x3d26863d	0.040655363
113	0x3e818406	0.25296038
114	0xbde410e5	-0.11136035
115	0xbdaedea0	-0.08538556
116	0x3e07cfa0	0.13262796
117	0x3f19f35c	0.6013696
118	0x3c978ada	0.018498827
119	0x3cf24797	0.029575152
120	0x3e27b564	0.16377789
121	0x3e040c64	0.12895352
122	0x3e106faa	0.14105096
123	0xbe9a0cfb	-0.30088028
124	0x3dae32a3	0.08505752
125	0x3d2970b1	0.041367237
126	0x3e87376b	0.26409468
127	0x3e6e5d50	0.23277783
128	0xbd227947	-0.03966644
129	0xbd45462f	-0.048162635
130	0xbe647868	-0.22311556
131	0xbe5dd02b	-0.21661441
132	0xbd49a5e0	-0.049230456
133	0x3d595f3b	0.053069334
134	0xbb0f3609	-0.0021852276
135	0xbebb3ab1	-0.36568215
136	0xbe107ea6	-0.14110813
137	0x3edd077c	0.43169773
138	0x3e8ea486	0.27859896
139	0x3dfb6825	0.12275723
140	0xbeb9595e	-0.36200994
141	0xbe0ff22f	-0.1405723
142	0x3e208f52	0.15679672
143	0xbe596931	-0.21231534
144	0xbdb6ab31	-0.08919371
145	0x3e0765dd	0.13222452
146	0xbcade942	-0.02122939
147	0x3ec46fb8	0.38366485
148	0x3e549f78	0.20763958
149	0x3d826dca	0.06368597
150	0xbe8b8a97	-0.27254173
151	0x3e3590fc	0.17731088
152	0xbe10f435	-0.14155658
153	0x3d583f6b	0.052794855
154	0xbe21710b	-0.15765779
155	0x3e095a71	0.13413407
156	0xbdea58a0	-0.11442685
157	0x3d98440c	0.07434854
158	0xbe17472c	-0.14773244
159	0xbe2a6502	-0.16640094
160	0xbe0366df	-0.12832211
161	0xbabc07d8	-0.0014345599
162	0x3d8a86ba	0.06763978
163	0xbe46fca2	-0.1943231
164	0x3ddb6d2e	0.10714184
165	0xbe13d7d9	-0.14437808
166	0x3df9335d	0.12168
167	0xbb26d9cf	-0.0025459414
168	0xbe022112	-0.12707928
169	0xbd5bcb90	-0.05366093
170	0xbe755ac3	-0.23960404
171	0x3dc6a6e6	0.09699802
172	0xbd7178a2	-0.058952935
173	0x3dc6ba8c	0.0970355
174	0xbe2cb53a	-0.16866007
175	0xbc53af51	-0.012920217
176	0xbd2ea415	-0.04263695
177	0x3dc8819a	0.097903445
178	0xbdc11cb8	-0.09429306
179	0x3e850381	0.25979236
180	0xbd07816e	-0.03308242
181	0xbc8ff78b	-0.017574092
182	0x3e283b43	0.16428857
183	0xbdd0afbb	-0.10189768
184	0x3db18797	0.0866844
185	0x3e0891c2	0.13336852
186	0xbe31d318	-0.17365682
187	0x3e3f5289	0.18683828
188	0xbd7d5ffd	-0.06185912
189	0x3d55ea19	0.052225206
190	0xbe4c55db	-0.19954626
191	0x3df51d76	0.1196851
192	0xbdc00557	-0.093760185
193	0xbe5b9205	-0.21442421
194	0x3e92939b	0.2862824
195	0xbe0d06fe	-0.13772199
196	0xbcca62b6	-0.024705272
197	0xbe1f0026	-0.155274
198	0x3e4f85a5	0.20265825
199	0xbe2cab81	-0.16862299
200	0xbd582ba2	-0.052775986
201	0x3e62b121	0.22137882
202	0x3e6e4208	0.23267376
203	0xbe1a5846	-0.15072736
204	0xbb25cfec	-0.0025300933
205	0x3dccf196	0.10007016
206	0xbe89ff24	-0.2695247
207	0x3d79f264	0.061022177
208	0x3da30c0c	0.07961282
209	0x3e8a67b3	0.2703224
210	0x3d9a2e48	0.07528359
211	0x3e9529d7	0.29133484
212	0x3e9de33a	0.30837423
213	0xbe40cfa1	-0.18829204
214	0x3dda7083	0.10665991
215	0x3d50b1dd	0.050950874
216	0xbe92e9bc	-0.2869395
217	0xbc2031a3	-0.009777459
218	0x3d98c19b	0.07458802
219	0x3e2a4293	0.16626959
220	0xbe7beee7	-0.24602853
221	0x3e2743bd	0.16334434
222	0x3c7d04d5	0.015443047
223	0xbd63767e	-0.055532925
224	0x3cc4852f	0.023989288
225	0xbdb9411e	-0.09045623
226	0x3d001141	0.031266455
227	0x3ce1d4f5	0.027567366
228	0xbe6f31a6	-0.23358783
229	0x3deca196	0.115542576
230	0x3d520454	0.05127366
231	0xbd5587c4	-0.05213143
232	0x3d70e63e	0.058813326
233	0x3e33b68a	0.17550102
234	0x3e842e63	0.2581664
235	0x3e494886	0.19656572
236	0x3dd05aa4	0.10173538
237	0xbe15e7ea	-0.1463925
238	0xbe250e93	-0.16118841
239	0x3e45af08	0.1930505
240	0xbe005ad7	-0.12534653
241	0x3de09a1f	0.10966896
242	0xbd466014	-0.04843147
243	0x3ebe4262	0.3716002
244	0x3ea21d5b	0.3166302
245	0x3c68a530	0.01419954
246	0x3dc851d8	0.097812355
247	0xbe27f952	-0.16403702
248	0x3df5473c	0.119764775
249	0xbdb1c9a6	-0.086810395
250	0xbe147729	-0.14498581
251	0x3cf1e90f	0.029530076
252	0xbe529521	-0.205647
253	0xbe2a1fd2	-0.16613701
254	0x3e207a12	0.15671566
255	0xbe8cfc7a	-0.27536374

net.6.bias f4 [50]
0	0x3d1d2193	0.038362097
1	0x3d1cdbec	0.03829567
2	0x3dd3e0c6	0.103456065
3	0xbcbb9b0f	-0.022901086
4	0x3e0e3c6a	0.13890234
5	0xbca45409	-0.020059602
6	0x3e110e37	0.14165579
7	0x3e6937e3	0.22775225
8	0xbeef2917	-0.46711037
9	0x3ccaaf2d	0.024741733
10	0xbe570071	-0.20996262
11	0xbced44e7	-0.02896352
12	0xbd470b82	-0.04859496
13	0x3e7af13d	0.24506088
14	0x3d0667de	0.0328139
15	0x3ca4e3b3	0.020128107
16	0x3df99f61	0.12188602
17	0x3de133c9	0.10996205
18	0x3daca64f	0.08430158
19	0xbaa471f1	-0.0012546164
20	0x3c990682	0.018679861
21	0xbe2bcf0e	-0.16778204
22	0xbd8ff371	-0.07028855
23	0x3cd50998	0.026005551
24	0xbda8c9a1	-0.08241583
25	0xbe5f2c37	-0.2179421
26	0xbe9d7ef5	-0.30760923
27	0x3e3d97fe	0.18515012
28	0xbd021e74	-0.031767324
29	0x3d659022	0.05604566
30	0xbdeb3b4d	-0.1148592
31	0xbd8f381a	-0.069931224
32	0xbc2ae0c1	-0.010429562
33	0xbd45392f	-0.048150238
34	0xbcffd3d0	-0.03122893
35	0xbd2810af	-0.041031536
36	0x3ca0ef66	0.019645404
37	0xbdd933d8	-0.106055915
38	0xbc910c51	-0.017706068
39	0xbd84346c	-0.06455311
40	0x3e2c0d45	0.16801937
41	0xbd8a3a4f	-0.06749403
42	0x3dbbc413	0.091682576
43	0xbe182932	-0.14859465
44	0x3d014be9	0.031566534
45	0x3dfbfae3	0.12303712
46	0x3c3f22fb	0.011666055
47	0xbe1f55f2	-0.1556013
48	0x3da83ba5	0.08214501
49	0x3d673ef3	0.056456517

net.8.weight f4 [1, 50]
0	0xbe14f237	-0.14545523
1	0x3e2c96a5	0.16854341
2	0x3eb739b4	0.35786211
3	0xbe71c264	-0.2360931
4	0x3e6e8817	0.23294102
5	0x3e4d90ce	0.2007477
6	0xbf0d3f7a	-0.5517498
7	0x3f68af09	0.9089208
8	0xbe08d4dc	-0.1336245
9	0x3ea19799	0.31560972
10	0xbeea186c	-0.45721757
11	0xbe75c064	-0.23999172
12	0x3e6c5d9f	0.23082589
13	0x3d114a36	0.035471164
14	0x3fa38cb3	1.2777313
15	0xbdd49fa0	-0.103820086
16	0x3e683d87	0.22679721
17	0xbe4619bb	-0.19345753
18	0x3d7d8985	0.061898727
19	0xbe433d0e	-0.1906626
20	0xbd20ddfb	-0.039274197
21	0xbbcb3c0e	-0.0062022274
22	0x3e4f9cd8	0.20274675
23	0xbe523475	-0.20527823
24	0x3e92abe8	0.2864678
25	0x3ee1bddd	0.44090167
26	0x3f2e07bf	0.6798057
27	0x3e64a009	0.22326674
28	0x3debea2b	0.11519273
29	0x3e2b8ba1	0.16752483
30	0x3e3858d4	0.18002635
31	0x3ea63882	0.32464987
32	0xbd871ca3	-0.06597259
33	0x3e29d4a2	0.16585019
34	0x3d67e14e	0.05661135
35	0x3e59ef85	0.21282776
36	0x3c6d0d60	0.014468521
37	0xbbaebb38	-0.005332377
38	0xbd9d7d3d	-0.07689903
39	0x3e15b94e	0.1462147
40	0x3f23f687	0.64048046
41	0xbe02b928	-0.12765944
42	0x3fd65988	1.6746073
43	0x3dc71e25	0.097225465
44	0x3c27e7bd	0.010248122
45	0x3e4d77f8	0.20065296
46	0xbcc99b4a	-0.02461018
47	0x3d0e35f0	0.034719408
48	0xbcb0a18e	-0.02156141
49	0xbcb8ffd2	-0.022582922

net.0.weight f4 [50, 11]
0	0x3e05ad6d	0.13054438
1	0xbeac4b47	-0.33651182
2	0x3c8db04f	0.017295985
3	0xbe941c16	-0.28927678
4	0x3c00230d	0.007820857
5	0xbcdfbb3e	-0.027310964
6	0x3e601c98	0.21885908
7	0xbdca31e0	-0.09872794
8	0xbdaab34a	-0.08334978
9	0xbd0e449d	-0.034733403
10	0xbcd3db2c	-0.025861345
11	0xbef66adf	-0.4812841
12	0x3f033697	0.5125517
13	0x3cc35ae6	0.023847055
14	0x3cc51109	0.024055975
15	0xbd16f09e	-0.036850564
16	0x3dab0985	0.08351425
17	0xbe0116b9	-0.12606324
18	0x3e8e9d30	0.278543
19	0x3dacab74	0.084311396
20	0x3cac1c80	0.021009684
21	0x3c033544	0.008008305
22	0x3e9e635c	0.3093518
23	0x3f0b2ab7	0.5436205
24	0x3b3d3f3d	0.0028876804
25	0x3cb1a0bc	0.02168309
26	0x3bdaaca3	0.006673412
27	0x3d48f06b	0.049057405
28	0x3e359804	0.1773377
29	0xbdd86419	-0.10565967
30	0x3dfa06a2	0.12208296
31	0xbb924156	-0.004463355
32	0xbc32f0b2	-0.010921644
33	0x3f1742ca	0.5908629
34	0xbec61a45	-0.38691917
35	0xbe7e5dc7	-0.2484046
36	0x3e24cd38	0.1609391
37	0xbe3a1600	-0.18172455
38	0xbcbf5575	-0.023356179
39	0xbe1843d1	-0.1486962
40	0x3d192b01	0.037394527
41	0xbdd3395b	-0.10313674
42	0xbb5bc722	-0.003353544
43	0x3d557992	0.05211789
44	0xbec79a1e	-0.3898477
45	0x3d04cbe9	0.032421026
46	0x3e050c4a	0.12992969
47	0xbd94709c	-0.07248041
48	0xbce49d10	-0.027906924
49	0x3cd65e4d	0.026168013
50	0xbc5849a4	-0.013201151
51	0x3d97d30b	0.074133
52	0x3d25a395	0.040439207
53	0xbe2e6679	-0.17031278
54	0x3e1273ea	0.1430203
55	0x3e49e4c1	0.19716169
56	0x3eee6789	0.46563366
57	0x3d49ee4c	0.049299523
58	0x3c310f38	0.010806851
59	0xbdd968f3	-0.106157206
60	0x3d9ce329	0.07660515
61	0x3ddc8b91	0.10768808
62	0xbe34b0cf	-0.17645572
63	0x390eae01	0.00013606997
64	0xbe22e5c5	-0.15907963
65	0x3ddb3617	0.10703676
66	0x3e957d51	0.2919717
67	0x3e8b5281	0.27211383
68	0xbd285d84	-0.04110481
69	0x3d19fc3d	0.03759407
70	0xbd85981c	-0.06523153
71	0xbe5a9a68	-0.21347964
72	0x3d880ca4	0.06643036
73	0x3f154896	0.5831388
74	0xbc40cf4e	-0.011768175
75	0x3cec2c25	0.028829644
76	0x3c65b1dc	0.014019456
77	0x3d9129a3	0.0708802
78	0xbe03491b	-0.12820856
79	0xbcb6b33f	-0.022302268
80	0x3e3b4847	0.1828929
81	0xbc72cfa7	-0.014820016
82	0x3ce032e5	0.027368018
83	0x3e00c340	0.12574482
84	0xbe1f1a9a	-0.15537491
85	0xbdb49c79	-0.08818907
86	0xbd94952c	-0.07255015
87	0x3cfef2a9	0.031121569
88	0x3ee71005	0.4512941
89	0xbeae5e9d	-0.3405656
90	0xbd5f3ba2	-0.05450023
91	0x3e96d3f6	0.29458588
92	0xbccbda9b	-0.024884513
93	0x3d8d5d0d	0.06902514
94	0x3d45310d	0.04814248
95	0xbc3a2d06	-0.0113632735
96	0xbcba48f2	-0.022739861
97	0xbcb2ca74	-0.021825053
98	0xbc8b7bc9	-0.017026799
99	0x3e67f5ad	0.22652312
100	0xbe7e2784	-0.24819762
101	0x3dd86fef	0.10568225
102	0x3d018a78	0.031626195
103	0xbda136eb	-0.07871803
104	0xbddad830	-0.10685766
105	0xbd59c576	-0.05316683
106	0x3e39517b	0.18097489
107	0x3db59aa8	0.08867389
108	0x3cc4dd97	0.024031444
109	0xbd83d1aa	-0.064364746
110	0x3e3583cb	0.17726056
111	0x3e825586	0.25455874
112	0xbd834321	-0.06409288
113	0x3ead755f	0.3387861
114	0xbd74ee62	-0.059797652
115	0xbd89843a	-0.06714673
116	0x3dfb7c0d	0.1227952
117	0x3c51538a	0.012776265
118	0xbc9c2707	-0.019061578
119	0xbcc2c75a	-0.023776699
120	0xbd2c9c68	-0.042141348
121	0xbee3a2c0	-0.44460106
122	0x3e8b3d9c	0.27195442
123	0x3e2442b0	0.16041064
124	0xbda448d9	-0.08021707
125	0xbd79c939	-0.060982917
126	0x3e268c90	0.16264558
127	0xbb9a8de2	-0.004716621
128	0x3e7b2145	0.2452441
129	0xbe36566c	-0.17806405
130	0x3d8ca325	0.06867055
131	0xbdb17d95	-0.08666531
132	0xbdc297d0	-0.09501612
133	0xbf003502	-0.50080884
134	0x3d06e46f	0.032932695
135	0xbd0a7614	-0.033804014
136	0x3bf92130	0.007602833
137	0x3dada6dc	0.084790915
138	0x3da4602b	0.08026155
139	0xbde5d7cc	-0.112228006
140	0xbe192072	-0.14953783
141	0x3d59186c	0.053001806
142	0x3d13bd25	0.036069054
143	0x3e9b6af7	0.30355045
144	0x3e820a46	0.25398463
145	0x3e0059c9	0.1253425
146	0xbc06562f	-0.008199259
147	0x3cf5029c	0.02990847
148	0xbae21213	-0.0017247818
149	0x3ec8c70c	0.3921436
150	0xbe1ee353	-0.15516405
151	0x3cd7f5f1	0.026362391
152	0xba955f02	-0.0011396112
153	0x3d91dd46	0.07122283
154	0xbec421bb	-0.38306984
155	0xbf8ac337	-1.0840825
156	0x3d8e8374	0.069586664
157	0x3d4acd54	0.049512222
158	0xbd12c1b8	-0.035829276
159	0x3b9f913a	0.0048696073
160	0xbc8e35a0	-0.017359555
161	0x3e1be74a	0.15224949
162	0x3e05a5d5	0.13051541
163	0xbd7bcc9d	-0.06147443
164	0x3a011e1e	0.0004925447
165	0xbdced0e2	-0.10098435
166	0xbf28a3b9	-0.6587482
167	0x3c663241	0.014050067
168	0x3d0e7244	0.03477694
169	0x3d0c7ae9	0.034296904
170	0xbd6dd632	-0.0580656
171	0x3c8c9b0f	0.017163781
172	0x3e47923f	0.19489382
173	0xbe260771	-0.16213776
174	0xbd896a78	-0.067097604
175	0xbcd4b3c1	-0.02596462
176	0x3e24359a	0.16036072
177	0x3d965ed8	0.07342309
178	0x3d8dae55	0.06918017
179	0xbe37db27	-0.17954694
180	0xbc372390	-0.011177912
181	0xbcc5b053	-0.02413193
182	0x3d90ff62	0.070799604
183	0x3e2ec042	0.17065528
184	0x3c30fe4a	0.010802815
185	0x3e11624d	0.14197655
186	0xbd629976	-0.055322133
187	0x3f22d89b	0.63611764
188	0x3f022b40	0.50847244
189	0xbe1a28a1	-0.15054561
190	0x3e3faf37	0.18719183
191	0xbe3f5054	-0.18682986
192	0x3c45773e	0.012052355
193	0xbcfab292	-0.030602727
194	0x3d9aa2dd	0.07550595
195	0xbd1cada7	-0.038251545
196	0x3cb2d177	0.021828396
197	0x3da3dc37	0.08000987
198	0xbf4ee9af	-0.8082532
199	0x3d07abf6	0.03312298
200	0x3dc3ec82	0.09566595
201	0xbe716095	-0.23572
202	0xbdd4f9d0	-0.103992105
203	0xbdb19278	-0.08670515
204	0x3e2511f8	0.16120136
205	0xbd09ef49	-0.033675466
206	0xbdc934cb	-0.098245226
207	0xbdbb1586	-0.09134965
208	0x3d90de1a	0.070736125
209	0xbed2b5de	-0.4115438
210	0x3e499e1a	0.19689217
211	0xbd6cb1d2	-0.05778677
212	0xbd035847	-0.03206661
213	0x3ca9b2bd	0.020715112
214	0x3e2b7201	0.16742708
215	0xbdf4ab97	-0.11946791
216	0x3dd7c951	0.10536445
217	0x3d0bd18a	0.03413538
218	0x3d9cb0a8	0.07650882
219	0xbe6ad0dc	-0.22931236
220	0x3e16ef53	0.14739732
221	0x3f85ddfa	1.0458367
222	0xbd890268	-0.06689912
223	0xbd8b6511	-0.06806386
224	0xbce4dbaa	-0.027936775
225	0x3c5660d1	0.013084606
226	0x3e839270	0.2569766
227	0xbe2df876	-0.16989312
228	0xbd34332d	-0.043994118
229	0xbb6eaf4d	-0.0036420405
230	0x3d71aad3	0.0590008
231	0x3f391963	0.7230436
232	0x3e17a522	0.14809087
233	0xbd5b7125	-0.0535747
234	0x3d320348	0.04346016
235	0x3d815b03	0.06316187
236	0x3e1d0c6b	0.15336768
237	0xbdb85477	-0.090004854
238	0x3e27d7fe	0.16390988
239	0x3e121e99	0.14269485
240	0xbc430d50	-0.011905029
241	0x3d9c1a20	0.076221704
242	0x3eaf281b	0.34210286
243	0x3f0056b1	0.5013228
244	0xbda15ff6	-0.07879631
245	0x3d663aa5	0.05620827
246	0xbc1815a6	-0.009282505
247	0x3d347265	0.044054408
248	0x3ec35fa9	0.3815892
249	0x3d9e6397	0.07733839
250	0x3c97c023	0.018524235
251	0xbd5f337c	-0.05449246
252	0x3de8fe55	0.11376635
253	0x3f376611	0.71640116
254	0x3ef10167	0.47071382
255	0x3dd42411	0.103584416

net.0.bias f4 [50]
0	0x3f2572a5	0.6462806
1	0xbee19378	-0.44057822
2	0x3dc36792	0.09541239
3	0x3ee00894	0.43756545
4	0xbecb93fa	-0.39761335
5	0xbdb588dd	-0.08863995
6	0x3f23ae36	0.639377
7	0x3c63fdf1	0.013915525
8	0x3ea23bc3	0.3168622
9	0x3da2be61	0.07946468
10	0x3e2f5e66	0.17125854
11	0x3ddcd268	0.10782319
12	0x3f3b7710	0.7322855
13	0x3db59096	0.08865468
14	0xbe053b93	-0.13011007
15	0x3c5aee4f	0.013362481
16	0xbeb9e686	-0.36308688
17	0xbcf0a4a0	-0.029375374
18	0x3e06052f	0.13087915
19	0x3c25bdcf	0.010116055
20	0x3e5d870f	0.21633552
21	0xbc61927b	-0.013767834
22	0x3eae5849	0.3405173
23	0x3e130041	0.14355566
24	0x3c9c05d6	0.019045752
25	0x3df06367	0.117377095
26	0xbe070d0c	-0.1318857
27	0xbd02e389	-0.031955276
28	0x3ec48dea	0.38389522
29	0x3e44e9b0	0.1922977
30	0x3bff6fef	0.007795326
31	0x3dc4d093	0.09610095
32	0xbdc15134	-0.094393164
33	0x3e6f3f5d	0.23364015
34	0xbec0f215	-0.37684694
35	0x3e9fae51	0.3118768
36	0x3e9c8add	0.30574694
37	0xbedcad7c	-0.43101108
38	0xbeefc145	-0.4682714
39	0xbda514ac	-0.080605835
40	0x3e2e4f1f	0.1702237
41	0xbec05d00	-0.37570953
42	0x3ec5a1a5	0.38599887
43	0x3de9ea99	0.11421699
44	0x3e15ee83	0.14641766
45	0x3e5d302f	0.21600412
46	0x3e5c4fa7	0.2151476
47	0xbe46c7d0	-0.1941216
48	0x3cb696e7	0.022288753
49	0x3e8c5296	0.27406758

net.2.weight f4 [50, 50]
0	0x3e0e20d4	0.1387971
1	0x3e11883b	0.14212124
2	0xbc7161ba	-0.0147327725
3	0xbde63a7b	-0.11241623
4	0x3e3d7c36	0.18504414
5	0x3e895af3	0.268272
6	0x3e4a514e	0.19757578
7	0xbdfc9f01	-0.12335015
8	0x3d6a20e4	0.057160273
9	0xbe1866d7	-0.1488298
10	0xbe38b15a	-0.18036404
11	0xbd4426ca	-0.047888555
12	0xbdbfe8ab	-0.0937055
13	0xbc642542	-0.013924899
14	0xbea6900e	-0.3253178
15	0x3d54f643	0.051992666
16	0x3cb54e8a	0.022132177
17	0x3d9d42d5	0.07678763
18	0xbce2ae54	-0.027671017
19	0x3d9568e0	0.07295394
20	0x3ebb88a9	0.366277
21	0x3d8c623f	0.068546765
22	0xbe068f52	-0.1314061
23	0x3e90cf27	0.28283045
24	0xbbe2e65a	-0.0069244327
25	0xbe5c1b2f	-0.21494745
26	0xbe4d02b0	-0.20020556
27	0x3db90f8a	0.09036167
28	0xbea6a328	-0.32546353
29	0xbe59a261	-0.21253349
30	0x3e119296	0.14216074
31	0x3eb2ee3e	0.3494739
32	0xbcdcd2f5	-0.02695606
33	0x3cd8c1f3	0.02645967
34	0x3e81821e	0.25294584
35	0xbdf6bafc	-0.12047383
36	0x3e3b1afe	0.18272015
37	0xbcc81706	-0.02442504
38	0xbd824694	-0.06361118
39	0x3dde768b	0.10862454
40	0x3dca360d	0.098735906
41	0xbdd5614c	-0.104189485
42	0x3e4e4da6	0.20146808
43	0xbe959d24	-0.2922145
44	0x3e436f90	0.19085526
45	0x3db7b1be	0.089694485
46	0x3dee2c73	0.11629572
47	0x3d1013a2	0.035174973
48	0x3e37fa11	0.17966487
49	0xbe0b1039	-0.13580407
50	0x3e6a2d64	0.22868878
51	0x3e2b6046	0.16735944
52	0xbcdba75d	-0.026813203
53	0x3d19bc16	0.03753289
54	0x3dbd8801	0.09254456
55	0xbdbbe70c	-0.09174928
56	0x3c82e87c	0.015979998
57	0xbdc97302	-0.09836389
58	0x3e5218c4	0.2051726
59	0x3e20a232	0.15686873
60	0x3e89a617	0.2688453
61	0xbe04e4d8	-0.12977922
62	0xbe9a27d7	-0.3010852
63	0x3dcb1fcf	0.099181764
64	0xbe12f40d	-0.1435091
65	0x3dfa83e6	0.12232189
66	0x3e38463b	0.17995541
67	0x3e60dae1	0.21958496
68	0xbda57faa	-0.080809906
69	0x3e21d1d7	0.15802704
70	0x3e3fa84a	0.18716541
71	0x3c386e18	0.011256717
72	0x3e693c7f	0.22776984
73	0xbded4ef5	-0.115873255
74	0x3ca987ab	0.020694574
75	0x3e5d0070	0.21582198
76	0x3e29380d	0.16525288
77	0x3e803189	0.25037792
78	0xbc3b564d	-0.01143415
79	0x3de4df1c	0.11175367
80	0x3e58d8d5	0.21176465
81	0x3e3e0e97	0.18560253
82	0xbe2abd7b	-0.16673844
83	0xbe29e6cf	-0.16591953
84	0x3e6536aa	0.22384134
85	0xbdda158a	-0.106486395
86	0x3ebe82b0	0.37209082
87	0xbe13fe5d	-0.144525
88	0xbec2b31d	-0.38027278
89	0xbe8a7cc1	-0.27048305
90	0xbd5fa5d0	-0.05460149
91	0x3d92c060	0.07165599
92	0xbe9cc8b4	-0.30621874
93	0xbe0e75ab	-0.13912074
94	0x3e7855b9	0.2425145
95	0xbd8dc090	-0.06921494
96	0x3d3631b6	0.044481
97	0xbdf0291d	-0.11726592
98	0x3ea7c80a	0.32769805
99	0xbdb35363	-0.08756139
100	0x3eab4f39	0.3345888
101	0xbcf3e77b	-0.029773464
102	0x3d73c6f0	0.059515893
103	0x3e80a7f5	0.2512814
104	0x3e412aa0	0.18863916
105	0x3e3daca3	0.18522887
106	0xbe115989	-0.14194311
107	0xbd5befef	-0.053695615
108	0x3e4e6d2c	0.20158833
109	0xbd8e2428	-0.0694049
110	0x3d7d63c3	0.06186272
111	0x3d7ed329	0.062213097
112	0x3ed72ba7	0.42025492
113	0x3e7035bc	0.23457998
114	0xbdb9b574	-0.090678126
115	0xbbc595f9	-0.006029841
116	0xbe22cf6c	-0.15899438
117	0xbc586253	-0.013207036
118	0x3c3dad13	0.011576909
119	0x3e06f611	0.13179804
120	0x3dde3d9c	0.10851595
121	0x3d90345d	0.070412375
122	0x3e2732b7	0.1632794
123	0x3e45c61d	0.19313855
124	0xbdc02b35	-0.09383241
125	0x3e6e6719	0.23281516
126	0x3dbff889	0.09373576
127	0xbe0b8c06	-0.13627633
128	0xbe19f906	-0.15036401
129	0x3d7352d3	0.05940516
130	0xbc1429d6	-0.009043178
131	0xbe66cc37	-0.2253884
132	0xbdd60199	-0.104495235
133	0x3e9181e5	0.28419414
134	0xbe65b59d	-0.22432561
135	0x3d2be6f6	0.04196831
136	0xbdfd10d7	-0.123567276
137	0x3cc0ab28	0.023519114
138	0x3e05b23b	0.13056271
139	0x3e278192	0.16358021
140	0x3df60354	0.120123535
141	0xbe7b41d5	-0.24536832
142	0xbe1fe077	-0.1561297
143	0x3d43b665	0.047781367
144	0xbd878325	-0.06616811
145	0x3db191a9	0.086703606
146	0x3ebfb356	0.3744151
147	0xbe5cb135	-0.21551974
148	0x3e5dd920	0.21664858
149	0x3e541730	0.2071197
150	0x3e2fb122	0.17157415
151	0xbe4ae10c	-0.19812411
152	0xbda741f7	-0.08166879
153	0x3e6ec80e	0.23318502
154	0x3c1f0945	0.0097068
155	0x3dee3f0c	0.11633119
156	0x3d0d8af9	0.034556363
157	0xbe3395fc	-0.17537683
158	0xbd1d7c67	-0.038448717
159	0x3e20a468	0.15687716
160	0xbe9f161c	-0.31071556
161	0x3e19b7fe	0.15011594
162	0x3e2c4b2d	0.16825552
163	0x3cb01a70	0.021496981
164	0x3d42ace5	0.047528166
165	0xbdc15116	-0.09439294
166	0x3e282f9a	0.16424409
167	0xbe0c0655	-0.1367429
168	0x3db09c23	0.08623531
169	0x3e739937	0.23788916
170	0xbda2e9af	-0.07954728
171	0xbde855b7	-0.11344474
172	0x3c861081	0.016365292
173	0xbcbb16fa	-0.022838105
174	0x3d65c5d1	0.056096856
175	0x3e4b8c26	0.19877681
176	0x3d7865b7	0.060643878
177	0xbe0d10b6	-0.13775906
178	0x3ece6dae	0.40318054
179	0x3e11a068	0.14221346
180	0xbd4ba9b5	-0.049722392
181	0xbe9b757e	-0.30363077
182	0xbcae99b1	-0.02131352
183	0x3dc07565	0.09397391
184	0xbc16c4c7	-0.009202189
185	0x3e8e7c66	0.27829283
186	0x3e094d1d	0.13408323
187	0x3e7d9c2a	0.24766603
188	0xbe20d80c	-0.15707415
189	0xbe054eb3	-0.13018303
190	0x3de87307	0.11350065
191	0x3d659941	0.056054357
192	0xbe11d8f8	-0.14242923
193	0x3e1f17c5	0.15536411
194	0x3e1572ea	0.14594617
195	0xbdf2766d	-0.11838994
196	0xbd4ada3b	-0.049524527
197	0xbc9de8e7	-0.019276096
198	0xbd110d87	-0.03541329
199	0xbd92a263	-0.07159879
200	0x3d5a7abf	0.053339716
201	0xbc59bb74	-0.013289321
202	0xbe19151c	-0.14949459
203	0x3d164079	0.03668258
204	0xbe845899	-0.25848845
205	0x3e5ac802	0.2136536
206	0xbea966f0	-0.33086348
207	0x3ce43340	0.02785647
208	0xbe446ba4	-0.19181687
209	0xbd7c1a73	-0.06154866
210	0xbdb05c14	-0.086113125
211	0xbe0e6761	-0.13906623
212	0xbe8c8ba1	-0.27450278
213	0xbdaf1f90	-0.08550942
214	0xbcceea31	-0.025258156
215	0xbd80968a	-0.06278713
216	0xbea2d192	-0.31800514
217	0xbd09d46d	-0.03364985
218	0x3e9e1277	0.30873463
219	0xbe5ac15b	-0.21362822
220	0xbd90d519	-0.07071895
221	0x3d989be7	0.07451611
222	0xbe11b19b	-0.14227907
223	0x3d1745e9	0.036931906
224	0xbe33c625	-0.17556055
225	0x3c9537f2	0.018215153
226	0x3e030cf8	0.12797916
227	0x3df9925c	0.12186119
228	0xbe825a40	-0.2545948
229	0xbd8cef83	-0.06881621
230	0x3dd088ff	0.1018238
231	0xbdc35748	-0.09538132
232	0xbe2f35a8	-0.17110312
233	0xbe817488	-0.2528422
234	0x3e5ad5e1	0.21370651
235	0xbc0585b3	-0.008149552
236	0x3da490e0	0.08035445
237	0x3d87c403	0.06629183
238	0x3e932f67	0.28747103
239	0x3de21d39	0.1104073
240	0xbd816178	-0.06317419
241	0x3dd1463d	0.10218475
242	0x3c5c4da2	0.0134462435
243	0xbe6ab8f8	-0.22922122
244	0xbd8b0375	-0.06787769
245	0xbe7939c5	-0.24338444
246	0x3e3d74d2	0.18501595
247	0xbe0d64f7	-0.13808046
248	0x3d37faef	0.044917043
249	0xbe4ce91e	-0.20010802
250	0xbe71667c	-0.23574251
251	0x3df16d46	0.117884204
252	0x3e9e592d	0.3092741
253	0xbe8f9d8e	-0.28049892
254	0xbe0cd061	-0.13751365
255	0xbd92fa1f	-0.07176613

net.2.bias f4 [50]
0	0x3e2407f3	0.16018657
1	0xbdc3347d	-0.09531496
2	0x3e41f7b4	0.18942147
3	0x3dfed9c9	0.12443883
4	0xbdb1ad7f	-0.0867567
5	0x3e68e4d8	0.22743547
6	0xbe0bea72	-0.13663653
7	0x3e8bf417	0.27334663
8	0xbe900b3e	-0.28133577
9	0xbd432db0	-0.047650993
10	0xbe0596d2	-0.13045815
11	0x3e404d1c	0.18779415
12	0x3e504ebe	0.20342538
13	0x3ce04083	0.027374512
14	0xbdd894d3	-0.10575261
15	0x3d399b3e	0.045314066
16	0xbdd3cbed	-0.1034163
17	0xbe52cc1d	-0.20585676
18	0xbe284e11	-0.1643603
19	0x3db9f5f5	0.09080116
20	0x3c707bf0	0.0146779865
21	0x3d8668b6	0.06562941
22	0x3ca7e010	0.020492584
23	0x3e2188be	0.15774819
24	0x3d53c912	0.051705427
25	0xbc2114c6	-0.009831613
26	0x3d0cfab0	0.03441876
27	0x3e94dfb3	0.2907692
28	0x3e17d1ac	0.14826077
29	0xbd54f541	-0.051991705
30	0xbe1df556	-0.1542562
31	0x3e30d88c	0.17270106
32	0x3c761380	0.015019298
33	0x3e204895	0.15652688
34	0x3c90bc4b	0.01766791
35	0x3e71142a	0.23542848
36	0xbc4c23a8	-0.012459673
37	0x3d78f309	0.06077865
38	0xbc9223eb	-0.017839393
39	0x3d999639	0.07499356
40	0xbcb48b85	-0.022039184
41	0x3d61343e	0.054981463
42	0x3b80e506	0.0039335517
43	0xbdd0c6ee	-0.10194193
44	0xbba7b3cb	-0.0051178685
45	0xbdaca870	-0.084305644
46	0xbdf55b85	-0.119803466
47	0x3dd90027	0.10595732
48	0xbe60633f	-0.2191286
49	0x3d9d1822	0.076706186
