Code/Trained models/terzaghi/terzaghi_models.pt (torch, 109196 bytes, 27 tensors)

net.0.weight f4 [50, 11]
000000 21 56 32 3f ea e9 2f 3f 00 d4 3a 3b 0a 78 33 3d
       0.6966267 0.687163 0.002850771 0.04381565
000010 09 00 c6 3d 72 39 94 3e b0 8a 24 be 5f 0b a9 bc
       0.096679755 0.28950077 -0.1606853 -0.020635305
000020 bb c3 33 be e7 b4 d2 bd c8 c4 1d bd f3 94 85 3e
       -0.17555134 -0.10288411 -0.038517743 0.26090202
000030 78 a8 f8 be a0 07 48 be cb e5 0c 3e 49 fe a1 bd
       -0.4856603 -0.19534159 0.13759534 -0.07909829
000040 38 89 70 3e 86 48 34 bd 65 a6 21 be b0 43 ae 3d
       0.23489845 -0.044014476 -0.1578613 0.08509004
000050 06 59 c2 bc b9 f1 47 bb 16 14 f8 be c9 7f b7 be
       -0.02372409 -0.0030509068 -0.48452824 -0.3583968
000060 a0 ac f0 3d 30 91 c6 bd 2b 50 72 bc 6e b6 a5 bd
       0.117516756 -0.09695661 -0.014789621 -0.08091436
000070 41 19 09 3d f5 3d df 3d c0 d5 19 3d 6c 7e 96 bd
       0.03347135 0.10900489 0.037557364 -0.07348332
000080 15 01 9b bd a6 8a 26 3e b9 64 54 bf 3c 4a 74 3e
       -0.07568566 0.16263828 -0.8296619 0.23856443
000090 40 20 8a 3d 6a d7 26 bd ee 58 18 3e af 51 b0 bd
       0.067444324 -0.04073278 0.14877674 -0.0860933
0000a0 c9 0e 4b 3e b0 d0 63 bd da eb 0c bd 13 9e 11 3d
       0.19829859 -0.05561894 -0.034404613 0.035551142
0000b0 a3 e7 b7 3f 52 87 78 3e 40 15 a1 3c 66 17 b7 be
       1.4367565 0.2427037 0.019663453 -0.3576004
0000c0 b6 6a a7 3d f4 9f 19 be d0 90 90 3d fc df f0 bd
       0.0817465 -0.15002424 0.07058871 -0.11761472
0000d0 4b dd 7a be 5d 2e 68 3d 84 f8 0a be 06 77 11 3e
       -0.24498479 0.05668484 -0.13571364 0.1420556
0000e0 08 a1 c1 3d 22 4b 8f bd c5 86 98 3d 03 77 0c bd
       0.094545424 -0.06996752 0.0744758 -0.034293186
0000f0 72 3e 44 be 79 f5 c3 bd e9 f5 6f 3e 68 36 7b 3e
       -0.19164446 -0.095683046 0.23433651 0.24532473
000100 f6 ec 3e 3d a8 e1 81 3b 77 42 b5 be c0 1a ac 3e
       0.046612702 0.003963668 -0.3540227 0.3361416
000110 14 a9 0b 3e da cd 22 3d 1b 01 26 3e 02 7d 5a be
       0.13638717 0.039747097 0.16211359 -0.21336749
000120 f0 73 84 bd 0d 8f 7b bd f6 47 8d bd 2e 45 5d bd
       -0.06467426 -0.06141572 -0.06898491 -0.054021053
000130 ba 24 9b 3c 80 3f ce bd 6d 9c 5d bf 4e d4 9c 3e
       0.018938411 -0.100707054 -0.8656681 0.30630726
000140 66 49 d5 bd 3e 0f 51 3d 02 bc 84 3e c0 71 81 3c
       -0.1041439 0.051039927 0.2592469 0.01580131
000150 67 25 6f 3d 22 52 0b 3e 32 c2 98 3d 1e 19 45 3c
       0.05838528 0.1360555 0.07458915 0.012029914
000160 a6 a5 c1 bf 8c ac 0e 3e 40 d0 c6 3d 5f b2 72 3e
       -1.5128677 0.13933009 0.09707689 0.23700856
000170 da 81 eb 3c 78 0a f1 bd c9 74 83 3c b4 fb a6 bd
       0.028748441 -0.11769575 0.016046898 -0.08153477
000180 3e eb 9a be be 0e 04 3d 1c dc 5e bc 49 6e 2d 3d
       -0.302576 0.03224062 -0.013602283 0.042341504
000190 87 b2 57 be ae 4b 85 3e cd fa 5a bb a1 2c 2d be
       -0.21064197 0.26034302 -0.003341365 -0.16911556
0001a0 fe 00 74 be be e8 00 3e d5 fa 75 3d a8 81 a3 3d
       -0.23828503 0.12588784 0.060053665 0.07983714
0001b0 c1 31 b4 bd 34 3f aa 3d 79 0b 0e 3f 9a e9 02 3f
       -0.08798552 0.08312836 0.55486256 0.511377
0001c0 80 37 46 3e 2b 1f ee bb c2 a0 91 3d 66 09 87 bd
       0.19357109 -0.007266899 0.0711074 -0.065935895
0001d0 2b 0b 8c 3d 9a 9b 52 be f2 28 d7 bd 77 bf 18 bd
       0.068380676 -0.2056717 -0.105058566 -0.03729197
0001e0 d2 53 7c 3d f5 e1 8e bf bb 9a 44 3e 26 0c 87 3e
       0.061603375 -1.1162707 0.1919965 0.26376456
0001f0 b3 81 60 3d 50 c6 a9 bd d6 f5 91 3e b9 3c a4 bc
       0.05481119 -0.08289778 0.2850787 -0.020048486
000200 5d ac 2d be c0 c7 45 bd a4 a2 39 3b 86 30 d7 3c
       -0.16960283 -0.0482862 0.00283257 0.026268255
000210 41 41 ea be 39 6e 1a bf 49 dd 37 be b3 5f b7 bc
       -0.4575291 -0.60324436 -0.17955507 -0.0223845
000220 6a f2 a6 bd 88 a3 2d 3d 22 64 30 be a2 70 a6 bc
       -0.081517056 0.042392284 -0.17225698 -0.02031738
000230 d7 fb 88 be 0c 5d 53 bd e8 00 95 3c 8c 2c 31 bf
       -0.2675464 -0.05160241 0.018188909 -0.692086
000240 51 88 97 be 52 92 a0 be 6c 9e e1 3c e9 1f 9e be
       -0.2959619 -0.31361634 0.027541362 -0.3088372
000250 ed 6a 9e be 44 68 13 be ac ba 4d be 20 08 5c bc
       -0.30940953 -0.14395243 -0.20090741 -0.0134296715
000260 97 4c 87 bd 4b 53 57 bd f4 ba 0a bf 66 b5 a9 3d
       -0.06606405 -0.05256967 -0.5419152 0.08286552
000270 a0 c2 f2 3d 1f 2a 76 3e ae eb 8d bd 28 a8 35 3d
       0.11853528 0.24039505 -0.06929718 0.04434982
000280 e5 d3 a5 3e 44 81 0d be 22 4e c0 bd 3f 79 a1 3d
       0.32388225 -0.13818842 -0.09389903 0.07884454
000290 96 a4 9c bb 40 35 7b 3c eb 73 8f be 74 97 7a be
       -0.0047803624 0.01533252 -0.28018126 -0.24471837
0002a0 01 80 05 3e 5b b2 34 be d8 1c 97 be 43 f1 20 3e
       0.13037111 -0.17646162 -0.29514194 0.15717034
0002b0 dd fa 99 bd 42 f3 d1 bd ad db 90 bc a6 f7 bb bd
       -0.075185515 -0.10251476 -0.017682875 -0.091780946
0002c0 d4 45 eb be f7 8b d1 bb e4 09 6c 3e 2e 9d 4a 3e
       -0.45951712 -0.006394859 0.23050648 0.19786522
0002d0 1f ae 08 3d 28 99 9c be 41 64 46 3e 88 ce 32 bd
       0.03336918 -0.305856 0.19374181 -0.043653995
0002e0 86 61 8a 3e 0b a0 7c bd ea e8 83 3c 20 f9 e4 bf
       0.2702753 -0.061676066 0.016102273 -1.7888527
0002f0 93 b6 f8 be 7e 5c 96 3e 56 7c 54 bd 7e 44 49 3e
       -0.48576793 0.2936744 -0.05187639 0.19655034
000300 52 05 ef bd d3 b7 c4 bd ff 7d d6 bd 2e 8a 04 3e
       -0.11670937 -0.09605374 -0.104732506 0.12943336
000310 79 79 a4 bb 90 8b 37 bd 97 e4 57 3f 3b 7e 3c bf
       -0.0050193635 -0.04481083 0.84333175 -0.7363011
000320 fe 9d 53 be 29 6a 08 3e 5d 79 02 3c 38 45 91 3e
       -0.20665738 0.13321747 0.007963506 0.28373122
000330 e8 e2 23 3d ac da 41 bd fc 59 5d 3e 5e e0 20 3d
       0.040011317 -0.047327682 0.21616358 0.039276473
000340 39 1c e2 3c 9a 9a c9 3e cd ba 27 3d d0 c3 1a bd
       0.027601348 0.39375764 0.04094963 -0.037784398
000350 82 db da 3d ff 5f 4e 3e 20 22 ad 3d ba 4a 08 bc
       0.10686399 0.20153807 0.084537745 -0.008318597
000360 94 32 a8 3d c4 9d 7e 3e 4a ff 73 3d c5 34 d5 3c
       0.08212772 0.2486487 0.059569634 0.026026139
000370 5e 50 83 bf bd 63 02 bf e2 64 89 3e a0 85 7c bd
       -1.0258901 -0.5093344 0.2683478 -0.061650872
000380 31 01 1e be d0 fe ce bd 2b 55 a0 3c 78 87 ad bd
       -0.15430142 -0.101071954 0.019571861 -0.08473104
000390 20 c4 6a 3e 41 90 28 3c 1d f5 a8 3c a2 2d 8d 3f
       0.22926378 0.010288299 0.020624692 1.1029551
0003a0 7a 85 92 bd d6 b5 16 3e 94 a7 5f bd f3 08 ba bd
       -0.07154365 0.14717802 -0.054603174 -0.09083738
0003b0 ab df 8c be 71 e1 af 3e 14 6d 40 bd 00 1a 2c bb
       -0.27514395 0.34351686 -0.046979025 -0.0026260614
0003c0 16 7d 80 3c 1c f7 ce bc b9 e2 58 bf 7a 99 27 3e
       0.015684646 -0.025264315 -0.8472095 0.1636714
0003d0 68 30 22 3e 88 0a ff bc d4 dd b3 3e b6 14 96 3e
       0.15838778 -0.031132951 0.3513018 0.29312676
0003e0 03 7a ca bd a6 5c 6b bd 0c 89 46 3e cb 62 81 be
       -0.09886553 -0.057461403 0.19388217 -0.25270686
0003f0 1c 99 e7 3d 81 d8 80 bf 7b b7 ee be b0 16 46 be
       0.113085 -1.0066072 -0.4662436 -0.19344592

net.0.bias f4 [50]
000000 35 97 b8 bc 9e e7 31 3d 86 2b 84 3c 96 5d 9f 3d
       -0.022533039 0.043433778 0.016134035 0.07781522
000010 72 5b 6c 3e be 2d 52 3e aa 95 18 bd 80 61 a2 bd
       0.23081759 0.20525262 -0.037252106 -0.07928753
000020 1c c3 ca bc 6a 2c 8d 3e 09 21 90 bd 4b 92 71 bb
       -0.024751239 0.27572948 -0.07037551 -0.003686088
000030 5e d8 2a 3d 15 58 64 3d 71 72 38 be 32 3d a3 3e
       0.04171025 0.055748064 -0.18012406 0.31882626
000040 45 ad d8 bd 07 21 35 3c d2 65 d9 bd 69 fc be bd
       -0.105799235 0.011055238 -0.10615124 -0.09325487
000050 8a 60 86 bd de bc 96 bd 15 ee c5 bc ed 73 7b 3e
       -0.06561382 -0.07360242 -0.024161378 0.24555941
000060 a4 77 ad 3d bb 6f 15 be d3 3b 62 3e 45 a8 15 bf
       0.08470085 -0.14593403 0.22093134 -0.58459884
000070 2b cd a5 3e d2 0b 09 3f 51 69 73 3d 84 59 0b be
       0.32383093 0.5353366 0.05942661 -0.13608366
000080 1b 4a 06 3e b8 72 b4 3d 1b 25 8d bd 69 4b 64 be
       0.13114206 0.08810943 -0.06891843 -0.22294392
000090 00 cb af bd ed ac 30 3e 8b 1a 37 3d 37 4a cb be
       -0.08583641 0.17253466 0.044703048 -0.3970506
0000a0 9b 25 71 3e c2 b5 52 be dd e9 92 3d ef 0f b0 bd
       0.23549502 -0.20577148 0.07173512 -0.08596789
0000b0 08 76 b6 3d 8e 92 fe 3d 4a 02 09 3e 60 e2 80 3e
       0.089092314 0.12430297 0.1337978 0.2517271
0000c0 c1 1c c6 bd 33 ba 89 3b
       -0.09673453 0.004203105

net.2.weight f4 [50, 50]
000000 0e ca f7 bd 11 05 f3 bc 61 9b af 3e 7b ee 97 bd
       -0.12099086 -0.029665502 0.34298232 -0.074185334
000010 96 cd cb be bb df 11 3e 2b c9 12 3e 2d c0 a6 bd
       -0.39805287 0.14245503 0.14334552 -0.08142123
000020 b6 19 92 3e ec 98 84 bb 40 b7 02 be b3 7b ad 3e
       0.2853524 -0.00404655 -0.12765217 0.33883438
000030 77 82 e0 3b 73 94 7f 3d e0 17 a3 3d f7 fc 42 3e
       0.00685149 0.06239743 0.07963538 0.19041811
000040 3d 03 07 3e 77 aa cb 3e 5f f7 1e 3e 79 2e 5c 3d
       0.13184829 0.39778492 0.15524052 0.053755257
000050 26 30 ec 3e 37 cf 8c be d6 f3 a9 3e ff 43 bc 3e
       0.46130484 -0.27501842 0.33193845 0.36770627
000060 11 33 fd 3d 0f ad 24 3e a6 bb 82 be 73 1d d2 bd
       0.12363256 0.16081642 -0.2553379 -0.10259523
000070 22 cd 27 be 4b 08 42 3d 91 aa 38 be 4e 0c 18 be
       -0.16386846 0.04737119 -0.18033816 -0.14848444
000080 c9 b0 91 be 2f b7 6f 3e 27 bd 99 3e b0 39 33 3e
       -0.2845519 0.23409723 0.30027124 0.17502475
000090 99 ce eb be 20 e1 08 be c7 43 d1 be 40 24 03 3e
       -0.4605606 -0.13367128 -0.40872023 0.12806797
0000a0 59 15 26 3e e3 92 12 3e fe a4 40 3e 0d 7f 8d be
       0.16219081 0.14313845 0.1881294 -0.27635995
0000b0 61 e5 ca bd f5 6e 04 be 37 4e 53 3b e3 a2 e1 be
       -0.09907032 -0.12932952 0.0032242665 -0.44069585
0000c0 b5 eb b2 bd 83 53 3d 3e 37 a5 3c be 58 90 fd 3d
       -0.08736364 0.18488888 -0.184224 0.12381047
0000d0 19 91 6c 3e 7c e0 5a 3e ba b9 0d be 02 47 3a be
       0.23102225 0.21374696 -0.1384038 -0.1819115
0000e0 19 a0 63 be 60 68 9f 3e 18 90 76 3d 7b 08 d2 bc
       -0.22229041 0.3113432 0.060196012 -0.02563881
0000f0 31 62 51 be c4 b0 61 3d 62 96 42 bd 6b 76 ec bd
       -0.20447613 0.055100217 -0.047506697 -0.11546024
000100 02 58 90 bd 09 5f af bd 41 93 53 be e0 85 16 3e
       -0.07048036 -0.085630484 -0.20661642 0.14699507
000110 e7 71 8f 3c af b5 26 be c8 72 bd 3c 6c 2a fd bc
       0.017510368 -0.16280244 0.023126021 -0.030904017
000120 f6 96 2b be 95 55 8e bc 22 ff 47 bd 39 4b 11 be
       -0.16756806 -0.017374793 -0.048827298 -0.14188851
000130 17 da 56 3e ed 2b 85 3e 5c c8 b1 bb 59 a8 0c bd
       0.20981632 0.26010075 -0.005425496 -0.034340236
000140 d3 52 8e 3e 6f 33 bd 3d 22 a1 84 be cd a7 d0 bd
       0.27797565 0.09238326 -0.25904185 -0.101882555
000150 9b 58 cd bb b2 5a 06 3e 1d 02 ae be b9 6b 68 bd
       -0.006266666 0.13120535 -0.33985987 -0.056743357
000160 8f 09 96 bd 6a 73 e9 3d 64 0d 13 3e 48 c7 57 3c
       -0.07326042 0.113989666 0.14360577 0.013170071
000170 da f9 12 bc 06 21 cc bc fc 80 2b be 61 10 25 3e
       -0.008970702 -0.02491809 -0.16748422 0.1611953
000180 5a 4f 8c 3e 60 26 13 be 41 5c 73 bd 63 1e 9a 3d
       0.2740429 -0.14370108 -0.059414152 0.07525327
000190 42 c6 16 3e 52 08 a3 bd 05 09 53 be fd db e4 bb
       0.14724067 -0.07960571 -0.2060891 -0.0069842325
0001a0 be 1f 30 be e1 7f d1 bd 1c 23 47 3e 9f db ad bd
       -0.17199609 -0.10229469 0.19446987 -0.08489155
0001b0 ad ec 0d 3e cf 54 89 be 33 48 ac 3c 5d 2f 27 3e
       0.13859816 -0.26822516 0.021030521 0.16326661
0001c0 36 aa 3c 3e c1 09 93 3d f3 79 e5 bb 4a 58 e8 3c
       0.18424305 0.07179595 -0.007003063 0.028362412
0001d0 90 ea 49 3e b9 0d ea 3d 64 16 fd bd 9b 2d f5 bd
       0.19718385 0.11428399 -0.12357786 -0.11971589
0001e0 aa bc 74 be 53 ce 0e 3e 40 84 97 3e 02 13 0c bd
       -0.23900095 0.13945894 0.29593086 -0.034197815
0001f0 81 12 80 3d 3a ff b0 3e 6b 84 79 3d 18 3b 19 be
       0.06253529 0.34569722 0.0609173 -0.14963949
000200 69 92 07 be 0b 0f b1 3d 7e 9c e5 3d f4 d3 97 3e
       -0.13239445 0.08645447 0.11211489 0.29653895
000210 d9 cc 97 be bd d4 ea 3d fc e2 5f 3d fb ed 7c 3e
       -0.29648474 0.11466358 0.05465983 0.24700157
000220 56 cf 54 bd 27 e7 37 3e 98 65 a9 3c ce f5 0d be
       -0.051955543 0.17959271 0.020678326 -0.13863298
000230 fc 2d 21 3e 66 74 77 be af 19 2b 3e 26 b0 f0 bd
       0.15740198 -0.24165496 0.16709016 -0.11752348
000240 b9 0f 92 3e 2e f7 bd be d4 aa 9c 3d 59 d9 14 be
       0.2852762 -0.37102646 0.076497704 -0.14536037
000250 0b 3f 63 be 10 b6 d6 bc b9 a9 0d be 98 11 16 3d
       -0.22192018 -0.026209861 -0.13834275 0.036637872
000260 b8 d2 e1 bd ff 08 be bd 57 0e ae bd 59 af 6f bd
       -0.110265195 -0.092790596 -0.08498829 -0.058516834
000270 e9 f2 a3 3e c2 8d 7f bd 69 dc 5b 3e 41 24 8b be
       0.32021263 -0.06239105 0.21470799 -0.27176097
000280 61 70 15 be 70 eb c2 bc ea 1d 48 3d 72 ce 0b be
       -0.1459365 -0.023793906 0.048856653 -0.13652971
000290 42 13 87 bd dd d0 f5 3a 73 36 e1 bd f4 16 10 bd
       -0.0659547 0.0018754263 -0.109967135 -0.03517814
0002a0 d6 9c 83 be a9 86 a9 bd 60 a8 e1 3d 54 3d a9 be
       -0.25705594 -0.082776375 0.11018443 -0.33054602
0002b0 89 4a 0e 3e de 2c c7 3c 15 a5 f4 bd cc 9f e6 3d
       0.1389562 0.024313387 -0.119455494 0.112609476
0002c0 c5 97 11 be 3c e3 9b be 02 aa 8b 3d c4 99 2b be
       -0.14218052 -0.30446804 0.06819536 -0.16757876
0002d0 98 9f c8 bd eb e9 50 3d 12 07 36 be b3 f9 02 be
       -0.09796065 0.05100433 -0.17776135 -0.12790565
0002e0 b4 11 2b bd 44 68 09 3e a8 c2 84 bd cb 74 8e 3d
       -0.04176493 0.1341868 -0.0648244 0.0695587
0002f0 13 97 2f 3e 37 4d cd bd ae 51 9c bd 30 ea 9c bd
       0.17147474 -0.10024493 -0.07632767 -0.07661855
000300 85 39 8f 3d a0 bb ab bd bc 25 ff 3d 29 d0 23 be
       0.06993393 -0.08385396 0.12458369 -0.15997376
000310 ed 3f 22 3d 94 d6 8a be 06 4d a1 be 8d 68 a6 bc
       0.039611746 -0.27116835 -0.31504077 -0.020313526
000320 78 75 b4 be 21 09 27 3d ec c5 41 3c 4b 72 fb bd
       -0.35245872 0.04078019 0.011826973 -0.12277659
000330 57 fd ae be 98 9b b7 bd 71 e4 44 3e 11 94 d1 3d
       -0.34177658 -0.08965224 0.19227768 0.102333196
000340 9b 62 cb 3e 8a de 13 3e 51 0f 8d bd eb cb 48 3d
       0.39723668 0.1444036 -0.06887687 0.049022596
000350 13 bf 20 3e 63 3f d0 3e 2c 71 01 3e 05 a5 1c bd
       0.15697889 0.4067336 0.12640828 -0.038243312
000360 ea 05 a0 bd d9 0f bf 3e ca e9 9d be 64 47 9c bd
       -0.07813628 0.37316778 -0.3084243 -0.07630804
000370 df 24 8b bd 28 d5 cd bd 59 f3 75 3e 4e 58 49 3d
       -0.06794142 -0.10050422 0.24018611 0.04915648
000380 e0 2d e1 bb 1c b5 cc 3e e7 10 af 3d 13 c1 4a bd
       -0.006871924 0.39981925 0.08548146 -0.049500536
000390 8b 53 1f be 1d c6 9e be 82 eb 73 be 18 39 a6 3d
       -0.15559213 -0.31010523 -0.23820308 0.081163585
0003a0 ac 6a 49 be fa c0 53 3d e1 67 08 3d b4 3f 9f 3d
       -0.19669598 0.05169771 0.03330219 0.07775822
0003b0 a3 3f 4f be 73 38 00 3e a5 6f 8e be 2f 51 60 be
       -0.20239119 0.12521534 -0.27819553 -0.21905969
0003c0 3e 31 79 be b7 f1 39 3d 4b 16 3b 3e 98 4b b3 be
       -0.2433519 0.045396533 0.18270223 -0.3501861
0003d0 75 58 6f 3e a7 8e 3a be 97 b5 6a 3e 44 d1 f2 be
       0.23373587 -0.1821848 0.22920834 -0.47425282
0003e0 62 e8 23 be f0 60 42 3d d9 e5 2e bc cb 48 9b bd
       -0.16006616 0.047455728 -0.010674917 -0.075822435
0003f0 97 ce e0 3d 2d 91 a3 3d 25 8b 11 be 87 2b 39 be
       0.10976904 0.079866745 -0.14213236 -0.1808301

net.2.bias f4 [50]
000000 b3 d8 dc bc c6 09 09 be b4 04 94 3e 87 6e 12 3d
       -0.026958799 -0.13382635 0.28909838 0.03574994
000010 fe 68 b2 3c c1 c6 ea ba 87 aa 18 3e 7c b9 55 3c
       0.02177858 -0.0017912016 0.14908801 0.013044711
000020 d7 5c 44 3e 26 60 55 3c fb 0d 14 3e e5 bd 85 bd
       0.1917604 0.013023412 0.14458458 -0.0653036
000030 30 c1 51 bd 18 e4 64 3e f1 4a bd 3e 17 34 56 bd
       -0.05120963 0.22352636 0.36971238 -0.05229577
000040 b4 7a 6b 3d 64 89 bb 3e e3 ef c5 bd 71 47 91 be
       0.057490066 0.36628258 -0.096648954 -0.28374818
000050 7a 4c ea bd c2 54 7c bd a2 89 06 3e 93 3a 9b bd
       -0.11440368 -0.06160427 0.1313844 -0.075795315
000060 93 4f a6 3d 45 fe df bd ef e0 30 bd 36 ec 02 3e
       0.08120646 -0.1093717 -0.043183263 0.1278542
000070 5d fb c4 3a ad 06 e8 bd 07 c7 16 be 40 7a 2f bc
       0.0015028525 -0.11329398 -0.1472436 -0.010710299
000080 e9 3d f3 be f9 96 cb bc 57 d3 f1 3d 75 dd 8d 3d
       -0.4750817 -0.024852263 0.11807888 0.06927005
000090 92 f3 21 be 1e f6 8e 3d 0c 98 80 3e 7b 53 1e be
       -0.15815571 0.06980537 0.25116003 -0.15461533
0000a0 20 6d bb bd 02 3b 10 3d 84 b8 94 3d 39 95 10 3e
       -0.09151673 0.035212524 0.07261756 0.14119424
0000b0 69 50 e5 3e e3 79 40 3e e9 d1 06 3e c6 3f 8a be
       0.4478791 0.18796496 0.13166012 -0.2700178
0000c0 b0 68 3c be 5d 5e 84 3c
       -0.1839931 0.016158277

net.4.weight f4 [50, 50]
000000 16 a8 7e bd a6 2d ad 3d 85 db 59 3e fc 87 a2 3d
       -0.062172018 0.084559724 0.21275146 0.07936093
000010 20 28 0d 3d 5c 48 48 3e 0f b4 82 bd 36 97 aa bc
       0.034462094 0.19558853 -0.06382 -0.020824056
000020 35 8f 86 3e 92 e7 e8 bd 0a 6b 0e bd 31 bc 1b be
       0.26281133 -0.113722935 -0.03477005 -0.15208508
000030 18 40 d0 3d 28 19 1e be 1d 70 92 be cc 8e e6 bd
       0.10168475 -0.15439284 -0.2860116 -0.11257705
000040 22 80 af bd 47 14 83 bd 0f 5f 0d 3e 88 35 3a be
       -0.08569361 -0.06400352 0.13805793 -0.18184483
000050 65 a3 93 bd 78 6f 46 be ce 1e 55 be 4a 34 05 3e
       -0.072088994 -0.1937846 -0.20812532 0.13008228
000060 df e2 32 3e db 23 af 3d 94 9a b1 3d 35 61 85 3d
       0.17469357 0.08551761 0.086720616 0.065126814
000070 c4 20 ec bc 19 42 61 bd 5d 6c 81 3e b5 33 b8 3d
       -0.028824218 -0.054994676 0.25277987 0.08994237
000080 da 84 7f 3e 7e 54 c2 3d ae 58 5e 3e 02 9f 53 be
       0.24953023 0.09488772 0.21713516 -0.20666125
000090 2a af c8 3d 11 2d ed 3d 5f 12 a5 bd b8 24 11 3e
       0.09799035 0.11580861 -0.08060145 0.14174163
0000a0 39 f3 0a bb e3 f5 3f 3d c4 d7 25 be 61 ac 97 3c
       -0.00212021 0.046865355 -0.1619559 0.018514814
0000b0 03 6f 91 bd 04 03 5b 3e bb 39 4d 3e a5 83 35 be
       -0.07101252 0.21387869 0.20041554 -0.17726
0000c0 9f 45 59 bd 3c 50 f5 bd 89 2b 0f 3e 8d 7c 5f 3e
       -0.05304491 -0.11978194 0.13981451 0.21824856
0000d0 07 1f 05 3e f3 dd d4 3d eb f9 48 be c0 f0 37 3e
       0.13000117 0.10393896 -0.19626586 0.17962933
0000e0 49 4e 4c bd 63 d6 89 be 6c 35 57 be 04 f4 26 3e
       -0.049879346 -0.26921377 -0.21016473 0.16304022
0000f0 27 f7 0f 3d 88 89 82 be 62 94 e4 3b 0c 6a 05 3e
       0.035147812 -0.25495553 0.0069756964 0.13028735
000100 9b 7a 32 3e 0b 34 9b 3c 1f bd a0 bd 8c 93 58 3e
       0.17429583 0.018945714 -0.07848572 0.21150035
000110 68 0a e1 3d 28 f3 3f 3d 65 57 fe 3d 56 65 a3 be
       0.10988313 0.04686275 0.12419013 -0.3191325
000120 15 bb 07 bd a2 3d c4 3d 16 5b 8a 3d db cc ba 3d
       -0.0331374 0.09582068 0.067556545 0.09121104
000130 69 b0 92 bd 68 55 d0 bd 70 70 04 3d e1 67 40 3e
       -0.07162554 -0.1017254 0.03233379 0.18789627
000140 42 e3 da bd 0c 4f ae bd 90 df 75 3e 52 97 26 be
       -0.10687877 -0.08511171 0.24011064 -0.16268662
000150 de 4e ab be a8 bf 19 3d ee 0e 75 be 9e 1a 87 ba
       -0.33458608 0.037536293 -0.23931476 -0.0010307615
000160 b1 ab a6 3d 8d b0 aa 3d fc fe ea bd ac b1 52 be
       0.08138216 0.08334456 -0.11474416 -0.20575589
000170 82 6d 33 3d b3 7a 3e 3e 45 97 80 3e 31 ae 68 bd
       0.043805607 0.18601494 0.2511541 -0.056806747
000180 8e df 46 be fd 49 92 3d 5d d4 05 bd b4 f0 e2 3d
       -0.19421217 0.071430184 -0.03267323 0.11081067
000190 d5 bf e2 3e 34 a8 d2 3d c5 e5 b8 3e da 5f b1 3a
       0.4428698 0.102859885 0.361128 0.0013532594
0001a0 09 08 11 3e db 8f 24 3d 75 08 25 bd 2b 5e 91 3e
       0.14163221 0.040176254 -0.04029127 0.28392157
0001b0 d9 8c 94 3e 7f a3 bf 3d 3d c1 02 3d 27 b4 cd 3e
       0.29013708 0.09357356 0.031922568 0.40176508
0001c0 44 38 55 3e 14 b7 03 be 0d e1 fb bd 42 0b c5 be
       0.20822245 -0.12862808 -0.122987844 -0.38485152
0001d0 15 00 af 3e 2e 51 18 3e cd 23 49 3e 7b 44 1e bd
       0.3417975 0.14874718 0.19642563 -0.038639527
0001e0 f1 be bf bd 02 01 0b 3d 72 2a db 3c 0b e6 da bc
       -0.09362591 0.033936508 0.026753638 -0.026721021
0001f0 e3 f1 b4 bd f7 6a 47 3e da fa 5a 3e b2 93 10 be
       -0.08835199 0.19474398 0.21384755 -0.14118841
000200 d3 50 b4 3d 65 c2 ad 3e 12 95 e8 3e 2a 43 2a be
       0.088044785 0.33937374 0.45426232 -0.16627184
000210 cc f2 a1 3d 36 7f 2d bd 79 6c 2c bd d4 20 72 3e
       0.07907638 -0.042357646 -0.042095635 0.23645335
000220 cc f8 2b 3e b9 a4 2e 3e db b7 26 be 3f 5a 79 be
       0.16794127 0.17055024 -0.16281073 -0.24350832
000230 4c a1 82 be cc 7e 31 be be be 4f 3e a1 4d 07 bd
       -0.25513685 -0.17333525 0.20287606 -0.033033017
000240 ae 71 a7 3e 65 ae fe 3d 23 74 47 3e be 66 9e 3d
       0.32703918 0.12435607 0.19477896 0.0773444
000250 5a a1 17 be b8 3b 9a 3d 87 f2 ff 3d ba 63 fa bc
       -0.14807644 0.07530922 0.1249743 -0.030565131
000260 3f 72 c1 bd 0f 04 ab 3d 02 6f 25 bd 3a 34 0a be
       -0.09445619 0.083503835 -0.04038907 -0.13496485
000270 db 60 96 3d e6 73 91 bd b7 51 14 bd 12 3b 32 3d
       0.073426925 -0.07102184 -0.03621074 0.043513365
000280 98 28 6e bd 8c ee aa 3d f3 a0 25 bd 64 79 91 3e
       -0.058144182 0.083462805 -0.040436696 0.28412926
000290 d4 ca 48 3e ac fe 3c 3d 53 56 1e 3d 05 7c 03 3d
       0.19608623 0.04614131 0.038656544 0.032100696
0002a0 9e 16 84 3e d2 62 35 be 01 a8 a6 3d d0 1a 1d 3c
       0.25798506 -0.17713478 0.08137513 0.009588912
0002b0 50 f8 eb bd a5 95 58 be 53 f4 8f be ae 1b d0 bd
       -0.11521971 -0.21150835 -0.28116092 -0.101615295
0002c0 4b 47 62 3e ef be 0d be 05 12 4a bd 4b cb 6f 3c
       0.22097509 -0.13842367 -0.04933359 0.014635871
0002d0 ce b8 bd bb 9a db 5b 3e 2b ef 80 3e ee d8 3d be
       -0.0057898527 0.2147049 0.2518247 -0.18539783
0002e0 b7 dc bb 3d a9 c6 b7 bd e2 7d ac 3d d8 6e cc 3c
       0.091729574 -0.08973438 0.08422448 0.024955198
0002f0 55 80 05 3b c4 c4 e4 3c 5b b1 e5 3c a2 14 f7 3c
       0.0020370681 0.027925856 0.028038671 0.030161206
000300 ed 20 46 be 33 46 ea 3d 04 81 ca 3d a3 41 b5 bd
       -0.19348498 0.11439171 0.09887889 -0.0885041
000310 2d 6b 8e 3e 08 bf 5f bd fb 41 c6 3d 05 27 57 be
       0.27816144 -0.05462554 0.096805535 -0.21010979
000320 58 0d a6 be e2 68 8b 3d 9e dc 65 bb d1 92 a6 3d
       -0.32432055 0.06807114 -0.0035074125 0.08133472
000330 09 1b 2a be 1c 1a 36 bd 74 20 bd 3d fa 67 a9 be
       -0.16611876 -0.044458494 0.092347056 -0.3308714
000340 9e 0c ca 3d 67 36 51 3e e0 da 63 3c 3f dd 97 be
       0.09865688 0.20430909 0.013907164 -0.29660985
000350 9c df c5 bd 17 6c 01 be 2d 9e 40 3e ce 22 1f 3e
       -0.09661791 -0.12638889 0.1881034 0.1554062
000360 f5 54 e1 bc 10 78 68 be 42 ba df be b3 0f 50 bd
       -0.027506331 -0.2270205 -0.4369679 -0.050796222
000370 19 82 bd bb 06 aa 2b 3e 00 b6 08 3d e0 ae 69 3d
       -0.005783331 0.16764078 0.033376694 0.05705154
000380 22 e5 a5 3c b3 b1 9d be 93 45 90 bc c1 b5 00 3e
       0.02025086 -0.30799636 -0.0176113 0.12569334
000390 dc 0d 68 be 50 78 35 be d6 3d 34 bd 8f 4d 34 bd
       -0.22661537 -0.17721677 -0.044004284 -0.04401928
0003a0 3c bd 8a 3e 3e 9c a8 bd a1 00 1c bd f8 dd 48 be
       0.270975 -0.08232926 -0.038086537 -0.19615924
0003b0 75 51 fe 3d b6 c4 5f 3e db eb 00 3e b0 54 c5 3d
       0.124178804 0.21852383 0.12589972 0.096352935
0003c0 d5 46 64 3e 03 21 11 be 70 95 8d be 60 45 05 3d
       0.22292645 -0.14172749 -0.27653074 0.032536864
0003d0 fa c2 2a be ba 3b 37 bd 69 a7 12 3d ee 36 d3 3d
       -0.1667594 -0.044734694 0.035804186 0.103132114
0003e0 ee 0d f9 3d 55 5d 09 3e 69 56 a1 3c 7f 21 5d be
       0.1216086 0.1341451 0.019694524 -0.21594809
0003f0 b3 59 7f 3d 95 8e 02 3e b8 47 d2 3c 65 f6 95 3d
       0.062341403 0.12749703 0.025668964 0.07322387

net.4.bias f4 [50]
000000 6a 66 17 be ac f5 41 bd 44 ba 0b 3e 28 d4 82 be
       -0.14785162 -0.04735343 0.13645273 -0.25552487
000010 23 65 06 3e ed b2 0d 3e df 9e 9c bd 65 f8 62 3d
       0.13124518 0.13837786 -0.0764749 0.05541267
000020 b9 00 8c 3d 73 65 ca 3d 26 f4 84 3d c1 4d 90 3e
       0.06836075 0.09882631 0.0649188 0.28184322
000030 de 7f 7f 3d 1e 5d 27 3d aa 9b 7b 3b 61 52 a3 3e
       0.062377803 0.040860288 0.0038392344 0.31898788
000040 28 42 07 3e 57 2e b1 3d 97 fc 7f be d1 2b 75 bd
       0.1320883 0.08651417 -0.24998699 -0.05985624
000050 1a 72 83 3e ba 15 58 3d 7e 3d 06 3e 21 07 8f be
       0.2567299 0.052755095 0.13109395 -0.27935126
000060 cc de 56 3d 46 b9 5b 3d 8f 0d cc bd 6f 6c bd 3e
       0.05245857 0.053643487 -0.099635236 0.3699679
000070 73 dd c4 3c 78 31 23 be d2 89 04 3d f9 70 88 bc
       0.024031376 -0.1593684 0.032358 -0.016655432
000080 c6 e0 b8 bc cd ef 80 bd 87 db 85 bd 27 ef 17 3d
       -0.022568118 -0.06295738 -0.06536012 0.037093308
000090 45 4d 5d 3d 3e 68 f1 3d d1 62 f3 3d 94 9e f9 bd
       0.054028768 0.11787461 0.11884082 -0.121884495
0000a0 54 57 35 3e 8e 3f a1 bd 78 ec 6f 39 0c 78 80 bd
       0.17709094 -0.0787345 0.00022880908 -0.06272897
0000b0 57 9f fd 3d a5 c7 7b 3e 79 cb 6b 3e 7a c9 4a 3d
       0.12383907 0.24587877 0.23026837 0.04950855
0000c0 bb 17 41 3b b6 36 78 3d
       0.0029463607 0.06059905

net.6.weight f4 [50, 50]
000000 03 17 42 3e 20 b0 68 3d 8f e2 9f 3d 9b ae 18 3e
       0.18954091 0.05680859 0.078068845 0.14910357
000010 ac f7 20 be e6 7c 2b 3e 66 18 15 3e 23 5c 58 bd
       -0.1571948 0.16746864 0.14560089 -0.052822243
000020 94 31 5d 3e 42 68 3f 3e da 82 9b bd 80 da 2c be
       0.21600944 0.18692115 -0.07593317 -0.16880226
000030 4d fd 35 be c8 57 f6 3c 5c bd a2 3d 37 3f 07 3c
       -0.17772408 0.030071154 0.07946274 0.008254818
000040 62 1c a3 bd b5 be fc 3c 63 14 4a 3e 86 27 75 3e
       -0.07964398 0.030852655 0.1973434 0.23940858
000050 5c 0c 9e bc b9 24 c8 3d 45 ff 0b 3e 40 d1 0d 3e
       -0.019293003 0.09772629 0.13671596 0.13849354
000060 0a ce a9 bd 28 97 ce 3d 9c 93 58 bd da 22 4c 3e
       -0.08291252 0.100874245 -0.052875146 0.1993517
000070 cc b1 7d 3d f0 d6 3a bc a8 ba fa bd b7 34 5a 3e
       0.06193714 -0.011403784 -0.12242633 0.21309172
000080 ea 3a 3a 3e 57 87 0f 3c 57 32 70 be 68 d0 04 bd
       0.18186536 0.008760295 -0.23456703 -0.032425314
000090 6c d2 1b 3e 91 6a 63 3e f1 82 23 be 6b 99 a3 bd
       0.15216988 0.2220862 -0.15967919 -0.079882465
0000a0 66 43 21 3e 16 b5 ca bd 10 be 49 3c bd ba 45 3e
       0.15748367 -0.09897821 0.012313381 0.19309516
0000b0 32 77 12 3e c1 f1 ab bd 11 49 75 bd 25 3d ab 3b
       0.14303282 -0.0839572 -0.059884135 0.005225795
0000c0 73 cc dc bd b5 38 2a be c3 c0 e6 bd 9a 10 1e be
       -0.10781183 -0.16623195 -0.11267235 -0.1543602
0000d0 b4 b7 47 be 5e 36 d7 bd b2 9b 3b 3e 02 dd a3 bd
       -0.19503671 -0.105084166 0.18321112 -0.08001138
0000e0 d2 41 1e 3d 40 08 3e 3e 64 c0 2c 3e 96 c7 40 3e
       0.03863699 0.18557835 0.16870266 0.18826136
0000f0 22 b5 0f 3e 82 32 c7 3d dd c1 8e bd 9a e4 fe 3d
       0.1403394 0.097264305 -0.0697057 0.12445946
000100 0d e6 98 bd a9 cd 31 3e 77 95 0a bc ed a9 2a 3e
       -0.07465754 0.1736361 -0.008458487 0.16666384
000110 52 93 39 3d 59 10 e1 bd 1f 08 48 3d 2b b1 ac bd
       0.04530651 -0.10989446 0.04883587 -0.084322296
000120 20 21 b1 bd 5a 1e ee bd 0f d2 6d be 6a eb 6d 3e
       -0.08648896 -0.11626883 -0.23224662 0.23234335
000130 54 d8 ef bd b7 8b 57 be 25 14 09 3e 66 bf d9 bb
       -0.11711183 -0.2104939 0.13386591 -0.006645131
000140 44 fc d3 bc fe e0 64 be d5 09 b6 bc 05 94 bb bd
       -0.025877126 -0.22351453 -0.022221485 -0.09159092
000150 7f 2b 4b bd 94 68 d2 3c fa 4f 28 3e 33 54 d0 3d
       -0.049602028 0.025684632 0.16436759 0.1017231
000160 a1 1d 14 3e 53 bf 36 3e 61 41 48 3e 39 9c 11 be
       0.14464428 0.17846422 0.1955619 -0.1421975
000170 86 72 46 be c0 7e 22 3e db 72 03 3e 58 c6 87 bd
       -0.19379625 0.15868664 0.12836783 -0.06629628
000180 cb 2a 86 3c f2 e5 87 3e 5e 6d 27 be 42 08 95 bd
       0.016377827 0.26542622 -0.16350314 -0.07276966
000190 8a 59 34 3e 3e 0d 93 be 31 ba 71 3d 0b 35 df be
       0.17612281 -0.2872104 0.059015457 -0.43595156
0001a0 3a 7d 81 bd 30 4c 44 be 40 39 aa 3d f3 d2 eb bd
       -0.06322713 -0.19169688 0.08311701 -0.11514845
0001b0 39 fa 81 be d7 52 0c 3d f0 99 db bd 7c 8d c3 be
       -0.25386217 0.03425869 -0.107227206 -0.38193882
0001c0 35 21 a3 be 8f 8a 2e 3e a5 07 94 be 2c bf 82 3e
       -0.31861272 0.17045043 -0.28912082 0.25536478
0001d0 74 7e 7d 3d 0c 97 a5 3e 52 8a b8 be 8c b0 5b bd
       0.061888173 0.32341802 -0.3604303 -0.053635165
0001e0 2c 84 ae 3e 37 bf 49 3e 27 44 9f 3d 2d 90 c5 be
       0.34085214 0.19701849 0.07776671 -0.3858656
0001f0 e4 25 0a be a0 be 75 3e 23 0c a0 bc 7f d5 74 bd
       -0.13491017 0.23998499 -0.019537037 -0.05977392
000200 88 17 87 bd 27 9e 9f 3d 24 ab 3e be 99 99 8f bd
       -0.06596285 0.07793837 -0.18619972 -0.07011718
000210 b5 85 18 3e 3d ef 14 be 09 c9 06 3e 75 eb e8 bd
       0.14894755 -0.14544387 0.13162626 -0.11373035
000220 95 e3 39 be 4b d4 e7 3c 48 50 2b 3e 44 69 53 3e
       -0.18153222 0.028299471 0.16729844 0.20645624
000230 c1 61 4f be cc 93 73 be 75 91 25 bc c3 80 d2 bd
       -0.20252134 -0.23786849 -0.01010548 -0.102784656
000240 20 c4 ad bd 68 77 ed 3d db 09 61 3e 70 66 8f 3e
       -0.084846735 0.115950406 0.21976416 0.2800784
000250 11 02 9e 3d a9 c0 b7 3e 62 21 72 be df 83 2f 3e
       0.07715238 0.35889176 -0.23645547 0.17140149
000260 0d 98 1b be ab af 71 3d fb 46 f8 bd 0d ff f1 3d
       -0.15194722 0.05900542 -0.121229135 0.11816225
000270 59 6a 90 bd e0 6e fb 3c e4 ea 05 be 18 0d 56 be
       -0.07051534 0.030692518 -0.13077885 -0.20903432
000280 51 20 76 bd df 07 5c 3d 01 fc f0 3d 13 3d 39 be
       -0.060089413 0.053718444 0.11766816 -0.18089704
000290 03 20 1d 3e 2c ba 3a be 34 8e 83 3d aa 57 63 bc
       0.15344243 -0.18235081 0.064236075 -0.013875881
0002a0 54 b5 9e bd f1 64 d0 bd 7a 22 63 be 99 ba 9e 3d
       -0.07749429 -0.10175503 -0.2218112 0.077504344
0002b0 27 84 d1 ba 70 8e 0a 3d 91 c1 56 be 3c 7f 6e bc
       -0.0015984819 0.033827245 -0.20972277 -0.014556702
0002c0 52 b2 96 3b af d4 09 3e 11 6b 3d bd 8b 8e 41 3e
       0.004598894 0.13460039 -0.046244685 0.18902032
0002d0 34 30 1e bd 79 6a 2d bc a3 18 3e 3e 44 be 67 be
       -0.03862019 -0.010584467 0.18564086 -0.22631174
0002e0 df 7a 97 3d b7 c9 36 3d 4d a1 e4 bd c4 e1 a0 3d
       0.07396483 0.044625964 -0.11163578 0.078555614
0002f0 8b be 20 bd a4 b0 29 3e 35 11 11 be 04 a8 0f 3e
       -0.039244216 0.1657129 -0.1416672 0.14028937
000300 4b 12 0a be d0 fb 36 be 30 65 57 3e 25 21 ed bd
       -0.1348354 -0.17869496 0.21034694 -0.115785874
000310 92 79 23 bd f5 46 b7 bd c2 c5 06 3e 2e 5a 22 be
       -0.03991086 -0.08949081 0.13161376 -0.15854713
000320 6e 61 e6 bd e3 e7 b8 3d a0 a4 ba 3d 84 ff e6 bb
       -0.11249052 0.09028604 0.09113431 -0.007049503
000330 9d 8f 66 3d d3 b6 dc 3d c2 59 a9 be 80 09 23 bd
       0.056289304 0.107770585 -0.33076292 -0.03980398
000340 b9 7a 87 3d 9d b2 08 3e 5f 76 43 3d 52 5d 52 3f
       0.06615204 0.13349386 0.04772031 0.82173645
000350 22 86 e7 3e ac 2e 27 be 5c ff 9c 3e 2e d3 a4 3d
       0.45219523 -0.16326398 0.30663574 0.08048092
000360 6f 8b 2b 3e 2e 94 d2 3d 82 08 90 3d b2 69 89 3d
       0.16752408 0.10282169 0.07032873 0.06709613
000370 b4 bb 7d be cf b7 b7 3e a4 9b 5d 3e e4 b7 51 3e
       -0.24778634 0.35882422 0.21641403 0.20480305
000380 b7 e2 4a 3d 72 b5 7a bd 99 bc 4b be 6e ba d6 3e
       0.04953262 -0.061208196 -0.19896163 0.4193911
000390 b0 02 69 be 70 6f 4f bc cf 67 67 be 38 42 b7 3d
       -0.22754931 -0.012660846 -0.22598194 0.08948177
0003a0 c7 6f b5 bd 78 36 30 3e 83 28 0d be 76 98 94 3e
       -0.088592105 0.17208278 -0.13784985 0.29022568
0003b0 fe ff 87 bd 22 0c 09 3f 20 e7 f1 bd 05 8d ac 3d
       -0.066406235 0.5353414 -0.11811662 0.08425335
0003c0 e9 9f 06 be dd b5 bb 3e ee 9a 5d 3e 0f c1 97 3e
       -0.13146938 0.36662188 0.21641132 0.2963948
0003d0 e5 53 60 3e a4 26 f3 bd a6 34 8b 3e e1 56 51 be
       0.21907003 -0.118726045 0.27188605 -0.20443298
0003e0 af 15 a5 3e 7f 70 c5 bc 49 48 c6 bd 38 5e 4a bd
       0.32243106 -0.024101494 -0.09681756 -0.04940626
0003f0 c5 2b 85 be 14 07 4a ba 10 e8 46 3e d5 ac 26 be
       -0.26009956 -0.0007706743 0.19424462 -0.16276868

net.6.bias f4 [50]
000000 d7 27 f3 bc 96 36 a3 3d 32 fa b3 3d f9 ab 04 bd
       -0.029682083 0.07969396 0.08787955 -0.03239057
000010 5a 58 1e 3e b1 eb ce bc d7 dd fc 3c fe 87 4c bd
       0.15463391 -0.02525887 0.0308675 -0.04993438
000020 a7 d8 da bd 9b dc e3 3d 43 8b 99 be 04 4e 79 bc
       -0.106858544 0.111260615 -0.2998906 -0.015216354
000030 70 3a 01 3c f0 87 71 3e 98 c2 eb 3d fc c5 33 b9
       0.007887468 0.23587012 0.11511725 -0.00017144525
000040 30 3e 6e bd f8 89 5d bd d9 81 12 3d e3 21 45 bd
       -0.058164775 -0.054086655 0.035768364 -0.04812802
000050 be c5 88 3d c5 e6 62 bc f6 77 98 3a 1f 07 92 3c
       0.06678341 -0.013848965 0.0011632431 0.017825661
000060 e5 6b 5e bc 42 9e c8 bd e8 b3 04 be 37 38 62 3c
       -0.013575529 -0.0979581 -0.12959254 0.013807348
000070 08 a0 71 bd 98 56 c0 be e5 72 dd bb 3f 14 d4 bd
       -0.05899051 -0.37566066 -0.0067580813 -0.10355424
000080 5c 35 90 bb 08 56 69 bd 9d c2 0a be d2 ab b3 bd
       -0.004400892 -0.05696681 -0.13550802 -0.087730065
000090 85 32 94 3c 13 1f d9 bc d6 fa 8d bc 34 b1 e4 bc
       0.018090496 -0.026504075 -0.017331522 -0.027916528
0000a0 be d7 f2 3d 23 5b 31 3c d4 be 59 be 7d 38 b2 be
       0.11857556 0.010824951 -0.21264201 -0.34808722
0000b0 0c be d5 3d 1f e7 12 3d fe 22 c5 bb 3b 05 c4 3b
       0.10436639 0.035864946 -0.0060161343 0.005982069
0000c0 ce 49 0e 3d ec 73 96 3d
       0.034738354 0.07346329

net.8.weight f4 [1, 50]
000000 3e 2c 47 be 9e 44 18 3d 81 f2 99 3e b0 f6 e1 3d
       -0.19450471 0.037174813 0.30067828 0.1103338
000010 f8 f4 86 3f 18 76 b8 3d 34 33 8c be be 5e c4 3e
       1.0543509 0.090068996 -0.27382815 0.38353533
000020 bc a7 7e be 47 df f4 3d ce fc 66 bf 9d 27 3e be
       -0.24868673 0.11956649 -0.902295 -0.18569799
000030 48 de 15 3e f9 60 c4 bc ac 25 86 3f b1 39 e8 bc
       0.14635575 -0.023972021 1.0480247 -0.028347822
000040 30 6e 70 3e 4f b4 9d bd 15 61 af 3c d8 47 0d be
       0.23479533 -0.07700407 0.021408597 -0.13796937
000050 46 ba 48 be c8 23 ef bd 71 7c 8f 3e 91 c1 b6 3c
       -0.19602308 -0.116767466 0.2802463 0.022309097
000060 8e 09 e3 3d f4 25 ce 3e 82 9f 56 3e f7 6e 04 3f
       0.11085807 0.4026333 0.20959285 0.5173182
000070 0d dc 15 3e 2a 45 14 be 85 a2 0a be 66 1c 0b 3f
       0.14634724 -0.14479509 -0.13538559 0.5434021
000080 56 37 8b bd ed d9 c1 3c d0 6a be 3e 85 4e 7e 3d
       -0.06797664 0.023663485 0.37190866 0.0620866
000090 36 2d a0 bd f7 10 77 3e 1c b4 64 3e 47 58 1e 3d
       -0.07821123 0.24127565 0.22334331 0.038658407
0000a0 10 98 b1 3e ed be 65 be 41 36 a8 3f 7b be 28 3f
       0.34686327 -0.22436114 1.3141557 0.6591565
0000b0 af 9c 9f 3d 3b 01 e3 3d dc db e3 3d d9 30 6e bd
       0.07793557 0.11084219 0.11125919 -0.058152054
0000c0 72 4d ec bd c0 cd ef 3d
       -0.11538209 0.117091656

net.0.weight f4 [50, 11]
000000 28 27 4d 3e a4 92 23 bf 96 0d 5c be 27 9b 55 3c
       0.20034468 -0.6389563 -0.21489558 0.0130374795
000010 2b 1a c6 bc 1a f0 13 3e ed 18 e3 3d fd 3f 1b be
       -0.0241824 0.1444706 0.110887386 -0.15161128
000020 22 26 95 be 9f 7a 8e 3d 1b 6c 9a 3b bb 26 52 bf
       -0.29130656 0.06956982 0.004712594 -0.8209035
000030 3a b7 d2 3e 7d be 9b be 46 0a 5b be 4b a5 87 3d
       0.41155416 -0.3041877 -0.21390638 0.06623324
000040 a0 e6 9b be 46 93 49 be 48 5e 35 be a0 7a 03 3e
       -0.3044939 -0.19685087 -0.17711747 0.12839746
000050 16 e9 97 3d 7c 7a a6 3d 77 98 20 3e a9 1c 1a 3f
       0.074175045 0.08128831 0.1568316 0.6019998
000060 dc 35 98 3d 20 12 33 bd 46 f0 60 bb f2 9d 1b be
       0.07432148 -0.043718457 -0.0034322902 -0.1519697
000070 8d de 00 3e 0a 6e 66 bc 30 df 74 3e 47 c9 2e bd
       0.12584896 -0.014064321 0.23913264 -0.04267242
000080 d4 be 7f bb 81 ce 1f 3f 95 29 e9 bd e0 57 7d bc
       -0.0039023655 0.62424475 -0.11384884 -0.015462846
000090 ba 9a 04 3a 38 7c 9e bd ad 02 09 be ac 22 d3 bd
       0.00050584564 -0.077385366 -0.13379927 -0.103093475
0000a0 e5 f9 1e be f1 ec 57 be c5 35 c9 3c 1b 0a 44 3e
       -0.15525015 -0.2108648 0.024561772 0.1914448
0000b0 f0 e5 05 bf be f0 99 bd fe 9b 9c 3e 62 87 b4 3c
       -0.5230398 -0.07516621 0.30587763 0.022037212
0000c0 e2 cc 02 bd e8 10 f1 3d 44 5a bc 3d 39 6f 5e bd
       -0.031933673 0.11770803 0.09196904 -0.05430529
0000d0 4c 03 f2 3d 62 83 55 bc e5 cf 6c 3d 3c ec 30 3e
       0.11817035 -0.013031812 0.05781545 0.17277616
0000e0 93 8c 9f 3e 1a aa 1c 3e cc 50 24 3d 54 88 b3 bb
       0.31161937 0.15299264 0.040116116 -0.005478898
0000f0 b6 d5 8a 3e bd e6 41 3d f7 05 ad bd 60 bb 2b 3c
       0.27116174 0.04733919 -0.08448403 0.010481685
000100 f7 cd 35 be 36 37 32 3e 5b 60 8a 3e df 39 3c 3e
       -0.1775435 0.17403874 0.27026638 0.18381451
000110 d0 d5 f3 bd d1 f0 ef bc de 9e 42 bd ff 36 8f be
       -0.11906016 -0.029289635 -0.04751479 -0.27971646
000120 b1 c2 73 3e 99 ac b3 3d f8 38 ce 3d b8 61 aa 3c
       0.23804738 0.08773155 0.1006946 0.020798549
000130 69 2a c7 bd 05 1e 61 3e 72 12 24 be 0e b7 87 3e
       -0.09724886 0.21984108 -0.16022661 0.26506847
000140 a7 0a ce 3d 12 a7 94 3d 40 da 8e bc 36 40 52 3e
       0.100606255 0.07258429 -0.017438054 0.20532307
000150 ed ac cf bb f4 b7 59 3e b8 c5 e2 bc 54 21 e8 bc
       -0.006337753 0.21261579 -0.02768217 -0.028336205
000160 33 7a 30 3f 95 67 d0 be f6 6e 1e be fd 46 78 bd
       0.6893646 -0.40704027 -0.15472016 -0.060614575
000170 d7 19 60 bb 96 a7 8c 3e 06 e9 48 3d 84 cb 9d 3d
       -0.003419509 0.27471608 0.049050353 0.07704833
000180 68 8a 95 be 06 e0 de bb fd 3d a3 3c 7b 82 60 3e
       -0.29207158 -0.006801608 0.01992702 0.21924774
000190 6c 76 e6 be 98 07 0a 3d d5 cd 19 3d 12 11 11 3b
       -0.45012224 0.03369865 0.037549812 0.002213542
0001a0 e7 f5 43 be f2 44 2e b9 b6 e7 13 bd 64 d1 91 3e
       -0.19136773 -0.00016619617 -0.03610965 0.28480065
0001b0 2e 1f 42 3d 8d 27 92 3d 66 92 87 bd b8 2b 2a 3e
       0.047393017 0.0713645 -0.0661972 0.1661824
0001c0 80 dc a4 3c 24 46 af 3d 0c e6 bd bd 90 82 86 3e
       0.020124674 0.085583 -0.092723936 0.26271486
0001d0 38 3c ae 3d 2a 09 e2 3d 17 e0 4d be 62 69 7b bd
       0.085075796 0.11036904 -0.20105015 -0.061379798
0001e0 09 73 2c 3d 9a e7 b4 be 01 35 88 3e b8 84 8f 3e
       0.042101894 -0.35332948 0.2660294 0.28030944
0001f0 45 32 b8 3c e1 24 bf bd 30 ef 86 3d 64 e7 eb 3d
       0.022484908 -0.09333206 0.0658859 0.11518744
000200 e9 9b fb ba a0 7c e4 bc bf 37 b3 bd e3 30 44 3d
       -0.0019196245 -0.027891457 -0.08750867 0.047898185
000210 a5 d4 a4 bd 80 3a c7 be f0 52 ba bd 82 df 3d 3d
       -0.08048371 -0.3891182 -0.0909785 0.04635573
000220 8e 62 eb bd 02 4a 97 bd d5 3e fe 3d 6a 3d 3d 3d
       -0.11493407 -0.07387163 0.12414328 0.046201147
000230 1c 25 1c be 10 02 16 bc df 93 e6 3c 1f 29 c7 3e
       -0.15248531 -0.009155765 0.028146682 0.3889856
000240 de 09 c4 3e a8 32 e1 3d 22 7a a1 bd 76 73 b9 3c
       0.38288778 0.1099599 -0.07884623 0.022638064
000250 d5 77 0d be f8 ad 53 3e f3 4c 81 bd 70 8f fc 3c
       -0.13815244 0.20671833 -0.06313505 0.030830115
000260 35 ce 66 bc 17 bb 28 bd 32 d8 1c be af 07 52 bf
       -0.0140872495 -0.041194048 -0.15316847 -0.82042974
000270 24 59 a0 3d d8 ea 58 3b 2d ab 68 3d 90 14 78 be
       0.07829502 0.0033098962 0.05680387 -0.24226594
000280 bc fa a8 bd 3e da 21 3e 2f ea 4d be 11 bc 1f 3c
       -0.08250949 0.15805909 -0.20108865 0.009749428
000290 0c ab 01 bd 80 b7 a3 3d de cd 3d bf 90 cf cf bc
       -0.031657264 0.07993984 -0.74142253 -0.025367528
0002a0 3a 16 23 3e 42 eb 4d bc a7 9e 05 be bc 6e 62 bd
       0.15926448 -0.012568297 -0.13048802 -0.055281386
0002b0 c2 8a 9d bc 6d 7e 3a be bb cf 3f 3c b4 7e 20 3c
       -0.019231204 -0.1821229 0.011707242 0.009795833
0002c0 56 c3 0f 3f a9 a1 8a 3e ac bc 9f be c2 40 e6 bd
       0.56157434 0.27076462 -0.31198633 -0.1124282
0002d0 07 43 d6 3c fe e1 1f 3e f7 7a 1a be 22 bb 4d bd
       0.026155008 0.15613553 -0.1508597 -0.050227292
0002e0 88 1f 14 be 3a 0d 00 3b 84 d9 0b bd 13 de 1f 3f
       -0.14465153 0.0019539134 -0.034142986 0.62448233
0002f0 40 e4 d4 3e b9 6d 61 be 20 21 02 3e a4 fa 4f bd
       0.4158039 -0.22014512 0.12707949 -0.05077614
000300 d4 7c cb bd 7d 47 d2 bd 28 cd 31 3c 7f c1 0a be
       -0.099359185 -0.102675416 0.010852136 -0.13550375
000310 9d 6d 3b bc df 6b 47 bc c8 cb b4 bf c2 78 91 bd
       -0.011439708 -0.012171715 -1.4124689 -0.07103111
000320 ea 43 9b be 28 4b ff bd ac 6d 57 be 00 0b 45 bc
       -0.30325252 -0.12465507 -0.2103793 -0.012026548
000330 36 63 a6 bd 2d f2 14 be 49 e2 4a be c2 8c 2e bd
       -0.08124392 -0.14545508 -0.19812883 -0.042614706
000340 c5 4c dd bc 46 b7 fc be 29 4d 7f 3e ba 2f 1d 3e
       -0.027014146 -0.49358577 0.24931778 0.15350237
000350 aa 7c c3 be 06 7a b0 3d a4 6a 91 3e d9 6a 07 3e
       -0.3818105 0.08617024 0.28401673 0.13224353
000360 64 b8 b3 3c dc dd cf bd 28 30 9a bc 8a 65 3b bd
       0.02193851 -0.10149738 -0.01882179 -0.045751132
000370 84 06 12 3e e0 9c 2d 3f 98 c5 2c bd fb d6 d8 bc
       0.14260298 0.678175 -0.042180628 -0.026469698
000380 02 d3 8a 3c 48 d2 f5 3d b0 b3 20 3e 13 c9 9d bd
       0.01694632 0.120029986 0.15693545 -0.077043675
000390 a8 05 d9 bd 3b 20 f7 3c cb f7 fd 3c 69 4b 86 3f
       -0.10596782 0.030166736 0.031001946 1.0491763
0003a0 52 7c a9 3e 9c 61 37 3e 0c 73 c6 3d 1a 50 f2 bd
       0.3310266 0.17908329 0.09689912 -0.118316844
0003b0 b4 2a 2d be 8d 8f 28 be d3 a9 aa 3e a8 16 8a 3e
       -0.16910821 -0.1646101 0.3333269 0.2697041
0003c0 2f ee 19 3d c7 f4 19 3d 5a f0 cc 3e 43 77 fb 3e
       0.037580665 0.037586953 0.40027124 0.49114427
0003d0 dc 24 59 3e 3b cf d1 bc 50 5a fc bc 40 2c 38 bc
       0.21205467 -0.02561151 -0.030804783 -0.011241019
0003e0 cd 60 11 3e e2 42 4a bd b0 e8 08 3d a4 4b f4 bb
       0.14197083 -0.04938019 0.033425033 -0.007455306
0003f0 f4 68 8f 3c 96 16 c5 3e 31 98 a7 3e 04 90 3a 3e
       0.0175061 0.38493794 0.327333 0.18219

net.0.bias f4 [50]
000000 9e 5e 88 3e af f1 e2 bd 6a 6c 77 bc 51 c2 1f 3e
       0.26634687 -0.11081254 -0.0151015315 0.1560147
000010 8d bf eb bd 24 eb 1b 3e 17 e0 e8 3d de dd be bd
       -0.11511145 0.15226418 0.11370867 -0.093196616
000020 eb ef b6 bc f2 39 01 be 83 0a ee bd df 49 33 bd
       -0.022331199 -0.1261976 -0.11623099 -0.04377162
000030 47 f5 c6 3e 82 d6 19 3b 00 10 72 be b4 22 2f 3e
       0.38859007 0.0023473804 -0.23638916 0.17103082
000040 03 78 ad 3d 8f 4c 43 be 23 31 3e bd 74 cc fa be
       0.08470156 -0.19072174 -0.04643358 -0.4898411
000050 2e 1a 18 3e 4e 28 be 3e 19 8c 30 3e 6a 59 29 3d
       0.14853737 0.37140125 0.17240943 0.041345038
000060 2a a6 28 3e 2c d7 ad 3d d0 b5 34 bd 35 ef df bd
       0.16469637 0.084883064 -0.044118702 -0.10934297
000070 5d 75 e4 3d dd ab 2e 3e f7 2d 50 3d a3 b5 50 be
       0.11155198 0.17057748 0.050825085 -0.20381789
000080 93 97 42 be a9 bd a0 3e e5 86 54 be 79 49 91 3e
       -0.19003133 0.313947 -0.20754583 0.28376368
000090 e7 69 b2 3e 07 0f 00 be 80 9e 50 bd d2 be 35 3e
       0.34846422 -0.12505732 -0.050932407 0.17748573
0000a0 b1 2a 5b 3e ae 1d 9a be 9d af 88 3e ba 68 14 3d
       0.21403004 -0.3010077 0.26696482 0.036232688
0000b0 12 75 4e be 91 ee d8 3e 2c 2d 33 3e c3 1d 54 be
       -0.20161846 0.42369512 0.174977 -0.20714478
0000c0 ae fc c0 be 16 34 94 3e
       -0.3769278 0.28945988

net.2.weight f4 [50, 50]
000000 8c af 29 3e a9 b8 b4 3d 07 db 35 bd 53 eb d1 bd
       0.16570872 0.08824284 -0.044398334 -0.10249963
000010 54 0a 82 3e 54 68 2c 3e 4f 4f 1f 3e 84 72 43 be
       0.25398505 0.16836673 0.15557598 -0.19086653
000020 7d e3 23 3e 33 1c ac bd ed 69 89 be a9 22 4a bd
       0.16004749 -0.08403816 -0.26838627 -0.04934946
000030 b0 0c d2 3d 02 ab 5c bd 97 cd ea bd 79 ac 23 3d
       0.10256326 -0.053874023 -0.114649944 0.039959405
000040 b2 9e c5 3d 9e 85 4d 3d c7 b0 de bc 78 e8 7e 3e
       0.09649409 0.050176255 -0.027183903 0.24893367
000050 c4 1f aa 3d 68 90 79 3e 13 e4 5e be 6a 6e 2e 3e
       0.0830684 0.24371493 -0.21766691 0.17034307
000060 40 5b c9 bd f3 73 62 be 61 2c 12 be ca 53 dd 3d
       -0.09831858 -0.22114544 -0.14274742 0.10806997
000070 09 47 6b be ed c8 5b be eb d3 11 3d fb 05 ba 3d
       -0.22976317 -0.21463366 0.03560249 0.09083172
000080 2d 31 9c bd 30 45 69 3c ed 9b cd 3d 4e 5a ee bd
       -0.07626567 0.014237687 0.10039506 -0.11638318
000090 5e 65 92 3d f3 83 04 bc 05 be 18 be 00 bf 48 3e
       0.071482405 -0.0080881 -0.14916237 0.1960411
0000a0 b7 c1 47 3e b1 32 27 3d 85 b9 36 3e d0 a8 29 be
       0.1950749 0.040819827 0.17844208 -0.16568303
0000b0 55 10 a9 3e c6 be 43 3d e6 0a 3b bd 64 a5 eb 3c
       0.33020273 0.047789358 -0.04566469 0.028765388
0000c0 27 36 e9 3d 25 dc b5 bd 42 33 5e 3e f2 22 a6 3d
       0.11387282 -0.0887988 0.21699241 0.08112134
0000d0 58 8d 90 bd 23 d9 a4 bd 23 69 3f 3d 18 f5 07 be
       -0.07058209 -0.08049228 0.046731126 -0.1327709
0000e0 08 61 af 3d fc 5f 1e be 5d 1e 32 3e a4 05 6a 3e
       0.08563429 -0.15466303 0.17394395 0.22853714
0000f0 ae 61 64 3e 31 d8 04 be a2 d1 0f be d5 b6 9f 3b
       0.22302887 -0.12973095 -0.14044812 0.00487409
000100 5d 61 be bd 75 cd 2e 3e 75 84 71 3d 0e 5a 48 3e
       -0.09295914 0.17070563 0.05896421 0.19565603
000110 a2 01 a4 bd fd c9 0a 3e a6 3a b8 3d ac 94 30 3e
       -0.08008124 0.13553615 0.08995561 0.17244214
000120 79 09 f5 3d 3d dc c9 bc 19 d3 73 3b 50 31 8a 3e
       0.119646974 -0.02464115 0.0037204681 0.26990747
000130 b2 ed 25 3e ff f2 38 3e b8 cd d1 3d ce 45 24 3e
       0.16203955 0.18061446 0.10244316 0.16042253
000140 b6 dd 05 3e 14 ee f9 3d e3 72 63 bd 4b 7b c7 bd
       0.13072857 0.12203613 -0.055529486 -0.09740313
000150 bd 26 6d 3e 6f 13 c4 bd 06 bf 5f 3e 4e 89 5c be
       0.23159309 -0.09574019 0.21850213 -0.21536753
000160 e5 5b 56 be 65 d4 86 be 66 9b a2 bd 44 d6 49 3e
       -0.20933492 -0.2633392 -0.07939796 0.19710642
000170 06 1d 73 be a1 34 18 bc 84 d8 41 3e 97 c8 90 ba
       -0.2374154 -0.009289891 0.1893025 -0.0011046109
000180 cc bd 91 3d 5f 49 d9 bd b1 3d 56 3e b0 5b 38 3d
       0.07116279 -0.106096976 0.20921971 0.045009315
000190 6d 59 72 3e 2e c9 5a 3d d0 8e 10 3d 24 ab 35 3e
       0.23666926 0.053414516 0.035292447 0.17741066
0001a0 cf f6 58 3e 0f a0 f8 3d fc 9f 2f be a4 7f ed bd
       0.211879 0.12139904 -0.17150873 -0.11596611
0001b0 9c 43 83 3d bc ad 6a bc e5 90 0d 3e cf c3 17 3e
       0.0640938 -0.014323648 0.13824804 0.14820789
0001c0 7b 74 82 3e dd e1 44 3e 40 9a 28 bd f2 21 25 3d
       0.25479493 0.19226785 -0.04116273 0.040315576
0001d0 49 83 33 be ac 9f fa bd 56 ef fd bd 01 1c 85 3e
       -0.1753055 -0.12237486 -0.12399165 0.25997928
0001e0 ae 93 f2 3d 5d 67 05 3e f2 a4 cb 3d 66 3b 3f 3e
       0.11844574 0.13027711 0.0994357 0.18675002
0001f0 58 36 6e bd 2e f0 1c 3e fc 0b e7 3c 61 79 93 bd
       -0.058157295 0.15325996 0.028203957 -0.072008856
000200 1d 16 5d be a9 b5 c6 bc a3 12 64 bd 11 4d 89 be
       -0.21590467 -0.024256544 -0.055681836 -0.2681661
000210 d6 22 01 bd 42 52 84 3d d3 de 38 be 29 e1 17 3e
       -0.031527363 0.06461002 -0.1805375 0.14831986
000220 9b 97 4b be 92 8f 2a bd 95 ba c6 3d 12 bf 1c 3e
       -0.19882052 -0.041640826 0.097035564 0.15307263
000230 97 40 2d 3e 93 73 0b be cf c2 c7 bd 2e 92 9e 3d
       0.1691917 -0.13618307 -0.09753954 0.07742725
000240 72 ef ac 3c 2e ee e2 3d 4b 66 2c 3e fb 3e 76 be
       0.02111027 0.110805854 0.16835897 -0.24047463
000250 22 b4 54 3e 7b c7 68 3e 25 20 83 3e db 5f 3c be
       0.2077184 0.22732346 0.25610462 -0.18395941
000260 17 99 2d be 78 c4 90 3e c8 1f 26 be 7b 38 0f bc
       -0.1695293 0.28274894 -0.16223061 -0.008741493
000270 4a f2 4a be 61 82 d6 bd 72 99 e3 3d 66 c3 6f 3e
       -0.19818988 -0.104740866 0.11113252 0.23414382
000280 cd f1 45 be 29 f8 e3 bd aa 57 c6 3d 03 d3 b7 bd
       -0.19330521 -0.11131317 0.09684689 -0.08975794
000290 71 0b 6c bd b6 f6 e7 3d 79 83 a1 3d ae 38 c3 3c
       -0.0576281 0.11326353 0.078864045 0.023830738
0002a0 84 49 92 be 47 3d 79 3d 33 3b 95 bc d4 4d bf bc
       -0.28571713 0.060849454 -0.018216705 -0.023352541
0002b0 1e 9f 1f bd 77 10 93 3c 6c 3c 4f bd eb f6 53 3e
       -0.038970105 0.017952187 -0.050594732 0.2069966
0002c0 b9 59 ec bc 07 01 bc bd b6 a4 a8 3e 5f 6d 9a 3c
       -0.028851377 -0.091798835 0.32938164 0.01885098
0002d0 5c 7d 0b bd c8 f2 51 be c7 a9 87 bd bc b4 15 3c
       -0.0340551 -0.2050277 -0.06624179 0.009137329
0002e0 da 04 01 3e 97 9a b1 3d 63 a3 82 3e 57 9e 8f 3c
       0.12599507 0.08672064 0.2551528 0.017531557
0002f0 6c 32 a3 bd 57 4b 9b bd cc 82 ae 3d 48 80 ba bc
       -0.079686016 -0.07582729 0.08521041 -0.022766247
000300 b2 7b 89 be 43 0a cf 3d 84 5f 6c 3d c2 23 7e be
       -0.26852185 0.10109379 0.05770828 -0.24818328
000310 8e c8 1c be fc 46 88 bd b6 39 c5 bd ea 7d 02 bd
       -0.1531088 -0.06654164 -0.09630148 -0.031858362
000320 75 a1 04 3d 9b d2 3b 3d bd d2 75 be de 08 58 be
       0.03238054 0.045855146 -0.24006172 -0.21097133
000330 f0 30 02 be 8d 68 82 3d 35 f8 30 be 6b 08 96 bd
       -0.1271398 0.06367598 -0.17282183 -0.07325824
000340 3d d4 8f be bf 1f ce bd f1 ba df bd 83 fc dc bd
       -0.28091612 -0.10064649 -0.10924328 -0.1079035
000350 40 b1 90 be 74 19 1d be fd 0e fd 3c c3 28 4c bd
       -0.2826023 -0.15341741 0.030890936 -0.04984356
000360 16 b3 77 be fb 65 9f be 7b dd ba 3e f2 09 86 3d
       -0.2418941 -0.31132492 0.364971 0.06544866
000370 f9 b1 d4 bd 2c 4b a2 bb 24 34 80 be d3 c9 08 be
       -0.10385508 -0.004952809 -0.2503978 -0.1335824
000380 cc 63 c1 bd 37 76 d6 bd 51 83 82 3e 11 01 55 3d
       -0.09442863 -0.104717664 0.2549081 0.05200297
000390 c5 73 df be 2b be 46 3e 70 7a a9 3e 44 37 14 be
       -0.43643013 0.19408481 0.33101225 -0.14474207
0003a0 4f 11 cf bd 8f cc bd be f4 da e2 bc 25 ba 2d 3e
       -0.10110723 -0.37070128 -0.027692296 0.1696554
0003b0 62 27 83 3d 0a 9c f5 3d 15 c1 17 3e 46 a9 73 3e
       0.06403996 0.11992653 0.14819749 0.23795041
0003c0 fb 9c 58 bc e1 33 69 be 3d 61 45 be 55 60 a4 bd
       -0.013221021 -0.22773696 -0.19275375 -0.080261864
0003d0 0b ff f7 3d 3b 77 6b bd 80 1e c3 3e a9 e1 35 be
       0.121091925 -0.057486754 0.38109207 -0.17761864
0003e0 0b a0 11 3d a0 4c cb be 7e b0 86 be fb 98 d8 3d
       0.03555302 -0.39706898 -0.26306528 0.10576054
0003f0 8a 0d 92 3e c2 ea e0 bd 86 1d 33 be 6f 1b 94 bd
       0.28525954 -0.109822765 -0.17491731 -0.07231795
